计算机视觉实践-练习2/checkpoint/lenet_b/Saturday_15_April_2023_10h_11m_51s/lenet_b-10-regular.pth (torch, 250379 bytes, 10 tensors)

conv1.0.weight f4 [6, 1, 5, 5]
00000000: 95bc 2a3e 0756 b93b b97d c0bd b163 d83d
00000010: 5b1e 32be f667 463d e0b0 00bd a760 1d3d
00000020: 96e6 2fbe 6fa4 fb3d 5bae c9bc ff0c 393e
00000030: 0176 4abe 704b 22be 72eb e1bd e9df a5bd
00000040: 25ad 46be 968c 00be 7683 333e 39ae b5bd
00000050: ea15 503d 9010 26be 762e 9cbd 7b33 c0bd
00000060: 1ee3 303e f7b6 b73d a2b9 293e 408c 193e
00000070: 7efd 0cbe fc11 11bc 7f62 223e 059b 06be
00000080: 4c5e ffbd 1fe9 8abd aa46 4cbe 0068 143d
00000090: adc4 383e afb7 cabd 6647 863c 5af0 08be
000000a0: 4c9e 4bbd 24bc 04be 81c1 163e 868b 173e
000000b0: b212 18be 70ed a9bd 3fa6 b9bc 9fee 2f3e
000000c0: 93eb 28be e438 043e ef4e 07be 7a78 113e
000000d0: a8b3 febd 0e01 c8bc 12fd b2bc b0f4 a43d
000000e0: 7a5d 1cbe 5f63 443e 9d78 8dbb d8e9 b2bb
000000f0: 49fc 2ebe 7da5 e83c 61e7 163d 3deb bf3d
00000100: 90ab f2bc 98af 14be 8669 283e ee5c 1a3d
00000110: d2f8 fd3d 80b0 e33c fa18 f5bd 0e53 e6bc
00000120: bd34 b73b ab94 093e cd36 1fbd 3d1e 413e
00000130: 9790 2cbe 9408 00be 33f3 3bbe d7c3 5cbc
00000140: 2fc4 58bc 07ac 3ebe 24bb 30bd c32f 743d
00000150: 821b b63c 5511 ca3d 1921 2cbe fd24 803d
00000160: 35a9 e43d 4109 f93d 8b1b dd3b e4aa 7bbc
00000170: 1428 33be 5a93 603d b414 b7bc eb30 e6bb
00000180: aca5 3cbe 6736 9b3d 6099 343d 9435 133e
00000190: 07f5 1c3e f147 09be 0fa3 083c 9cd1 22bd
000001a0: 86c1 1dbe 90a4 2abe a5a8 01be 2457 14bb
000001b0: e78e 473e 179d c63d b104 14bd e231 11be
000001c0: 29b9 19bc b828 13bd 4a2e f3bd 0b3d 04bd
000001d0: 2c80 29be a796 27bd 4960 f93d 1346 1d3c
000001e0: e4a5 3a3e 78a6 3abe 34e8 493c 2de4 8c3d
000001f0: 20b5 51bd 7153 ecbd 5c16 b53d 8683 373e
00000200: 63e5 6a3d 6e79 98bd 1f56 4c3e 09ee 49be
00000210: d0a2 06be 1145 36bd be34 54bc 2a6f 56bd
00000220: 88d3 21bd 30f1 fb3d c7cc 443e c2c8 83bc
00000230: 8b99 803d e0fc 73bd a55e 13bc 3b82 2a3e
00000240: 725c 1ebe 412e 0ebe 5324 fd3d 31de e23d
00000250: 1a91 753d 4c3b 48be
0.16673501 0.005656007 -0.0939898 0.105658896 -0.17394392 0.04843899 -0.03141868 0.038422253
-0.17177805 0.122872226 -0.024619272 0.18071364 -0.19771577 -0.1584909 -0.11031236 -0.08099348
-0.19401987 -0.1255363 0.17530617 -0.08871121 0.05080215 -0.16217256 -0.07626049 -0.09384819
0.17274138 0.08970445 0.1657472 0.14994907 -0.13768575 -0.008854385 0.15857886 -0.13145073
-0.124691576 -0.067827456 -0.19948831 0.036231995 0.18043776 -0.09898316 0.016391467 -0.13372937
-0.04971151 -0.12962395 0.14722253 0.14799318 -0.14850882 -0.08297241 -0.02266228 0.1718087
-0.16496114 0.12912327 -0.13213705 0.14206114 -0.124366105 -0.024414565 -0.021849189 0.08054483
-0.15270033 0.19178532 -0.0043173567 -0.0054600053 -0.17088427 0.028399223 0.036841754 0.0937104
-0.029622823 -0.14520109 0.16446504 0.03768628 0.12400974 0.027794123 -0.119676545 -0.028115775
0.0055910037 0.13435619 -0.03887062 0.18859191 -0.16852032 -0.12503272 -0.18354492 -0.013474426
-0.013230368 -0.1862031 -0.04314722 0.05961586 0.022229914 0.09866587 -0.16809501 0.06257055
0.11165086 0.12159968 0.006747668 -0.015360568 -0.17495757 0.054828025 -0.02234874 -0.0070248744
-0.18422574 0.07578736 0.044091582 0.14375907 0.15327846 -0.1340635 0.008339657 -0.03975068
-0.15405855 -0.16664338 -0.12661989 -0.0022634948 0.19488107 0.09697931 -0.036137287 -0.14179185
-0.0093825245 -0.035927504 -0.11874063 -0.032284778 -0.165528 -0.040915158 0.12176568 0.0095992265
0.18227345 -0.18227565 0.012323428 0.068794586 -0.051198125 -0.11539353 0.08842155 0.17921266
0.057347666 -0.07445036 0.19954728 -0.1971971 -0.13148046 -0.04449946 -0.012952028 -0.052352108
-0.039508373 0.12301862 0.19218741 -0.01608694 0.06279286 -0.059567332 -0.008994733 0.16651241
-0.15464953 -0.13884832 0.12360444 0.11077536 0.059952833 -0.1955387

conv1.0.bias f4 [6]
00000000: 1d80 0e3e 104c 17be 0639 343e 106e 56bd
00000010: 6b6a 5e3d 5795 603c
0.13916059 -0.1477511 0.17599878 -0.052351058 0.054300707 0.01370748

conv2.0.weight f4 [16, 6, 5, 5]
00000000: b52b 213d b562 39bd 508f bb3c b8f5 3cbd
00000010: 8417 96bd f01e 61bd da8f a13d 424f 8abd
00000020: cd78 92bd 365e 7d3d aa08 823d dcbf 78bc
00000030: 97b8 7b3d 0831 09bd b814 9cbd ebb7 91bd
00000040: a37c d7bc fcc4 86bb 6b98 923c c1c1 aabc
00000050: 8315 253c 34ad 96bd bb82 8ebd 1d7c 04bc
00000060: 146d a6bc 00a9 33bc 7d50 183d 72a2 d9bc
00000070: 2578 603d 7a6e ce3c ab6f 813d 2940 3b3d
00000080: 5619 2ebd 9a5f 8dbc 524d 473d bca3 1b3d
00000090: ee98 93bd 5125 443c db46 7bbd 76c8 fabc
000000a0: e58f 5a3b 8704 5dbd f005 893d 7f24 5dbc
000000b0: 34ed 033d e591 9a3b e70a 2a3d 61cd 15bd
000000c0: 59e1 8fbd 61dc 9b3d 28b1 363d 1221 bf3c
000000d0: 9d30 893c a83e 44bd a079 76bc 241d 203d
000000e0: 5f97 5fbc f3b3 3d3d b1e4 283c 9cee 87bd
000000f0: 1f7b a43d 5783 f4bc 68bb a03d 4ecc 4f3d
00000100: 0371 5d3d adfc d53b d423 063d 8592 663a
00000110: 4734 13bd d5e1 8f3d b478 5fbc 2e3c 0cbd
00000120: ee81 a33d 03de 93bd d476 463d e45a 88bd
00000130: df2d 08bd 96d0 ad3c f748 61bc 1757 ab3c
00000140: 29cb 80bd db9d 1e3c f5fd 303c 4c5d 8bbd
00000150: 9b00 ee3c 7f59 b0bb e536 6abd db92 963d
00000160: 2433 3cbd c95c 52bd ba50 293d f9db dbbc
00000170: aef5 80bd 757b 0e3d d2b7 8bbc 023d 42bd
00000180: 9e0b f6bc 8757 53bd 2d08 1f3d 826c 95bd
00000190: 9052 62bb acd4 80bc 11b6 163d 64e1 cbbb
000001a0: 1849 2ebd c55c 84bc a16d 1f3d 6391 813d
000001b0: 1566 36bd b9c4 a0bc a2e1 553c 63a5 423d
000001c0: f637 29bd 55fa 283c 988c 863c 89db 6fbd
000001d0: 128e 433d 6fe0 803d 511d db3c 49cc a4bd
000001e0: 6f99 9f3d f465 6cbd 504d d73c 4a18 8a3d
000001f0: e8da 53bd a7c3 933d c30e 45bd 9fc3 9abc
00000200: d39e 1cbc d3ea 82bd 91b9 3bbd 261e 403d
00000210: 1ae2 f93c 1cc4 9cbd 7898 843c 0819 463d
00000220: 5e56 ed3b 852c 003d 65f8 6bbb 6796 36bd
00000230: 6636 88bd 5367 3bbd 9540 9ebb 0f35 913d
00000240: 1930 f0bc cfe0 7ebd f867 933d dc1e 3abd
00000250: f196 69bd a20d 923d cc77 85bd 5331 9f3d
00000260: f9da eabc eb1c 54bd 348a 08bd a19b 523d
00000270: efa6 5139 4ceb d5ba 026e 953d 1423 133d
00000280: 3a81 a43d 4955 f5bc b040 a43d b761 9abd
00000290: e19c ec3c debb f6bc d8cd 6b3d b9eb 283d
000002a0: fbaa 1fbc 3abf 4b3c 6e55 133d 76c5 6b3d
000002b0: 532b 8ebc df2a 0fbd bc28 723d f726 7c3d
000002c0: d51e 953c 6464 193d bf92 4d3d 89bc 10bd
000002d0: 8bb5 73bc 024b ecbc 1218 8e3d 3dfb 593b
000002e0: 850d 443c 8d95 82bd 05e3 5c3d 73f5 a43d
000002f0: 5f89 d03c 9ace 28bd 2ff0 e23c d52b 3bbd
00000300: 4ed3 69bd 7bc3 47bd 12be 8e3c 9152 103d
00000310: 6fcb ffbc c710 f4bc 469a b63c 3f3a dc3c
00000320: 5af4 303c 2f4d 513d 9d95 afbc a016 963d
00000330: 733b 5f3c 5326 76bd 2318 7abd 1f05 b6bc
00000340: 29a9 8ebc f0db 6f3c cf4a 3a3d 82ee 763c
00000350: 2804 a6bd 996f 49bd 1bbf 9fbd 241a 973c
00000360: 4ec8 34bd 4dfe 9ebc e941 753d 6c46 d6bb
00000370: 6738 8b3d a4a1 e43c 9ca2 6dbd 633f bf3c
00000380: ef8f 6f3d a0ac ffbc 948a 98ba 81b6 dc3b
00000390: 8d61 8cbd 65f0 553d e161 253d bc8a c63c
000003a0: aaa3 82bb c575 18bc dfa8 203d e74d 2dbd
000003b0: c284 6e3d aa11 073d cf89 11bd 4403 263c
000003c0: 36f8 863d f3da 043d e761 9d3d 93e1 ff3b
000003d0: ab69 873c 9190 e8bc 48ea 8abd 0db6 09bd
000003e0: 0fcc 8c3d 4d72 613c 27c2 913d f43c 943d
000003f0: 8229 a53d 333e 1f3c 3965 94bd 82e0 6f3d
0.039348323 -0.04526015 0.022895485 -0.046132773 -0.07328704 -0.054961145 0.07888766 -0.067533985
-0.07151947 0.061857425 0.06349309 -0.015182462 0.061455335 -0.033494025 -0.07621139 -0.07115158
-0.026304549 -0.004112838 0.017894944 -0.020844342 0.01007593 -0.073572546 -0.069585286 -0.008086232
-0.020315684 -0.010965586 0.037186135 -0.026566718 0.05480208 0.025199164 0.06320127 0.045715485
-0.04250463 -0.0172575 0.048657723 0.037997946 -0.072069034 0.011971788 -0.06134687 -0.030613165
0.0033349928 -0.053959396 0.066905856 -0.013497471 0.032208636 0.004717099 0.041514304 -0.036572818
-0.070254035 0.07610393 0.044602543 0.023331199 0.016746813 -0.047911316 -0.015043646 0.03909029
-0.0136469295 0.04631419 0.0103084305 -0.06637308 0.08031296 -0.029847784 0.07848245 0.05073195
0.054062854 0.0065303654 0.032749012 0.0008795637 -0.035938527 0.07025496 -0.013639618 -0.03423708
0.079837665 -0.0722008 0.048453167 -0.06657961 -0.03324687 0.021217626 -0.013750306 0.020915551
-0.0628875 0.00968119 0.010802736 -0.06804904 0.029053023 -0.0053817625 -0.057181258 0.07352229
-0.04594721 -0.051358018 0.041336752 -0.02683829 -0.0629686 0.034785707 -0.017055426 -0.047421463
-0.030034836 -0.051597144 0.038826156 -0.07296087 -0.0034534074 -0.01572641 0.036794726 -0.006221937
-0.042550176 -0.016157517 0.03892291 0.063265584 -0.044530947 -0.019625055 0.013054283 0.047521006
-0.041313134 0.01031359 0.016424462 -0.058558974 0.04774291 0.06292807 0.026747378 -0.08046777
0.07792937 -0.057714418 0.026281983 0.06742914 -0.051722437 0.07215052 -0.04810978 -0.018892108
-0.009559351 -0.063924454 -0.045831267 0.04690375 0.030503321 -0.076545924 0.016185984 0.048363715
0.007242962 0.031292457 -0.003600621 -0.04457703 -0.06651001 -0.045752835 -0.004829476 0.07090198
-0.02931981 -0.062226113 0.07197565 -0.045439586 -0.057028715 0.071315065 -0.0651699 0.0777308
-0.028668867 -0.05178539 -0.033334926 0.05141795 0.00019993981 -0.0016320734 0.07296373 0.035922125
0.080324605 -0.029947894 0.08020151 -0.07538169 0.0288834 -0.030118879 0.057569355 0.041240428
-0.009745355 0.012435729 0.035970144 0.05756136 -0.017354643 -0.034952994 0.05912088 0.061560597
0.018203178 0.037449256 0.050188776 -0.03533605 -0.014874826 -0.02884436 0.06938185 0.0033261322
0.011966114 -0.06376181 0.05392744 0.08054628 0.025456129 -0.041212656 0.02770242 -0.0456961
-0.05708628 -0.04877041 0.017424617 0.03523499 -0.031224934 -0.029793156 0.02229036 0.026883243
0.010800445 0.051099 -0.021433646 0.07328534 0.013625014 -0.060095143 -0.061058175 -0.022219239
-0.017414646 0.0146398395 0.0454815 0.015071513 -0.081062615 -0.049178693 -0.07800122 0.018445082
-0.044136338 -0.01940837 0.05987731 -0.0065391567 0.06797867 0.027909108 -0.058016405 0.023345655
0.058486875 -0.031210244 -0.0011637979 0.0067356233 -0.06854544 0.05223121 0.040376548 0.024236076
-0.0039867954 -0.009305422 0.039223548 -0.04231062 0.058232076 0.03297583 -0.035531815 0.0101326145
0.06590311 0.03243537 0.07684689 0.007808873 0.016529879 -0.028389247 -0.06782967 -0.033620883
0.068748586 0.013760162 0.0711711 0.072381884 0.080645576 0.009719419 -0.07245869 0.058563717

conv2.0.bias f4 [16]
00000000: 9505 96bd b685 313d 7aba 9bbd ec17 99bd
00000010: af60 91bc e74c b43c 6750 d2bc 3277 8f3c
00000020: 7850 7f3d 65f4 863c bf5d e9bc bedf a23d
00000030: 3f70 14bd b074 63bd fa74 563d dd56 533d
-0.073252834 0.043340407 -0.07603927 -0.07475266 -0.017746298 0.022009326 -0.025673104 0.017512891
0.0623326 0.016473958 -0.028487084 0.07952832 -0.03623986 -0.055531204 0.05235765 0.05159651

fc1.0.weight f4 [120, 400]
00000000: e235 553c 4711 17bd 5a8d 0cbc 98a4 723c
00000010: 9966 9f3c f12a 3d3c 7105 a73c 3931 fe3c
00000020: 0dad 1739 ac98 e43a cc84 9abb 7e6c 67bc
00000030: 427f 4e3c 8ca5 1dbd e137 64bc 0750 1bbd
00000040: 06dd 37bd b67e 25bd dee0 433d 5a41 4e3c
00000050: 75da bf3c 564f 573c 9ffe 273d 6048 b53c
00000060: c1ab c4bc 26bf 0f3d a371 55bc e9b2 153d
00000070: 64c8 43bd b56f e8bc e4fc 12bd ce91 00bd
00000080: 2abb 293d 79c2 0fbc ff80 6eba 8066 1d3c
00000090: de31 323d 3d6e 473c 33f6 b5bc c8ee e5bc
000000a0: 10a1 333d 6017 9e3c b809 f73c a935 9a3c
000000b0: d2f2 45bd b184 8e3c b582 e03c 6c8e 91bc
000000c0: 5efd b83c 4901 b1bc 7843 04bd 80b6 753c
000000d0: 8fb8 193d a84e 01bd ebdd 253c 7cb3 d9bb
000000e0: aad9 a5bb 3c48 b6bb 1b71 4bbd 6bb2 6c3c
000000f0: 6c7c d1bb 5823 4a3d 1698 c03c 9fc0 f0bc
00000100: adae 393d 60ca 873c 79f5 393b d9ba e1bc
00000110: 0a87 323d 75d5 97bc 3edf e13c 1488 aabc
00000120: 52e4 df3c bb19 6bbb dc62 333d 1002 b53c
00000130: e9a9 a63c 3c82 8d3c a4b7 b83c 64d3 153d
00000140: f60f ffbc c3d6 2c3d 28e8 823c b019 52bc
00000150: 7534 fabc bc27 143d 7ee8 90bc d8a6 40bd
00000160: 55ca 0d3c fd6c abbc 0bb0 0a3c 9047 833b
00000170: d7bf cc3c 3874 69bc 2ca3 43bc c3cf 2abd
00000180: f956 43bc b7c2 4bbd c208 fdbb dede 0cbd
00000190: a5e0 3a3d b7b4 333d 2ae9 a2bb 8fb1 81bb
000001a0: 4e26 0fbd 5f18 753b 5f92 2b3d 9a7b d6bc
000001b0: 78f0 5a3c 2960 dfbb d615 26bd 0d97 0cbc
000001c0: 1c43 0abd 955c 473d 17f9 0a3d b14d 20bd
000001d0: fab9 a53c 3bc5 ed3c dc47 36bd 4da3 05bd
000001e0: c7a1 0b3d 2519 9cbc b387 31bd 1584 8abb
000001f0: 3314 273d a3da 2cbd ddaa 063d bc57 583c
00000200: 419a cf3c cb07 133d aeae ac3c 7d5a 80bb
00000210: df1c 3cbd 13d5 803c 7272 17bd ecea b83c
00000220: 8d40 b5ba e461 e73c 76fd 55bc 6a3e 1abd
00000230: 4617 77bc 1bdd 4d3c 805c 4cbc 10a3 383d
00000240: c2e5 913c 42e8 28bd 039a a63c 3c46 393d
00000250: a137 103d c6b5 37bc fcdc 55bc 69f9 d0bc
00000260: cd78 bd3c 5796 35bc 597b 4bbd bd22 fdbc
00000270: eb18 07bc e031 063c 8af7 c3bc e572 053d
00000280: d2e1 4cbd 0f67 3bbd c3f4 17bd 2d5f 33bd
00000290: 7dd9 56bc 60db 42bd 1766 62bc 2007 e9bb
000002a0: b485 ce3c abbe f1bc 72b4 fb3b f7f7 09bd
000002b0: 8288 193c 2fe3 b0bc 9606 53bc 991d f3bc
000002c0: 73ed 3c3d 745c 3cbd 52b6 8b3c 21ad 2cbc
000002d0: 44fd 8b3b d81c 0e3c ba0b 843c 11d9 c83c
000002e0: 9e17 7a3a f312 fcbc 2dac 6cbc 0225 213d
000002f0: 038d 3bbd d4a6 303d bd82 483d 8f0a 393d
00000300: 1ae5 04bd 50f3 d13c 4d2f a33b 9a1d 3c3d
00000310: 4854 cb3c 8092 b4bb 16f6 103d c01d 8e3c
00000320: d041 ab3c 0b06 b63c 1809 22bd e36a 113d
00000330: f0e0 de3c 3a30 223d 8dd6 483c 2983 f43c
00000340: eeb5 833c 9d64 033d b52a 26bc 6a99 143d
00000350: e630 dabc 7dfa 333d f66e 2bbd f04f 16bd
00000360: 5a11 373d de76 193c 583d 873c 3484 f53a
00000370: dd31 6bbc 8cfd 183d 88d4 07bc e755 b23c
00000380: 2243 233d a851 b43c 74e3 723c b188 203d
00000390: 521a 403d 3bdd a6bc 28f0 39b9 1ba2 e03c
000003a0: f6a4 583c dd7e 1b3d e649 12bd b12c f1bc
000003b0: d2fa 883c f5b7 4b3d 163b fabc b262 183d
000003c0: 32d0 b2bb 839b a93c 96e7 8eba 0aae 0e3c
000003d0: 08af 0d3d 7447 003d 4cf2 2ebc 716c 21bc
000003e0: 75d0 ec3c 77cd 263d 1200 35bc 1e7d f1bc
000003f0: f543 41bc c242 063d abf2 063b 9e4d 23bd
0.013013335 -0.03688171 -0.008578623 0.01480975 0.019458102 0.011545883 0.020388337 0.03102933
0.00014464949 0.0017440519 -0.0047155377 -0.014124988 0.012603583 -0.038487956 -0.013929338 -0.037918117
-0.04488852 -0.040404044 0.047821872 0.012588823 0.023419598 0.013141474 0.04101431 0.022129238
-0.02400768 0.035094403 -0.013027581 0.036547575 -0.04779853 -0.028373579 -0.035885707 -0.03138905
0.04143826 -0.008774393 -0.00090982014 0.009606957 0.04350459 0.012172279 -0.022212123 -0.028067961
0.043854773 0.019298255 0.030156001 0.018824415 -0.048327275 0.017397257 0.027406076 -0.017768107
0.022581752 -0.021607058 -0.032290906 0.014997125 0.037529524 -0.031569153 0.01012371 -0.0066437107
-0.005061348 -0.00556281 -0.049668413 0.014446835 -0.006393006 0.049350113 0.02351002 -0.029388724
0.0453326 0.016575992 0.0028375073 -0.027554916 0.043585815 -0.018534401 0.02757227 -0.02081684
0.027330551 -0.003587349 0.04379545 0.02209571 0.020344691 0.017274015 0.022548504 0.03657855
-0.03113554 0.042197 0.015979841 -0.012823507 -0.030542592 0.036170706 -0.017688986 -0.047034115
0.008654197 -0.020925993 0.0084648235 0.0040063336 0.02499382 -0.0142489 -0.011940759 -0.041702043
-0.011922591 -0.04974624 -0.0077219913 -0.03439223 0.045624394 0.043873515 -0.004971643 -0.003957934
-0.03494864 0.003739856 0.041887637 -0.026181985 0.013362996 -0.006816883 -0.040548168 -0.008580935
-0.033755407 0.048672277 0.033928957 -0.039136592 0.020230282 0.02902471 -0.044502124 -0.03262644
0.03408983 -0.019054959 -0.043342303 -0.004227171 0.040790748 -0.042200696 0.03287779 0.013204511
0.025342109 0.035896104 0.021079388 -0.003917037 -0.04592597 0.015726602 -0.036974378 0.022572957
-0.0013828442 0.02824492 -0.013060918 -0.03765718 -0.015081232 0.012564923 -0.012473226 0.045077384
0.017809752 -0.041237123 0.02033711 0.045232996 0.0352093 -0.011212772 -0.013053175 -0.025509553
0.023128891 -0.011083207 -0.04967818 -0.030900354 -0.008245687 0.008190602 -0.023921747 0.032580275
-0.050020047 -0.04575258 -0.037098657 -0.04379194 -0.013113377 -0.047572494 -0.013818285 -0.007111445
0.025210239 -0.029509863 0.007681423 -0.033683743 0.009370925 -0.021592705 -0.012879988 -0.0296772
0.046124887 -0.045986608 0.01705471 -0.010539324 0.004272135 0.008673869 0.016118873 0.024517568
0.00095402624 -0.030770754 -0.014445347 0.039341934 -0.045788776 0.04312785 0.048952807 0.045176085
-0.03244505 0.025628716 0.004980004 0.045926668 0.024820462 -0.005510628 0.035390936 0.01734817
0.020905405 0.022219678 -0.039559454 0.035502326 0.027206868 0.039596774 0.012258184 0.029847698
0.016077962 0.032078374 -0.010142018 0.03627912 -0.026634645 0.043940056 -0.041853867 -0.036697328
0.044694282 0.009366719 0.016508743 0.0018731416 -0.01435515 0.037351176 -0.0082904175 0.021769477
0.039858945 0.022011593 0.014824737 0.03919286 0.0469001 -0.020369163 -0.0001773244 0.027421048
0.0132229235 0.037962783 -0.035715006 -0.029440256 0.016721163 0.049735982 -0.030545752 0.0372035
-0.0054569477 0.020704037 -0.0010902758 0.008708486 0.03459075 0.031318143 -0.010677885 -0.009852515
0.028907994 0.04072329 -0.01104738 -0.029478606 -0.011795987 0.03277851 0.0020591419 -0.039868943

fc1.0.bias f4 [120]
00000000: f06e 2cbd 4f77 093d 7dbb 34bd 7352 2fbd
00000010: 92b5 773c 799f 11bd c27a 2dbd 5b01 4cbd
00000020: 89e9 403d 4dc0 0b3d f98d 1abc 8851 853b
00000030: 7591 1f3a f024 d63a f9c7 e43a 14d7 243b
00000040: aae7 7c3c 144b 2bbd f20b d13c c649 1b3c
00000050: 26c3 1c3c a756 ebbc 30ea 45bd c9c0 09bd
00000060: acad f33b 51ba adbc 7ad6 b1bb 0358 91bc
00000070: fcfd a43c ed81 9a3b 80de 32bd 480e 2fbc
00000080: a874 f6bc efcd 373c a5f5 5a3c 226b 0f3d
00000090: 620f 79bc 0385 32bc 4a74 18bc 014b b53c
000000a0: 8162 8fbb 73f9 a4bb 40a4 05bd 6e70 9b3c
000000b0: c93b 2f3d 6ecd fabb 8244 bc3c ff3d ffb9
000000c0: 812d b43b eed0 cdbc 079d 193d 4430 be3c
000000d0: c31b 123c f9d9 023d 08ce c83c e1f0 3fbd
000000e0: 0c75 383d 82c3 aabb 0ac3 bebc 8f41 85bb
000000f0: 42c1 dc3c 0a97 ec3c d4ab 083d 23df e5bc
00000100: 5bea ec3c da5b 3c3c 43fb c73a a248 3ebd
00000110: 0d7f 0ebd 7b63 e93c 5839 8f3c f76b b13c
00000120: 115d 493d df20 c3bc 9434 8f3b cc30 fc3c
00000130: 3be8 823c 5848 263d 59d4 2abd e52d 313c
00000140: 4895 593c ed61 44bd f5d3 2e3d bf56 35bd
00000150: 3cb7 13bc 4f3e c2bc 2385 4c3d 0bce e6ba
00000160: 35cb 0d3c 0f63 41bd 0733 12bd 2d3f 8b3c
00000170: d793 a13c 3d5a c33c a714 c33c 805e 1e3d
00000180: dacf 143d 284c 143d 8e53 093d 0f90 453d
00000190: 10dd 923c 0a7e 6fbc d139 41bd 43c6 10bd
000001a0: 7860 28bd 062c ae3c 24d7 193d b055 02bd
000001b0: f410 e43c e486 343d b004 bfbc 81de 3ebc
000001c0: a039 34bd 192e c93a af09 c43c 02e5 9e3c
000001d0: 794f f6ba eb42 e7bb 01d5 13bb ae70 c33c
-0.042097986 0.033561047 -0.044124115 -0.04280324 0.015118973 -0.035552476 -0.0423534 -0.04980598
0.047097716 0.03411894 -0.009433263 0.004068557 0.00060870434 0.0016337913 0.0017454616 0.002515261
0.015436092 -0.041819647 0.025518391 0.009478038 0.009568011 -0.028727842 -0.04831904 -0.03363112
0.007436475 -0.021207007 -0.005427179 -0.017742163 0.02014064 0.0047151954 -0.043669224 -0.010684557
-0.030084923 0.011218532 0.01336423 0.03501428 -0.015201421 -0.01089597 -0.009305069 0.022130491
-0.0043757563 -0.0050346195 -0.032627344 0.01897451 0.042781625 -0.0076538837 0.022981886 -0.0004868358
0.0054985886 -0.02512404 0.03750327 0.023216374 0.008917752 0.031946156 0.024512306 -0.04686058
0.0450335 -0.0052112946 -0.023286361 -0.004066653 0.026947621 0.028880615 0.033366993 -0.028060501
0.028920343 0.0114965085 0.0015257377 -0.046455987 -0.034789134 0.028489819 0.017483398 0.021657927
0.04916102 -0.023819385 0.0043702815 0.030784987 0.015979877 0.040596336 -0.041706417 0.010814165
0.01328022 -0.04794495 0.042682607 -0.04427218 -0.009015854 -0.023711352 0.049931657 -0.0017609013
0.008654405 -0.04721361 -0.035693195 0.016997898 0.019723816 0.02384674 0.023813559 0.03866434
0.036331035 0.03620544 0.03352695 0.048233088 0.017927676 -0.014617452 -0.04717428 -0.035345327
-0.041107625 0.021261226 0.03755869 -0.03182 0.027840115 0.044073954 -0.023317665 -0.011649729
-0.044000268 0.0015348821 0.023930399 0.019396309 -0.0018791995 -0.007057538 -0.002255738 0.02385744

fc2.0.weight f4 [84, 120]
00000000: a5e6 a53d 8dfb 8c3d d974 7ebd f8f0 9c3d
00000010: b6fe 0e3d f3d3 b7bd a061 00bd 76a3 a73d
00000020: 0f36 593d 1b60 84bc 0d8a 653d c488 b4bd
00000030: 9007 f3bc 0a0e 0e3c f6b0 b43b 55ee 39bd
00000040: 0d2c c53c bc57 20bd 469c 37bd 4afa 0b3d
00000050: c5d3 a2bd 6ac5 46bd 310d aebc c101 443d
00000060: ffa3 dc3c 2c1e 8d3c b616 653d c2cd 603d
00000070: 4290 43bd 03ec 523d 8880 13bd f15e 94bd
00000080: 8e54 813c b13d 833c efa8 ad3c f3f5 8f3d
00000090: 1aba acbd 9af9 1fbd 5984 84bc 3dc7 a43d
000000a0: a2ed b0bd ed03 8ebd 740c 5bbd f1d0 043d
000000b0: bc6b 38bc 2762 99bd 90da 94bd d44d ba3c
000000c0: cd99 ddbb 3954 a5bd 8481 533c 2c73 6e3c
000000d0: 6da4 503d bcc4 82bd 8621 4dbd 6343 02bb
000000e0: c77e 083d ecaf ad3d 08b1 d6bc eae5 343c
000000f0: 8cd4 b6bc c975 8cbc 7f54 20bc 2370 cb3c
00000100: 6442 84bb e825 ba3c cc68 e43c f927 09bd
00000110: 499e c43b d126 d939 7466 81bc 0818 733d
00000120: af5a 823a 5dfb b03c e3b4 93bd fe68 b33d
00000130: 025c e43c ccc3 353d f7e0 b9bd 3a2b 9c3c
00000140: 4088 b1bc f3ff 07bd 325d b6bd 5535 b73d
00000150: 991e 87bd 3b1f 40bc eace 533b 020b c13c
00000160: 073a 0fbd 7563 d6bc 8a34 013d e558 843d
00000170: 8442 073d 3417 fb3c f2b1 893d f1b5 8f3b
00000180: 4ec0 1bbd bdad 8c3d f6a0 96bd db37 16bc
00000190: 94e5 00bd b5a7 d8ba 60d8 32bd 6873 8c3d
000001a0: 2d2f a63c 094e 89bd db3f f5bc ff74 a73d
000001b0: 4338 a5ba d72b 873c 4733 bbbd c7a9 7fbd
000001c0: 177e 9b3d 8f2c 91b7 9df0 15bd 7920 42bd
000001d0: 4a01 39bd 65fd 313d 598c b1bd 5b13 9f3d
000001e0: 4d2a 2fbd 7ac1 933d 7d35 5abd e356 b43d
000001f0: e0ec 90bc 21ca 813d ca4b 973d 3af5 9c3d
00000200: ba2c 943a cc5a 8c3c f44b ae3d e277 863c
00000210: dbea 56bc c042 a8bd aa38 b03d 417f 97bb
00000220: a0ff 11bd 36f3 1fbd a6fd 973c 9b57 64bb
00000230: d211 903d 14ff 823c 042f 11bd e006 01bd
00000240: b018 81bc 3715 99bd bf15 04bd 43fe 203d
00000250: 5920 aa3c c5d5 963b 143f a13d aef9 94bd
00000260: 67ba 9bbc ccad 263d 7bc8 45bd 76c0 913d
00000270: 9b16 0abd a2ce 883d 989b 08bd fe00 95bd
00000280: bacc a4bd 937c 86bd 62a9 18bd 7819 943d
00000290: 3a44 883d 0f4e d7bc 360e 863d 7a9c 163c
000002a0: 2833 3d3b 6a7b 8fbd 32f8 59bd d900 89bc
000002b0: 0aba 8fbd fd9d 8ebd 5bb1 25bd fafc 093d
000002c0: fe5f afbd 954d f33c c5f2 8ebd ed3e 1a3c
000002d0: 2d87 bcbd 00fb 8c3d 6bb8 143d 11d9 603c
000002e0: d009 1fbd 9e7e 43bd 4619 7bbd d091 8bbc
000002f0: 4242 973d bb70 d3bc 15b7 7c3b 2a75 40bd
00000300: d031 bdbd 2c61 b83d 8245 9a3b 01b5 01bd
00000310: 5a8b 083d 719b 9cbd 34b4 85bd 51db c1bc
00000320: 4ec5 a63d 6d48 8c3c 6cfb 68bd 33e7 80bd
00000330: c17d e03c 295d a8bd 97b3 afbd 9516 62bd
00000340: d047 0e3d 0389 a63c 05d5 073d e5d4 16bc
00000350: dc43 913d 53be ebbc 8c96 06bd d24c 4fbc
00000360: 55c4 393d b37f eabc d171 6b3d fb6a 9abd
00000370: 3796 683c 1aa6 8f3d 67e0 6c3d a938 31bd
00000380: 85b2 b2bd e1cb 863d a6e9 573d a4f7 3d3d
00000390: 3b70 3e3d 1d2d e73c 078a 8cbd dfb2 b3bd
000003a0: 7f62 2f3d 7c7e aebd 25f4 0fbd 7351 953b
000003b0: c195 653d 9587 41bd ef49 6bbd 53b2 143c
000003c0: 2681 c33c 0c0d 9d3d db6c 69bd ece2 b43d
000003d0: 020f 763d 97a0 86bd 1298 4b3d f47e 96bb
000003e0: 7ab2 4a3d 80fd 923d 6091 f8bc 6c13 00bd
000003f0: c808 583d 16f7 cdbb c886 243d dcd7 9ebd
0.081006326 0.06883917 -0.062123153 0.07663149 0.03491088 -0.08975973 -0.031343102 0.081854746
0.05303007 -0.016159108 0.05603986 -0.088151485 -0.029666692 0.008670339 0.0055142595 -0.045393307
0.024068857 -0.03914617 -0.04482677 0.03417424 -0.07950548 -0.048528112 -0.021246525 0.047853235
0.026933668 0.017226301 0.055929862 0.054883726 -0.047744997 0.05149461 -0.03601125 -0.07244671
0.01578739 0.016020628 0.021198718 0.07029333 -0.084339336 -0.039056398 -0.01617639 0.08045814
-0.08639075 -0.069343425 -0.053478673 0.032425825 -0.011256155 -0.07489424 -0.0726825 0.02274219
-0.0067627192 -0.08072705 0.012909297 0.014553826 0.05093806 -0.0638518 -0.0500808 -0.0019876591
0.03332403 0.0848082 -0.026207462 0.011041144 -0.022318147 -0.017146008 -0.00978577 0.024833744
-0.0040362347 0.022723153 0.027882002 -0.033485387 0.0060003144 0.00041418386 -0.015795924 0.05934909
0.0009945239 0.021604234 -0.07212236 0.0876026 0.027875904 0.04437618 -0.09076112 0.01906358
-0.021671414 -0.033203077 -0.08904494 0.08945719 -0.06597633 -0.011726196 0.0032319375 0.02356482
-0.03496745 -0.026170472 0.031544246 0.06462268 0.03302242 0.030650713 0.067233935 0.004385703
-0.038025193 0.068690754 -0.073549196 -0.00916859 -0.031468943 -0.0016529473 -0.043663383 0.068579495
0.020286167 -0.06704337 -0.029937675 0.08176612 -0.0012605268 0.016500397 -0.0914064 -0.06241777
0.07592409 -1.7306096e-05 -0.03660642 -0.04739425 -0.045167245 0.043454546 -0.08669347 0.07767364
-0.04276495 0.07214637 -0.053273667 0.08805635 -0.017691076 0.06337381 0.073875025 0.07663961
0.0011304833 0.01713314 0.08510581 0.016414586 -0.013117517 -0.082158566 0.08604558 -0.004623324
-0.035644174 -0.039050303 0.018553566 -0.0034842256 0.07034649 0.015990771 -0.03544523 -0.031500697
-0.015758842 -0.074747495 -0.0322473 0.039304983 0.020767378 0.00460312 0.07873359 -0.07274185
-0.019009782 0.04069309 -0.048286896 0.07116787 -0.033712965 0.06680037 -0.03335151 -0.0727558
-0.08046861 -0.065667294 -0.03727091 0.0723142 0.06653638 -0.026282338 0.06545679 0.00919258
0.0028869603 -0.07005961 -0.053215213 -0.016724037 -0.07017906 -0.069637276 -0.040452342 0.033688523
-0.08563231 0.02970008 -0.06979898 0.009414417 -0.0920547 0.06883812 0.036308687 0.013723628
-0.038827717 -0.047728173 -0.0613034 -0.017037302 0.073856845 -0.02581059 0.0038561274 -0.046986736
-0.092380166 0.09002909 0.004707993 -0.03166676 0.03333602 -0.076468356 -0.06528512 -0.023664149
0.08143102 0.017124379 -0.0568804 -0.06294098 0.027403714 -0.08220894 -0.08579176 -0.055197317
0.034736454 0.020329004 0.033162136 -0.009206031 0.07093021 -0.028777277 -0.032858416 -0.012652593
0.045353252 -0.028625345 0.05748159 -0.07539936 0.01419597 0.07014103 0.057831194 -0.043266926
-0.08725456 0.065818556 0.05271306 0.046378747 0.04649375 0.028219754 -0.06862264 -0.08774351
0.042818543 -0.08520219 -0.035144944 0.0045568286 0.05605102 -0.04724844 -0.057443555 0.009075719
0.023865294 0.07668504 -0.05698858 0.088323444 0.060072906 -0.06573599 0.049705572 -0.0045927707
0.049486615 0.071772575 -0.030342758 -0.031268522 0.05274275 -0.0062855585 0.0401676 -0.07756016

fc2.0.bias f4 [84]
00000000: 0e54 9a3b 8b39 6ebd 46b0 4b3d 24cc 633d
00000010: 6c31 88bd c475 cabb 23b0 4abd b6aa e63c
00000020: 527c 98bd cbc6 ed3c a925 8b3d 7057 05bd
00000030: b37b b13d 1bff ff3c 9858 87bd 7d54 f9bc
00000040: 2994 85bc 6e8f 02bd c364 c3bb af50 413d
00000050: c4d0 a7bd 3464 793d d158 853c d4bf a13d
00000060: dc61 1a39 c86b a33d ffe6 9d3d a15a 0e3d
00000070: b8d2 44bd e31d 20bb 7db6 543d 148e 89bd
00000080: b86a b7bd 6739 aabd 67d1 a13d 1489 a6bb
00000090: cadb acbb c180 503b 2761 6cbd a164 5c3d
000000a0: 97ca 973d 91db 98bd 303c 0abd 72f3 873d
000000b0: ee97 d93c 831d 76bd e20b 253c 7c5f 9dbd
000000c0: dfee 93bd f461 5d3a addc 4cbd 31b2 b13c
000000d0: a5a9 9e3d 969b 563d ce63 a83b 9938 b2bd
000000e0: 830b 7fba 9c60 403d 736f 263d 6fff a0bc
000000f0: a580 89bb 72cf 9e3d bb8d abbd df0b dabc
00000100: cd84 a63d cf10 b43d 25bd 1abd 2405 8cbd
00000110: 0dc3 fe3c 84de b63d b904 8b3d 0ced a03d
00000120: 5809 a63d f255 7c3d ddf3 9a3d fb67 13bb
00000130: 2a1d 8b3d 0170 89bc 16d1 b7bd 8ef1 7ebd
00000140: 43f5 0cbd 4366 083d aaeb 57bd 4345 48bd
0.004709727 -0.058160346 0.049728654 0.055614606 -0.066500515 -0.0061785895 -0.049484383 0.028157573
-0.07445587 0.029025456 0.067942925 -0.03255409 0.08666172 0.031249573 -0.06608695 -0.030435795
-0.016306 -0.031875066 -0.0059629395 0.047196086 -0.08194116 0.060886577 0.016277703 0.078979164
0.0001472304 0.07979542 0.07710075 0.0347544 -0.04805252 -0.0024431876 0.051931847 -0.067165524
-0.08955902 -0.0831173 0.079012685 -0.005082259 -0.0052752243 0.0031815025 -0.05770984 0.053806905
0.07411688 -0.07463754 -0.033748806 0.066382304 0.026561704 -0.06008674 0.010073634 -0.07684228
-0.072232954 0.0008445077 -0.05001514 0.021691414 0.07747201 0.052394472 0.005138851 -0.087022014
-0.00097291934 0.046967134 0.04063363 -0.01965305 -0.004196244 0.07754411 -0.08376642 -0.026616989
0.081307985 0.087922685 -0.03777804 -0.06836918 0.031098867 0.0892916 0.0678801 0.07857713
0.08107251 0.0616054 0.075660445 -0.0022492397 0.06792672 -0.01677704 -0.08975427 -0.062242083
-0.034413587 0.03330065 -0.05271498 -0.048894178

fc3.weight f4 [10, 84]
00000000: 9475 b63d 34fc 2a3d 001f 8b3d 93c3 393d
00000010: 30e7 b63d 386f 0d39 6ea7 3ebd 575c 063c
00000020: 12a3 f03c 922d c43b ad33 f43a dfb6 193d
00000030: ad8c 89bd e590 573d 10c5 89bc 245f 913d
00000040: f42e d1bb c3f5 94bb 8162 1dbd 0def a73d
00000050: b770 8bbd cce4 5dbd 36ad ad3d 0307 d2bd
00000060: ec19 d4bd 2994 273d 12ac 963d 2cf5 b6bd
00000070: 92e0 873d 1b76 9abc ecc0 a03d c8aa ff3c
00000080: 0f9e 1e3c 2196 4f3d ef9c 90bd 21be 5bbd
00000090: 27c1 03bd c690 143b f573 86bc 02db 75bd
000000a0: 2eb2 8ebd 0edd dbbd 971a b13d 255f c5bd
000000b0: 774a adbc e1d1 7ebd 84c1 9d3d ddc1 e0bd
000000c0: de92 f3bb f3fe 9bbd 9e62 41bd 64d8 ebbc
000000d0: ae5d debd 2c67 493c 5b1c 39bb 39d9 143d
000000e0: c51f d5bd 3aa4 bf3d a399 9a3d 5a61 0fbc
000000f0: e60a eebc 3c18 913d 969c fcbb 0d11 51bd
00000100: 67ae 5d3c b781 913d 4ff9 70bc 3278 19bc
00000110: 83a9 1a3d a09c 993d 71fe 873d d854 d23d
00000120: 864e 643d 142d 96bd 0e12 ee3c 1cff 9cbd
00000130: 1a1b 983d 20bf e9bd 1379 723c 55ca fb3c
00000140: 855a bdbd 452e 89bd 5b12 94bd 29df 983d
00000150: 865e 6bbc 5458 943d 29d7 d7bd ba06 32bd
00000160: 0e1b 8fbd b813 66bd f1d9 673d b5c4 15bc
00000170: f40a a63d e987 bc3d 1a5e c53d 330c 87bd
00000180: bcd2 cebd f9fa 463d 72bd b23d b1e4 af3d
00000190: 8bf0 a5bd 8b3e 983d 0b2e aa3d e7c1 653b
000001a0: c5a7 553d dd68 433d b888 383d 485f 78bd
000001b0: f6e1 9e3d 4ba7 64bd 1318 843d 5cc7 fcbc
000001c0: eb8d 913d 8062 aa3d 0288 1abd 45b1 34bd
000001d0: 2cc7 9cbc 872b 07bd 072a d8bd b58d 323d
000001e0: cfe5 e13c 640b dcbd 5af1 a2bc be77 943d
000001f0: ce7c cc3d e8be d53d 9b8a 94bc 5a14 9ebd
00000200: b7e5 75bd 8f1d a5bd 15c2 773d ce09 a2bd
00000210: fc31 f73c 6d7c 0bbc 306f c43c e5fc 49bd
00000220: 8c3d 16bd bc70 80bd 2358 19ba ab84 8ab9
00000230: 288e b33d 09ac 2dbd 206d 9ebd 6936 f3bc
00000240: 0995 bc3d e777 5cbd 32f6 4e3d 3180 ddbb
00000250: 2ee6 993d 71f3 87bd 74dd 8dbb 45b5 51b8
00000260: 182d 213d 7e0d 833d a928 2cbc 6860 773c
00000270: fbfc 6d3d 16c5 8e3d 67be 89bd ad1f eabc
00000280: c7b9 ad3c c988 843c 8a02 633d 217a 693d
00000290: e219 823d 869e bbbd 9e83 823d 0149 50bd
000002a0: 2b74 cb3c 36fa cd3d 1ed7 d9bd 7166 903d
000002b0: a5d6 c4bd 1b48 c33d cc6f 9d3d 807b e3bd
000002c0: 5629 cc3b 26c3 06bc 6db9 1e3d 1016 b83d
000002d0: 9295 82bd 465b c93d aed0 0c3d 74f7 0f3c
000002e0: f5d9 07bd 7f3b 2fbd 567d 57bd 1492 cc3b
000002f0: d381 5a3d 9a85 2f3d 44d6 dabd 00c1 c73d
00000300: 1a04 8f3d fba6 c73c c0e0 9ebd 5882 cbbd
00000310: e5c8 4e3d 944c d43d 92c9 78bd a2fa b1bd
00000320: 34dd 5d3c d918 0dbb a179 d63d 3fbd b13c
00000330: 1699 9b3d f03f c93c 70b7 323d cfcd 84bd
00000340: 39ae 2a3c 28ed bdbd dca7 2dbd 82aa 09bc
00000350: d8f0 d6bc 2218 953c 4bee d4bd 5fbf 6a3d
00000360: eebc 683d 59ca 653d 1753 103d e9fa 253c
00000370: 0447 8e3d c753 04bd 38dc bf3d 3529 533d
00000380: a972 50bd d340 e23c 191c 9d3a 98f5 5abd
00000390: efb5 adbd 413b 01bd 7086 9dbd 6d2d 90bc
000003a0: 2ba9 dfbd bb1c 833d d4f0 4fbd d9f6 a5bd
000003b0: 325b 893d 74a8 b9bd 1f0d 1b3d 41ed bdbd
000003c0: fd30 0e3d b093 dbbd 04e0 5d3d 229a d13d
000003d0: 5ff6 cebd 9db9 943d 550a 3d3d f07b 43bd
000003e0: f799 2dbd 7d4b 433d 8d4f 95bd e8b5 ce3d
000003f0: 9bd9 d9bc a7cf 99bd 70f2 3e3d f90b 533d
0.08909145 0.041744426 0.06793022 0.04535253 0.08930814 0.0001348824 -0.046546392 0.0082007265
0.029374633 0.0059868777 0.0018631123 0.037527915 -0.06716285 0.052628417 -0.0168176 0.07098225
-0.006383771 -0.0045458986 -0.03842402 0.08199892 -0.06808608 -0.054173276 0.08480303 -0.10255244
-0.10356507 0.04091278 0.073570386 -0.089334816 0.0663463 -0.018855145 0.07849297 0.031209365
0.009681239 0.050680283 -0.07061183 -0.053648118 -0.032166626 0.00226693 -0.016412714 -0.060023315
-0.06967579 -0.10735522 0.0864765 -0.09637288 -0.021153672 -0.062211875 0.07702926 -0.109744765
-0.0074332794 -0.07616987 -0.04721319 -0.028789707 -0.10857712 0.0122926645 -0.002824566 0.036339972
-0.1040645 0.093574956 0.07548835 -0.008751238 -0.029057931 0.070847005 -0.007709096 -0.05104165
0.01353035 0.07104819 -0.014707877 -0.009367036 0.037759315 0.07500577 0.06640328 0.10270089
0.05573895 -0.07332817 0.029061344 -0.07665846 0.07427044 -0.11413407 0.014799374 0.030736128
-0.09245781 -0.06698278 -0.072300635 0.074644394 -0.014365798 0.0724341 -0.105390854 -0.043463446
-0.06987582 -0.05617115 0.05660433 -0.009141137 0.08107558 0.0920561 0.09637089 -0.06594124
-0.10098788 0.04857919 0.0872754 0.08588541 -0.081025206 0.07433804 0.08309563 0.0035058202
0.05216195 0.047707427 0.04505226 -0.060637742 0.077579424 -0.055823606 0.06449904 -0.03085678
0.07107147 0.08319569 -0.037727363 -0.04411437 -0.019137941 -0.033000495 -0.10554891 0.043592174
0.027575402 -0.1074436 -0.019890476 0.072494015 0.09984742 0.10436803 -0.018132498 -0.077187255
-0.060033526 -0.080622785 0.060487825 -0.07912026 0.030175202 -0.008513552 0.0239788 -0.049313445
-0.03667979 -0.062715024 -0.000584962 -0.00026420256 0.087673485 -0.042400394 -0.07735658 -0.02968903
0.09208114 -0.053825285 0.05052776 -0.0067596664 0.075146064 -0.0663823 -0.004329378 -4.9998303e-05
0.039349645 0.06399058 -0.010507741 0.015098669 0.05810259 0.06971185 -0.067257695 -0.028579557
0.02120675 0.016178505 0.055422343 0.057001237 0.06352593 -0.09161095 0.0637276 -0.050850872
0.024835667 0.100574896 -0.106367335 0.07050789 -0.09611253 0.095352374 0.07687339 -0.1110754
0.0062305136 -0.008225238 0.038751055 0.08988583 -0.063761845 0.09831862 0.0343787 0.008787025
-0.033166844 -0.04278135 -0.052609764 0.006243 0.053346466 0.04285202 -0.10685399 0.09753609
0.06983204 0.024371615 -0.077577114 -0.099369705 0.050484557 0.103661686 -0.060739107 -0.086903825
0.0135415085 -0.0021529703 0.104724176 0.021696685 0.07597558 0.02456662 0.04363197 -0.064845674
0.0104175145 -0.092737496 -0.04239641 -0.008402469 -0.02623789 0.018199984 -0.10397013 0.057311412
0.056820802 0.056101177 0.03523549 0.010130622 0.06947139 -0.03230646 0.09368175 0.05155297
-0.0508906 0.027618801 0.0011986523 -0.053456873 -0.08481967 -0.03155065 -0.076916575 -0.017599786
-0.10920938 0.06401964 -0.05076678 -0.08103723 0.06706847 -0.09065333 0.03785431 -0.09273768
0.034714688 -0.107215285 0.054168716 0.102344766 -0.10105585 0.072619654 0.04615243 -0.047725618
-0.04238316 0.047679413 -0.07290564 0.100932896 -0.02659302 -0.0751031 0.046617925 0.05152509

fc3.bias f4 [10]
00000000: 799a 533d b744 bdbc 0fbe 6b3d 0244 103d
00000010: 3618 7fbd f3ff 8d3d 9bd8 283d 161b c4bc
00000020: 4308 7d3d 6a3b 003c
0.05166099 -0.023104055 0.0575543 0.035221107 -0.06227895 0.06933584 0.041222196 -0.023938697
0.061775457 0.007826665
