计算机视觉实践-练习2/checkpoint/lenet/Saturday_15_April_2023_09h_26m_07s/lenet-10-regular.pth (torch, 250355 bytes, 10 tensors)

conv1.0.weight f4 [6, 1, 5, 5]
000000 06 ff 9f bd 86 3f 98 3d a5 39 05 bd 7a f8 29 3e
       -0.07812314 0.07433991 -0.032525677 0.16598693
000010 21 f6 4d be 14 2f 11 bd d0 85 f2 bd a3 e9 5c 3e
       -0.20113422 -0.035445288 -0.11841929 0.215735
000020 7b 61 55 3e 1d 6e 21 be a5 dd 4a 3d 34 50 df bd
       0.20837967 -0.15764661 0.049527783 -0.109039694
000030 51 f6 bc bd b9 d8 69 bb 50 f9 0e 3e d5 e6 64 bd
       -0.092266686 -0.0035682155 0.13962293 -0.0558842
000040 96 0e 1f be a1 ee 26 3e 88 09 52 ba cc 7b 84 bc
       -0.15532908 0.16301967 -0.00080122845 -0.016172312
000050 25 9d 36 3e 85 fe 33 bd 87 c8 23 be d1 64 37 3d
       0.17833383 -0.0439439 -0.15994464 0.04477388
000060 a0 bd 08 3e e8 16 07 be 2c 23 aa bd 6a 78 03 bd
       0.13353586 -0.13192332 -0.0830749 -0.032097258
000070 7c 7f af bd 53 6b 46 3d fb 0b e3 bd d5 75 9a bd
       -0.085692376 0.048442196 -0.110862695 -0.07542006
000080 59 da 81 bb ce cd 01 3d 3d de 33 3c 27 c9 ac bc
       -0.0039627966 0.03169041 0.010978279 -0.02109201
000090 b7 92 a3 bd f3 8b fd bc 9c 62 46 be 10 0c 38 bc
       -0.07986968 -0.030950522 -0.19373554 -0.011233345
0000a0 43 21 9f bd 30 32 1e be 83 f5 1a be 01 6d 95 bd
       -0.07770016 -0.15448833 -0.15132718 -0.072961815
0000b0 5f 75 cd 3d 8a 0c 9a bd cd 98 d6 bd ac 30 00 3e
       0.100321524 -0.07521923 -0.10478363 0.12518567
0000c0 c0 a8 04 be a3 41 02 3e a4 e1 cc 3d 7e 17 30 3e
       -0.12954998 0.12720351 0.10003975 0.17196462
0000d0 f8 08 cb 3e c5 17 0f 3e 0d 71 0f 3e 01 28 20 3e
       0.3965528 0.13973911 0.14007969 0.1564026
0000e0 75 4e 90 3e 46 58 af 3e 79 c3 65 3e 15 85 33 3e
       0.28184858 0.34247035 0.22437848 0.17531236
0000f0 bd 28 de bd 15 78 2e be 14 5e f1 bd cc d0 63 3e
       -0.10847614 -0.17037995 -0.11785522 0.22247618
000100 48 55 1f bd 45 a8 35 be 02 e9 1f be 21 80 8a be
       -0.03889969 -0.17739971 -0.15616229 -0.2705088
000110 50 cb 8b bd 9b fe ed 3c f6 d1 0a be fd 86 13 be
       -0.06825888 0.02905207 -0.13556656 -0.14406963
000120 5b 45 d5 bd 79 36 e4 bd 3a ba 53 3e aa 03 ec 3d
       -0.10413619 -0.11143202 0.20676509 0.11524136
000130 b0 d6 0f 3f a2 1e 11 3f 9f 0b ea 3e fb 3e 5f 3e
       0.5618696 0.56687367 0.4571199 0.21801369
000140 d6 d5 cf 3e 2e a4 46 3f f5 62 6b 3f 33 87 37 3f
       0.4059283 0.7759427 0.9194787 0.7169067
000150 1e 8a f4 3e c7 c6 58 3e e9 93 a5 3e 83 f7 e6 3e
       0.47761625 0.21169578 0.3233941 0.4511071
000160 7b c6 ca 3e 25 a8 16 3f f9 9f 85 bc 4c 0e b7 bd
       0.39604554 0.5885032 -0.016311632 -0.08938274
000170 f7 24 b9 3d 4f 3d 03 3e 89 1c f9 3c 67 a3 22 be
       0.090402536 0.12816356 0.030409114 -0.15882646
000180 89 97 b3 be 10 ee 50 be 77 e7 91 bd 23 c0 18 be
       -0.3507655 -0.20403314 -0.071242265 -0.14917044
000190 1c 77 98 bd 14 de 3c be 53 d9 7a bd 09 46 61 3e
       -0.07444593 -0.18444091 -0.061242413 0.21999373
0001a0 24 ea a2 3d a2 dd 4e be 82 09 e9 bd 8c c8 1b 3e
       0.07954815 -0.20201734 -0.113787666 0.15213221
0001b0 b5 b0 3f bd 82 e0 7c 3e df 71 8f bd f9 8f 9d 3a
       -0.04679938 0.24695018 -0.07004141 0.0012021057
0001c0 2b 61 e2 3d 92 2b 5e 3d 6e 96 a2 3d 50 0d 6c be
       0.110536896 0.05424077 0.079388484 -0.23051953
0001d0 c0 d8 05 be 40 e8 87 3e b3 ea df 3d d3 ef c7 bd
       -0.13070965 0.2654438 0.10933437 -0.0976254
0001e0 28 c7 07 3a bd 65 85 3c 1d 41 75 3e cd 27 33 3e
       0.0005179518 0.016283864 0.2395062 0.17495652
0001f0 c4 34 e8 bc 4c f1 d1 3e 4a f4 fd 3e e5 46 e6 3e
       -0.028345473 0.41004407 0.4960044 0.44975963
000200 07 27 0d 3f 83 07 b9 3e 95 f6 98 3e 32 7f 59 3e
       0.55137676 0.36138543 0.29875627 0.21239927
000210 6e e6 0a 3f 8a a9 1c 3f 7a 13 95 3e 56 41 81 bc
       0.5425786 0.61196196 0.29116422 -0.015778225
000220 69 c5 4d 3e bc 60 dc 3e d4 06 f1 3e 17 c9 d5 3c
       0.20094837 0.43042552 0.47075522 0.026096864
000230 4b 3f 14 be f7 47 21 3d 9c 2f ae 3e a6 9f c1 3e
       -0.1447727 0.03937527 0.34020698 0.37817115
000240 8b c5 ba 3e 47 a0 6d be fb dc 43 be e4 8f 7c 3e
       0.36478838 -0.23205672 -0.19127266 0.24664265
000250 05 e3 fb 3d 95 d1 84 3c
       0.1229916 0.016213218

conv1.0.bias f4 [6]
000000 48 7e c1 bd 83 6f 80 3e 3c df a2 3d 18 84 af 3d
       -0.09447914 0.25085077 0.07952735 0.08570117
000010 a2 e5 69 bd 2f cf a5 3b
       -0.05710376 0.0050600986

conv2.0.weight f4 [16, 6, 5, 5]
000000 6f 72 0e 3c 99 ac 8c 3d e2 ac 14 bd 88 87 a5 3c
       0.008694275 0.06868858 -0.036297686 0.020206228
000010 5f 52 43 3d 1f 2d 6f 3d bc 67 a0 3d 6d e2 4d bd
       0.047685977 0.05839264 0.07832286 -0.050264765
000020 b2 48 31 bd a9 7b 23 3c c0 56 8d 3d af a7 7d 3d
       -0.04328222 0.009978213 0.06901312 0.061927494
000030 f9 4c f2 bc 3a bc 07 bd 26 d8 91 3d 6c d0 a0 bd
       -0.029577719 -0.03313849 0.07121305 -0.07852253
000040 35 c4 4a bd 1b 4e ff bb f8 a2 87 3d cd f6 61 bd
       -0.049503524 -0.0077912933 0.06622881 -0.05516701
000050 49 e8 4d 3d ea 8c 23 3d 66 48 a2 3c 1b 73 88 3d
       0.050270353 0.039929308 0.019809913 0.066625796
000060 d9 9e 98 bc fb 90 1c bc df 4b ad bc a7 14 93 3d
       -0.018630432 -0.00955605 -0.021154342 0.071816735
000070 7f 2b ce bc dc 9f 15 bd bc 86 25 bd f8 a3 38 bd
       -0.025167225 -0.036529407 -0.040411696 -0.045078248
000080 24 18 4e bd d7 11 8b 3c 39 17 b8 bc 8b 3d 63 3b
       -0.05031599 0.01697628 -0.02247201 0.0034674134
000090 94 6b d0 bc 6f 34 15 bb 67 4b a3 bd 21 24 87 3c
       -0.025441922 -0.0022766849 -0.07973366 0.01649672
0000a0 c9 33 6f 3d e7 a4 ae 3d 35 83 89 3d 17 38 c8 3c
       0.058398996 0.085275464 0.06714479 0.024440808
0000b0 8a 38 9b 3c ae db 30 3d fd ba fc bc c4 09 0a bd
       0.018947858 0.043178253 -0.030850882 -0.03370072
0000c0 6e b0 0f 3c ec 06 10 bd 35 5f 2d bc 47 7f 99 bd
       0.008770091 -0.03516285 -0.010581781 -0.07494979
0000d0 7a 1f 96 bd ae 69 ad bd 25 ed 6c bd 3b 3f 73 bd
       -0.073302224 -0.084674224 -0.057843346 -0.059386473
0000e0 bc 34 01 3d f9 36 1f ba 12 4d 50 bd 32 f6 58 bd
       0.031544432 -0.000607356 -0.05085475 -0.052969165
0000f0 0c b6 cc 3c fd 82 59 bd 60 d3 10 bd 50 f9 10 bd
       0.02498915 -0.053103436 -0.035357833 -0.035394013
000100 10 4d 14 bd 83 7a 8f bd a0 1f 9f bd 90 77 71 bc
       -0.036206305 -0.07005789 -0.07769704 -0.014737979
000110 f5 08 98 bb c7 59 f2 ba 81 27 1e 3d 72 0a 9d 3c
       -0.0046397396 -0.001848989 0.038611893 0.01917002
000120 39 5f 95 3d be 4d 4f bd af 06 23 3a 7e 52 ff bd
       0.07293553 -0.05061125 0.00062189525 -0.12466906
000130 2c cc aa 3b 71 50 8e 3d 57 9c ba 3d 56 40 09 3e
       0.0052123275 0.06948937 0.09111851 0.13403448
000140 2d 50 0e bc d9 d1 14 3d 97 1d 07 3e 59 e3 15 3d
       -0.008686108 0.03633294 0.13194881 0.03659377
000150 7d b2 7f bd 6f 7e 36 bd e6 4b b7 3d a5 83 3b 3e
       -0.06242608 -0.04455417 0.08950023 0.18311937
000160 8b e2 ab bb 05 c1 09 be 34 f1 97 bd 9c 86 56 bc
       -0.005245512 -0.13452537 -0.07419053 -0.013093617
000170 c0 cd 3c 3e 1d 24 c3 3b 6e a1 15 be 97 1e 2e be
       0.18437862 0.005955233 -0.14612362 -0.17003857
000180 b5 96 9f bd 2a b9 ea 3d 7a 4c cc 3d a2 7d 44 bd
       -0.07792417 0.114610985 0.09975524 -0.047971375
000190 b1 1b 0d bc ad db 3c 3d 09 bb 75 3c d0 d4 b5 3d
       -0.008612559 0.046107937 0.014998206 0.088784814
0001a0 0a 50 7f bc d5 da 33 3d b3 b7 74 3d 54 95 8c ba
       -0.015583048 0.043909866 0.0597455 -0.0010725656
0001b0 2a ec 3d 3d 30 91 51 bc 29 d8 f2 bc c3 fd 26 3d
       0.0463678 -0.012790963 -0.029644089 0.04076935
0001c0 f1 72 ba 3d 3e 98 80 3d 01 a9 41 bd 25 27 82 bd
       0.091039546 0.06279038 -0.047280315 -0.063551225
0001d0 c9 d2 53 3b 34 ee d4 3c d1 6c f9 bc 5f c8 7b 3b
       0.0032321683 0.02599249 -0.030447396 0.003841899
0001e0 7d c6 15 bc e4 3d 36 3d 91 3a 0b 3d 86 d3 3a bd
       -0.009141562 0.044492617 0.0339914 -0.04561188
0001f0 69 6a a9 bb 26 4c c3 bd a5 37 5a bd 4d 0d fb 3d
       -0.005170156 -0.095360085 -0.053275723 0.12258396
000200 23 2a ea 3d df 67 8a 3d 41 08 60 3c c2 cb 8a 3c
       0.11433818 0.06758093 0.013673843 0.016942862
000210 ef 4d 4e 3e 61 a8 17 3e 07 1d 0f be 48 8f 8f bd
       0.20146917 0.14810325 -0.13975917 -0.070097506
000220 8a cb 94 3d 57 d1 8f 3e 54 8f 8b 3d f0 16 0c be
       0.072653845 0.280894 0.06814447 -0.13680625
000230 aa af 81 bd 23 24 55 bd fa 8d 5b 3e 2e 18 90 3d
       -0.063323334 -0.052036416 0.21440879 0.07035862
000240 29 94 a3 bd 80 ff 84 bd db 86 a2 bd 56 24 6b 3d
       -0.07987244 -0.06494045 -0.07935878 0.0574077
000250 34 54 e7 bc e2 81 26 3d b0 98 48 3d 6c 36 93 bb
       -0.028238393 0.04065121 0.04897374 -0.0044925716
000260 36 ce 97 3d fb 53 7a 3d 89 03 18 bc 80 0c 6b bd
       0.074123785 0.061115246 -0.009278187 -0.057384968
000270 2b 17 25 bd 9f bf 4d bd 2f 3d d3 3a ba c4 74 3b
       -0.040305298 -0.050231572 0.0016116257 0.0037348703
000280 c1 f8 9e 3d 0e 86 55 3d 88 e7 17 3b ba 8e 4a bc
       0.0776229 0.052129798 0.0023178775 -0.01236313
000290 9e 43 80 3d d1 60 95 3d d9 6c 91 bd 08 68 b2 bc
       0.06262897 0.07293857 -0.07100839 -0.021778122
0002a0 0a 0b 99 bd f8 a2 7b 3d 15 aa 9c 3c 2e 08 3d 3d
       -0.07472809 0.061434716 0.01912407 0.04615038
0002b0 47 42 ea 3c 6b cc a5 3b f9 90 66 bd 9c fd 94 bc
       0.028596057 0.005059769 -0.0562906 -0.018187337
0002c0 98 4c fc 3c af a2 68 3d b6 92 7c 3c eb 87 41 bd
       0.030798241 0.056795772 0.015415838 -0.047248762
0002d0 d1 48 4d bd 67 79 68 3d 8c a6 12 bd 55 3b 35 3b
       -0.05011827 0.056756403 -0.035803363 0.0027653773
0002e0 6f ad 54 bd 33 dc 37 3d b3 14 0a bc ea 0f 9a bd
       -0.05192321 0.044887733 -0.008427787 -0.075225666
0002f0 9d 3f 5f bd 89 b4 4e bd bf d0 32 3c 79 b7 8e bd
       -0.054504026 -0.05046514 0.010914027 -0.069685884
000300 06 e3 cb bb 86 b1 0c bd da 97 7a bd 8d 9a d2 3c
       -0.0062221317 -0.034348987 -0.061179973 0.025708461
000310 1a 72 19 3d 0a 53 8f 3d 3f 4d 05 bd f4 ac 8a bd
       0.03746233 0.0699826 -0.03254437 -0.067712694
000320 b4 10 80 3d 74 d5 c9 bb 13 f7 8e 3d e1 3c 57 bd
       0.06253186 -0.006159479 0.069807194 -0.052548293
000330 14 bd ba 3c 17 b4 94 bd eb bb d0 bc 9f 2d 24 3d
       0.022795238 -0.07260912 -0.025480231 0.04008257
000340 8c d2 cb bc 72 ae 6f bd c4 7b 84 3d 6e d9 22 3d
       -0.02488067 -0.058515973 0.06468919 0.03975814
000350 0e d7 9c bd ff e4 40 bd 98 87 18 3d a8 33 0a bd
       -0.07658206 -0.047093388 0.037238687 -0.03374067
000360 0e 52 74 bd a2 e0 9c 3d 16 83 88 bc 69 85 80 3d
       -0.059648566 0.07660033 -0.01666407 0.06275446
000370 cf 6a 27 bd bf c1 93 3c 8c fd 2c bd 77 4c 52 39
       -0.040873345 0.018036721 -0.04223399 0.00020055646
000380 01 12 9a 3d 17 28 23 bd e1 c0 ec bc f9 5c 6a bd
       0.07522965 -0.039833155 -0.028900566 -0.057217572
000390 0f a9 53 3d 03 ba 77 bd 2d 4e ea bc 52 54 84 bd
       0.0516749 -0.06048013 -0.02860173 -0.06461395
0003a0 43 e5 7f bd ea 83 42 3c eb 2b 2b bd 6d c4 8e 3d
       -0.0624745 0.011872271 -0.04178993 0.06971059
0003b0 6a cc 92 3d 3f 11 2f bd 49 c9 06 bd e3 fe 9c bd
       0.07167895 -0.042741057 -0.032906804 -0.07665803
0003c0 d8 71 0e 3d 4e f2 33 bc bf 67 dc 3c d8 a2 37 bd
       0.03477654 -0.010983063 0.026904939 -0.044833034
0003d0 d1 70 2b 3d 04 b5 11 bd 8d a1 27 3d 1f d6 cd bb
       0.041855637 -0.03557302 0.04092555 -0.0062816287
0003e0 c8 a4 ff 3c 24 51 4a 3d 10 6e 95 3d 46 1c 96 3b
       0.031206504 0.049393788 0.072963834 0.004581007
0003f0 81 13 6e bd 9c 58 0a 3d bb f8 95 bc e3 48 90 3c
       -0.05812407 0.03377591 -0.01830708 0.01761288

conv2.0.bias f4 [16]
000000 c4 2c 6d bd fd ef df 3c 8d bf 1f bd 03 78 ab bd
       -0.05790402 0.027336115 -0.039001036 -0.083725
000010 25 14 0d 3d d3 3f 6c 3d 8a dd 80 3c 3d f9 db bc
       0.03444304 0.057678055 0.015730638 -0.026852245
000020 11 07 79 3c db 13 11 3d 49 c6 08 3d dc 0d 8e 3d
       0.015199439 0.035419326 0.033392224 0.06936237
000030 2c 00 5a 3d 94 ac 89 bd 02 1e 07 3d 38 12 48 bd
       0.05322282 -0.0672237 0.032987602 -0.0488455

fc1.0.weight f4 [120, 400]
000000 38 3e 0c bd 40 85 28 bd 41 f0 80 bb 24 d1 95 bc
       -0.034239024 -0.041142702 -0.0039348905 -0.018288203
000010 ea bd cf bc 91 24 c7 3a 5a a6 c9 bc af 07 d5 bc
       -0.025359113 0.0015193393 -0.024615455 -0.02600464
000020 16 27 9c bc ec 4d 1c 3d 92 3d dd bc 14 5f 01 3d
       -0.019061606 0.03816025 -0.027006898 0.031584814
000030 e8 7a 44 bb 5c e5 b2 bc 3e cb 51 bc e2 ca b6 bc
       -0.0029980484 -0.021837883 -0.012804804 -0.022313539
000040 3d 62 00 bd 48 c3 e8 3c 41 af 23 3d a1 7b ce 3c
       -0.031343687 0.02841343 0.039962057 0.025205435
000050 d7 41 36 bc 2b 69 36 bd a3 c8 14 3b 0e 9f 0f 3d
       -0.011124096 -0.04453389 0.0022702597 0.035063796
000060 f3 45 40 3d fd b9 bc bc e7 a8 87 3c e4 29 64 bc
       0.04694171 -0.023037905 0.016560031 -0.013926003
000070 7c 77 19 3d ff dc d3 3c 0e ac 3e 3d 0e 79 f9 bb
       0.037467465 0.025862215 0.046550803 -0.007613308
000080 6e c9 41 bd 3d ce b0 bc bd 49 12 3c dd 34 26 3d
       -0.04731124 -0.021582717 0.008928713 0.040577758
000090 ba d7 3e 3d 1b a0 0a bd ec e4 f0 3c 54 56 3c 3d
       0.04659245 -0.033844095 0.029406033 0.045980766
0000a0 84 d9 3a bd 53 f8 1e bd 52 51 b9 bc 49 47 61 bc
       -0.045617595 -0.03881104 -0.022621784 -0.013749906
0000b0 3c 00 42 3b ec 3a 07 3d 3c 1b b0 3c f0 1c b8 bb
       0.002960219 0.033015177 0.021497361 -0.005618684
0000c0 7d 63 a5 bc c5 1a 99 3c 1f 03 ef bc de 9e 1c bd
       -0.020189041 0.018689523 -0.029176293 -0.038237445
0000d0 b5 bf 3e 3c ae 61 18 bc 00 cb 23 bd e3 25 d0 3c
       0.011642386 -0.009300632 -0.039988518 0.02540869
0000e0 23 4a 43 bd 43 0d 9b bc 6d c0 03 bd ce f1 0f 39
       -0.047678124 -0.018927222 -0.032165933 0.00013727622
0000f0 88 9e 02 ba 0f 20 f3 bb 7d 95 53 3c 95 91 3e bc
       -0.00049827294 -0.007419593 0.012914059 -0.011631389
000100 ae db a3 3c 2d 40 12 bd a2 60 23 bd 9e 59 dd bc
       0.020002212 -0.035705734 -0.039887078 -0.027020272
000110 5e b7 27 bd 87 7e f3 bc f8 01 d7 3c c2 ea 29 bd
       -0.040946357 -0.029723419 0.026246056 -0.041483648
000120 ff 31 32 bc 0d e7 9a 3a a5 20 96 3c b4 8f e6 3c
       -0.010876178 0.0011818126 0.018326113 0.028144695
000130 ad a8 bf bc 17 7c c8 bc dc 27 10 bd e4 ab cb bb
       -0.02339586 -0.024473233 -0.035194263 -0.0062155593
000140 22 d8 e4 bc 9f fa fa bc 81 2f a7 bc 0c c2 7d bb
       -0.027935091 -0.030637084 -0.020408394 -0.0038720397
000150 2d 72 02 3d d7 29 a0 39 ac c1 9f 39 66 6e 0a bd
       0.031847168 0.0003054875 0.0003047114 -0.03379669
000160 6d 04 1e bd 08 d1 a6 3b 18 aa ff bc ad 18 b7 bc
       -0.03857844 0.0050908364 -0.031209037 -0.022350634
000170 c4 86 71 bc a2 ab 85 bc 2d 05 1a 3d 7b 36 26 bd
       -0.014741603 -0.016317192 0.037602592 -0.0405793
000180 e7 54 86 3c 1b fc f8 3c 5a f1 1a 3d 15 35 e2 bc
       0.016397906 0.03039365 0.037827827 -0.027613202
000190 3b 59 92 3c c0 9b 6c bc c6 97 37 3d 52 14 e4 3c
       0.017864814 -0.014441431 0.044822477 0.02784172
0001a0 af 6d b8 bc 3d b4 8d bc 60 3f fe 3c d2 88 fe bc
       -0.022513239 -0.017297858 0.031036079 -0.0310711
0001b0 ed ae 45 3d 71 c5 15 bd f4 bc bb bc f0 88 61 3c
       0.048262525 -0.036565248 -0.022917248 0.013765559
0001c0 d7 ae 16 bc ef 75 b3 3c ec d3 6b 3b 7c 00 3c bd
       -0.0091969585 0.021906821 0.003598447 -0.0458989
0001d0 22 b0 05 bd 02 f7 0f 3d 9e 28 9f ba bb ed d0 bb
       -0.032638676 0.035147674 -0.0012142842 -0.006375996
0001e0 b7 44 42 bd 10 00 28 3d 35 3a 1a bd 8e 47 f0 bc
       -0.047428813 0.041015685 -0.037653167 -0.029330995
0001f0 33 73 78 bc df 67 10 bd 86 4a 27 ba 75 1e 17 bd
       -0.015164184 -0.03525531 -0.00063816493 -0.03689428
000200 47 1d 67 bc c2 03 8e bc de 28 b2 bc 38 89 40 bb
       -0.014106101 -0.017335776 -0.021748003 -0.0029378664
000210 e4 04 e0 3c 17 91 2c 3d 1f c0 06 bd d9 37 9d bc
       0.027346082 0.042130556 -0.032898065 -0.01919167
000220 6d 7e 07 bd d6 ec 16 bd 35 59 3b bd 11 70 07 bd
       -0.033079553 -0.036846958 -0.04573937 -0.03306586
000230 5b 0e 85 3c 4d a0 19 3d cc 4c 20 bd e3 80 9e 3c
       0.016242197 0.03750639 -0.03913574 0.019348567
000240 09 ca e8 3c 49 cf 29 3d 60 6c 9d 3c 93 32 92 bc
       0.02841665 0.04145745 0.019216716 -0.017846381
000250 04 b2 bb bb 94 1e de 3b 4b 1c 01 3d ca cd 6c 3c
       -0.005728008 0.0067785475 0.031521123 0.014453361
000260 ce ef dc bc 63 16 bd bb 2f 5a 0a 3c 67 fc 21 3d
       -0.026969817 -0.005770491 0.008444353 0.03954735
000270 7a f0 c1 3c c0 35 1b bd fc a4 2f bd 11 e5 bd 3c
       0.023674238 -0.037893057 -0.04288195 0.023180516
000280 38 aa e4 bc 6b c4 53 3c 12 61 be bc f4 bb 8a bc
       -0.027913198 0.012925248 -0.023239646 -0.016935326
000290 11 29 53 bc 49 7f 18 3d d2 69 0d 3c 1d 94 02 3c
       -0.012888209 0.037230764 0.008631187 0.007969883
0002a0 f2 88 b1 3c a2 e7 ce 3c ef d3 8e 3c 3a 0c ac 3c
       0.021671746 0.025256936 0.017435042 0.021001924
0002b0 bb a5 a4 bc f1 63 41 3d 23 fb 05 bd 19 29 20 3d
       -0.020098558 0.047214452 -0.032710206 0.039101694
0002c0 c2 d6 b8 bc e1 42 cd 3c cb b9 92 3b 6f a0 7d bc
       -0.022563342 0.025056304 0.0044777147 -0.015480145
0002d0 73 d5 15 bd 5b 42 36 bd 75 fa 12 bd af 53 3c 3d
       -0.036580514 -0.044496875 -0.035883386 0.045978244
0002e0 4f 49 8c 3a 7d 7c b0 3c b1 ce 19 bd 11 2b b5 3c
       0.0010703 0.021543736 -0.037550632 0.022115262
0002f0 f9 47 30 3c ee 7b 1c 3c 0f 0b 2e b9 3e 24 09 bd
       0.010759347 0.0095510315 -0.00016598053 -0.03348183
000300 3b ce a2 bc 0d f1 0d 3d 2c ff 27 bd 49 75 84 3c
       -0.019873729 0.034653712 -0.041014835 0.016169207
000310 d3 87 5f 3c 49 46 3d 3c b3 5b 14 3d c7 c1 30 ba
       0.013643223 0.011552402 0.036220264 -0.0006742742
000320 85 40 d8 bc df 6c 31 bc 81 28 01 3d c0 a5 3f bb
       -0.026397953 -0.01082918 0.03153277 -0.0029243082
000330 8b e4 b4 3c b5 e8 85 3c 8a 7a fa bc 57 a2 3d 3c
       0.022081634 0.016346315 -0.03057601 0.011574349
000340 fd 0b d9 bb 7c 7c b9 bc 6b 34 bd 3b e9 07 00 3c
       -0.0066237436 -0.022642367 0.005774071 0.007814386
000350 89 b4 b6 bc 6b af 10 3a a4 c2 05 3d 35 54 f4 3b
       -0.022302883 0.00055193034 0.032656327 0.0074563273
000360 df 6d 03 3d 45 d4 d3 bc da 7b 76 3b d1 35 cc bc
       0.032087203 -0.025858054 0.0037610442 -0.024928005
000370 56 52 37 3d 66 b4 ca 3c cd e2 9e 3c 5f 34 3e 3d
       0.044756256 0.024744224 0.019395256 0.046436664
000380 1d 7f 99 bc 7f 77 ad bc 00 52 15 3c 87 06 bb bb
       -0.01873737 -0.021175144 0.009113789 -0.005707565
000390 53 c4 8a bc d8 69 3b bd 1c e0 40 3c c9 be 13 3c
       -0.016939318 -0.045755237 0.011772182 0.009017655
0003a0 e0 e5 e2 3b 2c 7b 18 bd 2d 9f 3d bd cd cd 23 bd
       0.006924376 -0.03722684 -0.04629438 -0.03999119
0003b0 cc dc 4f bb 41 b0 17 bd 2a 16 06 bd e0 95 b2 3c
       -0.0031717299 -0.037033323 -0.03273598 0.021799982
0003c0 7b f1 73 3c e6 20 2a bd cd 4b 9a bb 6b c7 03 3d
       0.014889116 -0.04153528 -0.004708743 0.0321726
0003d0 3a a8 57 3c ae 53 00 3b b9 0e 5b 3c ff 7a b9 bb
       0.013162667 0.0019581127 0.013370209 -0.005660414
0003e0 73 6e 36 3c 71 f0 94 bc b9 91 dd bc 69 34 d5 bc
       0.011134732 -0.018181058 -0.027047025 -0.026025968
0003f0 6e b4 2a bd 5c e2 45 3c b5 42 96 3c 95 e9 1d 3b
       -0.041675977 0.012077894 0.018342355 0.0024095525

fc1.0.bias f4 [120]
000000 08 09 e8 3c 9e 32 02 3b 7f ff 58 3d 6a 6c cb 3c
       0.028324619 0.0019866596 0.052978035 0.02483197
000010 87 b1 cd bc c6 90 e0 bb 1a 34 87 3c e4 f8 8e bc
       -0.025109066 -0.006853196 0.016504336 -0.017452665
000020 8f 92 03 bd a1 8b 4d b6 21 6f 08 bd 71 e5 ad 3c
       -0.03212219 -3.0628655e-06 -0.033309106 0.02122757
000030 ec cc e9 3a de 7b 7d 3b c2 f6 a4 3c 95 79 04 bd
       0.0017837561 0.0038678567 0.020137195 -0.032342512
000040 88 f3 3d bd fd 93 17 3d c1 49 9b bb 34 ee 1b 3d
       -0.046374828 0.037006367 -0.0047390168 0.038068965
000050 f0 b2 64 bd 1b 60 b8 bc 94 44 df bc 24 92 81 3c
       -0.05583471 -0.022506764 -0.02725438 0.015816756
000060 35 cd db bb 16 bf 0d bd 64 f4 32 3d b1 f6 b2 bc
       -0.006707812 -0.034606062 0.0436901 -0.021846147
000070 45 c8 84 bb 78 a6 88 bc 3d c5 c2 bb 9f a1 1f bd
       -0.0040521943 -0.016680941 -0.005943923 -0.038972493
000080 38 18 67 3d 9a 7f 45 bc ce b1 f3 bb 21 a4 f9 bb
       0.05641958 -0.012054348 -0.0074369675 -0.0076184426
000090 fd b4 63 3b 07 10 0f 3b ba d0 0c 3d ce d8 38 bd
       0.0034745329 0.0021829621 0.034378745 -0.045128636
0000a0 53 5e a9 3b 9e c0 fc 3a 6c 78 ce bc fa 6e cb 3b
       0.005168715 0.0019283479 -0.025203906 0.006208298
0000b0 dc 63 3b 3d 6e 9c 6e bd 8f 2a e5 3c 97 7e 10 3d
       0.04574953 -0.05825465 0.027974395 0.035276975
0000c0 7c eb af 3c 7f 53 d2 3c 01 e4 12 bd 8f cd 7c bc
       0.021474592 0.02567458 -0.035861973 -0.015429868
0000d0 9a ac ae 3c 40 3d 15 bc e5 c3 58 bd 1e c0 af bc
       0.021322537 -0.009108841 -0.052921195 -0.021453913
0000e0 2a 7a fc 3c 76 24 85 bc 28 58 ce 3c 62 31 b4 bc
       0.030819971 -0.016252737 0.02518852 -0.021996204
0000f0 52 af 9d 3c a9 70 66 3c 60 a0 51 bd f6 37 28 38
       0.019248638 0.014064946 -0.051178336 4.010644e-05
000100 dc 1f e4 3c d1 be 49 3d cc c3 d7 3c e7 da 3b bd
       0.027847223 0.049254242 0.02633848 -0.04586306
000110 db 8b 2a 3d 77 b1 e5 bc e5 70 38 3d c7 e3 e4 bc
       0.041637283 -0.028038723 0.04502954 -0.027940644
000120 3e e4 19 bd 56 93 33 3d 73 d9 0a 3c f7 6e 3c 3d
       -0.037571184 0.043841682 0.0084746955 0.04600426
000130 18 d6 8a 3d ed 0b 67 3d 89 c8 1b bb fd 74 bc bc
       0.067791164 0.056407858 -0.0023770651 -0.023005003
000140 4e 0b 63 bd 9b ad 11 bd 07 f1 11 bd 8a 54 db bc
       -0.055430703 -0.035565954 -0.035630252 -0.02677371
000150 2e af af 3a cb 1e 62 3c dc 86 8e 3c 9d 70 0c bd
       0.0013403648 0.013801287 0.01739829 -0.034287084
000160 f2 2d 4f 3d 53 ea de bb 4f 3f db 3c 1d 7f 61 ba
       0.050580926 -0.006802836 0.026763586 -0.000860201
000170 fc 22 2a bd fa d5 09 3d 91 cd c8 bc a1 3b ae bc
       -0.04153727 0.03365133 -0.024512084 -0.021268668
000180 10 f4 1b 3d 86 84 3f bd 41 b0 f0 ba f0 94 b2 3c
       0.038074553 -0.046757244 -0.0018363075 0.021799535
000190 a1 68 18 3c 7e 4b 43 3c 03 c1 8b 3c cb ae 1d bd
       0.009302289 0.011919854 0.017059809 -0.038496774
0001a0 ef 64 2d bd b3 56 2e bd b4 a2 a6 bc 5d 62 a5 3c
       -0.042332586 -0.04256315 -0.020341255 0.020188505
0001b0 f6 4c 2a 3b d4 c1 7b bc fb 4f 3a bd 3b c5 ec 3c
       0.0025985814 -0.015366036 -0.04548643 0.02890264
0001c0 b6 ce 3f bd c6 48 cb bb 8d 44 a2 3c d3 2c d3 3b
       -0.046827994 -0.0062037436 0.019808078 0.0064445524
0001d0 74 84 0c bd c6 f7 d5 ba 0f bf 9c bc 7d 47 86 3c
       -0.034306005 -0.0016324453 -0.019134073 0.01639151

fc2.0.weight f4 [84, 120]
000000 82 d9 93 bd f5 99 a5 bd 6e f7 f3 bc 98 b9 29 bd
       -0.07219221 -0.080860056 -0.02978107 -0.04143676
000010 ff 28 74 3c 6d 39 73 3c 7a b7 e0 3c 10 87 a7 3d
       0.014902352 0.014845234 0.027431238 0.08180058
000020 56 ae c0 bc a9 00 2f bd 3d 36 92 bd 6c e6 8e bd
       -0.02352063 -0.04272524 -0.071392514 -0.06977543
000030 4d 19 64 bd f7 07 aa bd ff f1 3b bc ed 72 99 bd
       -0.05568819 -0.083023004 -0.011471271 -0.074926235
000040 e2 4c 9e 3c 15 c8 15 3c 0c 6e 53 3d 96 ea 8c 3c
       0.01932377 0.009141942 0.05161862 0.017201703
000050 6a 4e 9b bc 2c 00 88 bc bb a5 57 bd a4 b1 e3 bc
       -0.01895829 -0.016601644 -0.052648287 -0.027794667
000060 42 cf c0 bc 8c de 40 3d 15 db 58 bd ba 7e e8 bc
       -0.023536328 0.047087237 -0.052943308 -0.02838074
000070 86 98 93 bd 92 c0 61 3d 15 33 1b bd 99 0d ad 3d
       -0.07206826 0.05511529 -0.037890512 0.08449859
000080 11 3e 90 bc 09 e8 7a bd 1a 24 0d bd fc 3d eb bc
       -0.01760772 -0.061256442 -0.034458257 -0.02871608
000090 9e 66 6a 3b c1 62 0a bd 9f b1 21 bd 08 8d b9 bc
       0.003576673 -0.033785585 -0.039476033 -0.022650257
0000a0 3d af 91 3d cf 97 40 3d 4a 08 15 3d 2f 14 38 bd
       0.07113502 0.047019776 0.03638486 -0.044941124
0000b0 bb b4 b0 3d 02 82 06 3b 49 e5 97 bd 7b e9 8e 3d
       0.086282216 0.0020524268 -0.074167795 0.069781266
0000c0 4b b7 4e bc 52 cd a7 bd dc 40 66 39 c5 16 17 3d
       -0.012616943 -0.081934586 0.00021958671 0.03688695
0000d0 e3 c3 7a bc 54 02 94 bd ca 95 46 bd cd bb 37 3d
       -0.015305492 -0.072270066 -0.048482694 0.044856835
0000e0 81 62 99 3b cc 19 87 3d e7 a0 9d bb e1 3b b6 bb
       0.004680932 0.06596717 -0.004810441 -0.0055613373
0000f0 41 15 b5 3c 1d 00 5b 3c bc 72 60 bd a2 b6 13 3d
       0.022104861 0.013366726 -0.05479692 0.036062844
000100 f4 73 ac 3d 79 d4 1e bd fb 9b 5e 3d 9f ec 7c bd
       0.08420554 -0.03877685 0.054347973 -0.061749097
000110 52 97 ab bd 20 1f 4f 3b 3a c0 b6 bc b0 4a 2d bd
       -0.083784714 0.0031604245 -0.022308458 -0.042307556
000120 78 95 e0 39 f2 70 23 3d 9d e1 29 3d a5 b2 b2 bd
       0.00042835972 0.039902635 0.041474927 -0.0872548
000130 ec 3d 63 3d df f9 9a 3b 1e dc b3 3c 81 89 7a bd
       0.055478975 0.004729494 0.021955546 -0.06116629
000140 7d 88 4f 3d 94 7d 20 3d fb c2 96 bd e6 a4 ae bc
       0.050667275 0.03918226 -0.07361408 -0.021318864
000150 ba 02 c7 bc 71 d2 71 3d 31 f6 31 3c 2e e7 69 bb
       -0.024293292 0.059038583 0.010861919 -0.0035690772
000160 b6 15 4f 3d 18 c9 af bd 67 17 aa bd b8 16 98 bd
       0.050557815 -0.085832775 -0.08305245 -0.07426208
000170 6b 70 9b 3d 17 57 8d 3d d0 b6 62 bd 68 e7 af bc
       0.075898014 0.06901377 -0.055350125 -0.021472648
000180 41 27 51 bc a9 b6 f4 bc 6f b5 20 3d 45 a1 f7 3c
       -0.0127657065 -0.029872255 0.03923553 0.030228266
000190 88 f8 55 3c bb be 75 bd 66 2c 22 3d 5e aa c5 3b
       0.013059743 -0.059996348 0.039593123 0.0060322722
0001a0 be 0d 91 bc 17 ef 4f 3c bc ad cd 3a f5 e8 87 bd
       -0.017706748 0.012691281 0.0015692036 -0.0663623
0001b0 7e 09 49 3c 0b a2 f7 bc bc de 83 bd c6 64 22 bd
       0.0122703295 -0.030228635 -0.064389676 -0.039646886
0001c0 2c 32 df bb ee b8 6d 3d 36 05 7b 3d a9 04 96 3d
       -0.006811401 0.05803769 0.061284266 0.073251076
0001d0 7c 1b e8 bc 2c 30 a1 3c 33 ed aa 3c e8 8b 68 3d
       -0.028333418 0.01967629 0.020865059 0.05677405
0001e0 d8 69 07 3b b6 27 c5 bc e2 dd 90 bb f9 9c 87 bd
       0.0020662453 -0.024066787 -0.0044209817 -0.06621737
0001f0 f8 80 6a 3c 53 82 a4 bd 18 e2 4c bd 49 44 bc bc
       0.014312975 -0.0803267 -0.050020307 -0.02298178
000200 4d eb 12 3b c1 8a 51 bd 1a 5d 6a bd ac 7f f4 3b
       0.0022418082 -0.051157717 -0.057217695 0.0074615087
000210 80 92 95 3d c7 01 71 bc 24 f0 82 bd 2f 8d 8f 3d
       0.07303333 -0.014709896 -0.063934594 0.070093505
000220 56 08 19 bc b5 03 92 bd 0b 5b 67 bb 24 49 9e 3d
       -0.009340366 -0.07129613 -0.0035302069 0.07728794
000230 c7 f0 0b 3d ec f9 56 3c 54 37 4a bd 28 39 12 bc
       0.03416517 0.013121109 -0.04936917 -0.00892476
000240 a5 fc 82 3d 81 88 47 3c 4a 80 8f 3d da 6d a2 bd
       0.06395844 0.012178541 0.07006891 -0.07931109
000250 7c b3 9b bd 32 dc 76 3d ac ea 7e bd de d2 ff 3c
       -0.07602593 0.06026859 -0.06223552 0.031228479
000260 9e 2f 89 3d 08 5d bd bb fd 47 e8 bc e7 b7 42 3d
       0.066985354 -0.0057789125 -0.02835464 0.047538664
000270 7c 81 93 bd 29 e5 3c 3d 97 4c 0b 3c 79 b2 c8 bb
       -0.072024316 0.04611698 0.008502147 -0.006124791
000280 cd 6d 27 3d be 3b 5d ba 80 ee a9 bd 72 b9 0d 3d
       0.0408762 -0.0008439383 -0.082974434 0.034600683
000290 dc 36 28 bb ff fb 03 3d 77 19 90 bd d7 b8 11 3d
       -0.0025667464 0.032222744 -0.07036107 0.035576668
0002a0 b5 61 bf 3c 52 e2 a2 bd 11 8a 57 3d 82 9e a5 3d
       0.02336202 -0.079533234 0.052621905 0.080868736
0002b0 84 18 74 3d 0d 24 cb 3d 50 ad 32 bd c3 07 0d 3d
       0.059593692 0.099189855 -0.043622315 0.03443123
0002c0 a6 32 c0 3c 1f aa 66 bb 07 f7 d8 bc 5d 97 54 3d
       0.023461651 -0.0035196615 -0.02648498 0.051902164
0002d0 6a a6 ba bd bc 6a 4c 3d c3 ef 20 bd fb 92 f6 3c
       -0.09113772 0.049906477 -0.039291155 0.030099383
0002e0 94 b7 c3 3c 27 14 bc bc 84 bd 57 bd bb c8 27 bd
       0.023891248 -0.022958828 -0.05267097 -0.040962916
0002f0 bb e8 a8 3d b4 80 5a bd 1f 42 d8 bc b3 c7 03 3d
       0.08247515 -0.053345397 -0.026398716 0.03217287
000300 da df 14 bd 76 37 6c bd 4f f2 bd bc b5 fd 9a bd
       -0.036346294 -0.05767008 -0.02318683 -0.07567922
000310 b5 6f 8b bd aa 76 76 3d 71 7c a6 3c c1 6c 7f 3d
       -0.06808416 0.06017176 0.02032301 0.062359575
000320 ee 9b ab 3d 0a 7f a3 bd c9 97 3b 3c e0 f5 01 bc
       0.083793506 -0.07983215 0.011449763 -0.007932156
000330 39 55 a5 3c 68 6d 68 bd e6 68 48 bc 59 32 48 bd
       0.020182239 -0.056744963 -0.012232041 -0.04887614
000340 d3 03 5a bc 4b e3 9c 3c 2c 3d b7 3d 25 74 91 bc
       -0.013306576 0.01915135 0.089472145 -0.017755577
000350 d5 cf 7a bd e0 bf 89 bd 05 b3 17 bd 94 da 9f bd
       -0.06123336 -0.067260504 -0.03703596 -0.07805362
000360 b4 10 9f bc 48 82 ad bd 99 a2 88 3d 47 d1 83 bd
       -0.019417144 -0.08472115 0.06671638 -0.06436401
000370 ae c1 9f 3d 50 9b 2c bd 33 3c 32 bd b9 b9 98 3d
       0.07800613 -0.042140305 -0.04351444 0.07457299
000380 d6 d3 16 bc c0 fe 4e 3d 16 df bd 3c ee 39 6f bd
       -0.009205779 0.050535917 0.023177665 -0.058404855
000390 ee 0e c8 3d d7 b7 3a bd 28 8c 5d 3d d7 31 d2 3d
       0.097684726 -0.04558548 0.05408874 0.102634124
0003a0 d7 55 1c 3d ff a8 cf bc da 3f 8f bb a4 fc 8c 3d
       0.0381678 -0.025349138 -0.0043716254 0.06884125
0003b0 de 83 86 bd 45 88 00 3d 10 88 04 bc 3b 8a 61 bb
       -0.065681204 0.031379957 -0.00808908 -0.0034414667
0003c0 ff 54 ac 3d 04 5d ae bc 04 b5 be 3d 71 20 85 3d
       0.08414649 -0.021284588 0.0931187 0.06500328
0003d0 3d 33 dc 3c 36 bf 0b 3d 9b 2a 16 bd 7c 6c c0 3d
       0.026879901 0.0341179 -0.036661725 0.09395692
0003e0 27 b3 b2 bb ae bc e1 bd 08 9b 99 3d a6 d8 32 bd
       -0.0054534855 -0.11022316 0.07500273 -0.043663643
0003f0 55 07 8e 3b 67 0d 9f 3c a2 58 89 3d 21 af 5d 3d
       0.00433437 0.01941557 0.067063585 0.054122094

fc2.0.bias f4 [84]
000000 24 53 56 bd c3 1c 9c bd b1 e2 05 bd 41 05 30 3c
       -0.052325383 -0.07622673 -0.032686893 0.01074344
000010 5a 02 1d 3d 5d 06 02 bd 18 37 bc ba 35 44 26 3d
       0.03833232 -0.03174435 -0.0014359681 0.04059239
000020 f8 96 aa bc f4 f3 a0 3d ec cd 4f 3d fa bb 8b 3d
       -0.02082394 0.0785903 0.05073349 0.06822963
000030 c7 6c 6c 3d 46 45 0c 3e 9f d6 ef bc 5f 62 ea 3d
       0.057720926 0.136983 -0.029277144 0.11444544
000040 ef 49 93 3d b6 f1 94 bd 0c 31 2e bd e6 22 e0 3a
       0.07191836 -0.07272665 -0.042527243 0.0017100244
000050 9d 57 b0 3d a6 ca eb bc 68 c5 55 bd 36 30 0c 3c
       0.08610461 -0.028783154 -0.052190214 0.008556416
000060 6b c0 1d 3d 51 0c 28 bd d2 ca 51 3c 1e 70 bf 3d
       0.038513582 -0.04102737 0.012804704 0.093475565
000070 d7 37 8e 3d 9d 14 f1 bd 6e c0 fb bc 78 b1 7a bd
       0.06944244 -0.1177151 -0.030731406 -0.061204404
000080 44 f5 2a 3d ef 13 9b bd 48 5c ac 3d f2 1c 8a 3d
       0.04173781 -0.075721614 0.08416039 0.06743802
000090 1d 50 27 3c 70 5b 16 bc f9 cf 42 3b 93 46 14 bd
       0.010211972 -0.009177074 0.0029726012 -0.036200117
0000a0 d0 90 03 bd 91 91 61 3d 6c c4 e2 3c ca fb a3 bd
       -0.032120526 0.055070464 0.027681552 -0.08007009
0000b0 df 3d a0 bd c0 6a 9d bd e1 16 ab 3c f4 6d 75 3d
       -0.07824301 -0.076863766 0.020884933 0.059919313
0000c0 87 98 1f 3e 49 d1 f5 3b d3 ca b9 3d eb 0a 13 bd
       0.15585528 0.0075017554 0.09071889 -0.035899084
0000d0 53 a8 5d 3d d2 db 4d 3d a3 ae a4 3d b0 16 78 bd
       0.054115605 0.050258465 0.08041122 -0.06056851
0000e0 be b4 a1 3c ae 62 fd 3c 8e ef b6 3c 86 8a be 3c
       0.019739505 0.030930843 0.022331025 0.023259412
0000f0 94 25 6e bd c0 91 c4 3c 8a 57 e5 3c 70 c8 4b 3d
       -0.058141306 0.02399528 0.027995843 0.0497517
000100 3e 0f 80 3d be 86 30 3c e6 50 9d 3b 3e 67 0d bc
       0.06252907 0.010774313 0.0048009036 -0.008630572
000110 f8 21 c9 bc 9a 9e a0 3d fc 72 ef bc 49 2a 0a bb
       -0.02455233 0.07842751 -0.029229634 -0.0021082333
000120 d9 a9 79 bd 14 11 a4 bc 1a 94 3f 3d 7e 1e c2 3d
       -0.060952995 -0.020027675 0.0467721 0.09478472
000130 2f 0e 8f 3d 9f 84 8e bd 04 70 24 bd 2e 22 92 3d
       0.06985127 -0.06958889 -0.04014589 0.071354255
000140 5d 72 24 3d 0d 40 ed bc c4 3d de bc 66 90 a3 3d
       0.040148128 -0.028961206 -0.027129062 0.07986526

fc3.weight f4 [10, 84]
000000 95 8c 78 bd 3e 6d 28 3d e3 b6 28 bd 06 05 73 bc
       -0.060680944 0.041119806 -0.04119004 -0.014832741
000010 f0 77 23 3e d8 16 bf 3d 1c 35 04 bd 40 63 00 be
       0.15963721 0.09330529 -0.03227721 -0.12537861
000020 36 e9 84 bd 43 5c a1 bd 9c 19 13 3e 1c 4e ed bb
       -0.06489794 -0.07878926 0.14365238 -0.0072419774
000030 75 38 3b 3e 76 1a b9 bd d1 76 0e be ce be 79 be
       0.18283255 -0.0903825 -0.13912512 -0.24389192
000040 0c b7 ca bd 95 5c af ba 75 06 a5 3c 8d 39 0f bb
       -0.09898195 -0.0013379032 0.02014468 -0.0021854371
000050 a6 0e c1 bb e4 b5 2e 3d bf 20 2a 3c ba 84 09 3c
       -0.005891639 0.042653933 0.010383784 0.008393461
000060 64 31 02 3c 99 3b e4 3d b0 2e 91 bb 2c 97 66 3d
       0.007946346 0.1114418 -0.0044306144 0.056296512
000070 01 57 34 bd 12 d7 fa bc 9f 93 b8 bc 90 af 00 bc
       -0.044028286 -0.030620132 -0.022531329 -0.007854357
000080 1e 93 9f bd d7 47 c9 3c bf 9a ea 3d c6 c8 72 be
       -0.07791732 0.024570389 0.11455297 -0.23709401
000090 66 e3 65 3c f1 04 5f bc 38 88 84 bd 6a 03 1a 3c
       0.014031267 -0.013612018 -0.06471294 0.009400228
0000a0 40 a7 22 bd 88 4e 9a 3e 4e e1 46 bd f0 8d e6 bd
       -0.039710283 0.3013804 -0.04855471 -0.11257541
0000b0 7a bf 71 bd 9c 1e c4 bd 66 cd 7f be a3 05 97 bc
       -0.059020497 -0.09576151 -0.24980697 -0.018435305
0000c0 73 de 19 be 04 09 05 bd 66 10 45 bd 94 3d 7e bd
       -0.15026264 -0.0324793 -0.048111342 -0.062070444
0000d0 b3 f3 a1 bd a0 99 12 3e 67 64 1a 3e a8 90 eb bc
       -0.0790781 0.14316416 0.15077363 -0.0287555
0000e0 e4 64 05 3e d5 13 b4 bb 6f 30 1e 3e f8 76 71 bd
       0.13026768 -0.005495528 0.15448163 -0.058951348
0000f0 7a 32 81 3d bf 7e e0 bd 72 80 0a be 8e 7d 65 3d
       0.06308456 -0.10961675 -0.1352556 0.05602794
000100 3d e8 c1 3d ff 13 dc 3d 8f 89 e8 3d 26 eb 85 bd
       0.09468124 0.107460015 0.11354362 -0.06538992
000110 34 bf ac bd a3 a5 6c 3e 41 13 79 3c 5c c3 8a 3d
       -0.084349066 0.2311006 0.015202344 0.06775543
000120 75 56 67 3c 97 3f c4 3c b7 6d c4 3d 8e fa 3c bd
       0.014119734 0.023956103 0.09591239 -0.046137385
000130 ff fa 06 3d e2 2c 3d 3e a3 3a a4 be 3f 61 70 bd
       0.032954212 0.18474153 -0.32075986 -0.05868649
000140 00 f4 21 bb 51 73 f2 ba 80 6b 83 3d 7d ab a8 3d
       -0.0024712086 -0.0018497502 0.064169884 0.08235834
000150 24 50 77 3d 55 ec 9f 3d c2 51 e8 bd 4f ca 24 bd
       0.060379162 0.07808749 -0.11343719 -0.040232
000160 9e ca ac 3d 51 49 33 3d 47 f8 00 3e db 8f a9 3b
       0.08437084 0.04377109 0.1259471 0.0051746196
000170 c7 78 97 bc 8b 9e 87 bd a1 06 20 ba 99 5c 9f 3d
       -0.018490208 -0.066220365 -0.00061045034 0.077813335
000180 eb 2b 33 bd c5 6b 60 3d c9 2f b6 3d dd 51 84 3e
       -0.043743055 0.054790277 0.08895833 0.25843707
000190 8e 39 ed 3a 3e 01 b4 3c 54 60 36 3c 8b 89 a6 3d
       0.0018098818 0.021973249 0.011131365 0.08131703
0001a0 63 b0 ed bd 09 d3 ae bd 8a aa c3 3d 6c 0a 88 3b
       -0.11605909 -0.085363455 0.09554012 0.004151633
0001b0 e0 28 58 be 3c d2 ae 3b 5a a8 5c be e0 91 a9 3b
       -0.21109343 0.0053351205 -0.21548596 0.0051748604
0001c0 33 25 3f 3c 70 68 37 3d d2 fa 01 3d 67 ec af bd
       0.011666584 0.044777334 0.03173334 -0.08590012
0001d0 5a ca 57 3d 26 cd cb 3d 05 e6 5f 3e c7 fe 33 3d
       0.052683212 0.09951238 0.21865089 0.043944146
0001e0 54 6c 81 3d 9a 5c 12 3a a1 63 9f 3d c6 32 bf 3d
       0.0631949 0.0005583257 0.077826746 0.09335856
0001f0 bc ed eb bd e6 b7 c1 bb 45 f8 12 3e 7e f3 a0 bd
       -0.115199536 -0.005911815 0.1435252 -0.078589424
000200 f9 f8 07 3e e8 d3 b8 bd 42 53 70 3e 29 2a 31 bd
       0.1327857 -0.09024793 0.2346926 -0.043253098
000210 6a f2 ae 3e bf 97 83 3d 83 34 8a 3d c8 d7 c0 bd
       0.34169322 0.06425428 0.06748297 -0.09416157
000220 2f e6 9b bd bc 37 61 3e 98 f7 e2 bd 22 16 35 bd
       -0.076122634 0.21993917 -0.11082381 -0.04421056
000230 bb 50 ee bd 79 a8 b1 bd a8 70 99 bd 1d db 43 bd
       -0.11636492 -0.08674712 -0.074921906 -0.047816385
000240 61 16 5a be fd d1 e3 bd bb 1e 86 3d be a4 28 bd
       -0.212976 -0.111240365 0.0654883 -0.041172735
000250 d6 2e 17 bd 70 cf bf 3d fa 8a 6b be a0 f6 30 be
       -0.0369099 0.093657374 -0.23002234 -0.1728158
000260 1a 28 8f bd 52 e3 fb 3d 0f 95 ad bb ce 7e 89 bd
       -0.06990071 0.12299217 -0.00529731 -0.06713639
000270 9c e3 af bd 95 24 4c be 30 a2 21 be 8b 04 90 3e
       -0.08588335 -0.1993583 -0.15784526 0.28128466
000280 aa ac c0 3d 7e df 04 be 9e dd 4e be 6a 13 20 be
       0.09407933 -0.1297588 -0.20201728 -0.15632406
000290 6d 1b 5e 3d b4 8d c1 bd fb ee de 3d 74 ab 68 3e
       0.054225374 -0.09450856 0.10885426 0.22721654
0002a0 90 59 b9 3d cc 12 03 bd 29 4a 18 be 54 53 d9 3d
       0.09050286 -0.032000348 -0.1487204 0.10611597
0002b0 54 7f 97 3e 6f 58 8a bd ed b8 bf bd d6 2f 16 3d
       0.2958933 -0.067551486 -0.09361444 0.036666714
0002c0 e1 8a a1 bd ac 16 4d 3d 82 27 41 3d ac d7 0b 3d
       -0.07887817 0.05007045 0.04715682 0.034141228
0002d0 05 46 83 be ff 7c 1c bd 5c a0 b1 3d 26 34 64 bd
       -0.25639358 -0.038205143 0.08673164 -0.055713795
0002e0 a8 dd 20 be 37 0c 07 bb 6d 8d 62 bd 37 e9 6e bd
       -0.15709555 -0.0020606646 -0.055310655 -0.05832788
0002f0 de 75 32 bd 65 c1 d0 3d 8d 93 03 3c c9 14 d5 3d
       -0.04356944 0.10193137 0.008030784 0.10404355
000300 84 63 4a be 6c 02 83 bd 70 27 e7 b8 c5 10 ae 3d
       -0.19764525 -0.06396946 -0.00011022284 0.08499292
000310 07 4d d7 bd 9a 33 b8 3d 9c 03 16 be c2 0d a9 3c
       -0.10512739 0.08994217 -0.14649814 0.020636443
000320 9b 3d 69 be 09 a0 10 bd ad 58 de bd 7c 74 c4 3d
       -0.22777407 -0.03530887 -0.10856757 0.0959253
000330 7b 1c 96 bc 1a 73 19 be 3c d9 9b 3d d2 2c 57 bb
       -0.018324127 -0.14985314 0.076097935 -0.0032833111
000340 e9 7d 0b 3d ee 45 b7 3d c3 51 0e 3e 4f d5 40 be
       0.034055624 0.08948885 0.13898377 -0.18831371
000350 1a fa 51 be ad 1d b5 bd bd 9e 48 3e 9f 70 62 3c
       -0.20505562 -0.08843551 0.19591804 0.013820796
000360 96 88 d2 bd 9e 2b 9e bd 16 d1 2e bd 73 4f e0 bb
       -0.10279958 -0.07723163 -0.04267987 -0.0068454086
000370 b8 54 2c 3e 52 7b f3 3c 74 ae 0c 3c 49 8a ea bc
       0.16829193 0.02972189 0.008586515 -0.028630393
000380 d4 26 46 3e c7 2f cf 3d cb da f0 3d 2c 11 42 3d
       0.19350749 0.10116535 0.117604814 0.047379658
000390 1e 1e a5 bd 3b fb 3b be 22 7c 2d bd 7e 61 a2 bd
       -0.08062385 -0.18357556 -0.04235471 -0.079287514
0003a0 e4 c9 79 bc d9 71 61 bd 9b b8 24 bd 65 d4 03 be
       -0.015245888 -0.055040214 -0.040215116 -0.12873991
0003b0 80 b8 9f 3e 71 14 7e 3e f4 fa b1 3d 9d dd 07 3e
       0.3119545 0.24812485 0.08690444 0.13268133
0003c0 1f ef f4 3d a1 d3 0f 3d 0b cc 93 bd 54 70 1f bc
       0.11959671 0.035113934 -0.072166525 -0.009731371
0003d0 11 cc 59 3e 0d e2 2f bd 4c 0d 02 be c1 2d 11 3e
       0.21269251 -0.04294019 -0.12700385 0.1417761
0003e0 7d 4d a7 3d e8 bf 21 bc 3e 6f 81 bd 9f f9 28 be
       0.081690766 -0.009872414 -0.06320046 -0.16501473
0003f0 46 e8 9f 3d 82 8c e2 3d f2 da 42 3d 6a 6e 12 bd
       0.078079745 0.11061956 0.047572084 -0.03574983

fc3.bias f4 [10]
000000 7b ca 63 bd e9 37 f4 3d 06 34 b9 3d 00 e5 7f bd
       -0.055613022 0.119247265 0.09043126 -0.06247425
000010 1e 38 d6 bd 04 9d 8b 3c 46 1c 5b bc a2 0c e9 3c
       -0.10459922 0.017042644 -0.01337344 0.028448407
000020 5e 27 a9 bd 56 54 bf bd
       -0.08259462 -0.09342258
