计算机视觉实践-练习2/checkpoint/lenet/Saturday_15_April_2023_09h_26m_07s/lenet-20-regular.pth (torch, 250355 bytes, 10 tensors)

conv1.0.weight f4 [6, 1, 5, 5]
000000 a2 55 93 bd 3a 2e a8 3d 7a 0c dc bb 52 70 1f 3e
       -0.071940675 0.08211942 -0.0067153545 0.1557019
000010 4e b0 61 be 4d 49 11 bd 66 28 e3 bd a3 46 65 3e
       -0.22039911 -0.035470296 -0.1109169 0.22390227
000020 10 61 60 3e f2 f2 1f be 3b aa 33 3d 69 18 f2 bd
       0.21912026 -0.1562002 0.043863516 -0.11821062
000030 ef 0e bd bd 69 32 8e 3c a7 f5 14 3e 27 61 63 bd
       -0.09231364 0.017358022 0.14546834 -0.055512574
000040 b3 02 26 be 2a 28 14 3e e2 95 e7 3b a3 24 c8 bb
       -0.16211967 0.14468446 0.007067428 -0.006107883
000050 ae 77 38 3e 27 cd 41 bd b7 2b 28 be ee 0b 1c 3d
       0.18014404 -0.04731479 -0.16422926 0.038097315
000060 99 99 04 3e 8d 1e f7 bd 08 65 9d bd 24 3f 09 bd
       0.12949218 -0.12066374 -0.07685286 -0.03350748
000070 11 41 ab bd a4 49 58 3d 6e 53 d8 bd 7e 71 9f bd
       -0.0836202 0.052804604 -0.10562788 -0.07785319
000080 97 16 78 bc 9c 40 bf 3c e6 d3 9e 3c dc 20 e0 bc
       -0.015142105 0.023346238 0.01938815 -0.027359419
000090 92 c2 ad bd 28 d1 1a bd 89 f9 3e be f4 0f a5 3a
       -0.08484377 -0.037797123 -0.18649878 0.0012593255
0000a0 60 82 9e bd f0 d7 19 be 91 8d 18 be 5b 80 89 bd
       -0.07739711 -0.1502378 -0.14897753 -0.06713935
0000b0 02 54 e4 3d 59 be 9d bd 2d 59 da bd 7a 00 e6 3d
       0.11148836 -0.077023216 -0.1066154 0.1123056
0000c0 94 d0 ed bd ec 75 0c 3e c0 a9 e2 3d 20 1b 57 3e
       -0.11612049 0.13716859 0.110675335 0.21006441
0000d0 a8 39 df 3e b9 18 33 3e 3e fa 15 3e 25 0d 2e 3e
       0.43598676 0.174899 0.14646241 0.16997202
0000e0 ff 9f a0 3e 11 55 c5 3e c3 35 8d 3e 36 45 3e 3e
       0.31372067 0.38541463 0.2758008 0.1858109
0000f0 0c f0 f2 bd 6a f4 52 be 3a 9b 06 be d5 1b 70 3e
       -0.118621916 -0.20601049 -0.13145152 0.23448117
000100 e5 84 70 bc 18 c3 58 be cd 69 5e be 9f 7d 9e be
       -0.014680122 -0.21168172 -0.21720047 -0.30955216
000110 ac df 95 bd 88 7e 1f 3d 54 5b 19 be 32 ec 24 be
       -0.07318053 0.03893903 -0.14976245 -0.16105726
000120 c3 bb ed bd 3b e9 de bd f6 b8 4b 3e 7d 7a 0b 3e
       -0.11608078 -0.10884329 0.19894776 0.13620944
000130 51 a1 15 3f 00 7e 19 3f cb af f5 3e de 27 60 3e
       0.58449274 0.59957886 0.47985682 0.21890208
000140 e6 7f d7 3e 79 40 59 3f 98 43 82 3f 55 08 4b 3f
       0.42089766 0.84864 1.0176878 0.7930959
000150 3d 42 00 3f 36 95 6e 3e 44 4f be 3e 13 f3 fd 3e
       0.5010107 0.23299107 0.3716985 0.49599513
000160 5c 50 e7 3e 80 89 1b 3f e0 5b 7d ba 8c 21 c2 bd
       0.45178497 0.60756683 -0.00096648745 -0.09479055
000170 39 6c 4f 3d 4c 4e d6 3d 64 02 19 3d 6d 2c 24 be
       0.05064032 0.10464153 0.037355796 -0.16032572
000180 13 44 be be 45 36 7e be d7 2a d6 bd 0a f8 0f be
       -0.37161312 -0.2482539 -0.1045739 -0.14059463
000190 aa bf de bd 76 e4 51 be a5 4a 86 bd 68 30 77 3e
       -0.10876401 -0.20497307 -0.06557206 0.2413956
0001a0 f8 86 f2 3d e3 83 72 be 9a c2 0d be 79 de 23 3e
       0.118421495 -0.23683123 -0.13843766 0.16002835
0001b0 ec 27 6e 3c c7 33 8b 3e 26 1e ea bd 0e 08 d2 bc
       0.014535885 0.2718794 -0.114315316 -0.025638606
0001c0 13 df 0a 3e e9 90 f0 3d ce 30 d7 3d b7 d6 7e be
       0.13561659 0.117463894 0.10507356 -0.24886595
0001d0 c1 92 05 be aa e9 90 3e e3 4b 1b 3e 4d 50 94 bd
       -0.13044263 0.28303272 0.15165667 -0.07241879
0001e0 db 38 bc bc a8 82 9f 3c 7e 70 84 3e c2 67 46 3e
       -0.02297633 0.019471481 0.25867075 0.19375518
0001f0 5a 83 d0 bc 41 e4 d3 3e 84 c8 05 3f c7 81 f8 3e
       -0.025453258 0.4138508 0.5225909 0.48536512
000200 40 2e 16 3f eb 41 b7 3e 5f ce 8b 3e a6 f8 78 3e
       0.5866432 0.3579248 0.27305886 0.24313602
000210 cc bf 1b 3f b9 07 28 3f 32 09 8f 3e 04 72 3b bd
       0.60839534 0.65636784 0.27936703 -0.04576303
000220 c0 65 5c 3e 57 17 02 3f 51 7c 0b 3f d0 64 ce 3c
       0.2152319 0.50816864 0.54486567 0.025194556
000230 70 51 1a be 8c 37 80 3d de d2 c9 3e 9e e7 e0 3e
       -0.15070128 0.06260595 0.3941869 0.4392671
000240 f3 6f bd 3e c3 cc 63 be 12 fc 25 be 75 03 8c 3e
       0.36999473 -0.22246079 -0.16209438 0.27346388
000250 40 15 39 3e 70 29 ed 3c
       0.18074512 0.028950423

conv1.0.bias f4 [6]
000000 dd 13 93 bd 70 75 6c 3e f0 bf e6 3d 24 ee 98 3d
       -0.07181523 0.23091674 0.11267078 0.07467297
000010 2e 5e 95 bd a8 9a ee 39
       -0.07293354 0.00045510125

conv2.0.weight f4 [16, 6, 5, 5]
000000 99 9b 19 3c d1 aa 85 3d 12 11 18 bd 5f 09 6f 3c
       0.009375476 0.06526721 -0.037125655 0.014589637
000010 d0 87 3f 3d 30 ab 67 3d 54 c7 a0 3d e6 1a 38 bd
       0.04676038 0.05655974 0.07850519 -0.044947527
000020 89 84 2a bd cf bc 2a 3c c4 cf 81 3d 48 b2 80 3d
       -0.0416303 0.010420992 0.06338456 0.062840044
000030 b5 45 9e bc 72 19 de bc 62 ab 8d 3d 97 d4 9e bd
       -0.019320348 -0.027111743 0.06917454 -0.07755392
000040 b0 5a 3c bd d0 45 0c 3b 9c fc 89 3d f5 6e 59 bd
       -0.045984924 0.0021403916 0.067376345 -0.053084332
000050 db a3 31 3d 9b 26 1c 3d 7f b3 b9 3c c7 8f 83 3d
       0.043369155 0.038122755 0.022668598 0.06423908
000060 e3 a3 97 bc 5a ea 29 bc 59 0f 9f bc 56 7a 86 3d
       -0.018510764 -0.010370815 -0.019416498 0.065663025
000070 e5 74 e4 bc a7 82 19 bd 7a 20 22 bd 4b 16 31 bd
       -0.02788777 -0.037478115 -0.039581753 -0.04323415
000080 06 fc 4a bd b8 4a 3d 3c 96 64 a9 bc e4 00 45 39
       -0.049556755 0.011553459 -0.020677846 0.00018787716
000090 6b c0 be bc 39 3a 87 bb 4a cf a7 bd 43 10 85 3c
       -0.023285111 -0.0041268137 -0.08193834 0.016243106
0000a0 20 d2 58 3d 87 43 a9 3d 08 f4 84 3d fa af 9d 3c
       0.052934766 0.08264833 0.06491858 0.019248951
0000b0 52 50 91 3c 34 8d 1c 3d 73 ef f0 bc 26 17 01 bd
       0.017738495 0.0382206 -0.029411053 -0.031516217
0000c0 f4 57 be 3b 71 78 08 bd bb 51 35 bc ba 87 9f bd
       0.0058088247 -0.033317987 -0.011066849 -0.0778956
0000d0 3b d5 b9 bd 0b 71 cd bd e3 05 68 bd 6f 6f 6f bd
       -0.090738736 -0.10031327 -0.05664624 -0.05845588
0000e0 f5 ce 15 3d 9f 4c f5 bb 83 10 8f bd 6e ec 69 bd
       0.036574323 -0.0074859406 -0.06985571 -0.057110243
0000f0 b0 e0 3b 3c 57 aa 4c bd 74 b7 31 bd f6 1f 81 bd
       0.011467144 -0.049967136 -0.043387845 -0.06304924
000100 26 86 51 bd 87 b1 a1 bd fd 8a bb bd bb e5 00 bd
       -0.051153325 -0.07895189 -0.09157369 -0.031469088
000110 88 9d e1 bc af da 50 bc e0 cf 09 3d c6 24 2b 3c
       -0.027540937 -0.012747451 0.03364551 0.010445779
000120 05 a9 7b 3d b2 01 6b bd f6 97 3f bb 0b 56 0d be
       0.061440486 -0.057374664 -0.0029234863 -0.13802354
000130 ce 73 38 bc 75 63 67 3d f5 13 ae 3d 0c 9f e3 3d
       -0.011258079 0.056491334 0.084999 0.1111432
000140 3b cd dd bc cc e0 4f 3d a4 c6 1e 3e 4e 9f c7 3c
       -0.0270754 0.050751492 0.15505463 0.024367955
000150 f9 87 c9 bd 2f e3 9c bd ca 64 87 3d 80 01 36 3e
       -0.09840388 -0.07660519 0.06611021 0.1777401
000160 b1 00 2b bd 8b 69 49 be 50 18 be bd 41 66 16 bd
       -0.041748706 -0.19669168 -0.09281981 -0.03671861
000170 c7 14 31 3e 53 63 45 3c 9f 58 1e be 10 c7 2f be
       0.17293082 0.0120476065 -0.15463494 -0.1716578
000180 92 a3 ba bd ad e6 f3 3d ae 5d af 3d bf cb ae bd
       -0.0911323 0.11909232 0.0856279 -0.08534955
000190 ec a4 4c bc f9 34 64 3d db 84 11 3d b9 f2 b9 3d
       -0.012490492 0.05571458 0.03552709 0.09079499
0001a0 1b f5 af bc 09 fe 30 3d 8e ff 91 3d c5 e8 c2 3c
       -0.02147918 0.043211017 0.07128821 0.023792634
0001b0 fa b4 3d 3d 79 40 97 bc 95 ea f5 bc 86 de 5f 3d
       0.04631517 -0.01846336 -0.030019084 0.054655574
0001c0 a9 2e e3 3d 0a fa 6d 3d 9f 9d 45 bd 47 45 83 bd
       0.11092884 0.058099784 -0.048246022 -0.06409698
0001d0 ca 0f 8a 3c a1 77 2d 3d 62 d6 03 bd df e0 97 bb
       0.016853232 0.042350415 -0.032186873 -0.004634961
0001e0 04 be 5f bc 80 d4 62 3d 53 13 32 3d eb 94 3b bd
       -0.013656143 0.055378437 0.04347546 -0.045796316
0001f0 12 f9 4d bc ab ae d2 bd 94 0c 1d bd 17 1c 13 3e
       -0.01257159 -0.102872215 -0.038342074 0.14366184
000200 33 93 da 3d 39 6e 16 3d 44 3f d4 bb db b9 44 3d
       0.10672607 0.03672621 -0.0064772684 0.048028808
000210 0b b2 82 3e 55 76 07 3e 6e a2 36 be 8f 4b b9 bd
       0.2552646 0.13228734 -0.178354 -0.09047615
000220 09 d4 bd 3d f8 af aa 3e 97 e2 74 3d 67 5f 2f be
       0.09268958 0.33337379 0.059786405 -0.17126237
000230 58 59 a9 bd 59 95 46 bd 8b f4 6f 3e 30 29 88 3d
       -0.08268994 -0.048482273 0.2343313 0.06648481
000240 61 ae d5 bd 68 cd a5 bd 8a 23 92 bd b5 24 aa 3d
       -0.10433651 -0.08095819 -0.07135685 0.083077826
000250 6d 0d fa bc 92 21 3f 3c 01 3f 40 3d c1 2f 8c bb
       -0.03052398 0.011665719 0.046935085 -0.0042781536
000260 7c bf 90 3d c8 eb 6e 3d 69 0e 11 bc 30 16 60 bd
       0.07067773 0.058330327 -0.008853533 -0.05470866
000270 75 6f 1d bd eb 46 44 bd 1b 08 cd 3a 53 aa 69 3b
       -0.03843637 -0.047919195 0.0015642674 0.00356545
000280 be a8 97 3d a4 a1 4c 3d 11 96 11 3b a4 05 41 bc
       0.07405232 0.04995884 0.002221469 -0.01178113
000290 8a e5 74 3d b0 77 8e 3d bd 45 8a bd e4 67 a9 bc
       0.059789218 0.06956422 -0.06751583 -0.020679422
0002a0 6d ef 91 bd 95 2e 70 3d 0d 67 93 3c 1b 6e 34 3d
       -0.07125745 0.058638174 0.017993474 0.044050317
0002b0 35 c4 e0 3c e4 9d a1 3b 2e d2 5b bd b2 9c 8d bc
       0.027437309 0.004932152 -0.05366724 -0.017286632
0002c0 a9 d6 f2 3c 53 3e 5f 3d 07 f6 75 3c 5d 6f 37 bd
       0.029643374 0.054502796 0.015012271 -0.04478394
0002d0 cb a0 43 bd 7b 48 5f 3d 3c 06 0b bd 94 0a 40 3b
       -0.047760766 0.054512482 -0.033941492 0.002930318
0002e0 3c a2 49 bd a3 c2 2f 3d 47 5c fe bb 91 d2 92 bd
       -0.049226984 0.04291023 -0.007762465 -0.071690686
0002f0 88 df 53 bd 30 f1 43 bd 36 2c 2e 3c d0 59 87 bd
       -0.051726848 -0.047837436 0.010630658 -0.06608927
000300 b1 15 bd bb 47 17 05 bd 8b 3e 6e bd 0b 02 ce 3c
       -0.005770408 -0.032492902 -0.058165114 0.025147459
000310 23 50 15 3d 0f 8a 89 3d 3d 3f fb bc 62 d4 83 bd
       0.036453377 0.06715786 -0.030669803 -0.06436993
000320 b9 56 75 3d 3d 8e c2 bb 16 a1 88 3d 61 da 4c bd
       0.05989716 -0.0059373663 0.0667135 -0.05001295
000330 6e 76 b3 3c a0 42 8d bd 4b 26 c6 bc b6 b9 1c 3d
       0.021907058 -0.06897473 -0.024188181 0.038263045
000340 ab 91 c1 bc 66 28 64 bd 5d e7 80 3d bc 13 21 3d
       -0.02362903 -0.05570259 0.06294129 0.03932546
000350 dc a1 94 bd b7 1a 37 bd 90 f2 11 3d 12 50 f6 bc
       -0.07257435 -0.04470321 0.035631716 -0.030067477
000360 f0 7f 61 bd 2a f0 97 3d 37 27 7b bc 77 8f 76 3d
       -0.05505365 0.074188545 -0.015329174 0.060195412
000370 38 8d 1f bd 2b b8 91 3c 59 17 20 bd 56 c7 98 3a
       -0.038953036 0.017788013 -0.039084766 0.0011656086
000380 82 ba 94 3d fd 5b 14 bd 41 f0 d4 bc 8d 9a 5f bd
       0.07262136 -0.03622054 -0.025993468 -0.05459075
000390 40 4c 4a 3d 64 d1 6b bd a4 8b c4 bc b0 0e 74 bd
       0.049389124 -0.057572737 -0.023992367 -0.05958432
0003a0 a7 d4 72 bd b7 bf 3c 3c 0b 14 23 bd 84 ee 8f 3d
       -0.059284832 0.011520318 -0.039814036 0.07027915
0003b0 49 10 8f 3d 4d 50 21 bd 13 ea fc bc 16 b7 95 bd
       0.06985528 -0.03938322 -0.030873334 -0.073103115
0003c0 05 9d 11 3d 47 e4 23 bc 7e 8b e4 3c 41 fb 26 bd
       0.035550136 -0.010003156 0.027898546 -0.04076696
0003d0 52 0c 2c 3d a3 5a 1f bd ea bb 15 3d e0 b2 a3 bb
       0.042003937 -0.038904797 0.036556162 -0.004995689
0003e0 f5 d4 01 3d e3 03 4b 3d 4f 85 90 3d d3 a9 87 3b
       0.031697232 0.049564254 0.070566766 0.0041401177
0003f0 23 09 63 bd 03 05 04 3d 7b 04 8f bc aa 6d 88 3c
       -0.055428635 0.032231342 -0.017458191 0.016653854

conv2.0.bias f4 [16]
000000 a2 4d 86 bd 3a 1a e0 3c 99 38 4d bd 44 c8 bc bd
       -0.06557776 0.027356256 -0.050102804 -0.09217885
000010 4b c9 b5 3c 50 dc 81 3d 9c d1 48 3c da 6b c3 bc
       0.02219071 0.063408494 0.012257006 -0.023855139
000020 6b 6e 86 3c e5 18 09 3d 09 99 d5 3c 6c 6d 75 3d
       0.016410073 0.033471007 0.02607395 0.059918806
000030 bd a4 49 3d ac 31 7b bd 88 4e 37 3d 38 00 20 bd
       0.049229372 -0.061326668 0.044752628 -0.03906271

fc1.0.weight f4 [120, 400]
000000 5f cf 05 bd 60 c7 20 bd 29 4d 55 bb 5a f5 8e bc
       -0.032668468 -0.03925264 -0.0032547212 -0.017450977
000010 89 dc c5 bc bb ee 28 3a 22 82 c0 bc 4b 58 c4 bc
       -0.02415301 0.0006444265 -0.023499552 -0.023967883
000020 ed e1 99 bc c7 fa 15 3d 6f 54 da bc 3d c4 f8 3c
       -0.018784488 0.036616113 -0.02665159 0.030367011
000030 ef fa 26 bb 08 0e a5 bc e3 e4 3e bc 24 63 a5 bc
       -0.0025479158 -0.020148292 -0.0116512505 -0.020188875
000040 09 57 f1 bc 91 18 de 3c 83 ed 1e 3d 61 c8 c4 3c
       -0.029460447 0.027111324 0.038800728 0.02402133
000050 a3 5b 1d bc a2 63 2e bd 8b de 08 3b 97 82 0a 3d
       -0.009604367 -0.042575486 0.00208846 0.033815946
000060 d7 90 36 3d 09 0b b4 bc 50 77 81 3c b6 b7 59 bc
       0.044571724 -0.021977918 0.015803963 -0.013288429
000070 21 70 12 3d 1e 1a ca 3c d3 fa 35 3d fc 79 ee bb
       0.035751466 0.024670657 0.044428658 -0.0072777253
000080 c8 e6 38 bd 45 b3 a8 bc 2b 99 0b 3c e3 98 1e 3d
       -0.045141965 -0.020593295 0.008520405 0.038720023
000090 1f 1b 36 3d 9e 46 04 bd da da e5 3c 7e b7 33 3d
       0.04445946 -0.03229391 0.028058458 0.043876164
0000a0 f5 48 32 bd 22 af 17 bd 21 d4 b0 bc 01 f4 56 bc
       -0.04352661 -0.037032254 -0.021585526 -0.0131196985
0000b0 64 32 39 3b 9d 05 01 3d 2e 0a a8 3c d9 ac af bb
       0.0028258795 0.031499494 0.020512667 -0.005361181
0000c0 07 cf 9d bc 09 46 92 3c d6 5d e6 bc e0 58 15 bd
       -0.019263757 0.017855661 -0.028120916 -0.03646171
0000d0 15 88 35 3c 53 71 0b bc a6 c5 1c bd 32 96 bf 3c
       0.011079808 -0.008510905 -0.03827443 0.023387048
0000e0 ff 15 3c bd 14 41 8d bc 3c e1 fd bc ff 83 84 39
       -0.045919415 -0.017242946 -0.03099119 0.00025275347
0000f0 e0 a9 37 ba bb ee d3 bb d1 3a 53 3c 7a 89 2f bc
       -0.00070062093 -0.006467668 0.012892441 -0.010713929
000100 9c 7e a3 3c 34 13 07 bd ff 49 17 bd b1 11 d4 bc
       0.019957833 -0.032977298 -0.036935803 -0.025887342
000110 03 80 1e bd 32 77 e2 bc c5 a9 ce 3c 92 6f 20 bd
       -0.0386963 -0.027644727 0.025227437 -0.0391689
000120 dd 9e 26 bc 17 63 bb 3a e2 0d 8e 3c 07 63 db 3c
       -0.010169712 0.0014296499 0.017340604 0.026780618
000130 51 05 b3 bc 06 d7 b8 bc 87 cc 0a bd fe c0 c3 bb
       -0.021853121 -0.022563469 -0.03388646 -0.005973934
000140 25 d2 da bc 7b 14 ea bc 40 2a a1 bc 45 f7 7d bb
       -0.026711533 -0.028574219 -0.019673467 -0.003875212
000150 15 23 f9 3c c4 62 7f 3a 9d 61 96 3a e3 e3 05 bd
       0.030412236 0.0009742195 0.0011473183 -0.032688033
000160 79 ad 19 bd 01 a6 ab 3b f7 0c eb bc d4 bf 9f bc
       -0.037518952 0.005238295 -0.028692706 -0.01950065
000170 c2 b6 4c bc c1 4e 70 bc 38 ea 12 3d 74 f1 1b bd
       -0.012494745 -0.014667214 0.0358679 -0.038072065
000180 57 f5 80 3c 3b 2d f1 3c 37 55 14 3d 47 85 d8 bc
       0.015741987 0.029440513 0.03621408 -0.02643074
000190 5c 6f 86 3c 43 ff 5f bc ae 53 30 3d 56 cb d9 3c
       0.016410522 -0.013671699 0.043048553 0.026586216
0001a0 e2 5f ae bc 7b 2c 79 bc 50 88 02 3d 93 08 e9 bc
       -0.021285955 -0.015208359 0.03186828 -0.028446471
0001b0 07 17 3f 3d ea c4 0b bd 02 7d a8 bc 73 75 68 3c
       0.04665282 -0.03412334 -0.02056742 0.014188158
0001c0 6f 98 0f bc 87 ca ae 3c 34 53 5f 3b 0d 5b 32 bd
       -0.00876437 0.021336807 0.0034076693 -0.043543864
0001d0 83 5e 00 bd 22 1f 09 3d 78 15 a5 ba a7 19 c8 bb
       -0.031340133 0.033476956 -0.0012594899 -0.0061065736
0001e0 12 d2 37 bd 51 5b 1f 3d ed b3 14 bd f9 1c e5 bc
       -0.044878073 0.038905445 -0.036304403 -0.027967917
0001f0 33 26 6d bc 0a 34 0d bd f4 cf 52 ba 97 a8 13 bd
       -0.014474439 -0.034473456 -0.00080418517 -0.03604945
000200 53 44 5a bc 9c f2 7f bc 96 b6 9c bc ff c5 4d ba
       -0.013321954 -0.015621807 -0.019130033 -0.0007849633
000210 10 a1 e0 3c 70 8e 27 3d 98 2b f7 bc 5a 15 8f bc
       0.02742055 0.040907323 -0.030172154 -0.017466236
000220 b7 27 f7 bc c3 0d 0b bd 3a a6 2f bd de 82 01 bd
       -0.030170305 -0.03394867 -0.042883135 -0.031618945
000230 11 7d 8a 3c cb 20 16 3d 20 ce 19 bd f7 87 96 3c
       0.01690534 0.036652368 -0.03755009 0.01837538
000240 8e 39 dd 3c 34 a4 2a 3d 72 31 9f 3c 78 19 90 bc
       0.027004983 0.041660503 0.019432757 -0.01759027
000250 eb a7 b6 bb a5 83 d4 3b 30 29 f1 3c fa 40 57 3c
       -0.0055742166 0.00648542 0.029438585 0.01313805
000260 4b 9e d9 bc 0f e9 c5 bb 27 df 07 3c f9 92 1f 3d
       -0.026564738 -0.0060397456 0.00829295 0.038958523
000270 62 e0 c7 3c e1 81 0d bd 92 36 26 bd 32 6a b9 3c
       0.024398986 -0.03454769 -0.040579386 0.022633646
000280 b3 66 d6 bc a6 3d 4c 3c 6c f0 b5 bc 09 d7 82 bc
       -0.026172018 0.01246587 -0.022209369 -0.015971677
000290 d6 6a 47 bc 0c ee 15 3d ed c4 1e 3c f9 f2 09 3c
       -0.012171468 0.036603972 0.009690505 0.008419746
0002a0 55 71 a7 3c 2b 28 c4 3c 8d 88 87 3c 7c a2 a8 3c
       0.020439783 0.023944935 0.016544605 0.020585291
0002b0 0c 8d 9a bc d8 68 38 3d 1e 8c 00 bd da 35 19 3d
       -0.018866085 0.04502186 -0.031383626 0.037404872
0002c0 20 3e b0 bc e8 1d c7 3c b3 0b 82 3b a3 02 72 bc
       -0.021513999 0.024306253 0.00396868 -0.014771136
0002d0 8b 32 11 bd 39 42 2f bd 37 22 0d bd 6a a3 2f 3d
       -0.035448592 -0.042787764 -0.034456458 0.042880453
0002e0 e5 db 98 3a 57 3c a5 3c 3f ca 10 bd 86 aa b1 3c
       0.0011662213 0.020170374 -0.035349127 0.021687757
0002f0 ef dc 31 3c dc ca 1a 3c 8d f1 03 3a f2 c1 fd bc
       0.010855897 0.0094477795 0.0005033247 -0.03097627
000300 10 37 93 bc 04 92 0c 3d 64 8e 20 bd 19 33 85 3c
       -0.017970592 0.03431894 -0.039198294 0.016259717
000310 43 10 56 3c 3f 9a 31 3c 84 de 0f 3d 59 6d f7 b9
       0.0130654005 0.010839998 0.035124317 -0.00047192982
000320 a6 66 ce bc 50 13 29 bc 1f 78 f6 3c 3e ff 36 bb
       -0.025195431 -0.010319546 0.030086575 -0.0027923132
000330 ef b2 ac 3c 2e 8c 7f 3c 17 00 ef bc a1 f1 34 3c
       0.021081416 0.015597386 -0.029174848 0.011043937
000340 30 1a cf bb 2d f6 b0 bc 8a 11 b4 3b 60 54 f4 3b
       -0.0063202605 -0.02160176 0.005495255 0.0074563473
000350 8c 55 ae bc 44 0f 0a 3a 82 43 ff 3c 2e 96 e8 3b
       -0.021281026 0.0005266557 0.03116012 0.007097981
000360 bd d0 fa 3c 41 20 ca bc f4 30 6b 3b c6 d9 c2 bc
       0.030617112 -0.024673583 0.0035887333 -0.023785483
000370 e7 ee 2e 3d 85 51 c1 3c 94 a0 97 3c d4 7e 35 3d
       0.042708304 0.023598442 0.018509187 0.044310406
000380 2a 71 92 bc cb c8 a5 bc 8e 35 06 3c ae 58 bf bb
       -0.017876226 -0.020237347 0.008191479 -0.005839429
000390 16 95 85 bc f6 ef 32 bd 89 c7 20 3c fb 4a e7 3b
       -0.016306441 -0.043685876 0.009813198 0.007058499
0003a0 1f e1 b2 3b d0 2e 13 bd e9 b6 33 bd 6a 36 17 bd
       0.0054589654 -0.035933316 -0.04387561 -0.036917128
0003b0 00 34 de 39 34 7b 02 bd d0 e4 f2 bc 39 8c b7 3c
       0.00042381883 -0.031855777 -0.029650122 0.02240573
0003c0 38 1b 79 3c 5e 73 1c bd 36 1f 60 bb 75 39 ff 3c
       0.015204243 -0.03819596 -0.003419829 0.031155327
0003d0 03 de 56 3c 57 5a 48 3b 2a ce 6f 3c 4e ab 5e bb
       0.013114455 0.0030571425 0.014636556 -0.0033976617
0003e0 6e 5e 3a 3c 4b 3b 8d bc 8f 7d d3 bc aa 39 cb bc
       0.011375053 -0.017240187 -0.025816707 -0.02480777
0003f0 ae dc 22 bd 2c c2 3d 3c 88 5d 8f 3c 7d 4f b6 3a
       -0.039761238 0.011581939 0.017500654 0.0013909187

fc1.0.bias f4 [120]
000000 9f 07 de 3c 6f 64 e2 3a ae df 6a 3d 50 58 d7 3c
       0.027103243 0.0017272363 0.057342224 0.026287228
000010 57 13 a2 bc 09 44 94 bb fc fd 9a 3c be 3c 5f bc
       -0.019784613 -0.004524712 0.018919937 -0.013625322
000020 97 7d f9 bc 0f 85 79 3b 59 a7 f8 bc aa 98 aa 3c
       -0.030455394 0.0038073694 -0.030353235 0.020824749
000030 19 78 a0 3a b6 8c ac 3b 9e 8e a9 3c 28 97 f8 bc
       0.0012242823 0.0052657975 0.020697888 -0.030345514
000040 ed 70 3e bd 9a ad 13 3d 18 69 42 bb 2a 9f f6 3c
       -0.046494413 0.03605423 -0.0029664692 0.030105192
000050 1e da 52 bd ab 7b a1 bc d5 8d d5 bc 07 0a 74 3c
       -0.051477544 -0.01971229 -0.026068607 0.014894969
000060 92 10 ad bb 6d 1c 07 bd 74 53 2b 3d 33 a2 9a bc
       -0.0052815164 -0.032986093 0.041827634 -0.01887617
000070 0e 72 8a bb 9f 05 83 bc cb 51 17 bc a8 e7 18 bd
       -0.004225022 -0.015993891 -0.00923581 -0.0373303
000080 30 31 61 3d 91 66 4d bc 4e a9 fd bb bb 6e 2e bc
       0.05497855 -0.012536661 -0.00774113 -0.010646517
000090 66 1f 3e 3b a5 a6 0b 3b bf a8 05 3d 2c 76 30 bd
       0.0029010414 0.0021309045 0.032631632 -0.043081447
0000a0 56 55 d1 3b a9 2c 03 3b 78 86 a6 bc 8b 1c c2 3b
       0.0063883467 0.0020015633 -0.020327792 0.0059238127
0000b0 41 18 3f 3d 09 ab 6c bd 06 03 d9 3c bd ee 07 3d
       0.04665399 -0.0577803 0.0264907 0.033186663
0000c0 0a d9 ae 3c a7 c4 f1 3c 58 74 fc bc 75 4e 64 bc
       0.021343727 0.029512716 -0.030817196 -0.013934721
0000d0 bc d3 a1 3c 22 6f e4 bb db 18 49 bd 0d cf a8 bc
       0.019754283 -0.006971256 -0.04909597 -0.020606542
0000e0 d5 da 06 3d 64 6e 7e bc e0 bc c4 3c 26 1d ad bc
       0.03292354 -0.015529249 0.024015844 -0.021132063
0000f0 91 ac b7 3c b0 7a 56 3c c2 75 45 bd 91 bd 8b ba
       0.022421153 0.013090774 -0.048208006 -0.0010661354
000100 79 e5 d3 3c 1d ad 3c 3d 68 f7 cd 3c 99 5c 38 bd
       0.025866257 0.04606353 0.025142387 -0.045010183
000110 d0 1f 10 3d 48 ff ca bc 24 fa 26 3d bc 94 b5 bc
       0.03518659 -0.02477993 0.040765896 -0.022165649
000120 9d 82 0a bd fa 93 39 3d 4f 8f 06 3c b4 cf 3a 3d
       -0.03381597 0.045307137 0.008212878 0.045608237
000130 b9 2e 83 3d 4a 5e 5d 3d 35 c8 00 bb 59 2e b0 bc
       0.06405396 0.054045 -0.0019650583 -0.021506475
000140 26 db 54 bd c7 88 06 bd 44 45 0b bd a8 2b d1 bc
       -0.05196681 -0.032845285 -0.034001604 -0.025533512
000150 4a 98 22 3a 35 cd 5c 3c 42 88 80 3c 1b a0 01 bd
       0.00062025024 0.01347666 0.015689973 -0.03164683
000160 29 ed 48 3d c5 4f 07 bc af 2d c6 3c 05 33 82 ba
       0.0490543 -0.008258765 0.024191706 -0.0009933418
000170 46 77 21 bd 6a 10 ff 3c 65 4c ba bc e3 63 a6 bc
       -0.03942039 0.031135757 -0.022741506 -0.020311302
000180 ee c8 14 3d 1a 45 35 bd dc 72 57 3a 18 7a 9f 3c
       0.036324434 -0.044255354 0.00082187145 0.019467399
000190 03 b0 43 3c 10 2a 41 3c 43 45 83 3c dd 4c 17 bd
       0.01194382 0.011789814 0.016024237 -0.036938537
0001a0 33 61 26 bd 14 48 26 bd f4 0d 9e bc c9 d6 98 3c
       -0.04062004 -0.040596083 -0.019293763 0.018657105
0001b0 19 4a c1 3a d5 4b 71 bc 16 40 30 bd ee 09 ec 3c
       0.0014746814 -0.014727552 -0.043029867 0.028813329
0001c0 39 08 3b bd fb 59 c4 bb 6e 6f 97 3c e8 53 c6 3b
       -0.04566214 -0.005992172 0.018485751 0.006052483
0001d0 40 9a 05 bd 09 e3 07 bb 38 3b 92 bc f9 a6 7e 3c
       -0.032617807 -0.0020734689 -0.017850503 0.015542739

fc2.0.weight f4 [84, 120]
000000 66 14 8d bd c0 f5 9d bd f3 03 e5 bc a4 e4 21 bd
       -0.06888656 -0.07712889 -0.027955985 -0.03952469
000010 3f 84 82 3c de 32 81 3c 2d c6 da 3c 09 a4 a1 3d
       0.0159322 0.015771326 0.026705826 0.07892615
000020 d3 d6 bb bc bc 87 24 bd fc e6 86 bd d0 b3 88 bd
       -0.022929585 -0.04016851 -0.065870255 -0.066749215
000030 2b a5 59 bd f2 8f a0 bd 55 ef 30 bc 2a 5c 92 bd
       -0.053136032 -0.078399554 -0.010799249 -0.07146485
000040 b0 f9 9b 3c 2e f7 28 3c 25 db 50 3d 81 bf 86 3c
       0.019039959 0.0103128385 0.050990243 0.016448738
000050 bb a7 8b bc a4 67 62 bc d7 c3 4d bd 78 43 d9 bc
       -0.017047754 -0.013818655 -0.050235596 -0.02652143
000060 2a d1 b0 bc f9 07 38 3d f7 5a 4f bd d8 50 d0 bc
       -0.021584112 0.04492948 -0.05062386 -0.025429174
000070 74 dc 8c bd b2 67 57 3d 8d 59 0f bd fe 20 a5 3d
       -0.068779856 0.052589126 -0.03499751 0.080629334
000080 31 e7 74 bc 5d 52 6f bd 55 c1 05 bd 0e 0a dd bc
       -0.014947698 -0.058428157 -0.03265508 -0.026982334
000090 33 d5 69 3b fe 0b 04 bd 2b f2 18 bd e8 0c b1 bc
       0.0035680055 -0.032238 -0.037340324 -0.0216126
0000a0 9f 8a 8b 3d d7 c6 37 3d 8a 38 0e 3d 63 a4 2f bd
       0.06813549 0.044867363 0.03472189 -0.04288138
0000b0 e4 fe aa 3d 72 e3 d0 3a e4 8c 8f bd 96 75 89 3d
       0.08349398 0.0015936925 -0.07009295 0.06711881
0000c0 50 94 2c bc 82 f9 9d bd e0 94 78 3a eb 97 15 3d
       -0.010533407 -0.077136055 0.00094826333 0.036521833
0000d0 92 d3 4f bc 80 19 8d bd 53 45 3d bd 03 50 2f 3d
       -0.01268472 -0.06889629 -0.04620869 0.042800914
0000e0 e3 09 99 3b b6 e2 80 3d ec 64 96 bb c7 0b 68 bb
       0.004670368 0.06293242 -0.0045896675 -0.003540741
0000f0 a9 08 b7 3c ec 5f 59 3c cf 2b 56 bd 87 9d 0d 3d
       0.022342997 0.013267498 -0.052287873 0.034574058
000100 65 69 a7 3d 1a 1d 14 bd 3d 84 54 3d 88 53 6b bd
       0.08174399 -0.036160566 0.051883925 -0.05745271
000110 9e ae a3 bd e1 b3 75 3b 18 31 a9 bc 3b 31 22 bd
       -0.0799229 0.003749125 -0.020653293 -0.03959773
000120 ae e2 84 39 85 de 21 3d e8 b8 23 3d 97 f9 a7 bd
       0.00025345891 0.03951885 0.039971262 -0.08201902
000130 76 be 64 3d d5 de 93 3b 45 93 a6 3c 8f 4f 6e bd
       0.0558457 0.0045126476 0.020333895 -0.05818134
000140 04 84 4a 3d a0 47 19 3d c5 db 8f bd f8 a1 a6 bc
       0.049442306 0.037421823 -0.070243396 -0.020340905
000150 b9 36 bf bc 4c 5f 63 3d a2 45 43 3c b2 dd 0f bb
       -0.023341523 0.055510804 0.011918457 -0.002195221
000160 56 23 4a 3d 96 56 a8 bd 0d 05 a2 bd b4 bf 90 bd
       0.049350105 -0.0821964 -0.079111196 -0.070678145
000170 de 5e 94 3d 60 f3 89 3d 72 c0 55 bd 08 d9 a7 bc
       0.07244657 0.06735873 -0.052185483 -0.02048923
000180 3e 92 47 bc ce cb e7 bc d4 79 1a 3d f4 5d 02 3d
       -0.012180863 -0.028295424 0.03771384 0.031827882
000190 e2 0c 4c 3c ea de 6a bd 81 b7 1a 3d 69 10 bd 3b
       0.012454243 -0.057341494 0.03777266 0.0057697785
0001a0 0e 69 8a bc 4a 6f 46 3c 90 a6 9f 3a 9e fa 81 bd
       -0.016895797 0.012111494 0.0012180377 -0.063466296
0001b0 a5 37 47 3c 9e 48 ec bc e8 83 7a bd 8a 5b 17 bd
       0.012159263 -0.02884322 -0.06116095 -0.036952533
0001c0 ec 81 cb bb 36 c5 62 3d 37 9f 70 3d 38 25 8f 3d
       -0.0062105563 0.055363856 0.05874559 0.06989521
0001d0 0b 78 dd bc f8 cb ae 3c 05 a0 a2 3c c7 e5 5d 3d
       -0.02703478 0.021337494 0.019851694 0.05417421
0001e0 f6 27 dd 3a 2c d7 b8 bc 68 ed 8e bc 12 4c 93 bd
       0.0016872871 -0.02256354 -0.017447188 -0.07192244
0001f0 d3 99 63 3c 9e 53 99 bd 6a 7d 6e bd cb c4 e0 bc
       0.013891655 -0.07486652 -0.058225073 -0.027437588
000200 01 62 86 bb 97 ab 49 bd 9f d2 5c bd 31 90 52 3c
       -0.0041010384 -0.049235906 -0.0539118 0.012851761
000210 7c 98 a6 3d cc 07 94 bc bc c6 6f bd cb 37 5d 3d
       0.08134553 -0.018070124 -0.058539137 0.054008286
000220 5a 89 18 bc b1 d5 ae bd 55 88 a8 bb a4 94 90 3d
       -0.009310091 -0.08536852 -0.005143205 0.07059601
000230 5a ad 0b 3d 50 df 43 3b 8c f3 40 bd e3 a6 0c bc
       0.034100868 0.0029887743 -0.047107264 -0.008584711
000240 43 7e 55 3d b3 66 3e 3c fe 03 89 3d c5 dc 89 bd
       0.052122366 0.011621165 0.066902146 -0.067315616
000250 ae 35 96 bd 9b 91 6b 3d 4f 58 7f bd 86 17 f4 3c
       -0.07334457 0.057511907 -0.062340077 0.029796373
000260 3b 94 92 3d 2f 0c 84 bc bf 94 ed bc 86 2b 41 3d
       0.07157179 -0.01611909 -0.029001592 0.047160648
000270 aa 91 87 bd c0 3d 34 3d 6a 6d e2 3b ad 95 bf bb
       -0.0661958 0.044004202 0.006910016 -0.0058467
000280 54 6e fb 3c 22 8b 39 ba 02 3f a4 bd e2 3b 07 3d
       0.030692257 -0.00070779223 -0.0801983 0.033016093
000290 d5 ff 37 bc 18 1a 14 3d f1 61 91 bd 31 f2 09 3d
       -0.011230429 0.036157697 -0.07098759 0.033678237
0002a0 5c 78 ca 3c 64 1d a8 bd db 3b 44 3d d3 a6 9d 3d
       0.024715595 -0.08208731 0.047908645 0.07697835
0002b0 7a b2 69 3d a7 22 d2 3d 0f d2 37 bd 8d 81 06 3d
       0.057054974 0.10260516 -0.04487806 0.032838393
0002c0 62 9a 4b 3c 1e 77 b4 bb b9 f2 c1 bc ad 93 59 3d
       0.012426944 -0.005507364 -0.02367531 0.05311935
0002d0 d0 c2 b1 bd 54 38 4e 3d 5f 16 23 bd fa 1e ef 3c
       -0.08679736 0.050346687 -0.039816257 0.029189575
0002e0 34 eb b5 3c 93 36 d5 bc 95 5a 60 bd bb 75 0a bd
       0.02220688 -0.026027 -0.054773886 -0.033803683
0002f0 2c db a6 3d de 22 56 bd b8 f2 b4 bc df b3 9a 3c
       0.081472725 -0.052279346 -0.022088394 0.018884597
000300 eb 44 f5 bc 1b f3 6e bd d0 38 bb bc 6d da 96 bd
       -0.02994009 -0.058337312 -0.022854239 -0.0736588
000310 3c dc 91 bd b7 87 4f 3d 68 00 9b 3c b2 3c 7b 3d
       -0.071220845 0.050666537 0.018921092 0.06133718
000320 f3 ad b2 3d a3 97 9c bd 9d ff 32 3c 84 d1 fa bb
       0.087245844 -0.0764611 0.010925201 -0.0076543707
000330 5c 88 b5 3c dd 03 51 bd e9 de 61 bc ba 26 32 bd
       0.022159748 -0.051029075 -0.013786056 -0.043493964
000340 14 4f 32 bc 92 71 84 3c 3a 79 a6 3d b9 22 9f bc
       -0.0108831115 0.016167436 0.08128591 -0.019425737
000350 60 87 78 bd 12 f8 82 bd 23 c0 13 bd 79 a5 98 bd
       -0.06067598 -0.06394972 -0.036071908 -0.074534364
000360 aa c6 97 bc 2f a0 9e bd c5 1e 7d 3d 13 c1 55 bd
       -0.018527348 -0.07745396 0.061796922 -0.052186083
000370 0f 49 8d 3d 00 ad 25 bd 30 20 2a bd c2 52 91 3d
       0.068987004 -0.04044819 -0.041534603 0.07095863
000380 fe aa 10 bc 7e 7f 45 3d 57 1b b8 3c e6 9d 73 bd
       -0.00882983 0.04821729 0.022473974 -0.059476756
000390 3d b9 d9 3d 8d fd 32 bd c5 2d 6b 3d ea 31 cc 3d
       0.106310345 -0.043698836 0.057416696 0.09970458
0003a0 0e c8 1c 3d ea 10 c6 bc 46 cd 8b bb 61 8a 86 3d
       0.038276725 -0.024177987 -0.004266414 0.065693624
0003b0 76 4a 80 bd 03 e9 db 3c f7 53 fc bb 8f 33 57 bb
       -0.06264202 0.026844507 -0.007700439 -0.0032837128
0003c0 62 61 a4 3d a3 de be bc 89 78 b7 3d 50 79 88 3d
       0.08026387 -0.02329952 0.08958537 0.066637635
0003d0 18 62 b1 3c 1f 4b 06 3d e5 07 34 bd 33 f2 bd 3d
       0.02165322 0.032786485 -0.04395284 0.092747115
0003e0 05 fa db bb b5 ea e3 bd 16 28 a3 3d 71 d4 35 bd
       -0.0067131543 -0.11128751 0.0796663 -0.044392053
0003f0 fb a7 0b 3c 61 f7 5c 3c 81 0a 96 3d 0f 66 6b 3d
       0.008523936 0.013486714 0.07326222 0.057470378

fc2.0.bias f4 [84]
000000 cb 64 4b bd 39 64 94 bd ed f5 f0 bc 8d c0 3b 3c
       -0.04965667 -0.072456785 -0.029414142 0.011459482
000010 6e cc 0b 3d dd 29 f5 bc 0e 3f df 38 fd ab 1e 3d
       0.034130506 -0.029927189 0.000106452135 0.03873824
000020 e1 37 a3 bc a2 c8 9c 3d aa ae 54 3d f4 11 7c 3d
       -0.019924106 0.07655455 0.051924385 0.06154056
000030 59 6a 5e 3d 85 a6 09 3e 0a 6d cd bc 63 62 d8 3d
       0.05430064 0.13442428 -0.025076408 0.10565641
000040 28 fa 92 3d 51 1b 8e bd b4 17 27 bd 5e 6d 01 3b
       0.0717662 -0.06938804 -0.04079409 0.0019749026
000050 42 ff a3 3d 52 40 dd bc f0 14 4d bd 65 2f 03 3c
       0.08007671 -0.02700821 -0.050068796 0.008006905
000060 1a d7 20 3d 22 a8 19 bd c8 92 48 3c d9 c0 be 3d
       0.039267637 -0.03751386 0.012242027 0.093141265
000070 d2 73 85 3d ff 57 e7 bd 2e fb fe bc a8 ef 70 bd
       0.065162316 -0.11296081 -0.031125631 -0.058822304
000080 a7 02 19 3d c5 57 93 bd 9a 09 a9 3d 4f 9e 73 3d
       0.037356045 -0.07194475 0.082537845 0.059477147
000090 29 a5 1f 3c 9f 1d 11 bc e3 c9 20 3b c0 41 10 bd
       0.009743967 -0.00885716 0.0024534396 -0.035218954
0000a0 f2 31 e4 bc de 84 61 3d 80 8b ca 3c f6 be 9c bd
       -0.027855847 0.055058353 0.024724722 -0.076536104
0000b0 50 4f 99 bd 98 dc 8e bd c8 81 86 3c 91 5e 59 3d
       -0.07485831 -0.06975669 0.016419306 0.0530687
0000c0 95 e5 14 3e d5 f7 ea 3b 6e 6d ab 3d c3 8c 0d bd
       0.14540704 0.007170657 0.083704814 -0.03455807
0000d0 af cf 57 3d 07 0a 38 3d f2 67 9e 3d b3 83 6c bd
       0.052688297 0.044931438 0.0773467 -0.057742786
0000e0 5b 02 b3 3c 69 4f f2 3c 48 e2 b1 3c 61 03 b6 3c
       0.02185171 0.029578881 0.021714345 0.022218408
0000f0 6d 73 66 bd 9e 37 c3 3c d7 5a e0 3c 93 07 49 3d
       -0.056262422 0.023830231 0.027387066 0.04907949
000100 78 93 77 3d c7 bc 1d 3c 47 e1 0d 3c 0f 72 a5 bb
       0.06044337 0.009627528 0.008659667 -0.0050489972
000110 f0 16 be bc 18 d9 9c 3d ca 99 e5 bc 18 e3 1d bb
       -0.023204297 0.07658595 -0.028027434 -0.0024091657
000120 f8 f5 6b bd ad 3f 8c bc 42 19 35 3d 80 fd ba 3d
       -0.05760762 -0.017120207 0.04421354 0.091303825
000130 15 91 91 3d 56 81 84 bd c1 43 1a bd 5b d3 92 3d
       0.0710775 -0.06469981 -0.03766227 0.07169219
000140 6a 3f 1d 3d 9c 2c e3 bc c7 ce d2 bc e2 aa a2 3d
       0.038390554 -0.027731232 -0.025733365 0.079427496

fc3.weight f4 [10, 84]
000000 6d 4b 71 bd 84 38 1c 3d 47 fb 14 bd 55 44 bc bc
       -0.058909822 0.038139835 -0.03637245 -0.022981802
000010 57 40 30 3e 17 e6 c2 3d 0f c1 9a bc a2 7e 13 be
       0.17212044 0.095165424 -0.018890886 -0.14403775
000020 47 6a 74 bd 64 f4 a1 bd 1d 63 26 3e 06 4d 7c bc
       -0.059671666 -0.07907942 0.16248746 -0.015399223
000030 91 6b 42 3e 97 6e d9 bd d1 78 13 be d1 13 81 be
       0.18986346 -0.106167965 -0.14401557 -0.2521043
000040 47 ea e1 bd f0 54 a7 ba cd 11 9d 3c 93 df fa 3b
       -0.11031013 -0.0012766402 0.019173527 0.0076560467
000050 75 53 ad bc 5e df 2e 3d 33 a2 2d 3c 37 2d 23 3c
       -0.02115796 0.04269349 0.010597753 0.0099595105
000060 4a 3d 86 3b 7b ff e4 3d 36 03 14 bd db 3e 6e 3d
       0.0040966617 0.111815415 -0.036135875 0.058165412
000070 2e 6d 33 bd 89 25 aa bc 55 28 25 bd aa 53 b7 bb
       -0.043805294 -0.020769851 -0.040321667 -0.0055946903
000080 2b 7c b0 bd 99 6c e4 3c 17 b3 fb 3d 59 37 86 be
       -0.08617433 0.027883815 0.12290018 -0.26214102
000090 6b 5b 5b 3c 66 4c c5 bc b3 43 7f bd 35 80 5d 3c
       0.013388495 -0.024084281 -0.062320422 0.0135193365
0000a0 e9 ec f3 bc 5d a4 a4 3e 0e 9e 83 bd 1b ac f8 bd
       -0.029776054 0.3215665 -0.06426631 -0.121422015
0000b0 b1 1d 5d bd 1a 25 cd bd 4f 58 86 be 53 2b 5a bc
       -0.053983394 -0.10016842 -0.2623925 -0.013315993
0000c0 13 69 08 be 50 f4 fd bc d1 b8 4d bd fe d5 76 bd
       -0.13321333 -0.031000286 -0.050225083 -0.060262673
0000d0 45 41 9f bd bf 27 26 3e e5 37 1d 3e 96 1c de bc
       -0.07776121 0.162261 0.15353353 -0.02711324
0000e0 5f fa 04 3e 96 c7 2b ba f6 90 1f 3e f0 8b 66 bd
       0.12986134 -0.0006552873 0.15582642 -0.0562858
0000f0 5c f3 8c 3d 5b 64 fd bd b8 86 03 be 9a f2 79 3d
       0.068823546 -0.12372657 -0.1284436 0.06102238
000100 2d f8 c4 3d 0b f9 db 3d f3 2a 00 3e 88 f8 a4 bd
       0.09617648 0.107408606 0.12516384 -0.08055216
000110 58 9e 8b bd d3 cb 83 3e 87 36 6b 3c d3 6c 89 3d
       -0.06817311 0.25741443 0.014356262 0.0671021
000120 b6 57 80 3c ac 4e 96 3c d9 dc d1 3d 2a ca 44 bd
       0.015666824 0.01834806 0.102472015 -0.04804436
000130 8d 0f 66 3d b8 63 4f 3e 6a dc b0 be 64 3f 82 bd
       0.056167174 0.20252883 -0.34543163 -0.06359747
000140 90 a4 29 bb c0 ed e5 ba 01 dd 83 3d 49 25 ac 3d
       -0.002588544 -0.0017542168 0.064386375 0.08405549
000150 86 85 6b 3d 6c 26 b0 3d 56 42 0a be 47 8a 23 bd
       0.057500385 0.086010784 -0.13501868 -0.039926793
000160 c9 59 ae 3d 06 9b 2b 3d b1 8e 07 3e c9 cd 13 bb
       0.08513219 0.04189589 0.13238026 -0.0022553077
000170 b3 b0 90 bc cf a4 8e bd 66 8c 8e 3a b7 3b a7 3d
       -0.017662382 -0.069650285 0.0010875582 0.081656866
000180 dd a5 41 bd 28 8b 3d 3d 2f 4f 9b 3d ac f8 95 3e
       -0.04727732 0.046275288 0.075834624 0.29291284
000190 d9 7c 5e 3b 3b bf ab 3c 52 1a 31 3c 53 1c b4 3d
       0.0033948927 0.02096521 0.010809498 0.08794465
0001a0 2c c2 be bd 91 e8 ae bd 84 a4 ba 3d d8 6a 6b 3b
       -0.09314379 -0.08540452 0.0911341 0.0035921838
0001b0 86 80 65 be 5f 53 18 3c b4 8b 56 be aa 19 9d 3c
       -0.22412309 0.009297221 -0.2095173 0.019177277
0001c0 d4 91 e8 3b bb b0 33 3d 0d a8 6b 3d 0b 4e a7 bd
       0.007097462 0.043869715 0.057533313 -0.081691824
0001d0 fa 0c 8d 3d 23 51 eb 3d a5 68 79 3e 93 01 6c 3d
       0.06887241 0.11490085 0.24356325 0.05761869
0001e0 82 ff 76 3d 1b 70 ff 3b f2 15 98 3d d8 c8 c6 3d
       0.060302265 0.0077953464 0.07426061 0.09706277
0001f0 d3 c9 10 be 90 af 0b bd b9 c1 0d 3e a6 2e 94 bd
       -0.1413949 -0.034102976 0.1384343 -0.0723546
000200 b7 68 02 3e ce 2f dd bd 17 d2 6e 3e 3a 07 38 bd
       0.12735258 -0.10800134 0.2332233 -0.044928767
000210 d2 bb c2 3e 52 20 7b 3d b0 ab bb 3d 0d cd c5 bd
       0.3803392 0.06131012 0.09163606 -0.09658251
000220 5b 94 df bd 52 a4 6d 3e 27 b3 cd bd 83 94 2c bd
       -0.109169684 0.23207214 -0.10043936 -0.04213382
000230 43 b3 ef bd f5 b8 a7 bd a2 68 bd bd d7 44 3b bd
       -0.11704113 -0.08189575 -0.09248473 -0.045719948
000240 72 6d 64 be b6 b4 cf bd 85 05 a1 3d 20 47 48 bd
       -0.22307375 -0.1014189 0.07862381 -0.048895955
000250 ee 7a 15 bd 1f 27 d9 3d bb 7d 82 be 0a 12 48 be
       -0.036494188 0.10603165 -0.2548655 -0.19538131
000260 1b da c4 bd 5c 5b 07 3e 9b 0e a6 bb a8 9a 8a bd
       -0.09611913 0.13218445 -0.005067659 -0.067677796
000270 e4 b3 b7 bd 75 d2 5f be e2 ec 13 be c3 a1 a5 3e
       -0.08969858 -0.21857627 -0.14445832 0.32349977
000280 4c 90 9a 3d 6a 0d 14 be c9 6a 4d be 12 90 36 be
       0.07547054 -0.14458242 -0.20060267 -0.17828396
000290 d0 b4 55 3d a7 e1 b8 bd a4 77 ed 3d 44 9b 5f 3e
       0.05217439 -0.09027415 0.11595085 0.21836573
0002a0 2a 75 b2 3d 00 43 43 bd 48 c0 1e be 28 6a dc 3d
       0.087137535 -0.047671318 -0.15503037 0.10762435
0002b0 6b 51 9f 3e 9e 8a a1 bd 67 1b c8 bd 2d 58 08 3d
       0.31116804 -0.07887767 -0.097708516 0.033287216
0002c0 39 7b 9b bd 04 26 2b 3d 54 75 87 3d 5d 75 87 3c
       -0.07591862 0.0417843 0.066141754 0.016535455
0002d0 c4 07 98 be 89 e6 34 bd cc ff a6 3d d7 99 ac bd
       -0.29693425 -0.044165168 0.08154258 -0.0842778
0002e0 20 94 35 be 58 dc 00 bb 9b de 53 bd 94 7a 8a bd
       -0.17732286 -0.0019662585 -0.051725965 -0.06761661
0002f0 c3 27 4b bd e3 1f de 3d 28 76 f6 3b fc a2 c5 3d
       -0.049598467 0.10845926 0.0075214095 0.096502274
000300 2b 37 4f be ec d1 98 bd dd 62 72 3a 50 05 ae 3d
       -0.20235889 -0.074619144 0.0009246299 0.08497107
000310 52 ca e8 bd f2 33 de 3d 79 a9 24 be 46 b6 82 3c
       -0.113667145 0.108497515 -0.16080274 0.015956055
000320 15 4f 84 be db d3 2e bd 81 0a f1 bd 82 e4 95 3d
       -0.25841585 -0.04268251 -0.117695816 0.07318975
000330 11 3c 8f bc c9 b2 2f be 01 a2 94 3d a3 98 aa 3b
       -0.017484697 -0.17158045 0.07257462 0.005206184
000340 f4 42 7e 3d b2 40 bc 3d 53 94 11 3e 81 23 5b be
       0.06207557 0.09192027 0.14216737 -0.21400262
000350 76 ad 75 be 56 ef d7 bd d1 f5 4a 3e a5 aa 36 3b
       -0.23991951 -0.105436966 0.19820334 0.0027872708
000360 72 b2 dd bd 13 eb 96 bd 16 34 78 bd fc d7 77 bb
       -0.10825051 -0.073690556 -0.060596548 -0.0037817946
000370 71 99 38 3e fe f4 01 3d 27 ac be 3c 6b a0 e1 bc
       0.18027283 0.031727783 0.023275448 -0.027542314
000380 95 90 59 3e bd 97 c6 3d e9 8f f5 3d e9 2b 39 3d
       0.2124656 0.096969105 0.11990339 0.04520789
000390 da 7c 68 bd ab 42 55 be 19 1e 26 bd 5a 64 b9 bd
       -0.056759693 -0.20826213 -0.040556047 -0.09052344
0003a0 a1 15 97 bc 24 a0 71 bd e7 6f f7 bc 78 c0 ca bd
       -0.01844293 -0.058990613 -0.030204726 -0.09899992
0003b0 8e 0d af 3e 9c 10 89 3e 9e ea a8 3d 3a 4a 05 3e
       0.3419003 0.26770484 0.08247875 0.13016596
0003c0 e3 6d f2 3d 02 c5 10 3d 3a 63 ae bd 8b 97 8b bc
       0.118373655 0.03534413 -0.0851502 -0.017040035
0003d0 1f 14 7a 3e 08 fe 6e bd fa 1b 0e be a2 6f 1b 3e
       0.24421738 -0.05834773 -0.1387786 0.15179303
0003e0 14 04 b9 3d f4 d6 11 bc 0e 0f 96 bd 6d 15 25 be
       0.09033981 -0.0089013465 -0.0732709 -0.16121455
0003f0 21 38 98 3d 52 67 fb 3d b5 7f 62 3d 9a ec 40 bd
       0.07432581 0.12275566 0.055297572 -0.04710064

fc3.bias f4 [10]
000000 ef 16 4e bd 0e 47 e2 3d 66 1e b5 3d 02 e5 89 bd
       -0.05031484 0.11048709 0.08843689 -0.06733133
000010 b7 de d6 bd 84 bf 8a 3c 5a 1e 3a bc e7 e6 b4 3c
       -0.10491698 0.016937025 -0.011359775 0.022082759
000020 b1 2f 8a bd c1 ac b0 bd
       -0.06747378 -0.086267
