计算机视觉实践-练习3/SRCNN/outputs/x3/best.pth (torch, 231039 bytes, 5 tensors)

conv1.weight f4 [64, 1, 9, 9]
-0.03761567 0.008347155 -0.04340472 0.050500087 -0.09355633 0.09220017 -0.07311906 -0.09161888
-0.047450155 0.041601885 -0.044641484 0.048510123 -0.09677568 -0.07966405 -0.036629137 -0.015066157
-0.09799804 0.07764209 -0.02543323 0.035761215 0.074769415 0.014446285 0.024993682 0.113650836
-0.033943217 0.038887255 -0.04507686 0.09115689 0.08758899 -0.12290581 0.08930107 0.059990447
0.05414143 0.059298858 0.107850626 -0.0018085819 -0.08631431 -0.033631746 -0.0926725 0.01282686
-0.011618052 -0.057736456 -0.002643819 0.111472346 -0.003923795 -0.00012167916 -0.018698901 0.021587383
0.11436697 0.0677031 0.031047089 0.03179996 0.025269246 0.03650799 -0.008727685 -0.1119045
-0.067502856 0.11600222 0.008138975 -0.10655776 0.028171726 0.10096872 -0.111328185 -0.056161694
-0.04928364 0.005750552 -0.0065409373 -0.0057865414 -0.11997193 0.06599724 0.113040105 0.06226939
-0.0550954 -0.08299212 0.05191508 0.0073603843 0.053073294 -0.10596592 0.004602006 0.085540675
0.04799591 -0.0046459986 0.010230142 -0.021219034 -0.07587801 -0.04234322 -0.068581484 0.092017904
0.058558512 0.023398073 -0.086253576 0.08487087 0.03856091 0.07431701 -0.032608055 0.039441995
0.12289738 0.08320285 0.07646853 -0.03576044 0.07261738 -0.09978479 -0.015731433 -0.071926974
-0.0290559 -0.038687114 -0.0029960987 0.08545061 0.04449303 -0.0058702333 0.07307059 -0.07929037
0.05665257 -0.0072366702 -0.03130813 -0.004661711 -0.099365406 0.0030245332 0.03267335 0.093416676
-0.049602848 0.050056104 0.12492161 -0.04928801 0.093451776 -0.06686512 0.0461114 0.041316364
0.032399856 0.07864225 -0.033780877 0.044827186 0.009888528 -0.08664332 -0.04259842 -0.07757803
0.04040454 0.019474894 0.013353408 -0.039772432 -0.015688516 -0.036992453 0.031462103 0.085014254
0.016933015 -0.05379799 -0.056792464 0.0063273287 -0.09991319 -0.107496 -0.07819113 -0.037955713
-0.015644658 0.08308946 0.046143737 0.10204785 -0.06375312 0.006424088 -0.10262323 0.07372624
0.037536282 0.09702246 -0.07974596 0.09226613 0.108259976 0.111884445 0.046086147 0.13657217
0.09846771 0.088794194 0.0012127975 -0.08098851 0.008226216 0.04424375 -0.05304133 -0.04836771
-0.08228205 -0.0075911637 0.11215803 0.02046327 0.0012033285 0.011346228 0.087166585 -0.074970804
-0.071780704 -0.024044063 -0.036386263 0.08436569 0.08753815 -0.094546594 -0.08817213 -0.09897457
0.062979445 0.11371942 -0.07147007 -0.029128162 0.06783778 -0.049821924 0.1068153 0.03654781
-0.019712823 0.025242206 0.059658766 -0.02125348 -0.06521038 0.031101847 0.02946481 0.0027960658
-0.0104140425 0.08833317 -0.020024462 -0.003501861 0.061276853 -0.04222236 0.054357376 -0.009489787
0.046467464 -0.07562111 0.015997756 0.021523815 -0.091853924 -0.076760694 0.06459788 -0.015406938
0.07047354 -0.10072612 -0.06774497 -0.08599572 0.059855703 0.012655888 -0.010356304 -0.0049019284
-0.07742739 0.033860706 0.01470135 -0.0797671 0.04995265 0.009898794 -0.08654336 0.07343941
0.06946742 -0.010113862 -0.06933368 0.00639947 0.08467053 0.10240528 -0.08357007 -0.050910864
0.08699333 0.056955576 0.06724326 -0.05895184 0.098363765 -0.090924814 -0.0046676947 0.0037579464
00000000: e412 1abd 81c2 083c 26c9 31bd 2ed9 4e3d
00000010: 769a bfbd 71d3 bc3d 72bf 95bd aea2 bbbd
00000020: 185b 42bd bd66 2a3d fdd9 36bd 8db2 463d
00000030: 5432 c6bd e826 a3bd 6f08 16bd 0bd8 76bc
00000040: 32b3 c8bd d102 9f3d 5959 d0bc 5a7a 123d
00000050: b520 993d 1cb0 6c3c 8dbf cc3c c5c1 e83d
00000060: 0b08 0bbd 3e48 1f3d 83a2 38bd 77b0 ba3d
00000070: db61 b33d 0bb6 fbbd 7be3 b63d 8bb8 753d
00000080: 67c3 5d3d 5ce3 723d cae0 dc3d f00d edba
00000090: 8fc5 b0bd 71c1 09bd 14cb bdbd c027 523c
000000a0: a459 3ebc 107d 6cbd ec43 2dbb 9d4b e43d
000000b0: 2e93 80bb 002e ffb8 702e 99bc 06d8 b03c
000000c0: 3b39 ea3d eca7 8a3d 7756 fe3c ad40 023d
000000d0: 7301 cf3c 6789 153d 90fe 0ebc 302e e5bd
000000e0: f03e 8abd 9292 ed3d 5659 053c f43a dabd
000000f0: 64c8 e63c b0c8 ce3d 0800 e4bd ce09 66bd
00000100: a4dd 49bd 206f bc3b 5c55 d6bb 079d bdbb
00000110: d8b3 f5bd 9029 873d 9281 e73d 300e 7f3d
00000120: b7ab 61bd c6f7 a9bd e8a4 543d 612f f13b
00000130: 6263 593d a904 d9bd 6dcc 963b f32f af3d
00000140: 5c97 443d 763d 98bb 539c 273c 8ad3 adbc
00000150: ee65 9bbd 1670 2dbd 7374 8cbd e273 bc3d
00000160: 0ddb 6f3d 51ad bf3c b7a5 b0bd c7d0 ad3d
00000170: 0bf2 1d3d 8433 983d 0690 05bd ee8d 213d
00000180: 9fb1 fb3d 4166 aa3d 889b 9c3d 8a79 12bd
00000190: 6cb8 943d f85b ccbd 35df 80bc 734e 93bd
000001a0: a406 eebc 6176 1ebd 325a 44bb bb00 af3d
000001b0: 533e 363d 165b c0bb 09a6 953d fd62 a2bd
000001c0: 860c 683d 9721 edbb f43c 00bd 44c1 98bb
000001d0: 1780 cbbd 3f37 463b 7ed4 053d 3e51 bf3d
000001e0: 5b2c 4bbd a107 4d3d e7d6 ff3d 39e2 49bd
000001f0: a563 bf3d 94f0 88bd 4fdf 3c3d 593b 293d
00000200: b6b5 043d 300f a13d d15d 0abd b69c 373d
00000210: 7e03 223c 0e72 b1bd ae7b 2ebd 3be1 9ebd
00000220: 3b7f 253d d089 9f3c 41c8 5a3c 6be8 22bd
00000230: 3485 80bc 6685 17bd 68de 003d f41b ae3d
00000240: 1bb7 8a3c 485b 5cbd 379f 68bd 7b55 cf3b
00000250: 499f ccbd dd26 dcbd ac22 a0bd 7377 1bbd
00000260: 3a29 80bc cf2a aa3d 3701 3d3d 77fe d03d
00000270: ff90 82bd 2881 d23b 212c d2bd c8fd 963d
00000280: a5bf 193d b6b3 c63d da51 a3bd 06f6 bc3d
00000290: 68b7 dd3d ac23 e53d d4c4 3c3d 93d9 0b3e
000002a0: 70a9 c93d bbd9 b53d bbf6 9e3a 4edd a5bd
000002b0: 40c7 063c ef38 353d de41 59bd 381d 46bd
000002c0: 7e83 a8bd 4cbf f8bb 1cb3 e53d 96a2 a73c
000002d0: 01b9 9d3a 88e5 393c 6584 b23d 4b8a 99bd
000002e0: c301 93bd 0ef8 c4bc c309 15bd ebc7 ac3d
000002f0: 3447 b33d a5a1 c1bd 9793 b4bd 2eb3 cabd
00000300: 5efb 803d bae5 e83d e65e 92bd 2f9e eebc
00000310: 89ee 8a3d 1312 4cbd fbc1 da3d 28b3 153d
00000320: c97c a1bc bec8 ce3c c05c 743d c71b aebc
00000330: 058d 85bd 4dc9 fe3c 2f60 f13c 333e 373b
00000340: a99f 2abc 05e8 b43d 570a a4bc 7a7f 65bb
00000350: 70fd 7a3d 5af1 2cbd d7a5 5e3d 0d7b 1bbc
00000360: ab54 3e3d 3edf 9abd ba0d 833c b652 b03c
00000370: e91d bcbd b634 9dbd e54b 843d 626d 7cbc
00000380: 6e54 903d 7f49 cebd e0bd 8abd 861e b0bd
00000390: 412b 753d a45a 4f3c 7dad 29bc 5ba0 a0bb
000003a0: 4092 9ebd 86b1 0a3d eedd 703c ef5c a3bd
000003b0: 269b 4c3d 8d2e 223c a53d b1bd 6767 963d
000003c0: ef44 8e3d 9db4 25bc d1fe 8dbd a5b2 d13b
000003d0: be67 ad3d dcb9 d13d c926 abbd e987 50bd
000003e0: 8f29 b23d 404a 693d d6b6 893d 7c77 71bd
000003f0: f172 c93d ca36 babd 76f3 98bb e147 763b

conv1.bias f4 [64]
-0.017423527 -0.061467618 0.01503883 -0.060578555 0.041178405 -0.018603945 0.06129923 -0.010886191
0.11974206 -0.050287887 0.0129162185 0.0071067777 -0.09358738 0.10075987 0.07180992 0.004546231
-0.031152042 -0.050790153 0.056562155 0.04918855 0.019350065 0.0039575137 -0.067790575 0.071835466
-0.042615317 0.036602058 0.008106362 -0.025346564 0.03190775 0.047220718 0.09535175 -0.0078085526
0.049264215 0.08781021 0.010055917 -0.094392195 -0.012195461 0.08935681 -0.008629641 0.04326516
-0.012856586 -0.009586575 0.10496888 -0.00055270374 0.03766105 0.035416592 -0.012559967 -0.0069623077
-0.009907389 -0.022175683 -0.013597978 0.023978226 0.067294486 0.006364094 0.008996261 0.016817052
0.0450236 -0.046408657 -0.0012433568 0.077538095 0.093970776 0.01482044 -0.08170132 -0.08499037
00000000: c9bb 8ebc 78c5 7bbd 6d65 763c 3821 78bd
00000010: b0aa 283d 4d67 98bc e714 7b3d ff5b 32bc
00000020: 533b f53d acfa 4dbd 8c9e 533c f9df e83b
00000030: beaa bfbd 315b ce3d 1411 933d 8df8 943b
00000040: 9132 ffbc 5609 50bd b8ad 673d ef79 493d
00000050: 0784 9e3c 08ae 813b c9d5 8abd 791e 933d
00000060: 668d 2ebd 0aec 153d 8cd0 043c 99a3 cfbc
00000070: b3b1 023d 836a 413d c747 c33d e3de ffbb
00000080: 46c9 493d d7d5 b33d 93c1 243c b250 c1bd
00000090: 79cf 47bc b400 b73d 5663 0dbc cf36 313d
000000a0: 6ea4 52bc 0311 1dbc edf9 d63d 52e3 10ba
000000b0: 7942 1a3d fd10 113d 52c8 4dbc 1224 e4bb
000000c0: 9a52 22bc c7a9 b5bc 0eca 5ebc fc6d c43c
000000d0: b1d1 893d e489 d03b 0e65 133c eac3 893c
000000e0: ab6a 383d 0117 3ebd 22f8 a2ba 4bcc 9e3d
000000f0: c073 c03d 6ed1 723c 0653 a7bd 6e0f aebd

conv2.weight f4 [32, 64, 5, 5]
0.007877579 0.0067309095 -0.012330977 -0.019864216 -0.006774469 -0.00510098 -0.013957402 -0.027738497
-0.037621 -0.014028982 0.01749143 -0.009185936 0.0022519112 -0.017594844 0.013654866 -0.0015321849
0.015686452 0.0047350544 0.005994657 0.029726269 0.0102800755 0.02379584 -0.023310164 0.010524738
-0.005429535 -0.013399303 0.025454782 0.020906087 -0.0058514276 -0.010552301 -0.017004186 0.020086762
0.008224248 -0.0063095214 -0.016037218 0.0029742552 -0.011041445 0.010141652 -0.008014674 0.00042624926
-0.009761459 0.00019056902 -0.014606935 0.0006758181 -0.010611653 -0.019917622 0.019440988 0.012531308
0.016729284 0.00959053 -0.0025594125 0.054096136 0.016555829 -0.02438176 -0.03594587 -0.024801454
0.025340632 0.06071349 0.01770048 -0.021993306 -0.012030081 -0.032969587 -0.0242252 -0.0032649145
-0.04684581 0.007410543 0.013655777 0.013226449 0.025852308 0.0008543578 0.03242766 0.030305583
-0.005204815 -0.008416861 0.011113222 0.011789974 -0.015587606 -0.019277774 -0.017232323 -0.014122342
0.0018786662 0.022081392 -0.022252796 -0.01992047 0.020106455 0.014729123 0.013451845 -0.019305248
0.02046561 0.012074764 -0.00071741967 0.024466699 0.013686788 0.020633463 -0.0038583465 0.0127698565
-0.014308127 0.0033462285 -0.021014418 -0.023200648 -0.013442164 -0.0060495385 0.017023345 0.02664519
0.026925769 -0.0007651946 0.0052536875 0.00856577 0.01813419 0.012258069 -0.015251488 -0.015072915
0.02658344 0.014747683 -0.028280664 -0.01510571 0.012699376 -0.0113351 0.019973032 0.016468521
-0.013213848 0.0074807946 -0.0075886366 -0.027234238 0.012098536 -0.015048947 -0.04701694 -0.010472169
-0.01517131 0.014908325 0.04941233 0.02356701 0.033513106 0.012674867 -0.061456982 0.022223374
0.0142705515 0.05133136 0.046444673 -0.010654343 0.005533834 -0.000710378 0.00470208 0.01626745
0.011856619 0.0015025256 -0.011800801 0.013897443 -0.014420739 -0.0224092 -0.015111575 -4.9622263e-06
-0.012699981 0.02308674 -0.028620627 0.02546657 0.016849829 -0.018188696 -0.015546605 0.019810485
0.00040440587 -0.016493732 0.005625601 -0.002398398 0.001974074 0.014507749 -0.016046653 -0.008528151
-0.00063723815 0.019936822 -0.016099421 -0.0119865555 0.011511459 0.020407274 -0.0012077714 -0.004642704
0.019046558 -0.026173024 -0.01763309 0.030998886 0.02614477 0.013130685 0.03267486 0.016848942
0.03898343 -0.023830822 0.023053387 0.0020638711 -0.016250044 -0.016260585 -0.012604561 0.043368444
0.015829576 0.001074221 -0.03261896 -0.074376546 -0.016028853 0.01253306 -0.02168831 -0.009169763
-0.01750092 -0.047119174 -0.038799357 0.01643411 0.0020927072 0.022959683 -0.00802261 -0.027189258
0.0072597354 0.006891197 -0.009828233 0.022226386 0.011717445 0.0015874695 -0.026309712 0.023884915
0.018605817 0.022633934 -0.0026000915 -0.03191442 -0.033713944 -0.008246941 -0.0013843336 -0.01083574
0.0014599037 -0.0038459583 0.011481141 -0.0050353613 -0.002490377 0.015390053 0.0131587945 0.011310131
0.026663559 0.017756747 -0.0093753245 -0.007088454 7.7071134e-05 0.00846714 -0.0028084337 -0.024964593
-0.025960593 -0.016376153 -0.0035221472 -0.020568699 -0.016541878 0.021029985 -0.0050433245 -0.013288054
0.0067714727 0.012648064 -0.0032816695 0.028489506 0.013277501 -0.00044091023 0.004577428 -0.048678286
00000000: f610 013c f68e dc3b de07 4abc 48ba a2bc
00000010: 5dfc ddbb 1f26 a7bb 96ad 64bc d83b e3bc
00000020: 7a18 1abd d1d9 65bc 304a 8f3c 9c80 16bc
00000030: cd94 133b 1023 90bc a9b8 5f3c 98d3 c8ba
00000040: e080 803c 8428 9b3b d46e c43b 8184 f33c
00000050: c36d 283c 7eef c23c f5f4 bebc f36f 2c3c
00000060: 3eea b1bb c088 5bbc 8c86 d03c 3e43 ab3c
00000070: 55bd bfbb 8fe3 2cbc 5d4c 8bbc fe8c a43c
00000080: ffbe 063c 1ac0 cebb 7c60 83bc b9eb 423b
00000090: 2de7 34bc 2c29 263c fb4f 03bc 357a df39
000000a0: 87ee 1fbc 7bd3 4739 ed51 6fbc 6329 313a
000000b0: 80dc 2dbc 482a a3bc b542 9f3c 1e50 4d3c
000000c0: da0b 893c 9921 1d3c d1bb 27bb e993 5d3d
000000d0: 17a0 873c 42bc c7bc fa3b 13bd 6b2c cbbc
000000e0: 2897 cf3c b5ae 783d 9900 913c 4e2b b4bc
000000f0: d119 45bc 1e0b 07bd ed73 c6bc 2df8 55bb
00000100: 64e1 3fbd 24d4 f23b 7bbc 5f3c bfb3 583c
00000110: 38c8 d33c fbf6 5f3a ded2 043d 6a43 f83c
00000120: 278d aabb e0e6 09bc 3b14 363c bc2a 413c
00000130: 2863 7fbc 6cec 9dbc cd2a 8dbc 6561 67bc
00000140: 943d f63a 09e4 b43c 7f4b b6bc 4130 a3bc
00000150: 4bb6 a43c 6b52 713c 2165 5c3c 0a26 9ebc
00000160: 7fa7 a73c 3bd5 453c 3811 3cba 636e c83c
00000170: 8d3e 603c 8207 a93c 50dc 7cbb a938 513c
00000180: a26c 6abc 664c 5b3b 6e26 acbc 490f bebc
00000190: 863c 5cbc 353b c6bb 8b74 8b3c 0347 da3c
000001a0: 6e93 dc3c 5797 48ba 2027 ac3b 7257 0c3c
000001b0: 278e 943c 11d6 483c 61e1 79bc 63f4 76bc
000001c0: 84c5 d93c 44a0 713c daac e7bc f17d 77bc
000001d0: 0b11 503c dbb6 39bc 7c9e a33c fee8 863c
000001e0: e57e 58bc 7421 f53b 19aa f8bb 561a dfbc
000001f0: f038 463c dc8f 76bc d694 40bd 7693 2bbc
00000200: 1691 78bc 0c42 743c 9564 4a3d 9a0f c13c
00000210: 0a45 093d 3faa 4f3c 51ba 7bbd cb0d b63c
00000220: 08cf 693c d540 523d c53c 3e3d 8e8f 2ebc
00000230: 2a55 b53b a938 3aba e813 9a3b 5143 853c
00000240: 4442 423c 65f0 c43a 2658 41bc 1ab2 633c
00000250: f744 6cbc 8093 b7bc 8a96 77bc 3381 a6b6
00000260: 9513 50bc 6720 bd3c ce75 eabc 459f d03c
00000270: a708 8a3c 7600 95bc 30b7 7ebc 9949 a23c
00000280: 7006 d439 dd1d 87bc f656 b83b 712e 1dbb
00000290: 775f 013b e9b1 6d3c 4574 83bc a8b9 0bbc
000002a0: 540c 27ba 8c52 a33c efe2 83bc 4263 44bc
000002b0: 8f9a 3c3c 282d a73c 154e 9eba d321 98bb
000002c0: 8707 9c3c cf68 d6bc 4573 90bc 60f1 fd3c
000002d0: 8f2d d63c 1622 573c 13d6 053d cb06 8a3c
000002e0: 17ad 1f3d db38 c3bc 75da bc3c 0342 073b
000002f0: d01e 85bc eb34 85bc 5c83 4ebc 1ca3 313d
00000300: 07ad 813c e0cc 8c3a 759b 05bd bb52 98bd
00000310: f14e 83bc 7757 4d3c afab b1bc c63c 16bc
00000320: 175e 8fbc 0900 41bd 13ec 1ebd d4a0 863c
00000330: cd25 093b f215 bc3c 4471 03bc 02bc debc
00000340: 13e3 ed3b 8dcf e13b 9906 21bc 1c14 b63c
00000350: 87fa 3f3c a312 d03a 7787 d7bc 4caa c33c
00000360: 3a6b 983c cd6a b93c 4c66 2abb b2b8 02bd
00000370: a217 0abd 2d1e 07bc 8772 b5ba 6388 31bc
00000380: 3d5a bf3a 790c 7cbb 651b 3c3c acff a4bb
00000390: 9835 23bb 9026 7c3c fc97 573c 214e 393c
000003a0: 896d da3c 9976 913c f69a 19bc 4346 e8bb
000003b0: 40a1 a138 c2b9 0a3c b30d 38bb 8c82 ccbc
000003c0: 4fab d4bc 4827 86bc d3d3 66bb b07f a8bc
000003d0: d582 87bc 1347 ac3c 7942 a5bb 23b6 59bc
000003e0: 3be3 dd3b d339 4f3c 4711 57bb d362 e93c
000003f0: e089 593c f829 e7b9 40fe 953b e262 47bd

conv2.bias f4 [32]
-0.006962038 -0.022816222 -0.00094633584 0.017755376 0.026233962 0.022179006 -0.013123401 0.0064272773
0.007195725 -0.011507692 0.00030066678 0.006312161 0.025599746 0.012559189 0.017423017 0.004148147
-0.007457247 -0.017851947 0.016058099 0.021806693 0.04059577 -0.0013960857 -0.005468327 0.0068509723
0.016538205 0.004127539 0.016265672 0.018434767 0.009997309 -0.009171525 0.011585721 -0.0018649927
00000000: cf21 e4bb 16e9 babc 8613 78ba b973 913c
00000010: 9be8 d63c bfb0 b53c 8903 57bc e99b d23b
00000020: 1eca eb3b c28a 3cbc d0a2 9d39 3fd6 ce3b
00000030: 8fb6 d13c 0fc5 4d3c b7ba 8e3c 2eed 873b
00000040: ec5b f4bb 3f3e 92bc 468c 833c f3a3 b23c
00000050: c047 263d ddfc b6ba a72f b3bb 1f7e e03b
00000060: 217b 873c 4f40 873b 963f 853c 8204 973c
00000070: c1cb 233c 2a44 16bc 09d2 3d3c c572 f4ba

conv3.weight f4 [1, 32, 5, 5]
0.018984009 0.017651558 -0.0023682097 0.024218187 0.029912442 -0.02973013 0.0015646245 -0.034835543
0.0029800686 0.010085351 -0.0035222324 0.02840043 0.012099543 -0.030979747 -0.003792108 -0.01651765
-0.028753823 -0.00022615194 -0.03263973 0.022620054 0.0041410676 0.012178443 0.019613452 0.027559794
-0.017865032 0.0022573567 -0.03333003 0.007984752 0.026464665 -0.02212531 0.020620985 -0.016324244
0.010064053 -0.015497784 0.006791237 -0.03335852 0.026536904 -0.007993963 0.032746833 -0.012772613
0.015542681 -0.016763639 -0.014692407 -0.008739479 0.016957855 0.014103039 0.02049151 -0.0055241417
0.0046660495 0.021945693 -0.013817296 -0.01161853 0.026911974 -0.029824529 -0.017110575 -0.019600803
-0.0074340277 -0.025983073 0.008235479 -0.024688102 -0.015542681 -0.034396812 0.023595091 -0.02166706
-0.004238518 -0.021085756 -0.004884678 -0.0067620003 -0.0115083 -0.0005085315 0.01504202 0.029108718
0.026222555 -0.02624031 -0.0040961574 -0.027190842 0.018083634 0.027706519 0.012107733 0.012967348
0.032622658 -0.005432455 -0.030378478 -0.016923377 -0.011137436 0.016625587 0.0005283335 0.029126996
0.018076276 -0.01417612 -0.011998958 -0.0144112585 -0.038740914 -0.014341415 -0.021023821 -0.009080121
-0.0085083265 -0.01979115 -0.02018389 0.0052740076 0.0063310075 0.007743616 0.014302411 -0.0028992407
0.003793904 -0.0071401736 0.03194035 -4.9716284e-05 0.025248952 -0.020872748 -0.027342012 0.004551346
-0.03190576 0.020569243 0.020200912 0.028968457 0.032087114 0.011492129 0.013600899 -0.0053411373
0.03227879 0.015048844 -0.008357924 -0.03247826 0.004398089 0.003469992 0.027635599 0.022521706
0.03229978 0.0033063693 0.011328786 -0.02682097 0.0055083274 0.010150083 -0.019236334 -0.016373722
0.018600931 -0.01762964 -0.0098910015 0.02739268 0.029418986 -0.025418537 -0.0280158 0.026217908
-0.008238437 0.004290988 -0.02162972 -0.013898986 0.028067693 -0.02209948 0.012661828 0.0012425936
0.011115751 0.0014063187 -0.007877526 0.013082462 0.0097469855 -0.0031861523 0.023823341 0.03148501
0.018758504 -0.009842767 -0.025641864 -0.024029518 -0.017385077 -0.0029681493 0.01832225 0.009850902
0.03161676 -0.034286562 -0.019866945 0.032386538 -0.02534272 0.022596143 0.0010967114 -0.0035921847
0.02529379 0.027463166 -0.014286049 -0.0018022417 0.033382416 0.02960738 0.014225862 -0.02129951
-0.023712514 0.025672695 0.020459872 -0.004064187 0.034171686 0.024840415 -0.00744886 0.015682487
0.034423653 0.020583598 -0.017010888 -0.033080947 0.011046446 0.013377088 -0.03471924 0.0054173754
-0.021798946 0.014181649 -0.01726742 -0.026912495 0.033999994 0.02114816 -0.014297162 -0.025505558
0.023902185 -0.02207966 -0.010481551 -0.0157584 0.010536007 -0.0022578938 0.013139758 -0.019792428
0.026097203 0.004088948 -0.024418553 -0.025829615 0.021484327 -0.015267665 0.009900072 0.0009073807
-0.01642057 0.033963963 -0.013421882 0.014861564 0.022039587 0.010870144 0.03382862 -0.024502303
0.0036855312 -0.000674141 0.016649365 -0.014949826 -0.020967271 -0.027121652 0.024390023 0.009558901
-0.03308345 -0.0019354743 -0.02908215 -0.02940145 0.021863058 -0.017843636 0.021043107 0.032863483
0.0051330943 0.015166137 -0.03087768 -0.015083115 -0.0019402355 0.0075605153 0.01429931 0.019066805
00000000: 5a84 9b3c 009a 903c f733 1bbb 3865 c63c
00000010: f00a f53c 9a8c f3bc 1614 cd3a b7af 0ebd
00000020: 414d 433b 073d 253c 41d5 66bb 05a8 e83c
00000030: 293d 463c 3dc9 fdbc 0485 78bb 0650 87bc
00000040: 238d ebbc 3323 6db9 3db1 05bd b14d b93c
00000050: cbb1 873b 1888 473c 64ac a03c 14c5 e13c
00000060: b059 92bc 29f0 133b 1285 08bd 7ad2 023c
00000070: 6dcc d83c 2340 b5bc 57ed a83c 6cba 85bc
00000080: b3e3 243c 6bea 7dbc 0689 de3b f2a2 08bd
00000090: ec63 d93c 1cf9 02bc 8b21 063d 3944 51bc
000000a0: bba6 7e3c e653 89bc 6cb8 70bc 0830 0fbc
000000b0: 33eb 8a3c 6f10 673c d0dd a73c dc03 b5bb
000000c0: a9e5 983b 74c7 b33c f161 62bc a65b 3ebc
000000d0: 8076 dc3c 9252 f4bc 7a2b 8cbc dd91 a0bc
000000e0: 2599 f3bb 74da d4bc 1aee 063c b43e cabc
000000f0: bba6 7ebc ace3 0cbd 7e4a c13c 1e7f b1bc
00000100: 44e3 8abb 09bc acbc a60f a0bb c593 ddbb
00000110: 4f8d 3cbc f94e 05ba ce72 763c 6875 ee3c
00000120: afd0 d63c ebf5 d6bc 0f39 86bb 54bf debc
00000130: 2124 943c c8f8 e23c 835f 463c 0075 543c
00000140: 569f 053d bc02 b2bb 49dc f8bc e5a2 8abc
00000150: cb79 36bc 6232 883c dc7f 0a3a bd9b ee3c
00000160: b314 943c f542 68bc 4797 44bc 331d 6cbc
00000170: cbae 1ebd 41f8 6abc 263a acbc cac4 14bc
00000180: 8266 0bbc 0d21 a2bc af58 a5bc 95d1 ac3b
00000190: 5774 cf3b 29be fd3b a954 6a3c 3001 3ebb
000001a0: 26a3 783b 1ef8 e9bb e2d3 023d 7486 50b8
000001b0: e4d6 ce3c 53fd aabc 5bfc dfbc 7523 953b
000001c0: 9daf 02bd d480 a83c 627c a53c 424f ed3c
000001d0: c76d 033d 7c49 3c3c 4ed6 5e3c b504 afbb
000001e0: c436 043d 6d8f 763c adef 08bc ed07 05bd
000001f0: d81d 903b ce68 633b 0d64 e23c 717f b83c
00000200: c64c 043d acaf 583b 5f9c 393c a7b7 dbbc
00000210: 337f b43b 894c 263c 8495 9dbc 2f22 86bc
00000220: fb60 983c 096c 90bc de0d 22bc 9d66 e03c
00000230: 1600 f13c 893a d0bc 6481 e5bc f0c6 d63c
00000240: 82fa 06bc 6b9b 8c3b d030 b1bc 93b8 63bc
00000250: 38ee e53c f809 b5bc 8e73 4f3c 86de a23a
00000260: d71e 363c 3a54 b83a bd10 01bc d357 563c
00000270: d2b1 1f3c c4ce 50bb 2b29 c33c 6df6 003d
00000280: 6fab 993c 8f43 21bc e30e d2bc 8dd9 c4bc
00000290: 266b 8ebc 4885 42bb 8b18 963c ad65 213c
000002a0: 9380 013d 1170 0cbd 01c0 a2bc bfa7 043d
000002b0: 899b cfbc 8c1b b93c 87bf 8f3a dc6a 6bbb
000002c0: ec34 cf3c 6ffa e03c 0810 6abc 3239 ecba
000002d0: 00bc 083d 2d8b f23c 9713 693c 4f7c aebc
000002e0: bf40 c2bc 8b4f d23c 769b a73c df2c 85bb
000002f0: 9cf7 0b3d 207e cb3c 9115 f4bb 8f78 803c
00000300: d1ff 0c3d ef9e a83c 6b5a 8bbc e37f 07bd
00000310: 27fc 343c 932b 5b3c c335 0ebd 3d84 b13b
00000320: b493 b2bc 265a 683c 6874 8dbc 9877 dcbc
00000330: 9443 0b3d e83e ad3c a53e 6abc 08f1 d0bc
00000340: 84ce c33c 67e0 b4bc d0ba 2bbc c317 81bc
00000350: 379f 2c3c 2cf9 13bb 2448 573c bb23 a2bc
00000360: cdc9 d53c 95fc 853b 6b09 c8bc a198 d3bc
00000370: e6ff af3c 3a25 7abc e933 223c 4add 6d3a
00000380: 6e84 86bc cc1d 0b3d 74e7 5bbc eb7d 733c
00000390: 5d8c b43c b018 323c e18f 0a3d 0eb9 c8bc
000003a0: f488 713b d6b8 30ba 4064 883c 1df0 74bc
000003b0: 8ec3 abbc 3a2e debc 96cd c73c f09c 1c3c
000003c0: 8382 07bd beaf fdba b03d eebc 4fdb f0bc
000003d0: 281a b33c d12c 92bc 9862 ac3c dc9b 063d
000003e0: 8433 a83b 647b 783c 30f3 fcbc 2b1f 77bc
000003f0: 804f feba 33be f73b a747 6a3c fd31 9c3c
