计算机视觉实践-练习2/checkpoint/lenet_p/Saturday_15_April_2023_09h_48m_35s/lenet_p-16-best.pth (torch, 260575 bytes, 30 tensors)

conv1.0.weight f4 [6, 1, 5, 5]
-0.12916243 -0.12085038 0.08192196 0.16464724 -0.08393501 -0.080911025 -0.09346604 -0.12465515
0.1112307 -0.003922122 -0.20757972 0.03209025 0.0012174088 0.1717497 0.17659654 -0.12545227
-0.16562794 0.036705356 0.06938937 0.01826491 0.11216336 0.12653206 0.014105864 -0.10311092
0.14822204 -0.11627823 0.020512402 0.11160847 0.19438484 0.06305459 0.036652658 -0.14397967
-0.07260517 0.041380253 0.23161584 0.039282706 -0.23820311 0.041468617 -0.15685338 0.14763059
-0.1330371 -0.009134918 -0.02331517 0.103936285 -0.12959859 -0.15518539 -0.18623671 -0.1789562
0.054752786 0.04090269 -0.101204224 -0.047387145 0.1177215 0.09697553 0.1834981 0.11726073
0.091288544 0.13049597 -0.0043813963 -0.08883047 -0.15767477 0.10729196 0.21285693 0.22514649
0.04003883 -0.107267834 -0.0016467272 0.024626454 0.19959794 0.015138965 0.04500163 0.08034535
0.20531753 -0.0047965506 -0.1105094 -0.07673812 0.07166025 -0.01114372 0.0534571 -0.21466464
0.011942884 -0.10463637 -0.019933661 0.20242861 -0.087824956 -0.13984519 -0.046076346 0.028436964
0.023834635 0.15491706 -0.051730648 -0.21395338 0.10353277 -0.003006122 -0.066715896 0.010938712
-0.12809926 -0.19621746 -0.028229754 0.13786016 0.055977736 0.12407226 0.09430789 -0.048823513
0.029422464 0.11470568 -0.04448589 0.12866533 0.110276446 -0.006087593 -0.14888085 0.0230597
0.10149108 0.1212276 0.10545825 -0.025387788 -0.18349029 -0.0006506555 -0.059755974 0.16649193
-0.12391235 -0.06255408 -0.19413786 -0.12497934 -0.16066161 -0.0040605743 -0.03382365 0.1332397
0.20006578 0.22644565 0.11728784 0.14757726 0.036764234 -0.09625113 -0.04108432 0.06066058
-0.07006867 0.030552369 -0.04637249 -0.08408776 -0.110931925 0.07179537 -0.18453932 -0.14577301
-0.053202424 0.10666484 -0.13404717 0.08869525 0.10484286 0.09996453
00000000: 2843 04be 6780 f7bd b3c6 a73d 4999 283e
00000010: 1ee6 abbd aeb4 a5bd 206b bfbd 334b ffbd
00000020: eccc e33d 2585 80bb c78f 54be 1171 033d
00000030: 7691 9f3a 27df 2f3e b9d5 343e 8f76 00be
00000040: 5f9a 29be 5b58 163d 041c 8e3d 4ba0 953c
00000050: e7b5 e53d 9f91 013e 481c 673c d12b d3bd
00000060: 85c7 173e 4823 eebd a009 a83c fb92 e43d
00000070: d20c 473e c422 813d 1921 163d 686f 13be
00000080: 05b2 94bd 577e 293d b42c 6d3e e7e6 203d
00000090: 84eb 73be ffda 293d 2c9e 20be 792c 173e
000000a0: e13a 08be a0aa 15bc 75ff bebc 8cdc d43d
000000b0: 7eb5 04be ebe8 1ebe d6b4 3ebe 4b40 37be
000000c0: 7544 603d 9489 273d 2944 cfbd 0619 42bd
000000d0: f817 f13d 1b9b c63d ede6 3b3e 6526 f03d
000000e0: 7df5 ba3d bca0 053e d191 8fbb c0ec b5bd
000000f0: 7f75 21be e3bb db3d 2bf7 593e cd8c 663e
00000100: c2ff 233d 3daf dbbd ffd6 d7ba 6bbd c93c
00000110: 6763 4c3e 6c09 783c a153 383d 1a8c a43d
00000120: c23e 523e 622c 9dbb c152 e2bd e028 9dbd
00000130: 9cc2 923d 2694 36bc d5f5 5a3d 0cd1 5bbe
00000140: 16ac 433c 984b d6bd eb4b a3bc 7249 4f3e
00000150: 92dd b3bd 9433 0fbe 8dba 3cbd a3f4 e83c
00000160: da40 c33c 94a2 1e3e 84e3 53bd 9816 5bbe
00000170: fd08 d43d 5c02 45bb 58a2 88bd 4938 333c
00000180: 742c 03be 3bed 48be 1642 e7bc 372b 0d3e
00000190: e948 653d 9919 fe3d 7f24 c13d 2afb 47bd
000001a0: 6107 f13c d0ea ea3d d636 36bd d8c0 033e
000001b0: 9ed8 e13d 6e7a c7bb 3974 18be b2e7 bc3c
000001c0: 8eda cf3d 2d46 f83d 7ffa d73d 0dfa cfbc
000001d0: e1e4 3bbe c090 2aba aec2 74bd dc7c 2a3e
000001e0: c2c5 fdbd 5a1c 80bd 13cc 46be 2bf5 ffbd
000001f0: 7a84 24be 910e 85bb ab8a 0abd fd6f 083e
00000200: 0bde 4c3e 5ee1 673e 9b34 f03d 7e1e 173e
00000210: 1896 163d 501f c5bd 0848 28bd 3a77 783d
00000220: 2a80 8fbd f648 fa3c 14f1 3dbd 3436 acbd
00000230: 4730 e3bd 7309 933d e0f7 3cbe 8545 15be
00000240: c9ea 59bd 1873 da3d a943 09be dba5 b53d
00000250: dab7 d63d 34ba cc3d

conv1.0.bias f4 [6]
-0.15565705 -0.016577091 -0.064944066 0.07159669 -0.13845162 0.17269015
00000000: 9064 1fbe aecc 87bc 6501 85bd 49a1 923d
00000010: 43c6 0dbe b0d5 303e

conv1.1.weight f4 [6]
0.984379 0.9718733 0.9748592 0.97666574 0.98468405 0.98913455
00000000: 4300 7c3f b0cc 783f 5f90 793f c406 7a3f
00000010: 4114 7c3f ec37 7d3f

conv1.1.bias f4 [6]
0.010848556 -0.005773963 0.026196256 -0.032529004 0.0312616 -0.022300689
00000000: 24be 313c 8333 bdbb 8899 d63c 223d 05bd
00000010: 2a0c 003d efaf b6bc

conv1.1.running_mean f4 [6]
-0.15702471 -0.025129681 -0.044116374 0.047185414 -0.14969273 0.19921981
00000000: 16cb 20be c3dc cdbc 5fb3 34bd 7e45 413d
00000010: 0d49 19be 4700 4c3e

conv1.1.running_var f4 [6]
0.45918456 0.5757013 1.1531355 0.30016938 0.38852587 0.27095848
00000000: 3d1a eb3e 2961 133f f299 933f cdaf 993e
00000010: ddec c63e 12bb 8a3e

conv2.0.weight f4 [6, 6, 3, 3]
-0.050484147 -0.004708353 0.14122275 -0.08346482 -0.07636445 -0.059548628 0.03408553 -0.040990215
0.11605733 0.029065013 0.10166465 0.14360651 0.04137499 -0.14558977 -0.050021492 -0.1434397
-0.13491713 -0.057800192 -0.03789534 -0.078581855 -0.090455525 -0.03828199 -0.044539105 0.02953697
-0.013148886 -0.09558963 0.026282594 0.120126605 0.089913726 0.06201573 -0.034250446 0.03685202
-0.13987727 0.047783326 0.112780824 -0.04613983 0.13427813 0.17490295 0.11519514 0.099352635
0.07446638 -0.1935583 0.017552221 -0.059708893 -0.022666454 -0.038348492 0.0009530947 0.018396355
-0.043500766 0.13648316 0.010252628 0.05606924 0.03885952 -0.044704627 0.005811894 0.07474118
0.08533904 -0.08109641 0.019043868 -0.093102075 0.13245408 0.0650234 -0.16246425 0.08594086
-0.058386102 -0.080122076 0.04853043 -0.11775197 0.1044407 -0.07499433 0.009675772 -0.11640655
0.047772642 -0.11708494 0.034214452 -0.13385412 -0.09213801 -0.10048332 -0.05677118 0.024313377
0.046505556 0.004818982 -0.08779451 -0.041694053 0.114669435 0.025719024 -0.12571166 -0.03565947
0.08606042 -0.09959216 -0.037159454 0.054977186 0.07656211 0.13094495 -0.047354788 -0.031171536
-0.13734607 0.002299737 0.009740516 -0.042509872 -0.06452876 0.08231069 0.03081678 0.113313004
0.15497647 -0.099173464 -0.0050945044 -0.028151987 -0.09101081 -0.016870063 -0.084578715 0.014346896
-0.043719865 0.00041000632 0.024074178 0.013735645 0.037040167 -0.0064633857 0.0032235843 -0.022485292
-0.1110978 0.03689563 -0.11098602 0.10941027 -0.021406246 0.08853373 -0.044234287 0.07455843
0.04910646 0.0914971 0.056043744 0.002048696 -0.07928932 -0.17732748 0.093063995 -0.088399164
-0.15717025 0.05694273 0.004554423 0.027215224 -0.06368032 0.1627388 -0.017815173 0.004559023
0.10328356 0.049786232 0.010705995 -0.04757868 -0.086419 0.08724231 -0.04625774 0.0006474754
-0.06182348 0.1364863 0.18858555 0.17808071 0.009626096 0.12213653 -0.074421376 -0.049171172
-0.021920191 -0.065805875 0.020628221 0.037077896 0.14569728 0.10773522 0.051767536 -0.031394936
0.05213428 -0.070359774 -0.08940354 -0.020160194 0.049832527 0.09599448 0.005528981 -0.07279366
-0.089693986 0.12793496 0.12591736 -0.039103657 0.029346723 0.20530741 0.08521043 -0.057686444
0.10595962 -0.1197474 -0.004083399 -0.03322541 -0.11000531 -0.02189868 -0.0047615073 -0.11558142
0.029985726 0.063284926 -0.0032020858 -0.01802535 -0.004635823 0.007263621 -0.07765677 -0.11686242
-0.12709932 -0.121159256 -0.0344075 0.02483944 0.08499284 -0.01723229 -0.086188704 -0.08518798
-0.011014679 -0.1566703 0.013392904 0.063902445 0.068592936 -0.09792103 -0.014998986 0.07142583
0.028836662 0.13901167 0.04491342 -0.06413667 0.047494814 -0.063618064 -0.014628844 0.047660824
0.080610365 0.029250376 -0.13601425 -0.04983192 0.10065373 -0.019264797 0.090037145 0.0059059793
0.08752673 0.0011486594 -0.046396162 0.01881983 0.056816712 0.14190103 0.08342398 0.15701813
-0.07787124 -0.022172427 0.11402355 0.08704012 0.07474607 0.025437163 0.12993687 0.07277358
0.116607636 -0.04315384 -0.037928715 -0.0840247 -0.08996207 0.066685565 -0.11575573 0.14177902
00000000: 77c8 4ebd 8748 9abb b29c 103e 9bef aabd
00000010: f764 9cbd 43e9 73bd 459d 0b3d 5be5 27bd
00000020: 77af ed3d c019 ee3c 8e35 d03d 960d 133e
00000030: d278 293d 7c15 15be 56e3 4cbd dbe1 12be
00000040: b727 0abe e5bf 6cbd 2538 1bbd 86ef a0bd
00000050: bf40 b9bd 93cd 1cbd a36e 36bd 84f7 f13c
00000060: 6d6e 57bc 7fc4 c3bd 984e d73c f004 f63d
00000070: b024 b83d 3504 7e3d 324a 0cbd 25f2 163d
00000080: fd3b 0fbe 73b8 433d a2f9 e63d 1efd 3cbd
00000090: 3580 093e c219 333e 6eeb eb3d 6579 cb3d
000000a0: d481 983d 2634 46be adc9 8f3c 5091 74bd
000000b0: 00af b9bc 4f13 1dbd 1ad9 793a f4b3 963c
000000c0: dc2d 32bd 3ec2 0b3e a3fa 273c dca8 653d
000000d0: 292b 1f3d 331c 37bd b371 be3b e711 993d
000000e0: 3cc6 ae3d e015 a6bd e301 9c3c 4dac bebd
000000f0: 0ba2 073e fd2a 853d 075d 26be c301 b03d
00000100: 4426 6fbd 0b17 a4bd d8c7 463d f227 f1bd
00000110: 01e5 d53d a196 99bd 2187 1e3c 8f66 eebd
00000120: 3fad 433d 3bca efbd 7424 0c3d 0e11 09be
00000130: dab2 bcbd 33ca cdbd e688 68bd d92c c73c
00000140: 9c7c 3e3d 8de8 9d3b 9ccd b3bd 62c7 2abd
00000150: cfd7 ea3d b4b0 d23c 8fba 00be aa0f 12bd
00000160: 7240 b03d f9f6 cbbd 8334 18bd c22f 613d
00000170: 98cc 9c3d 6f16 063e 18f7 41bd 735b ffbc
00000180: 73a4 0cbe 2fb7 163b af96 1f3c d51e 2ebd
00000190: a827 84bd 8292 a83d 7973 fc3c a610 e83d
000001a0: 27b2 1e3e 751b cbbd cdef a6bb ff9e e6bc
000001b0: e063 babd 1633 8abc 9b37 adbd 3e0f 6b3c
000001c0: 9a13 33bd 1ef6 d639 3637 c53c 790b 613c
000001d0: 6eb7 173d cfca d3bb c542 533b 1333 b8bc
000001e0: 3e87 e3bd df1f 173d a34c e3bd 7e12 e03d
000001f0: 275c afbc 2c51 b53d 032f 35bd 17b2 983d
00000200: db23 493d d562 bb3d 208e 653d 6a43 063b
00000210: 7062 a2bd 5695 35be 5698 be3d 9f0a b5bd
00000220: 3df1 20be c83c 693d 453d 953b 76f2 de3c
00000230: d46a 82bd 00a5 263e 20f1 91bc db63 953b
00000240: 5586 d33d a6ec 4b3d 3368 2f3c dde1 42bd
00000250: 72fc b0bd 19ac b23d c278 3dbd 57bb 293a
00000260: 9e3a 7dbd 11c3 0b3e 921c 413e ca5a 363e
00000270: c6b6 1d3c b822 fa3d 3c6a 98bd b667 49bd
00000280: f991 b3bc 3bc5 86bd 84fc a83c fede 173d
00000290: ab31 153e 48a4 dc3d 320a 543d fa97 00bd
000002a0: c18a 553d c918 90bd 3419 b7bd fe26 a5bc
000002b0: 311d 4c3d c198 c43d 742c b53b d814 95bd
000002c0: 7bb1 b7bd 6201 033e 7bf0 003e 282b 20bd
000002d0: 8a68 f03c 1b3c 523e ce82 ae3d 9f48 6cbd
000002e0: 5b01 d93d 203e f5bd 09ce 85bb 5e17 08bd
000002f0: 774a e1bd dc64 b3bc 6b06 9cbb f4b5 ecbd
00000300: a0a4 f53c 879b 813d 16da 51bb e6a9 93bc
00000310: 1ae8 97bb ab03 ee3b 830a 9fbd 9155 efbd
00000320: 5326 02be 5822 f8bd e1ee 0cbd 157c cb3c
00000330: ba10 ae3d bb2a 8dbc b483 b0bd 0977 aebd
00000340: ea76 34bc 2e6e 20be e96d 5b3c 49df 823d
00000350: 747a 8c3d d28a c8bd 4fbe 75bc b547 923d
00000360: dd3a ec3c 1359 0e3e 22f7 373d 165a 83bd
00000370: ec89 423d 304a 82bd d2ad 6fbc ff37 433d
00000380: 0c17 a53d 7c9e ef3c 5247 0bbe 8e1c 4cbd
00000390: 8b23 ce3d 35d1 9dbc 6565 b83d f286 c13b
000003a0: 3741 b33d 9d8e 963a e709 3ebd 0b2c 9a3c
000003b0: a4b8 683d 814e 113e 31da aa3d 5cc9 203e
000003c0: f57a 9fbd f3a2 b5bc 2e85 e93d 1742 b23d
000003d0: 7814 993d 9961 d03c 2c0e 053e 510a 953d
000003e0: fccf ee3d 15c2 30bd 245b 1bbd 2415 acbd
000003f0: 093e b8bd 7192 883d 5711 edbd 852e 113e

conv2.0.bias f4 [6]
-0.057872865 0.074077435 0.04828379 0.11162883 -0.06862459 0.107396126
00000000: 190c 6dbd e9b5 973d 39c5 453d a89d e43d
00000010: 0d8b 8cbd 80f2 db3d

conv2.1.weight f4 [6]
1.0473766 0.96100366 0.9890629 0.9648009 0.9731863 0.9392307
00000000: 7010 863f 5604 763f 3a33 7d3f 31fd 763f
00000010: bd22 793f 6c71 703f

conv2.1.bias f4 [6]
0.047164828 0.032330617 0.042734083 0.03089446 0.03288608 -0.055041496
00000000: e82f 413d 1c6d 043d ef09 2f3d 6116 fd3c
00000010: 8eb3 063d 3173 61bd

conv2.1.running_mean f4 [6]
-0.015967697 -0.15505177 0.19356629 0.02249566 0.5914156 0.2648878
00000000: b0ce 82bc e4c5 1ebe 3e36 463e d248 b83c
00000010: 0367 173f 609f 873e

conv2.1.running_var f4 [6]
0.23806122 0.17769988 0.32050437 0.25635904 0.5886539 0.20610951
00000000: 52c6 733e f5f6 353e 2619 a43e 7e41 833e
00000010: 06b2 163f 5f0e 533e

conv3.0.weight f4 [6, 6, 3, 3]
-0.0042159697 0.030206943 -0.034071613 0.043011878 0.06911738 0.053509645 -0.011398448 -0.03640104
0.0367534 0.0507591 -0.11242427 0.084358804 -0.073364414 0.055329233 -0.13244443 -0.09132688
0.05684382 0.002834826 0.036017373 0.15042832 0.07233051 -0.119242884 -0.057071336 0.066016726
-0.035347164 0.056856368 -0.1573678 0.0237701 0.09401036 0.032654375 0.07072374 -0.17428781
-0.102243565 -0.0014612111 -0.14110921 0.07457108 0.025671229 0.0020115126 0.020903477 -0.104512505
0.03332712 0.053074308 -0.06337876 -0.12550285 -0.019460203 -0.1210222 0.03735105 0.06515123
0.13316078 0.05614556 0.042120457 0.046573926 -0.13513139 -0.0058496334 0.016643578 0.10059284
0.08644095 0.10492256 -0.006016756 -0.092560634 0.051387914 0.00076570304 -0.009252395 0.053384528
-0.089671046 0.0485167 0.014828886 -0.066189066 -0.0133758355 -0.074657574 -0.028256752 -0.082428545
-0.18467541 -0.036956992 -0.18020362 -0.11560547 -0.06669347 -0.11026394 0.12213359 0.15578376
0.12135884 -0.06841831 -0.014238231 0.0010958043 -0.0020868455 0.04546509 0.060908705 -0.122391105
-0.051089693 0.1455159 0.09663757 0.10415786 0.030878995 0.15563531 -0.047731828 -0.11445833
-0.0053747073 -0.07720583 0.0022654177 -0.045163658 0.06812368 -0.030818421 0.060181715 0.10722954
-0.021878604 0.002315562 0.076559424 -0.053154957 -0.16993195 -0.056139816 -0.107942514 0.03173695
0.15877695 0.013093533 0.12296336 0.10425435 0.107527636 0.043856826 0.119269826 0.10476352
0.10760425 0.04776522 0.09521875 0.063167095 -0.058812574 0.05154721 -0.05861455 -0.018602446
0.008460588 -0.0796813 0.06906161 0.008979821 -0.087698214 0.074719444 0.03815534 0.03177917
0.06645151 0.08405809 -0.101398945 -0.07814126 -0.1245813 -0.06600342 -0.0656544 -0.08876933
-0.012373524 0.017917484 0.0050574783 0.06804956 -0.019185757 0.008580224 0.09048485 0.0053984337
-0.09977029 0.08179062 -0.02080772 -0.08338118 0.02686082 0.107642874 0.009200299 0.07533502
-0.006955109 0.06180352 -0.14463271 0.025975367 -0.10463467 -0.14423993 -0.09870446 0.040184397
-0.07927887 -0.16901246 0.06500513 0.0526703 0.020083472 -0.026628245 -0.08314575 -0.12212444
0.08003507 -0.10657841 0.02308016 0.13563035 0.03144337 -0.057821803 0.08217513 0.040696874
0.08569025 0.081268504 -0.0877615 0.03888687 -0.13182503 0.09028301 0.15053791 0.06777145
-0.044104546 -0.10426998 0.0774217 -0.008135791 -0.0634534 0.113040246 -0.09388248 0.07631291
-0.13085236 0.09110883 0.052722014 -0.14558819 0.021261558 -0.032487713 -0.112206854 0.06490105
-0.01056767 -0.0295604 0.072041385 -0.021278262 0.11247299 0.08360881 -0.028079111 0.045600776
-0.16154319 -0.113744944 -0.09833438 0.07762851 -0.08090581 -0.096790284 -0.0010163689 -0.05257197
-0.079370044 0.058715962 -0.10098707 -0.10350833 0.000634519 -0.11300776 -0.07370957 -0.025257526
-0.02372697 0.040899903 0.04605675 0.11099337 -0.08867126 -0.112765305 0.021097356 0.030498121
0.09432311 0.11958669 -0.040661775 -0.1468651 -0.022278449 0.06291308 -0.07849612 -0.0826782
-0.12240089 0.06037498 -0.065774396 -0.008754397 -0.055103663 0.1429767 -0.024170415 0.12390189
00000000: 1e26 8abb 8d74 f73c ad8e 0bbd 392d 303d
00000010: 6a8d 8d3d ee2c 5b3d 8ec0 3abc 4219 15bd
00000020: bc8a 163d c6e8 4f3d b23e e6bd 4fc4 ac3d
00000030: 1540 96bd e8a0 623d 839f 07be 9609 bbbd
00000040: 11d5 683d 7dc8 393b f486 133d e209 1a3e
00000050: 0522 943d 9d35 f4bd a2c3 69bd c733 873d
00000060: 30c8 10bd 39e2 683d 0625 21be 83b9 c23c
00000070: 8188 c03d 98c0 053d 9cd7 903d 8178 32be
00000080: 1365 d1bd 1c86 bfba ef7e 10be b9b8 983d
00000090: 784c d23c 95d3 033b c53d ab3c a70a d6bd
000000a0: 0582 083d 7264 593d b9cc 81bd d283 00be
000000b0: 016b 9fbc 7dda f7bd 6afd 183d 026e 853d
000000c0: 4d5b 083e e3f8 653d 8086 2c3d 4dc4 3e3d
000000d0: e25f 0abe 48ae bfbb 1d58 883c 9e03 ce3d
000000e0: f407 b13d a4e1 d63d 3528 c5bb 6e90 bdbd
000000f0: 227c 523d 76b9 483a 5b97 17bc bca9 5a3d
00000100: 74a5 b7bd 72b9 463d dbf4 723c 228e 87bd
00000110: 5226 5bbc 12e6 98bd b47a e7bc 4cd0 a8bd
00000120: 8d1b 3dbe 3760 17bd 4c87 38be 90c2 ecbd
00000130: 9696 88bd 10d2 e1bd 2d21 fa3d c785 1f3e
00000140: fc8a f83d e61e 8cbd 7847 69bc 17a1 8f3a
00000150: 75c3 08bb 9a39 3a3d 687b 793d 30a8 fabd
00000160: 6d43 51bd 1f02 153e ebe9 c53d b750 d53d
00000170: f2f5 fc3c dd5e 1f3e 7382 43bd 2169 eabd
00000180: 501e b0bb 171e 9ebd 6777 143b 87fd 38bd
00000190: 6e84 8b3d ea76 fcbc 1a81 763d 299b db3d
000001a0: c23a b3bc afc0 173b 30cb 9c3d 03b9 59bd
000001b0: a402 2ebe ddf2 65bd f710 ddbd 9bfe 013d
000001c0: 6d96 223e 4286 563c 37d4 fb3d 4e83 d53d
000001d0: 7337 dc3d 37a3 333d bd43 f43d 428e d63d
000001e0: 9e5f dc3d 77a5 433d 0c02 c33d c05d 813d
000001f0: 74e5 70bd 2b23 533d cf15 70bd 2864 98bc
00000200: 479e 0a3c f32f a3bd 2c70 8d3d 1920 133c
00000210: 1f9b b3bd 8206 993d c648 1c3d e02a 023d
00000220: bb17 883d a626 ac3d 40aa cfbd 8608 a0bd
00000230: 7b24 ffbd cd2c 87bd d075 86bd b2cc b5bd
00000240: 52ba 4abc b0c7 923c 34b9 a53b 915d 8b3d
00000250: 732b 9dbc 1194 0c3c 1f50 b93d 58e5 b03b
00000260: 5e54 ccbd d781 a73d f474 aabc c1c3 aabd
00000270: 390b dc3c de73 dc3d dabc 163c 3f49 9a3d
00000280: afe7 e3bb b025 7d3d 991a 14be 4bca d43c
00000290: b44a d6bd a2b3 13be 9025 cabd 6598 243d
000002a0: f65c a2bd 9a11 2dbe 6921 853d d0bc 573d
000002b0: 1886 a43c 7a23 dabc 5248 aabd 611c fabd
000002c0: 6de9 a33d c845 dabd 9b12 bd3c afe2 0a3e
000002d0: c3ca 003d 8ed6 6cbd 6f4b a83d c4b1 263d
000002e0: 5f7e af3d 1a70 a63d 4dbc b3bd d747 1f3d
000002f0: 24fd 06be 4ce6 b83d 9c26 1a3e c2cb 8a3d
00000300: f8a6 34bd 808b d5bd 458f 9e3d fb4b 05bc
00000310: dbf3 81bd a581 e73d 7545 c0bd f149 9c3d
00000320: 29fe 05be 4497 ba3d 0af3 573d 1215 15be
00000330: b82c ae3c d611 05bd b5cc e5bd d7ea 843d
00000340: 0524 2dbc a728 f2bc 6f8a 933d c04f aebc
00000350: 3d58 e63d 193b ab3d 2a06 e6bc e1c7 3a3d
00000360: 946b 25be 1cf3 e8bd 8963 c9bd b2fb 9e3d
00000370: f2b1 a5bd fc39 c6bd ae37 85ba b555 57bd
00000380: c38c a2bd 2680 703d 4fd2 cebd 2dfc d3bd
00000390: d955 263a 9d70 e7bd 0bf5 96bd dfe8 cebc
000003a0: 105f c2bc a886 273d 01a6 3c3d 7e50 e33d
000003b0: 4799 b5bd 7ff1 e6bd 5dd4 ac3c 32d7 f93c
000003c0: 7a2c c13d dee9 f43d f68c 26bd ce63 16be
000003d0: 4b81 b6bc 93d8 803d 93c2 a0bd 3053 a9bd
000003e0: 51ad fabd c14b 773d bab4 86bd 9a6e 0fbc
000003f0: 61b4 61bd 7c68 123e 0901 c6bc 46c0 fd3d

conv3.0.bias f4 [6]
0.09656129 0.044898726 0.09908475 0.07383383 -0.044868473 0.1102367
00000000: edc1 c53d bae7 373d f2ec ca3d 3136 973d
00000010: 01c8 37bd c7c3 e13d

conv3.1.weight f4 [6]
0.9605482 0.9808566 0.970059 0.98250794 1.003576 0.9825264
00000000: 7de6 753f 6b19 7b3f c955 783f a485 7b3f
00000010: 2e75 803f da86 7b3f

conv3.1.bias f4 [6]
0.02184299 0.045306254 0.042649634 0.008134163 0.027877547 0.0026938731
00000000: 12f0 b23c 0d93 393d 62b1 2e3d 2745 053c
00000010: 745f e43c b18b 303b

conv3.1.running_mean f4 [6]
0.015802367 0.07018645 0.3550477 -0.06420347 -0.42713326 -0.029631384
00000000: f773 813c eabd 8f3d d0c8 b53e 1c7d 83bd
00000010: 36b1 dabe 84bd f2bc

conv3.1.running_var f4 [6]
0.1653515 0.1515913 0.27434233 0.15560693 0.12268322 0.14161918
00000000: e751 293e c03a 1b3e 9976 8c3e 6c57 1f3e
00000010: 5741 fb3d 9e04 113e

conv4.0.weight f4 [16, 6, 5, 5]
-0.030379921 -0.0767103 0.053352322 0.031371918 -0.05123036 0.058902785 0.02105368 -0.068772614
0.04925119 0.083019026 0.059960663 -0.017016385 0.01020712 0.055753738 -0.008823536 -0.036478825
0.010939887 0.03544805 0.091556296 0.039083365 0.07065088 -0.012290441 0.00051711005 0.019600065
-0.10588333 0.02320225 0.094920345 0.028386712 0.063207775 0.024425095 -0.036223236 -0.027286688
-0.019415282 0.008155239 0.01308115 -0.006389345 -0.037198916 -7.4924734e-05 0.04870242 0.0047881664
-0.00855797 0.041408844 -0.050981633 -0.06691969 0.069610685 0.048934754 -0.0030671975 0.031550042
-0.024878513 -0.01655224 -0.0042428984 0.07627112 0.05805338 -0.041490126 0.018362915 -0.05099277
-0.06059186 -0.040372103 0.06952492 0.022965714 -0.022178818 0.04457385 0.09275605 0.07346115
-0.06439596 -0.010698096 0.008288262 0.0057071643 -0.042210408 -0.042087674 0.027335841 0.016632915
0.036017466 -0.02925765 0.032223765 -0.03615514 -0.05943608 -0.009117312 -0.011195047 -0.0649055
0.0214533 -0.047640428 -0.017918114 -0.07798233 0.022730075 -0.006050779 -0.060822308 -0.09274679
-0.015608252 -0.03429697 0.024298867 -0.088991195 -0.030632008 -0.052878898 -0.05007407 -0.046955444
-0.045322724 -0.023640981 0.024455793 -0.009884657 -0.032814313 0.012538733 -0.0469451 -0.052517377
-0.060114425 0.043550424 0.07321156 -0.040403433 -0.0034131918 -0.07256838 0.0479134 -0.0146185765
-0.015148067 -0.023669032 -0.013090735 -0.035192437 -0.016789597 0.056080863 -0.052427534 0.06780765
0.041209023 0.01591215 -0.031375695 0.02992236 0.007831367 0.030034237 -0.048563335 0.04781604
0.006213262 -0.001164319 -0.06255735 0.027315143 0.032352995 -0.057793006 0.08098653 0.020692734
0.01427967 -0.042237666 -0.07793351 -0.069679745 -0.025318641 0.047255784 -0.059813354 0.024825808
-0.040366117 0.021737417 0.05433583 0.055818863 0.0041857604 -0.047054492 0.01783257 -0.06989768
-0.068988144 -0.07130073 -0.052403335 -0.045568056 -0.07705627 -0.082321644 0.023801915 0.06679962
0.018622434 -0.0617154 0.04452125 -0.0012101261 0.013864485 -0.038830996 -0.026753856 0.036899284
-0.053195223 -0.040528618 -0.00036562502 0.0014643685 0.023713417 0.039868243 0.09808233 0.040729105
-0.03812493 -0.005360585 -0.0045302436 -0.04260204 0.033831507 -0.037538458 0.053444825 0.01652968
0.00523552 -0.059688672 0.013861669 -0.08967797 -0.0697853 -0.07466357 0.025660448 0.038948767
0.007153593 0.00011048217 -0.022201346 -0.056631587 -0.024138754 0.04107433 -0.03109781 0.069521606
-0.017893728 0.0432445 0.0018849358 -0.07558511 0.053647213 0.048132945 0.027698664 -0.048419416
-0.07569067 -0.05947786 0.014988819 0.007954512 -0.023712544 0.038704194 0.049543332 -0.0075775525
0.03357916 -0.033503514 0.038523912 0.13116387 -0.048757046 0.062313426 -0.04859744 0.076126985
0.045970514 -0.02782681 -0.042649657 -0.05688404 -0.025877895 -0.03443588 -0.07592985 -0.023703907
-0.07177398 -0.04193526 0.017699452 0.026285054 0.024763685 0.01960802 -0.0034949372 -0.050274264
0.012288815 0.0047699944 -0.01027341 -0.004619331 -0.0008880437 -0.05182824 -0.0494713 -0.016731396
-0.050620336 -0.045747798 -0.025067305 -0.032771133 0.0016160652 -0.032225747 -0.06004233 -0.024834638
00000000: 50df f8bc 4a1a 9dbd f787 5a3d d77f 003d
00000010: edd6 51bd 0c44 713d c478 ac3c a8d8 8cbd
00000020: 9ebb 493d e105 aa3d 5099 753d f265 8bbc
00000030: c43b 273c 085e 643d 9890 10bc d26a 15bd
00000040: 363d 333c f931 113d de81 bb3d e115 203d
00000050: 69b1 903d d95d 49bc ab8e 073a 5190 a03c
00000060: 5cd9 d8bd a512 be3c 9965 c23d 408b e83c
00000070: 1473 813d 2317 c83c d15e 14bd 5588 dfbc
00000080: cc0c 9fbc 8d9d 053c 5252 563c b65d d1bb
00000090: e45d 18bd e920 9db8 307c 473d 0de6 9c3b
000000a0: ba36 0cbc 529c 293d 1ed2 50bd 310d 89bd
000000b0: 0c90 8e3d cf6f 483d 0903 49bb 9e3a 013d
000000c0: 06ce cbbc 9098 87bc 0308 8bbb 0834 9c3d
000000d0: 62c9 6d3d 8df1 29bd d36d 963c cbdd 50bd
000000e0: 2c2f 78bd 385d 25bd 1563 8e3d 9822 bc3c
000000f0: 5ab0 b5bc 1293 363d e2f6 bd3d cd72 963d
00000100: 07e2 83bd 1147 2fbc 7ecb 073c 2a03 bb3b
00000110: d2e4 2cbd 2064 2cbd 6aef df3c c041 883c
00000120: 0d87 133d bdad efbc 11fd 033d 6917 14bd
00000130: 3f73 73bd c760 15bc 6e6b 37bc 2ded 84bd
00000140: d5be af3c 9c22 43bd 02c9 92bc 33b5 9fbd
00000150: 6c34 ba3c 9d45 c6bb d020 79bd 07f2 bdbd
00000160: c1b9 7fbc fb7a 0cbd 6b0e c73c 0441 b6bd
00000170: faef fabc 8b97 58bd 781a 4dbd 5a54 40bd
00000180: 52a4 39bd bbaa c1bc 8457 c83c 42f3 21bc
00000190: 4d68 06bd 426f 4d3c 8149 40bd 761c 57bd
000001a0: 8b3a 76bd ee61 323d f1ef 953d 127e 25bd
000001b0: dbaf 5fbb bb9e 94bd d740 443d c182 6fbc
000001c0: 992f 78bc 8fe5 c1bc 867a 56bc f225 10bd
000001d0: 568a 89bc 0cb5 653d 41be 56bd bdde 8a3d
000001e0: cbca 283d 325a 823c cd83 00bd bd1f f53c
000001f0: 224f 003c 5c0a f63c 59ea 46bd c1da 433d
00000200: 9f98 cb3b 109c 98ba 111e 80bd 02c4 df3c
00000210: 9384 043d 5cb8 6cbd 44dc a53d cf83 a93c
00000220: 47f5 693c 6701 2dbd 9b9b 9fbd 41b4 8ebd
00000230: 0a69 cfbc 488f 413d d9fe 74bd 7e5f cb3c
00000240: f156 25bd ab12 b23c 3f8f 5e3d 52a2 643d
00000250: b428 893b 36bc 40bd 9c15 923c 8426 8fbd
00000260: a849 8dbd 1e06 92bd e1a4 56bd 92a5 3abd
00000270: adcf 9dbd 4098 a8bd 3cfc c23c 3dce 883d
00000280: 138e 983c 4ac9 7cbd ea5b 363d 189d 9eba
00000290: dd27 633c 400d 1fbd e72a dbbc b423 173d
000002a0: 3ce3 59bd 5601 26bd 5cb1 bfb9 0ef0 bf3a
000002b0: a442 c23c e24c 233d 63df c83d 90d3 263d
000002c0: e328 1cbd d9a7 afbb 7072 94bb 7a7f 2ebd
000002d0: e892 0a3d edc1 19bd f6e8 5a3d 4069 873c
000002e0: ba8e ab3b 1c7c 74bd 0e1c 633c 15a9 b7bd
000002f0: 98eb 8ebd 37e9 98bd dc35 d23c be88 1f3d
00000300: b068 ea3b aab2 e738 99df b5bc 86f6 67bd
00000310: a3be c5bc 8f3d 283d d6c0 febc 5861 8e3d
00000320: de95 92bc 2521 313d f30f f73a 5ecc 9abd
00000330: 2ebd 5b3d 0d27 453d 4fe8 e23c 7053 46bd
00000340: b603 9bbd 0e9f 73bd aa93 753c a453 023c
00000350: cf40 c2bc 4a88 1e3d f3ed 4a3d 1e4d f8bb
00000360: 4d8a 093d fb3a 09bd 40cb 1d3d d24f 063e
00000370: 78b5 47bd 5d3c 7f3d 1c0e 47bd 77e8 9b3d
00000380: 944b 3c3d 0df5 e3bc 68b1 2ebd 3dff 68bd
00000390: e1fd d3bc a30c 0dbd 1c81 9bbd b22e c2bc
000003a0: 3dfe 92bd 4fc4 2bbd 71fe 903c c153 d73c
000003b0: 36dd ca3c 00a1 a03c 510b 65bb 63ec 4dbd
000003c0: 0757 493c 9d4d 9c3b ce51 28bc c25d 97bb
000003d0: 9bcb 68ba d949 54bd 6ba2 4abd 4810 89bc
000003e0: 4557 4fbd 0b62 3bbd f359 cdbc 063b 06bd
000003f0: 26d2 d33a 25ff 03bd f2ee 75bd 0372 cbbc

conv4.0.bias f4 [16]
0.063334376 -0.055965602 0.07283013 -0.053111956 0.044208925 -0.05090247 0.066550985 0.032947864
-0.047595866 -0.00400961 -0.0021035722 -0.07197688 -0.013246463 0.06488489 -0.034936644 0.023857906
00000000: 74b5 813d 303c 65bd f727 953d ec8b 59bd
00000010: 6b14 353d 1c7f 50bd e24b 883d 57f4 063d
00000020: e2f3 42bd 0c63 83bb 16dc 09bb 9d68 93bd
00000030: b107 59bc 5fe2 843d ba19 0fbd a871 c33c

conv4.1.weight f4 [16]
1.1640196 1.2066964 1.1257995 1.227885 1.1568437 1.2030675 1.1554404 1.2566787
1.2033883 1.1777866 1.161277 1.2402966 1.1345165 1.1221565 1.2526736 1.2363316
00000000: 98fe 943f 0775 9a3f 331a 903f 562b 9d3f
00000010: 7413 943f 1efe 993f 79e5 933f d9da a03f
00000020: a108 9a3f b6c1 963f baa4 943f 0ac2 9e3f
00000030: d637 913f d3a2 8f3f 9c57 a03f 1d40 9e3f

conv4.1.bias f4 [16]
0.083579384 0.08338924 0.06339653 0.087899886 0.080611065 0.08496923 0.07107915 0.077031754
0.073479034 0.075211346 0.08635171 0.09231016 0.075706884 0.06449331 0.09936017 0.09071441
00000000: ab2b ab3d fac7 aa3d 0ad6 813d db04 b43d
00000010: 6a17 a53d 5904 ae3d f291 913d d3c2 9d3d
00000020: 2d7c 963d 6808 9a3d 2ad9 b03d 1c0d bd3d
00000030: 360c 9b3d 1215 843d 587d cb3d 7ac8 b93d

conv4.1.running_mean f4 [16]
-0.09117496 -0.37077865 -0.008476347 0.45229813 0.14649008 0.12953888 -0.11017354 0.33110675
0.078346245 0.22055542 0.019428624 -0.14629015 -0.38201526 0.41574425 0.23744555 0.39117345
00000000: f0b9 babd b3d6 bdbe 60e0 0abc 9f93 e73e
00000010: 7f01 163e d7a5 043e aaa2 e1bd d386 a93e
00000020: ff73 a03d 48d9 613e c728 9f3c 16cd 15be
00000030: 8197 c3be 6edc d43e ed24 733e e347 c83e

conv4.1.running_var f4 [16]
0.14925689 0.12092888 0.16568324 0.12002141 0.20146212 0.16258533 0.11707038 0.11310071
0.17571138 0.34967762 0.17900468 0.2040667 0.10221484 0.22585727 0.0937926 0.12748736
00000000: ccd6 183e 90a9 f73d dea8 293e c9cd f53d
00000010: 164c 4e3e c57c 263e 98c2 ef3d 58a1 e73d
00000020: afed 333e f208 b33e 014d 373e dcf6 503e
00000030: 0456 d13d 2147 673e 5616 c03d 0c8c 023e

fc1.0.weight f4 [120, 400]
-0.0010532599 -0.0048017716 0.013557399 0.030570243 -0.04245891 -0.054608505 -0.04071646 -0.060652047
0.03913245 0.001936446 -0.029712887 -0.006934742 -0.06371805 -0.036756314 0.019704169 -0.011087567
-0.011160005 -0.029933522 -0.05071698 -0.016614117 0.055655032 0.024888815 0.037448782 0.04554876
-0.0057388702 -0.006280778 -0.004951217 0.007678676 0.028031792 0.037867025 -0.008261823 -0.069519706
-0.022549652 -0.03261553 -0.040912822 0.04647892 0.014896686 -0.07158058 -0.055783715 0.015015166
0.034954492 -0.0073561403 -0.0037722604 0.02847042 0.043343425 -0.02927182 0.049655654 -0.015119573
0.030147862 -0.013808661 0.02181109 -0.009362519 -0.030240757 0.04079121 0.010269047 0.028308753
0.022119014 -0.029213741 -0.0036114515 0.009111999 -0.037520863 0.03447138 -0.037476532 -0.032358743
-0.022643117 -0.0061156894 -0.022969726 0.00095853745 0.061594885 -0.018335976 0.025899047 0.052823916
-0.03933843 0.010817744 0.033194523 0.026622646 0.0085829375 0.03197711 0.045939423 0.0517853
0.03881372 -0.0123674385 -0.039045814 0.04126827 -0.0028009042 0.02366029 0.014658399 -0.070430525
-0.056734633 -0.03465613 0.02027263 0.011003572 0.019287972 0.022461167 0.02181314 0.024390684
0.046303123 0.04397018 -0.01927904 -0.00024276129 -0.023867281 0.026059765 -0.01161873 0.041780636
-0.01954069 0.038120788 0.014589992 0.039780505 0.060731266 0.0027658432 0.043246426 0.046738043
0.042881228 0.09304614 0.0019252228 -0.038105145 0.00981155 -0.032217685 0.041045856 0.04468674
0.021085216 0.021740893 -0.036804207 -0.010266319 -0.033317197 -0.001546119 0.027789881 0.016201897
-0.017948357 0.01618609 0.08051283 0.017306978 -0.0012595656 0.011521386 -0.010922616 -0.024917271
-0.042564865 -0.045320842 -0.037039764 0.004935651 0.045815494 0.006220527 0.06366501 0.00013224951
0.030229405 0.02436079 0.045331128 0.07486263 0.03397166 -0.014094494 -0.036355622 0.02645808
0.07629701 0.060084872 0.060535703 -0.01486669 0.04331095 -0.005903074 0.07232853 -0.020514933
0.064139284 -0.003435752 -0.0046180626 0.020148816 -0.007877648 -0.015172 0.033836823 0.0018420763
0.034421768 -0.03433542 0.029798284 0.025038414 0.005020105 0.012145399 0.013064648 -0.007304452
0.0048828726 0.013707988 -0.019671127 -0.017912123 -0.023623852 -0.016205212 -0.083571926 -0.049787298
0.002875347 -0.0540476 -0.010206768 -0.03229024 0.016046437 -0.025576066 0.024334012 0.04687055
-0.00957022 -0.051773347 -0.033799727 -0.038968656 0.033388816 0.028822647 0.026370723 0.015690453
-0.027254283 -0.022614814 -0.015361222 -0.030413749 0.036834095 0.009546707 -0.0013554993 0.015067434
-0.041882128 0.021053463 -0.032523133 0.023329545 -0.059755523 -0.036173135 -0.04324009 0.06877302
0.011617814 0.009202037 0.058748808 -0.032874804 0.01670307 0.062730536 0.082756236 0.0029812567
-0.009497735 0.037973806 0.00930239 0.031234087 -0.001619446 0.038996283 -0.023908246 -0.0703443
-0.074149296 0.021381684 0.007761936 0.05371157 -0.039863326 0.027851809 0.019185817 0.004748953
0.051896427 0.05061239 0.073409796 0.07033303 0.041735142 0.054036867 0.0139683755 0.013073576
0.054900557 0.04062471 0.011372791 0.05565326 -0.004055511 -0.0039070062 0.037943367 0.03715535
00000000: 8a0d 8aba 2e58 9dbb da1f 5e3c 726e fa3c
00000010: 65e9 2dbd 2bad 5fbd 4ec6 26bd 486e 78bd
00000020: 5949 203d 58d0 fd3a 7168 f3bc d53c e3bb
00000030: 9c7e 82bd ca8d 16bd a36a a13c a0a8 35bc
00000040: 74d8 36bc 2537 f5bc 9cbc 4fbd 541a 88bc
00000050: 88f6 633d a1e3 cb3c e563 193d 5691 3a3d
00000060: 220d bcbb fcce cdbb d23d a2bb 679d fb3b
00000070: eea2 e53c 741a 1b3d 995c 07bc 5960 8ebd
00000080: 0cba b8bc dd97 05bd 3494 27bd ae60 3e3d
00000090: 3b11 743c d798 92bd 777d 64bd 2c02 763c
000000a0: 712c 0f3d c70b f1bb 0738 77bb cc3a e93c
000000b0: e088 313d 75cb efbc ba63 4b3d 16b8 77bc
000000c0: a6f8 f63c b93d 62bc 2cad b23c 4065 19bc
000000d0: 77bb f7bc af14 273d 813f 283c c2e7 e73c
000000e0: ef32 b53c a851 efbc 1aae 6cbb 7e4a 153c
000000f0: 7aaf 19bd dd31 0d3d fe80 19bd 9a8a 04bd
00000100: 0f7e b9bc 1f66 c8bb 022b bcbc 5c46 7b3a
00000110: eb4a 7c3d 5435 96bc 3d2a d43c e45d 583d
00000120: 5521 21bd e83c 313c fbf6 073d bc17 da3c
00000130: 739f 0c3c 6efa 023d fa2a 3c3d d31c 543d
00000140: 23fb 1e3d cca0 4abc 81ee 1fbd eb08 293d
00000150: 608f 37bb 39d3 c13c c829 703c e13d 90bd
00000160: 9362 68bd 96f3 0dbd c912 a63c 5348 343c
00000170: cf01 9e3c 7b00 b83c 78b1 b23c f9ce c73c
00000180: 58a8 3d3d 131a 343d 14ef 9dbc bd8d 7eb9
00000190: 5185 c3bc 4a7b d53c 7c5c 3ebc 2c22 2b3d
000001a0: cc13 a0bc 8b24 1c3d dd0a 6f3c e2f0 223d
000001b0: 59c1 783d 2643 353b 2a23 313d 6470 3f3d
000001c0: 3aa4 2f3d fa8e be3d c257 fc3a 2414 1cbd
000001d0: a0c0 203c b1f6 03bd b31f 283d 7109 373d
000001e0: e7ba ac3c f519 b23c 02c0 16bd 1034 28bc
000001f0: 9d77 08bd 25a7 caba 9ba7 e33c d7b9 843c
00000200: 6f08 93bc b198 843c e9e3 a43d 5dc7 8d3c
00000210: 0218 a5ba 32c4 3c3c c6f4 32bc 4e1f ccbc
00000220: 7f58 2ebd 59a2 39bd 02b7 17bd 3ebb a13b
00000230: 07a9 3b3d 90d5 cb3b cd62 823d 75ac 0a39
00000240: a8a3 f73c 4890 c73c 22ad 393d 9451 993d
00000250: de25 0b3d 98ec 66bc a2e9 14bd 9ebe d83c
00000260: 9b41 9c3d 8e1b 763d 49f4 773d 6b93 73bc
00000270: d366 313d 936e c1bb fb20 943d ef0e a8bc
00000280: 755b 833d 5a2a 61bb 1e53 97bb 210f a53c
00000290: 4011 01bc fb93 78bc 7b98 0a3d d371 f13a
000002a0: d7fd 0c3d 4ca3 0cbd 881b f43c 5c1d cd3c
000002b0: b17f a43b 7ffd 463c 1b0d 563c 2f5a efbb
000002c0: 8100 a03b 7897 603c 5825 a1bc 72bc 92bc
000002d0: cf86 c1bc cbc0 84bc c227 abbd c4ed 4bbd
000002e0: 5170 3c3b 0461 5dbd 4a3a 27bc c542 04bd
000002f0: d173 833c e684 d1bc 1f58 c73c 55fb 3f3d
00000300: 69cc 1cbc 4a10 54bd 9571 0abd 999d 1fbd
00000310: b6c2 083d 791d ec3c 6a07 d83c 4489 803c
00000320: 6044 dfbc b442 b9bc a3ad 7bbc 4126 f9bc
00000330: 59df 163d cb69 1c3c 02ab b1ba 66dd 763c
00000340: 988c 2bbd 5078 ac3c fa36 05bd 9a1d bf3c
00000350: 35c2 74bd 482a 14bd 851c 31bd ded8 8c3d
00000360: a558 3e3c 24c4 163c 97a2 703d bba7 06bd
00000370: e0d4 883c de78 803d 1a7c a93d 3061 433b
00000380: 639c 1bbc 6c8a 1b3d 0d69 183c a1de ff3c
00000390: 9743 d4ba 91ba 1f3d 3adb c3bc ac10 90bd
000003a0: 96db 97bd a428 af3c d757 fe3b aa00 5c3d
000003b0: ba47 23bd 7a29 e43c 932b 9d3c 1b9d 9b3b
000003c0: 5991 543d f04e 4f3d e057 963d c30a 903d
000003d0: 78f2 2a3d c355 5d3d 9ddb 643c 8d32 563c
000003e0: 68df 603d 1966 263d f154 3a3c acf4 633d
000003f0: 18e4 84bb 5806 80bb 816a 1b3d 3530 183d

fc1.0.bias f4 [120]
0.010792994 0.058521535 0.0029054198 -0.031929955 0.0450312 -0.001305404 0.03446831 -0.022126248
-0.039140675 0.037538107 0.011935126 0.016898617 -0.00396655 0.035656247 -0.014038435 0.0059510516
-0.01789299 -0.026510196 0.025266381 0.037148077 0.015978573 -0.016112896 0.033943024 -0.020508414
-0.032325506 0.04477263 0.04593848 -0.027968079 0.045287587 -0.04018848 -0.011640924 0.036656905
0.05424701 -0.037009485 -0.009551707 0.007525135 0.014394688 -0.03741243 0.028833 0.01740487
0.04754109 -0.034372594 -0.04493945 -0.0002865084 0.03703978 -0.043545224 -0.007065856 -0.04647894
0.05269653 -0.03388079 0.034507494 0.0069911345 0.02772571 0.0013265674 -0.0070200986 0.055853624
0.034160808 -0.045882497 -0.021957299 -0.01754226 -0.018686906 -0.0051739737 0.05428907 0.030369323
0.03297333 -0.0312993 0.0028869386 -0.03477907 0.002513047 -0.0009092155 -0.032009903 0.018229019
-0.04166634 0.026243594 0.009234711 -0.031138994 -0.020115077 -0.021527577 -0.0053558415 0.04534952
0.003683926 -0.0090679545 0.009512241 -0.03218199 -0.036412507 -0.0026612445 0.013736837 0.03943368
0.009294651 0.03519822 -0.015925365 -0.019663258 0.0031041075 0.038355265 0.01717256 0.027356246
-0.025737088 0.056957573 -0.011924148 0.023877716 0.030255167 -0.0076359385 -0.015038943 -0.0021026032
-0.013754184 -0.009411681 0.005055345 -0.04725659 -0.0019457625 0.0506005 0.037904184 0.04179782
-0.028497217 -0.048720103 -0.020533497 -0.01776481 -0.016111271 -0.010427375 -0.0010893946 -0.04715367
00000000: 19d5 303c 47b4 6f3d db68 3e3b fcc8 02bd
00000010: a372 383d 171a abba a52e 0d3d 1b42 b5bc
00000020: f951 20bd 8fc1 193d 8c8b 433c f86e 8a3c
00000030: d5f9 81bb 490c 123d 7701 66bc 0a01 c33b
00000040: 5294 92bc e92b d9bc 71fb ce3c 9528 183d
00000050: 7fe5 823c 31ff 83bc d707 0b3d 4301 a8bc
00000060: c067 04bd 8163 373d fd29 3c3d 501d e5bc
00000070: 7a7f 393d ad9c 24bd 93b9 3ebc 8d25 163d
00000080: 1d32 5e3d 4297 17bd c37e 1cbc 6895 f63b
00000090: b3d7 6b3c c73d 19bd 2f33 ec3c a894 8e3c
000000a0: 72ba 423d 47ca 0cbd 6e12 38bd 8236 96b9
000000b0: 06b7 173d 7a5c 32bd b288 e7bb b360 3ebd
000000c0: 51d8 573d 95c6 0abd bb57 0d3d e315 e53b
000000d0: 0721 e33c 37e0 ad3a db08 e6bb c5c6 643d
000000e0: 34ec 0b3d 49ef 3bbd cbdf b3bc c9b4 8fbc
000000f0: 4815 99bc 708a a9bb 375e 5e3d 16c9 f83c
00000100: 0b0f 073d b233 00bd cb32 3d3b 8074 0ebd
00000110: efb1 243b 6b58 6eba d11c 03bd 0655 953c
00000120: 53aa 2abd cefc d63c 2f4d 173c 3417 ffbc
00000130: 60c8 a4bc 9a5a b0bc 0e80 afbb 6bc0 393d
00000140: 066e 713b c291 14bc 3bd9 1b3c 43d1 03bd
00000150: 4825 15bd 4668 2ebb 7810 613c 3685 213d
00000160: 9848 183c 022c 103d e975 82bc d714 a1bc
00000170: 486e 4b3b 691a 1d3d 78ad 8c3c 351a e03c
00000180: 96d6 d2bc 584c 693d 805d 43bc 339b c33c
00000190: afd9 f73c e536 fabb e665 76bc d4cb 09bb
000001a0: 3b59 61bc 7433 1abc 4fa7 a53b 2090 41bd
000001b0: f508 ffba 7842 4f3d 6b41 1b3d 3134 2b3d
000001c0: ff72 e9bc bb8e 47bd dd35 a8bc 8287 91bc
000001d0: c9fb 83bc 95d7 2abc 04ca 8eba 3524 41bd

fc2.0.weight f4 [84, 120]
-0.039531328 0.038433947 -0.030139402 0.042256095 0.04823504 0.014937418 0.03910196 -0.000565344
-0.029301846 0.023664733 0.050940905 0.13225566 0.08387586 -0.02325199 -0.0652044 0.036991745
-0.05140724 -0.019678226 0.060263276 -0.05691368 0.065624714 -0.019784715 0.023739172 0.09624033
-0.02676016 0.032205764 0.03644211 -0.025564967 0.068373114 -0.069724225 -0.06616425 -0.0626527
-0.06734026 0.046474647 0.035979312 -0.096154444 -0.0806769 0.061636336 -0.04797304 -0.0021153945
0.059485182 -0.06812547 0.0098604355 0.018776594 -0.017829215 -0.07364475 0.12369523 -0.06185433
0.004708549 0.073650375 0.05586165 0.029365504 -0.0023744379 0.07167425 0.041385286 -0.047654975
0.025527999 0.013850972 -0.046415627 -0.06075465 0.07337445 -0.0052142385 -0.07591795 0.078568526
0.004908439 -0.041179687 -0.102971956 -0.0064151287 -0.0013214987 -0.038152006 0.08792922 0.00944221
0.09536763 0.065428585 -0.07152576 0.06390822 -0.08655863 0.0051718173 -0.055173997 -0.049449574
0.050097715 -0.026813721 0.017253421 0.12309113 0.09589959 -0.055152614 -0.039802074 0.068754435
0.07104151 0.056018043 0.013874118 0.060245037 0.044677995 -0.07748673 0.07401857 -0.050506037
-0.001170797 -0.10774521 0.06701058 0.054299425 -0.05279582 0.011773827 0.025081333 -0.04748904
-0.034143273 0.038473256 -0.08098413 0.015359899 0.091194995 0.029289521 0.08802691 -0.0074683204
0.053064357 0.06526666 0.10665505 0.0393991 0.10457668 0.07622331 0.001671933 0.0762677
-0.07400906 -0.060809255 0.016613673 -0.10817447 0.028272089 -0.0145483045 0.054009717 -0.099572964
0.010604169 -0.012560121 -0.012947041 0.05845952 0.05794569 0.039011564 0.15630588 0.09357034
-0.06510349 0.09183853 -0.0010849723 0.059228674 0.03949534 0.07826078 -0.087448545 0.010582248
0.0709018 0.031371757 0.07512608 0.008491518 -0.020589693 0.004961002 0.031087175 0.1273293
-0.04661169 -0.05912431 -0.0005056882 0.09564299 -0.082841806 0.06058447 -0.08497113 -0.07938224
-0.033507504 0.017073158 -0.060432937 -0.10872915 0.03675196 0.07957509 0.14781728 -0.04733476
-0.005469706 0.06910184 0.10930067 0.056036957 0.09297209 -0.008317302 0.014920397 0.019297175
-0.04595594 0.037418082 0.001167342 0.016866481 0.085396856 -0.018492905 -0.112956375 -0.02829546
0.08865939 0.028354548 -0.046025116 -0.061309833 0.037321612 0.06454739 -0.006497762 0.1160235
0.112335734 0.101525016 -0.008536453 -0.0642117 0.053681906 -0.073554784 -0.06662563 -0.06188669
-0.08584199 0.07377119 -0.0020269684 0.0586212 -0.058026917 0.036985636 -0.07546401 -0.016853673
0.10794791 0.01740481 -0.045257937 -0.08421681 -0.009224915 0.014642841 -0.022963356 0.05946288
0.06064163 -0.0039180256 -0.005423059 0.013934144 -0.11622861 0.13742809 -0.046260465 -0.059265394
-0.038633235 -0.06302862 -0.1202945 0.04221855 0.02488339 -0.07284509 0.020998089 -0.07738681
-0.0556182 -0.030871779 -0.06552913 0.07134138 0.096477516 -0.00051279826 0.011153879 0.031225929
-0.02646219 0.0064788866 -0.02974154 -0.035248198 -0.039470624 -0.08538867 0.0024943121 0.0077171614
0.039154153 0.043681145 -0.012000652 -0.07497915 0.07044728 -0.1075003 -0.081151776 0.06259633
00000000: 9aeb 21bd ea6c 1d3d e8e6 f6bc ba14 2d3d
00000010: 1b92 453d 12bc 743c 6029 203d 9833 14ba
00000020: 6d0a f0bc 8bdc c13c 69a7 503d 076e 073e
00000030: 1bc7 ab3d f57a bebc e289 85bd a884 173d
00000040: 6690 52bd 3b34 a1bc a0d6 763d 521e 69bd
00000050: 4066 863d 8e13 a2bc a778 c23c a619 c53d
00000060: 2038 dbbc 31ea 033d 5244 153d 9f6d d1bc
00000070: 3407 8c3d 93cb 8ebd 1f81 87bd 0f50 80bd
00000080: b1e9 89bd 335c 3e3d 0b5f 133d 9fec c4bd
00000090: ee39 a5bd 6276 7c3d 617f 44bd 6ea2 0abb
000000a0: bca6 733d 5e85 8bbd aa8d 213c 5fd1 993c
000000b0: 930e 92bc 0fd3 96bd ed53 fd3d f75a 7dbd
000000c0: 2c4a 9a3b 02d6 963d 2fcf 643d ed8f f03c
000000d0: 759c 1bbb f3c9 923d 9e83 293d dd31 43bd
000000e0: 1820 d13c 30ef 623c 501e 3ebd ded9 78bd
000000f0: 5845 963d 34dc aabb df7a 9bbd 89e8 a03d
00000100: f8d6 a03b 08ac 28bd f6e2 d2bd 0036 d2bb
00000110: 2336 adba 4745 1cbd 3c14 b43d 80b3 1a3c
00000120: 1b50 c33d 6cff 853d 197c 92bd 50e2 823d
00000130: a745 b1bd 5978 a93b 21fe 61bd a38b 4abd
00000140: 4333 4d3d 73a8 dbbc 0c57 8d3c 3417 fc3d
00000150: 0167 c43d b5e7 61bd 8007 23bd 20cf 8c3d
00000160: 367e 913d 2d73 653d 4550 633c 80c3 763d
00000170: 4600 373d 5db1 9ebd 0c97 973d 6bdf 4ebd
00000180: 6e75 99ba 85a9 dcbd d83c 893d 1369 5e3d
00000190: 6e40 58bd 02e7 403c 5e77 cd3c de83 42bd
000001a0: d1d9 0bbd 2296 1d3d 02db a5bd 16a8 7b3c
000001b0: 71c4 ba3d 94f0 ef3c 7447 b43d d0b8 f4bb
000001c0: 035a 593d 87aa 853d f66d da3d f360 213d
000001d0: 4c2c d63d f71a 9c3d c324 db3a 3d32 9c3d
000001e0: 1092 97bd 2013 79bd 6619 883c 948a ddbd
000001f0: de9a e73c 035c 6ebc 4b39 5d3d e9ec cbbd
00000200: 1cbd 2d3c f7c8 4dbc d31f 54bc 4073 6f3d
00000210: 7658 6d3d 97ca 1f3d a60e 203e cea1 bf3d
00000220: fb54 85bd d715 bc3d a135 8eba c499 723d
00000230: dec5 213d 3047 a03d 3918 b3bd 2a61 2d3c
00000240: f734 913d ac7f 003d b4db 993d 0220 0b3c
00000250: b7ab a8bc e78f a23b 88aa fe3c 9d62 023e
00000260: e6eb 3ebd 552c 72bd 2990 04ba 79e0 c33d
00000270: f7a8 a9bd 6c27 783d 5805 aebd 2893 a2bd
00000280: 2a3f 09bd 02dd 8b3c 8788 77bd 63ad debd
00000290: 3989 163d 44f8 a23d 6a5d 173e 18e2 41bd
000002a0: 383b b3bb 4485 8d3d 08d9 df3d 0287 653d
000002b0: 2768 be3d 4b45 08bc ae74 743c 1c15 9e3c
000002c0: 4c3c 3cbd b443 193d 7f01 993a 932b 8a3c
000002d0: 8ce4 ae3d 6f7e 97bc ac55 e7bd e1cb e7bc
000002e0: 0e93 b53d cc47 e83c d584 3cbd 0520 7bbd
000002f0: 8cde 183d 6c31 843d 2eeb d4bb bb9d ed3d
00000300: 4710 e63d 59ec cf3d 7bdc 0bbc 6c81 83bd
00000310: 8fe1 5b3d e4a3 96bd 0573 88bd e67c 7dbd
00000320: edcd afbd 5a15 973d e3d6 04bb c91c 703d
00000330: a2ad 6dbd 407e 173d e08c 9abd b710 8abc
00000340: cb13 dd3d 8894 8e3c 6360 39bd dd79 acbd
00000350: 1924 17bc 87e8 6f3c a61d bcbc 598f 733d
00000360: 5c63 783d c862 80bb ebb3 b1bb 094c 643c
00000370: 4409 eebd f3b9 0c3e 9d7b 3dbd 45c0 72bd
00000380: e23d 1ebd 2615 81bd f65c f6bd 5ced 2c3d
00000390: 40d8 cb3c ce2f 95bd 2f04 ac3c fa7c 9ebd
000003a0: e9cf 63bd d0e6 fcbc 2334 86bd 6e1b 923d
000003b0: 0196 c53d 4f6d 06ba c2be 363c 85cd ff3c
000003c0: 3cc7 d8bc d74c d43b 88a4 f3bc 6a60 10bd
000003d0: f3ab 21bd 41e0 aebd 9d77 233b 3ee0 fc3b
000003e0: 1b60 203d 00eb 323d 629e 44bc ab8e 99bd
000003f0: aa46 903d 1e29 dcbd e732 a6bd 8132 803d

fc2.0.bias f4 [84]
-0.022408219 -0.0019728865 0.005884408 0.0013872718 0.009038913 0.03384329 -0.061768588 0.05986254
-0.040979415 -0.043853946 -0.018823389 0.07012955 -0.067292266 -0.025632938 0.038180366 0.031275634
0.019259546 0.011609366 -0.08466901 0.058091745 0.08920555 0.004510029 0.02002544 0.06452568
-0.03601045 -0.036741056 -0.084131725 0.021443594 -0.017312033 -0.04811302 -0.026164232 0.0045920373
-0.0635724 -0.07173789 0.10310118 0.10446247 0.043777198 0.03614467 0.04854863 -0.032111637
0.04279496 -0.08929671 0.045253266 -0.056537405 -0.03459212 -0.018859493 -0.024896903 -0.0071935197
0.078421496 0.018892085 -0.0106544765 0.008594544 -0.06724155 0.04418566 0.09751548 0.018627174
-0.01894404 -0.003481297 0.07221033 -0.006791119 -0.05967184 -0.025036901 0.089021534 -0.0051038535
0.084371 -0.05779764 -0.07464993 -0.030962225 -0.06601318 0.0067933933 -0.051541373 0.025240855
0.04091522 -0.039123077 -0.060508326 0.0026095812 -0.061972514 -0.0038043486 -0.0012788001 0.045194518
0.059522223 -0.015126684 -0.06486822 0.016023686
00000000: 7191 b7bc 8b4b 01bb fed1 c03b 1ed5 b53a
00000010: f317 143c 439f 0a3d 0f01 7dbd 6c32 753d
00000020: 08da 27bd 32a0 33bd 8233 9abc 15a0 8f3d
00000030: 87d0 89bd 2bfc d1bc 0463 1c3d e11a 003d
00000040: 32c6 9d3c 3635 3e3c f266 adbd 9cf1 6d3d
00000050: 66b1 b63d dec8 933b 640c a43c 0a26 843d
00000060: b27f 13bd ca7d 16bd 414d acbd 7aaa af3c
00000070: f7d1 8dbc 2812 45bd 5f56 d6bc cd78 963b
00000080: 3f32 82bd 51eb 92bd b626 d33d 6bf0 d53d
00000090: b84f 333d 6f0c 143d eeda 463d 7e87 03bd
000000a0: c549 2f3d 32e1 b6bd 7d5b 393d c493 67bd
000000b0: 78b0 0dbd 397f 9abc 97f4 cbbc 9eb7 ebbb
000000c0: 739b a03d 93c3 9a3c 1d90 2ebc 21d0 0c3c
000000d0: f0b5 89bd 06fc 343d 32b6 c73d 0498 983c
000000e0: 8830 9bbc 7926 64bb 02e3 933d 0988 debb
000000f0: 766a 74bd 301a cdbc ec50 b63d 3a3e a7bb
00000100: b4ca ac3d 38bd 6cbd 10e2 98bd 7ea4 fdbc
00000110: eb31 87bd 1d9b de3b 0c1d 53bd e9c5 ce3c
00000120: b896 273d 853f 20bd 94d7 77bd 8205 2b3b
00000130: e4d6 7dbd 6152 79bb 699d a7ba e31d 393d
00000140: 93cd 733d e9d5 77bc a1d9 84bd 1b44 833c
