计算机视觉实践-练习2/checkpoint/lenet_p/Saturday_15_April_2023_09h_48m_35s/lenet_p-15-best.pth (torch, 260575 bytes, 30 tensors)

conv1.0.weight f4 [6, 1, 5, 5]
0	0xbe0458fc	-0.1292457
1	0xbdf798e7	-0.12089711
2	0x3da7ad8e	0.081874
3	0x3e2898a9	0.16464485
4	0xbdabeb3a	-0.08394475
5	0xbda5b058	-0.080902755
6	0xbdbf6841	-0.09346057
7	0xbdff64e7	-0.124704175
8	0x3de3b67e	0.11118792
9	0xbb82eeae	-0.003995738
10	0xbe548745	-0.20754726
11	0x3d0392e8	0.032122523
12	0x3aa26006	0.0012388236
13	0x3e2fe5c0	0.17177486
14	0x3e34d9ae	0.17661163
15	0xbe007a64	-0.12546688
16	0xbe29ab4f	-0.16569255
17	0x3d161dcf	0.03664952
18	0x3d8e1252	0.06937088
19	0x3c954905	0.018223295
20	0x3de5a9cb	0.11214026
21	0x3e0181bb	0.12647144
22	0x3c663984	0.014051799
23	0xbdd316ce	-0.10307084
24	0x3e17cf1a	0.14825097
25	0xbdee3450	-0.116310716
26	0x3ca78fa3	0.020454234
27	0x3de4a595	0.11164395
28	0x3e471cc8	0.19444573
29	0x3d812bb2	0.06307162
30	0x3d160dbb	0.03663419
31	0xbe137bb5	-0.14402659
32	0xbd94b391	-0.07260812
33	0x3d295c91	0.041348044
34	0x3e6d1294	0.23151618
35	0x3d211fcb	0.03933696
36	0xbe73edc6	-0.23821172
37	0x3d29f599	0.041493986
38	0xbe20a017	-0.1568607
39	0x3e1726fb	0.14760964
40	0xbe082bdf	-0.13297985
41	0xbc149bd0	-0.009070352
42	0xbcbe6bdb	-0.023244789
43	0x3dd5047d	0.10401247
44	0xbe04bad6	-0.12961897
45	0xbe1ee9ab	-0.15518825
46	0xbe3eb8e3	-0.18625216
47	0xbe3749a8	-0.17899191
48	0x3d60635f	0.054782268
49	0x3d275e3b	0.04086135
50	0xbdcf6184	-0.101260215
51	0xbd424be6	-0.047435664
52	0x3df120d5	0.1177384
53	0x3dc6a7f3	0.097000025
54	0x3e3bdf4e	0.18346903
55	0x3df02183	0.11725142
56	0x3dbaf3f8	0.091285646
57	0x3e05a6fc	0.1305198
58	0xbb908d59	-0.004411381
59	0xbdb60348	-0.088873446
60	0xbe217a66	-0.15769348
61	0x3ddbce49	0.10732705
62	0x3e59f9be	0.21286675
63	0x3e668f09	0.22515501
64	0x3d23f914	0.04003246
65	0xbddba2c3	-0.10724404
66	0xbad8314f	-0.0016494187
67	0x3cc9889b	0.024601271
68	0x3e4c59d5	0.19956143
69	0x3c7853a1	0.015156657
70	0x3d387ec7	0.04504278
71	0x3da49298	0.08035773
72	0x3e524201	0.20532991
73	0xbb9ce990	-0.004788585
74	0xbde23d69	-0.11046869
75	0xbd9d2e15	-0.07674805
76	0x3d92e4f6	0.07172577
77	0xbc3710ec	-0.011173468
78	0x3d5ac2db	0.053408485
79	0xbe5bd1a8	-0.21466696
80	0x3c438cf7	0.011935464
81	0xbdd655b9	-0.10465569
82	0xbca3bac0	-0.01998651
83	0x3e4f449a	0.20241013
84	0xbdb3daf5	-0.08781997
85	0xbe0f3e88	-0.13988698
86	0xbd3cd453	-0.046100926
87	0x3ce940dd	0.028473312
88	0x3cc2d9ab	0.023785433
89	0x3e1e99c7	0.15488349
90	0xbd53dbf4	-0.051723436
91	0xbe5b1051	-0.21392943
92	0x3dd42bb0	0.10359895
93	0xbb4702b7	-0.0030366608
94	0xbd88a8ed	-0.06672845
95	0x3c329f22	0.010902198
96	0xbe032710	-0.1280787
97	0xbe48ee37	-0.19622122
98	0xbce71ee5	-0.028212974
99	0x3e0d39e0	0.13791609
100	0x3d655ead	0.055998493
101	0x3dfe400a	0.12414558
102	0x3dc149cf	0.09437906
103	0xbd47821d	-0.04870807
104	0x3cf1bbce	0.029508498
105	0x3deb1f31	0.11480559
106	0xbd363b7a	-0.044490315
107	0x3e03c748	0.12868989
108	0x3de1ee24	0.1103175
109	0xbbc5a745	-0.006031903
110	0xbe186229	-0.14881195
111	0x3cbd183f	0.02308285
112	0x3dcfeed3	0.10152974
113	0x3df83c25	0.12120847
114	0x3dd828ef	0.105546825
115	0xbccf5f12	-0.025313888
116	0xbe3bd3d9	-0.18342532
117	0xba1b702b	-0.0005929495
118	0xbd74dbbe	-0.059779875
119	0x3e2a9132	0.1665695
120	0xbdfdaa90	-0.12386048
121	0xbd7fdbbe	-0.06246542
122	0xbe46c75b	-0.19411986
123	0xbdffd447	-0.124916606
124	0xbe2483a9	-0.1606585
125	0xbb87551f	-0.0041300203
126	0xbd0abf6e	-0.033873968
127	0x3e0865dd	0.13320108
128	0x3e4cc8c9	0.19998468
129	0x3e67ef96	0.22649989
130	0x3df039bc	0.11729762
131	0x3e171120	0.14752626
132	0x3d168317	0.03674611
133	0xbdc53a91	-0.09630311
134	0xbd2853a3	-0.041095387
135	0x3d78f161	0.060777072
136	0xbd8f8ea5	-0.07009629
137	0x3cfb11ee	0.030648198
138	0xbd3db9ed	-0.04631989
139	0xbdac872f	-0.08424222
140	0xbde341e9	-0.11096556
141	0x3d933ae6	0.07188968
142	0xbe3cd43e	-0.18440339
143	0xbe154aca	-0.14579311
144	0xbd5a6a3e	-0.053323977
145	0x3dda8fcc	0.10671958
146	0xbe09427e	-0.13404271
147	0x3db5a008	0.08868414
148	0x3dd6aefb	0.104825936
149	0x3dccbb1f	0.09996628

conv1.0.bias f4 [6]
0	0xbe1f6490	-0.15565705
1	0xbc87ccae	-0.016577091
2	0xbd850165	-0.064944066
3	0x3d92a149	0.07159669
4	0xbe0dc643	-0.13845162
5	0x3e30d5b0	0.17269015

conv1.1.weight f4 [6]
0	0x3f7c0169	0.9843965
1	0x3f78cfba	0.97191966
2	0x3f79911b	0.9748704
3	0x3f7a08e6	0.9766983
4	0x3f7c18c1	0.9847527
5	0x3f7d3b03	0.9891817

conv1.1.bias f4 [6]
0	0x3c311c58	0.01080998
1	0xbbbaf6b4	-0.005705679
2	0x3cd62ffc	0.026145928
3	0xbd052ed1	-0.03251535
4	0x3cfffa2c	0.031247221
5	0xbcb6aa23	-0.022297924

conv1.1.running_mean f4 [6]
0	0xbe20dbd0	-0.15708852
1	0xbcc8e53d	-0.024523372
2	0xbd3c2f4a	-0.045943536
3	0x3d44c900	0.04804325
4	0xbe193313	-0.1496089
5	0x3e4b5e5b	0.19860213

conv1.1.running_var f4 [6]
0	0x3ee8bff5	0.45458952
1	0x3f1390ab	0.5764262
2	0x3f93361e	1.150089
3	0x3e995a95	0.2995192
4	0x3ec6e403	0.38845834
5	0x3e89c517	0.2690818

conv2.0.weight f4 [6, 6, 3, 3]
0	0xbd4ecb0f	-0.05048662
1	0xbb9bcf99	-0.004754972
2	0x3e10b570	0.14131713
3	0xbdab0907	-0.08351331
4	0xbd9c551f	-0.07633423
5	0xbd73aa2c	-0.05948846
6	0x3d0bc881	0.034126762
7	0xbd27e596	-0.040990435
8	0x3dedb5bf	0.11606931
9	0x3cee96b1	0.02912459
10	0x3dd04629	0.10169632
11	0x3e132a74	0.14371663
12	0x3d29ad25	0.04142489
13	0xbe1512c5	-0.14557941
14	0xbd4c41b4	-0.049867347
15	0xbe12e15e	-0.14343783
16	0xbe0a20df	-0.13489102
17	0xbd6c8736	-0.057746135
18	0xbd1b4fb6	-0.037917815
19	0xbda0ebfe	-0.07857512
20	0xbdb928db	-0.09040996
21	0xbd1d2394	-0.038364008
22	0xbd362d7f	-0.044476982
23	0x3cf28736	0.02960549
24	0xbc5769fe	-0.013147829
25	0xbdc3bbfc	-0.095573395
26	0x3cd75933	0.02628765
27	0x3df60df3	0.12014379
28	0x3db81a9e	0.08989452
29	0x3d7de40a	0.061985053
30	0xbd0c2e43	-0.034223806
31	0x3d17091f	0.036873933
32	0xbe0f3809	-0.1398622
33	0x3d43cb46	0.04780128
34	0x3de6f776	0.11277668
35	0xbd3d0a15	-0.046152193
36	0x3e0981fd	0.13428493
37	0x3e33180e	0.17489645
38	0x3dec1a92	0.115285054
39	0x3dcb7b7b	0.099356614
40	0x3d989c6c	0.0745171
41	0xbe4624d4	-0.19349986
42	0x3c8ff879	0.017574536
43	0xbd74a31b	-0.059725862
44	0xbcba83ad	-0.022767866
45	0xbd1c775f	-0.03819978
46	0x3a83d1d2	0.0010057038
47	0x3c96d9f6	0.018414479
48	0xbd323661	-0.04350889
49	0x3e0bb89e	0.13644645
50	0x3c28ed36	0.010310462
51	0x3d6599c6	0.056054853
52	0x3d1f580b	0.038902324
53	0xbd37242f	-0.04471224
54	0x3bc011ac	0.0058614817
55	0x3d993642	0.07481052
56	0x3daedb61	0.08537937
57	0xbda60498	-0.08106345
58	0x3c9c3269	0.019067006
59	0xbdbe9fde	-0.09307836
60	0x3e07bd47	0.13255797
61	0x3d85582a	0.065109566
62	0xbe26461a	-0.16237679
63	0x3dafecd7	0.085900955
64	0xbd6f35d0	-0.05840093
65	0xbda40df7	-0.08010476
66	0x3d46e1ce	0.048555188
67	0xbdf12a0a	-0.117755964
68	0x3dd61e1f	0.10454964
69	0xbd9991cd	-0.074985124
70	0x3c1ea45b	0.00968274
71	0xbdee3c41	-0.11632586
72	0x3d435342	0.047686823
73	0xbdefefd0	-0.117156625
74	0x3d0bf936	0.034173213
75	0xbe090dd1	-0.13384177
76	0xbdbc86a5	-0.09205369
77	0xbdcdca1b	-0.10048314
78	0xbd68510e	-0.056717925
79	0x3cc7588e	0.024334218
80	0x3d3e6e83	0.04649211
81	0x3b9d3495	0.004797528
82	0xbdb3f74c	-0.087874025
83	0xbd2adb2f	-0.041712936
84	0x3dead7db	0.114669524
85	0x3cd293ab	0.02570518
86	0xbe00c5a1	-0.1257539
87	0xbd11f789	-0.03563646
88	0x3db050e5	0.086091794
89	0xbdcc2741	-0.099684246
90	0xbd188d59	-0.037244175
91	0x3d60c323	0.054873597
92	0x3d9cb297	0.07651251
93	0x3e060b96	0.13090357
94	0xbd422f41	-0.047408346
95	0xbcfecff7	-0.031105025
96	0xbe0c9d12	-0.13731793
97	0x3b13f5c5	0.002257691
98	0x3c1f7ddd	0.009734598
99	0xbd2e74a9	-0.042591725
100	0xbd84301f	-0.06454491
101	0x3da8ab82	0.082358375
102	0x3cfcb28a	0.030846853
103	0x3de815c2	0.11332275
104	0x3e1ebe18	0.15502203
105	0xbdcafa97	-0.099110775
106	0xbba0f7a0	-0.0049123317
107	0xbce554b7	-0.027994497
108	0xbdba7b77	-0.0910558
109	0xbc8a7e28	-0.01690586
110	0xbdad52ae	-0.084630355
111	0x3c6a63eb	0.014306049
112	0xbd333770	-0.04375404
113	0x39b379aa	0.00034232187
114	0x3cc4a7b9	0.024005758
115	0x3c6080f4	0.01370262
116	0x3d175c88	0.03695348
117	0xbbd4b6c0	-0.006491512
118	0x3b53a139	0.003229214
119	0xbcb90542	-0.022585515
120	0xbde384d6	-0.11109321
121	0x3d175eff	0.03695583
122	0xbde36c09	-0.111045904
123	0x3de0136f	0.10941207
124	0xbcaf13a3	-0.021371668
125	0x3db55622	0.08854319
126	0xbd354175	-0.044251878
127	0x3d98ba32	0.07457389
128	0x3d48f0ee	0.049057893
129	0x3dbb41ae	0.09143387
130	0x3d656edd	0.05601393
131	0x3b051e0e	0.0020312103
132	0xbda286fa	-0.07935901
133	0xbe359adc	-0.17734855
134	0x3dbe9452	0.093056336
135	0xbdb50c5e	-0.088402495
136	0xbe20e2f7	-0.1571158
137	0x3d6915f6	0.05690571
138	0x3b95e993	0.0045749634
139	0x3cdf32bc	0.027245872
140	0xbd8270ff	-0.063692085
141	0x3e269d8b	0.16271035
142	0xbc9228a2	-0.01784164
143	0x3b94bcb0	0.004539095
144	0x3dd39490	0.103310704
145	0x3d4bfa1b	0.049799066
146	0x3c2e32a5	0.010632192
147	0xbd4271b4	-0.047471717
148	0xbdb0cd74	-0.08632937
149	0x3db2cb9e	0.08730243
150	0xbd3dac07	-0.046306636
151	0x3a217d2f	0.00061603164
152	0xbd7d3df5	-0.061826665
153	0x3e0bc878	0.13650692
154	0x3e4113be	0.18855187
155	0x3e366a95	0.17814095
156	0x3c1e06a2	0.009645136
157	0x3dfa2f7b	0.122160874
158	0xbd987e48	-0.07445961
159	0xbd4949cd	-0.049142648
160	0xbcb3ae93	-0.02193383
161	0xbd86c485	-0.06580452
162	0x3ca854d8	0.02054827
163	0x3d1783cb	0.036990922
164	0x3e1520b9	0.14563264
165	0x3ddc8ab4	0.10768643
166	0x3d53cb71	0.05170769
167	0xbd009872	-0.031395383
168	0x3d5555dc	0.052083835
169	0xbd902af2	-0.07039441
170	0xbdb71bf0	-0.089408755
171	0xbca536f8	-0.020167813
172	0x3d4c248b	0.049839538
173	0x3dc4867b	0.095959626
174	0x3bb4c2ff	0.0055164094
175	0xbd954771	-0.07289017
176	0xbdb7d6a2	-0.08976485
177	0x3e030277	0.12793909
178	0x3e00e730	0.12588191
179	0xbd2005a5	-0.039067883
180	0x3cee9abd	0.02912652
181	0x3e5221fc	0.20520777
182	0x3dae56b4	0.08512631
183	0xbd6cd3f1	-0.05781931
184	0x3dd8af15	0.10580269
185	0xbdf58cbd	-0.11989734
186	0xbb8859fa	-0.0041611167
187	0xbd087b06	-0.03332045
188	0xbde18ef4	-0.11013594
189	0xbcb3a8db	-0.021931102
190	0xbb9b8ac7	-0.004746768
191	0xbdeca6fc	-0.11555287
192	0x3cf5c970	0.03000328
193	0x3d81a36b	0.06329998
194	0xbb502254	-0.0031758742
195	0xbc93148a	-0.01795413
196	0xbb976afa	-0.004620907
197	0x3beeb1db	0.0072843856
198	0xbd9f07f5	-0.077651896
199	0xbdef85cc	-0.116954416
200	0xbe024582	-0.12721828
201	0xbdf83446	-0.12119345
202	0xbd0d13c5	-0.03444268
203	0x3ccacd5b	0.024756124
204	0x3dae0a29	0.08498032
205	0xbc8d8514	-0.01727537
206	0xbdb0af53	-0.086271904
207	0xbdaecabe	-0.08534764
208	0xbc35d1a4	-0.0110973455
209	0xbe207021	-0.15667774
210	0x3c59ff62	0.013305517
211	0x3d829bab	0.063773476
212	0x3d8c273d	0.068434216
213	0xbdc8c602	-0.09803392
214	0xbc78135f	-0.015141337
215	0x3d92230a	0.071355894
216	0x3cec8678	0.028872713
217	0x3e0e60bd	0.1390409
218	0x3d380603	0.04492761
219	0xbd834ddd	-0.064113356
220	0x3d42a8bf	0.04752421
221	0xbd823e99	-0.06359596
222	0xbc6e9489	-0.014561781
223	0x3d434a9e	0.047678582
224	0x3da4fa9e	0.08055614
225	0x3cefa3f4	0.029252984
226	0xbe0b4fa3	-0.13604598
227	0xbd4c1cb5	-0.049832065
228	0x3dce15f4	0.10062781
229	0xbc9e6d1f	-0.019339142
230	0x3db86bc0	0.09004927
231	0x3bbfc155	0.0058519044
232	0x3db330f9	0.08749575
233	0x3a93826c	0.0011254079
234	0xbd3e36df	-0.046439048
235	0x3c9a2418	0.018816039
236	0x3d68ad96	0.05680617
237	0x3e115d4f	0.1419575
238	0x3daad257	0.083409004
239	0x3e20c4e4	0.15700108
240	0xbd9f5ad8	-0.07780999
241	0xbcb5fd56	-0.022215527
242	0x3de9952a	0.11405404
243	0x3db23b07	0.08702665
244	0x3d992334	0.074774176
245	0x3cd09ea8	0.025466278
246	0x3e05048a	0.12990013
247	0x3d9505aa	0.07276471
248	0x3deec14f	0.116579644
249	0xbd30cb87	-0.04316285
250	0xbd1b5d99	-0.03793106
251	0xbdac49b8	-0.08412498
252	0xbdb84d4a	-0.08999117
253	0x3d889909	0.06669814
254	0xbdecfafc	-0.11571309
255	0x3e1134f4	0.14180356

conv2.0.bias f4 [6]
0	0xbd6d0fc3	-0.05787636
1	0x3d97b5e9	0.074077435
2	0x3d45c8e3	0.048287284
3	0x3de4a152	0.11163582
4	0xbd8c8b0d	-0.06862459
5	0x3ddbf62a	0.107403114

conv2.1.weight f4 [6]
0	0x3f861130	1.0473995
1	0x3f76076e	0.96105087
2	0x3f7d3499	0.9890838
3	0x3f7700f4	0.9648583
4	0x3f792659	0.9732414
5	0x3f707305	0.93925506

conv2.1.bias f4 [6]
0	0x3d41493b	0.04718898
1	0x3d042ca8	0.03226915
2	0x3d2ebdc0	0.04266143
3	0x3cfca5c1	0.030840756
4	0x3d06ae69	0.032881174
5	0xbd615688	-0.055014163

conv2.1.running_mean f4 [6]
0	0xbc7a63b0	-0.015282556
1	0xbe1d449c	-0.15358204
2	0x3e450925	0.1924177
3	0x3caf5cfb	0.021406641
4	0x3f16ecb9	0.5895496
5	0x3e876949	0.26447514

conv2.1.running_var f4 [6]
0	0x3e7230c5	0.23651417
1	0x3e359aa9	0.1773478
2	0x3ea44449	0.32083347
3	0x3e81c63e	0.2534656
4	0x3f16f58a	0.5896841
5	0x3e536648	0.20644486

conv3.0.weight f4 [6, 6, 3, 3]
0	0xbb88e917	-0.004178177
1	0x3cf7921b	0.030221036
2	0xbd0bb3d9	-0.034107063
3	0x3d308585	0.043096084
4	0x3d8dc65e	0.06922601
5	0x3d5b7025	0.053573746
6	0xbc3ae126	-0.011406219
7	0xbd150e7f	-0.036390778
8	0x3d167e88	0.036741763
9	0x3d50644a	0.050876893
10	0xbde62c4e	-0.11238919
11	0x3dacf6a4	0.084454805
12	0xbd962aca	-0.0733238
13	0x3d62e20a	0.05539135
14	0xbe07956a	-0.1324059
15	0xbdbb0989	-0.09132678
16	0x3d68cf43	0.056838285
17	0x3b3bd3ef	0.0028660258
18	0x3d136029	0.035980377
19	0x3e1a06b8	0.15041625
20	0x3d942f31	0.072355635
21	0xbdf3fb8f	-0.11913215
22	0xbd6983a8	-0.057010323
23	0x3d874912	0.06605734
24	0xbd10ae57	-0.035322513
25	0x3d6902e1	0.05688751
26	0xbe21227a	-0.15735808
27	0x3cc2b671	0.023768635
28	0x3dc09c65	0.0940483
29	0x3d05b103	0.032639515
30	0x3d90c6de	0.07069181
31	0xbe327863	-0.17428736
32	0xbdd164c6	-0.10224299
33	0xbac3e22b	-0.0014944723
34	0xbe107ec7	-0.14110862
35	0x3d98dc63	0.074639104
36	0x3cd2c50e	0.025728729
37	0x3b089eb0	0.0020846538
38	0x3cac1431	0.021005722
39	0xbdd60d24	-0.10451725
40	0x3d08acc7	0.0333679
41	0x3d59a2c8	0.053133756
42	0xbd81b851	-0.06333984
43	0xbe007bdb	-0.12547247
44	0xbc9f5eda	-0.019454408
45	0xbdf7ebb1	-0.121055014
46	0x3d18f851	0.037346188
47	0x3d8558b5	0.0651106
48	0x3e0857d3	0.13314752
49	0x3d65ee7f	0.05613565
50	0x3d2c736d	0.042102266
51	0x3d3edb53	0.046595883
52	0xbe0a608a	-0.13513389
53	0xbbc12a5f	-0.0058949436
54	0x3c88d769	0.016704278
55	0x3dcdfbfc	0.10057828
56	0x3db0e786	0.086379096
57	0x3dd70ad8	0.10500115
58	0xbbc36fb6	-0.0059642447
59	0xbdbd90bf	-0.09256124
60	0x3d52abb7	0.05143329
61	0x3a418f85	0.0007383752
62	0xbc17f316	-0.009274265
63	0x3d5adf15	0.053435404
64	0xbdb7c92b	-0.089739166
65	0x3d4668e6	0.048439883
66	0x3c729b3b	0.014807518
67	0xbd877bbd	-0.06615398
68	0xbc5beca1	-0.013423116
69	0xbd98eb8b	-0.07466801
70	0xbce743a1	-0.02823049
71	0xbda8ee0a	-0.08248527
72	0xbe3d1409	-0.18464674
73	0xbd176440	-0.03696084
74	0xbe38807a	-0.1801776
75	0xbdecae61	-0.11556698
76	0xbd88b0f8	-0.06674379
77	0xbde1e62a	-0.110302284
78	0x3dfa4158	0.122194946
79	0x3e1f8197	0.15576778
80	0x3df87fc6	0.12133746
81	0xbd8c000c	-0.068359464
82	0xbc6874a7	-0.014187968
83	0x3a9319c3	0.0011222888
84	0xbb0726a0	-0.0020622388
85	0x3d3a747f	0.045521256
86	0x3d79972f	0.060935196
87	0xbdfaa4c4	-0.12238458
88	0xbd51096d	-0.05103438
89	0x3e15170b	0.14559571
90	0x3dc600e2	0.09668137
91	0x3dd55fc3	0.10418656
92	0x3cfcdfc0	0.030868411
93	0x3e1f6798	0.15566862
94	0xbd432eb7	-0.047651973
95	0xbdea59ca	-0.11442907
96	0xbbad6ecf	-0.0052927504
97	0xbd9dfccd	-0.077142335
98	0x3b11d21a	0.0022250474
99	0xbd395b3a	-0.045253016
100	0x3d8b71a4	0.068087846
101	0xbcfcfafe	-0.030881401
102	0x3d7646d9	0.06012616
103	0x3ddb8158	0.1071803
104	0xbcb3c699	-0.021945285
105	0x3b19e155	0.0023480256
106	0x3d9cda6d	0.07658849
107	0xbd59b30c	-0.053149268
108	0xbe2dfece	-0.16991732
109	0xbd65eb90	-0.056132853
110	0xbddcf2b3	-0.10788479
111	0x3d022063	0.031769168
112	0x3e229735	0.15877993
113	0x3c568db8	0.013095312
114	0x3dfbe905	0.12300304
115	0x3dd57aef	0.10423838
116	0x3ddc48d7	0.107560806
117	0x3d33a0cc	0.04385452
118	0x3df44c30	0.11928594
119	0x3dd67e3c	0.10473296
120	0x3ddc6f84	0.107634574
121	0x3d43a0ec	0.04776089
122	0x3dc2f1b0	0.095187545
123	0x3d8154a3	0.06314971
124	0xbd712cce	-0.05888062
125	0x3d53511e	0.05159103
126	0xbd702639	-0.058630202
127	0xbc986d4a	-0.0186068
128	0x3c0acdbc	0.008471902
129	0xbda3375b	-0.079695426
130	0x3d8d7b99	0.0690834
131	0x3c136b43	0.008997741
132	0xbdb3951a	-0.08768673
133	0x3d992311	0.074773915
134	0x3d1c7db2	0.03820581
135	0x3d023058	0.031784385
136	0x3d8834df	0.06650709
137	0x3dac0e1b	0.08401128
138	0xbdcf95fd	-0.1013603
139	0xbd9fefda	-0.0780942
140	0xbdff21d4	-0.12457624
141	0xbd87346f	-0.06601798
142	0xbd8678d4	-0.06566015
143	0xbdb5de11	-0.088802464
144	0xbc4a1e8b	-0.012336384
145	0x3c93516b	0.017983159
146	0x3ba71a82	0.0050995955
147	0x3d8b6b21	0.068075426
148	0xbc9cd54a	-0.019144673
149	0x3c0cf7f1	0.008604036
150	0x3db93e25	0.09045056
151	0x3bafb004	0.005361559
152	0xbdcc639c	-0.099799365
153	0x3da77c14	0.08177963
154	0xbcaabcc7	-0.02084197
155	0xbdaac744	-0.08338788
156	0x3cdc7a77	0.026913865
157	0x3ddc7bad	0.10765777
158	0x3c16b69f	0.009198814
159	0x3d9a3dd1	0.07531322
160	0xbbe421e0	-0.006962046
161	0x3d7d2c82	0.061810024
162	0xbe14205b	-0.14465468
163	0x3cd548c5	0.026035676
164	0xbdd6357e	-0.104594216
165	0xbe13af59	-0.14422359
166	0xbdca2bf4	-0.09871665
167	0x3d249508	0.04018119
168	0xbda233dd	-0.079200484
169	0xbe2d0cb7	-0.16899382
170	0x3d8539a1	0.065051325
171	0x3d57e4ef	0.052708562
172	0x3ca4665d	0.020068342
173	0xbcda3ba7	-0.026639773
174	0xbdaa7532	-0.083231345
175	0xbdfa3e66	-0.12218933
176	0x3da3e528	0.080026925
177	0xbdda36fd	-0.106550194
178	0x3cbc8a1e	0.023015078
179	0x3e0ad487	0.13557635
180	0x3d008c8c	0.031384036
181	0xbd6cfc47	-0.057857778
182	0x3da82c59	0.08211584
183	0x3d26418a	0.040589847
184	0x3daf4191	0.08557428
185	0x3da62519	0.081125446
186	0xbdb403ed	-0.08789811
187	0x3d1ec091	0.038757864
188	0xbe07152c	-0.1319167
189	0x3db8fc2c	0.09032473
190	0x3e1a1da7	0.15050374
191	0x3d8ab945	0.067736186
192	0xbd34d4a1	-0.04414809
193	0xbdd5a694	-0.10432163
194	0x3d9e8be3	0.07741525
195	0xbc04688e	-0.008081568
196	0xbd81fcab	-0.06347021
197	0x3de76f01	0.11300469
198	0xbdc046e8	-0.09388524
199	0x3d9c3892	0.076279774
200	0xbe0618bb	-0.13095371
201	0x3dba88b9	0.09108109
202	0x3d57f0ef	0.052720007
203	0xbe152b44	-0.14567286
204	0x3caf0490	0.02136448
205	0xbd04e8a0	-0.03244841
206	0xbde5edd2	-0.11227001
207	0x3d84f27a	0.06491561
208	0xbc2c7b63	-0.010527465
209	0xbcf28f73	-0.029609418
210	0x3d936ce5	0.07198504
211	0xbcaf0305	-0.021363745
212	0x3de65e45	0.11248449
213	0x3dab2510	0.083566785
214	0xbce6565c	-0.028117351
215	0x3d3af166	0.04564037
216	0xbe256b3c	-0.16154188
217	0xbde8f5d4	-0.11375013
218	0xbdc96995	-0.09834591
219	0x3d9ef711	0.07761968
220	0xbda5b0c5	-0.08090357
221	0xbdc634a4	-0.09678009
222	0xba7858e3	-0.00094736944
223	0xbd571a0a	-0.052515067
224	0xbda27ae1	-0.079335935
225	0x3d70a002	0.058746345
226	0xbdceca72	-0.10097207
227	0xbdd3f908	-0.10350233
228	0x3a169b7a	0.0005745214
229	0xbde77b1a	-0.11302777
230	0xbd970626	-0.073742196
231	0xbccf5979	-0.025311219
232	0xbcc2327a	-0.02370571
233	0x3d278f9c	0.04090844
234	0x3d3cf261	0.046129588
235	0x3de37dbe	0.11107968
236	0xbdb59246	-0.0886579
237	0xbde6cb43	-0.11269238
238	0x3cad4403	0.021150595
239	0x3cf980a1	0.030456843
240	0x3dc13be8	0.09435254
241	0x3df51e6a	0.11968692
242	0xbd264b67	-0.040599253
243	0xbe165fe2	-0.14685014
244	0xbcb69079	-0.022285687
245	0x3d80ea18	0.0629465
246	0xbda0b331	-0.07846678
247	0xbda95afe	-0.082693085
248	0xbdfaa713	-0.12238898
249	0x3d7732fb	0.060351353
250	0xbd86d8ae	-0.06584297
251	0xbc0fac9c	-0.008769181
252	0xbd61cbca	-0.05512599
253	0x3e1266e6	0.14297065
254	0xbcc661b2	-0.024216507
255	0x3dfd9db3	0.12383594

conv3.0.bias f4 [6]
0	0x3dc5c597	0.09656828
1	0x3d37e7ba	0.044898726
2	0x3dcaf09c	0.09909174
3	0x3d973631	0.07383383
4	0xbd37c801	-0.044868473
5	0x3de1c771	0.110243686

conv3.1.weight f4 [6]
0	0x3f75e95b	0.960592
1	0x3f7b2194	0.9809811
2	0x3f785762	0.97008336
3	0x3f7b860e	0.98251426
4	0x3f807521	1.0035745
5	0x3f7b889f	0.9825534

conv3.1.bias f4 [6]
0	0x3cb2e08a	0.021835584
1	0x3d397d25	0.045285363
2	0x3d2e9621	0.042623643
3	0x3c05030d	0.008118403
4	0x3ce3ff92	0.027831826
5	0x3b2fae96	0.0026806942

conv3.1.running_mean f4 [6]
0	0x3c850ad6	0.016240519
1	0x3d8f639f	0.07001423
2	0x3eb5561a	0.35417253
3	0xbd838fb9	-0.06423897
4	0xbeda6e50	-0.42662287
5	0xbcf44066	-0.029815864

conv3.1.running_var f4 [6]
0	0x3e297b7b	0.1655101
1	0x3e1bc325	0.1521116
2	0x3e8d2e10	0.27574205
3	0x3e205293	0.156565
4	0x3dfc450a	0.12317856
5	0x3e11ad70	0.14226317

conv4.0.weight f4 [16, 6, 5, 5]
0	0xbcf8b42d	-0.030359352
1	0xbd9d1e10	-0.076717496
2	0x3d5a91c6	0.053361677
3	0x3d008d8e	0.031384997
4	0xbd51dcff	-0.05123615
5	0x3d7169a7	0.05893865
6	0x3cacc871	0.021091672
7	0xbd8cc7b9	-0.068740316
8	0x3d49d441	0.049274687
9	0x3daa0863	0.08302381
10	0x3d75839d	0.05993997
11	0xbc8b5a6f	-0.017010896
12	0x3c270e82	0.01019633
13	0x3d64523a	0.05574248
14	0xbc0fd2ac	-0.008778255
15	0xbd15717f	-0.03648519
16	0x3c32b689	0.010907778
17	0x3d1117b4	0.035422996
18	0x3dbb8298	0.09155768
19	0x3d203671	0.03911442
20	0x3d909422	0.07059504
21	0xbc4a3067	-0.012340642
22	0x3a0c513b	0.00053526805
23	0x3ca0dcc8	0.019636527
24	0xbdd8d75e	-0.10587953
25	0x3cbe48c0	0.02322805
26	0x3dc26da5	0.09493569
27	0x3ce83e76	0.028350096
28	0x3d8186a9	0.063245125
29	0x3cc8de44	0.024520047
30	0xbd1470fa	-0.036240555
31	0xbcdfcb3d	-0.027318591
32	0xbc9f6293	-0.019456184
33	0x3c05befb	0.008163209
34	0x3c568c94	0.01309504
35	0xbbd293c4	-0.0064263064
36	0xbd186f35	-0.03721543
37	0xb8965aaf	-7.1694485e-05
38	0x3d47763a	0.048696734
39	0x3b9b6312	0.0047420347
40	0xbc0bdde0	-0.008536786
41	0x3d29b24f	0.041429814
42	0xbd50c80c	-0.05097203
43	0xbd890a2a	-0.06691392
44	0x3d8e94cf	0.06961977
45	0x3d48659a	0.04892502
46	0xbb48cc9f	-0.0030639542
47	0x3d01400a	0.031555213
48	0xbccbe4d5	-0.024889389
49	0xbc87dc5c	-0.016584568
50	0xbb89eb3d	-0.004208951
51	0x3d9c4aa7	0.07631426
52	0x3d6e005b	0.058105808
53	0xbd29d940	-0.04146695
54	0x3c967172	0.018364642
55	0xbd50bc87	-0.050961044
56	0xbd77fd7d	-0.06054448
57	0xbd250c51	-0.04029495
58	0x3d8e8135	0.06958238
59	0x3cbc6102	0.022995476
60	0xbcb595bd	-0.022166127
61	0x3d36b0e5	0.044602294
62	0x3dbdf303	0.092748664
63	0x3d9664a6	0.07343416
64	0xbd83e53f	-0.064402096
65	0xbc2e7f43	-0.010650459
66	0x3c07fddb	0.00830027
67	0x3bbacec4	0.005700918
68	0xbd2cd731	-0.04219741
69	0xbd2c5921	-0.042077187
70	0x3ce02de9	0.027365642
71	0x3c883f78	0.016631827
72	0x3d137610	0.036001265
73	0xbcefe4f1	-0.029283972
74	0x3d03d36d	0.032184053
75	0xbd13e56b	-0.036107462
76	0xbd7354a5	-0.059406895
77	0xbc159237	-0.009129099
78	0xbc383fdc	-0.011245694
79	0xbd85033b	-0.06494757
80	0x3cb03f2c	0.021514498
81	0xbd432ab8	-0.04764816
82	0xbc92bb54	-0.01791159
83	0xbd9fc9e2	-0.07802178
84	0x3cba1c76	0.02271865
85	0xbbc6c0d0	-0.0060654655
86	0xbd791790	-0.060813487
87	0xbdbde5e9	-0.092723675
88	0xbc7fec7f	-0.01562035
89	0xbd0c849a	-0.034306146
90	0x3cc7322a	0.024315912
91	0xbdb6333c	-0.08896491
92	0xbcfa6ebe	-0.030570384
93	0xbd588761	-0.052863482
94	0xbd4d1b07	-0.050074603
95	0xbd4043ca	-0.04693965
96	0xbd39adc9	-0.04533175
97	0xbcc1b81c	-0.02364736
98	0x3cc87258	0.024468586
99	0xbc223b7b	-0.009901877
100	0xbd066cb5	-0.032818515
101	0x3c4cce39	0.012500339
102	0xbd408cbb	-0.04700921
103	0xbd57397d	-0.05254506
104	0xbd763d79	-0.06011722
105	0x3d3229e4	0.04349698
106	0x3d95de63	0.073178075
107	0xbd259971	-0.040429536
108	0xbb5f1daf	-0.0034044792
109	0xbd949a0d	-0.07255945
110	0x3d442e2e	0.047895603
111	0xbc70020a	-0.014648924
112	0xbc7887de	-0.015169112
113	0xbcc1ea2a	-0.023671228
114	0xbc5677b1	-0.01309006
115	0xbd101f35	-0.03518601
116	0xbc898801	-0.016788485
117	0x3d65b715	0.056082804
118	0xbd56ddfe	-0.052457802
119	0x3d8ad0fb	0.06778141
120	0x3d28cadc	0.041209087
121	0x3c825745	0.015910754
122	0xbd008e7b	-0.03138588
123	0x3cf4f23c	0.029900663
124	0x3c003e7e	0.007827399
125	0x3cf612b3	0.030038213
126	0xbd46ed94	-0.048566416
127	0x3d43d9d9	0.047815178
128	0x3bccf8e0	0.006255254
129	0xba9052c6	-0.0011010997
130	0xbd802710	-0.062574506
131	0x3cdfb4d6	0.027307909
132	0x3d047596	0.0323387
133	0xbd6cc289	-0.05780271
134	0x3da5edb5	0.0810198
135	0x3ca98ebd	0.020697946
136	0x3c699471	0.014256583
137	0xbd2d1109	-0.042252574
138	0xbd9fa09a	-0.07794304
139	0xbd8ebb5f	-0.06969332
140	0xbccf4e0f	-0.025305776
141	0x3d41913b	0.047257643
142	0xbd750d72	-0.059827276
143	0x3ccb5e3c	0.024825208
144	0xbd255a26	-0.040369175
145	0x3cb20404	0.02173043
146	0x3d5e85f1	0.054326955
147	0x3d64b848	0.055839807
148	0x3b898405	0.004196646
149	0xbd40b7f9	-0.04705045
150	0x3c923868	0.017849162
151	0xbd8f38aa	-0.0699323
152	0xbd8d50e6	-0.06900196
153	0xbd921728	-0.07133323
154	0xbd56bfdb	-0.05242906
155	0xbd3a8a51	-0.045542065
156	0xbd9ddd57	-0.07708233
157	0xbda8a3bb	-0.08234354
158	0x3cc2b62a	0.023768503
159	0x3d88c005	0.0667725
160	0x3c9891f9	0.018624293
161	0xbd7cf3fc	-0.06175612
162	0x3d364dfb	0.04450796
163	0xbaa496d9	-0.0012557163
164	0x3c62b806	0.01383782
165	0xbd1eefde	-0.038802974
166	0xbcdb5ee1	-0.02677864
167	0x3d1711f8	0.03688237
168	0xbd59e13e	-0.053193323
169	0xbd260f76	-0.04054209
170	0xb9c27117	-0.00037086822
171	0x3ac53434	0.0015045465
172	0x3cc2bbd6	0.023771208
173	0x3d2376ae	0.039908104
174	0x3dc8f7fa	0.09812923
175	0x3d26fbdf	0.040767547
176	0xbd1c1c98	-0.038113207
177	0xbbaded4f	-0.0053078304
178	0xbb93541b	-0.00449611
179	0xbd2ec531	-0.042668525
180	0x3d0a8ad1	0.033823792
181	0xbd19d0cf	-0.03755265
182	0x3d5aefb1	0.053451244
183	0x3c87b0d4	0.01656381
184	0x3baa41a3	0.005195813
185	0xbd745bbf	-0.05965781
186	0x3c63dae1	0.013907165
187	0xbdb7a7a6	-0.08967523
188	0xbd8eefee	-0.06979357
189	0xbd98f608	-0.07468802
190	0x3cd28113	0.025696313
191	0x3d1f7675	0.03893133
192	0x3bea0f23	0.0071429177
193	0x3921c50e	0.00015427565
194	0xbcb5215b	-0.022110632
195	0xbd67f2dc	-0.056628093
196	0xbcc5c88b	-0.024143478
197	0x3d282534	0.041051105
198	0xbcfeb4e8	-0.031092122
199	0x3d8e8278	0.06958479
200	0xbc926870	-0.017872065
201	0x3d314da2	0.043286927
202	0x3af7af99	0.0018896937
203	0xbd9acfdf	-0.075591795
204	0x3d5ba97f	0.05362844
205	0x3d454cfa	0.048169114
206	0x3ce2e67c	0.027697794
207	0xbd465f91	-0.048430983
208	0xbd9af93f	-0.07567071
209	0xbd738433	-0.059452247
210	0x3c75fc9e	0.015013842
211	0x3c02d0d9	0.0079843635
212	0xbcc232e5	-0.023705909
213	0x3d1e79dd	0.038690437
214	0x3d4abdf3	0.049497556
215	0xbbf6d3e9	-0.007532586
216	0x3d0999b6	0.033593856
217	0xbd090d93	-0.03346021
218	0x3d1df07b	0.03855942
219	0x3e064e40	0.13115788
220	0xbd47b380	-0.04875517
221	0x3d7f5e72	0.06234593
222	0xbd46ee94	-0.04856737
223	0x3d9bdf74	0.0761098
224	0x3d3c09c0	0.045907736
225	0xbce422f4	-0.027848698
226	0xbd2edacf	-0.04268914
227	0xbd692553	-0.05692036
228	0xbcd3db73	-0.025861477
229	0xbd0d0918	-0.0344325
230	0xbd9b7780	-0.07591152
231	0xbcc22f6b	-0.023704251
232	0xbd930319	-0.07178325
233	0xbd2b8cc1	-0.04188228
234	0x3c913145	0.017723689
235	0x3cd74c7d	0.02628159
236	0x3ccb2335	0.024797061
237	0x3ca08036	0.019592386
238	0xbb655c51	-0.0034997652
239	0xbd4e0bbb	-0.050304156
240	0x3c4a9a61	0.012365908
241	0x3b9ec9d8	0.004845839
242	0xbc279d18	-0.010230325
243	0xbb97978b	-0.0046262196
244	0xba6e7532	-0.0009096443
245	0xbd541df8	-0.051786393
246	0xbd4a8085	-0.049438972
247	0xbc88b95c	-0.016689949
248	0xbd4f8025	-0.050659318
249	0xbd3b6750	-0.045752823
250	0xbccd2058	-0.025039837
251	0xbd06272a	-0.032752194
252	0x3adc42b2	0.0016804545
253	0xbd03cedc	-0.0321797
254	0xbd75ca10	-0.060007155
255	0xbccb51ac	-0.024819218

conv4.0.bias f4 [16]
0	0x3d81b574	0.063334376
1	0xbd653fda	-0.055969097
2	0x3d9527f7	0.07283013
3	0xbd598f96	-0.05311545
4	0x3d35146b	0.044208925
5	0xbd5082c6	-0.050905965
6	0x3d884be2	0.066550985
7	0x3d06f457	0.032947864
8	0xbd42f78c	-0.04759936
9	0xbb83630c	-0.00400961
10	0xbb09dc16	-0.0021035722
11	0xbd93689d	-0.07197688
12	0xbc590b5b	-0.013247336
13	0x3d84e25f	0.06488489
14	0xbd0f19ba	-0.034936644
15	0x3cc37552	0.023859654

conv4.1.weight f4 [16]
0	0x3f94fcbb	1.1639627
1	0x3f9a72a8	1.206624
2	0x3f9018b8	1.1257544
3	0x3f9d2825	1.2277876
4	0x3f9411d8	1.1567945
5	0x3f99fb44	1.2029805
6	0x3f93e356	1.1553752
7	0x3fa0d669	1.2565433
8	0x3f9a0760	1.2033501
9	0x3f96c0ac	1.1777549
10	0x3f94a3e0	1.1612511
11	0x3f9ebf05	1.2402045
12	0x3f9135e7	1.1344575
13	0x3f8fa27d	1.1221462
14	0x3fa05558	1.2526045
15	0x3f9e3d62	1.2362483

conv4.1.bias f4 [16]
0	0x3dab2102	0.08355905
1	0x3daab66e	0.08335577
2	0x3d81c856	0.06337039
3	0x3db3f5c1	0.08787108
4	0x3da504b4	0.08057538
5	0x3dadee34	0.08492699
6	0x3d9183a2	0.07105185
7	0x3d9db00f	0.07699596
8	0x3d967f5a	0.07348509
9	0x3d99fb7b	0.07518669
10	0x3db0d4ac	0.08634314
11	0x3dbcfb29	0.092275925
12	0x3d9b003b	0.07568403
13	0x3d840960	0.06447101
14	0x3dcb68a9	0.09932072
15	0x3db9bc12	0.09069075

conv4.1.running_mean f4 [16]
0	0xbdb5bbc6	-0.088737056
1	0xbebca5e9	-0.3684533
2	0xbbf0f50e	-0.0073534315
3	0x3ee6bcba	0.45065862
4	0x3e14cef7	0.14532076
5	0x3e04e0f6	0.12976441
6	0xbde2a247	-0.11066108
7	0x3ea9e91f	0.3318567
8	0x3da36c3b	0.07979628
9	0x3e6201f7	0.22071062
10	0x3ca38697	0.019961638
11	0xbe14b469	-0.14521946
12	0xbec320d6	-0.3811099
13	0x3ed382f1	0.41310838
14	0x3e72ca01	0.23709871
15	0x3ec7c00f	0.39013717

conv4.1.running_var f4 [16]
0	0x3e1cf659	0.15328349
1	0x3df3b8e4	0.119004995
2	0x3e2979f0	0.16550422
3	0x3df8a5db	0.121410094
4	0x3e4e8757	0.20168816
5	0x3e267642	0.1625605
6	0x3dec660b	0.11542901
7	0x3de8abb7	0.11360877
8	0x3e367c4c	0.17820853
9	0x3eb64d04	0.35605633
10	0x3e3a6ed8	0.18206346
11	0x3e4fe2ed	0.20301409
12	0x3dd25dd9	0.10271806
13	0x3e6a44a8	0.22877753
14	0x3dbc59c5	0.0919681
15	0x3e01e5a6	0.1268526

fc1.0.weight f4 [120, 400]
0	0xba897784	-0.0010487889
1	0xbb9d09f6	-0.004792447
2	0x3c5e44df	0.013566225
3	0x3cfa763c	0.030573957
4	0xbd2df02a	-0.042465366
5	0xbd5fb9b9	-0.05462048
6	0xbd26ca5c	-0.04072033
7	0xbd786cba	-0.060650565
8	0x3d2055f8	0.039144486
9	0x3afd8f32	0.0019345044
10	0xbcf38686	-0.029727232
11	0xbbe39463	-0.0069451793
12	0xbd827bc2	-0.06371261
13	0xbd169e79	-0.036772225
14	0x3ca15322	0.019692961
15	0xbc357dc9	-0.011077353
16	0xbc3694ff	-0.011143922
17	0xbcf51187	-0.029915584
18	0xbd4fb246	-0.050707124
19	0xbc882ef3	-0.01662395
20	0x3d63f633	0.055654716
21	0x3ccbe770	0.024890631
22	0x3d195cea	0.037442125
23	0x3d3a81a2	0.045533784
24	0xbbbc5a1f	-0.005748048
25	0xbbcdca48	-0.0062802173
26	0xbba218b8	-0.0049467944
27	0x3bfb869e	0.0076759597
28	0x3ce5a67a	0.028033484
29	0x3d1b2020	0.037872434
30	0xbc076a9f	-0.008265167
31	0xbd8e5847	-0.06950431
32	0xbcb8a772	-0.022540782
33	0xbd05981c	-0.032615766
34	0xbd27912c	-0.04090993
35	0x3d3e5978	0.046472043
36	0x3c740b20	0.0148952305
37	0xbd92945d	-0.07157204
38	0xbd6486cd	-0.05579262
39	0x3c761cba	0.015021497
40	0x3d0f2f10	0.03495699
41	0xbbf14827	-0.0073633376
42	0xbb77b40b	-0.0037796523
43	0x3ce94cdb	0.02847903
44	0x3d31884f	0.043342885
45	0xbcefdf72	-0.029281352
46	0x3d4b6c11	0.049663607
47	0xbc77b236	-0.015118172
48	0x3cf6e6bf	0.030139325
49	0xbc623938	-0.013807587
50	0x3cb2a0e8	0.021805242
51	0xbc1972e7	-0.009365774
52	0xbcf7a9e6	-0.030232381
53	0x3d27185b	0.04079471
54	0x3c2858b8	0.010275058
55	0x3ce7f029	0.02831276
56	0x3cb5475f	0.022128759
57	0xbcef4d2f	-0.029211609
58	0xbb6ca0e4	-0.003610664
59	0x3c154f63	0.009113166
60	0xbd19bb00	-0.037531853
61	0x3d0d1e35	0.034452636
62	0xbd199c19	-0.037502382
63	0xbd0480e9	-0.0323495
64	0xbcb991bd	-0.022652501
65	0xbbc88e2e	-0.0061204648
66	0xbcbc3a9e	-0.02297717
67	0x3a799268	0.00095204124
68	0x3d7c50aa	0.061600365
69	0xbc962cfe	-0.018332
70	0x3cd42404	0.02589608
71	0x3d586af6	0.05283638
72	0xbd211306	-0.039324783
73	0x3c312b6e	0.010813577
74	0x3d07fad6	0.0331982
75	0x3cd9fff9	0.026611315
76	0x3c0c43de	0.008561103
77	0x3d02fcea	0.03197948
78	0x3d3c22a6	0.04593148
79	0x3d54221c	0.05179034
80	0x3d1f08f9	0.038826916
81	0xbc4ac88d	-0.012376917
82	0xbd1fea31	-0.0390417
83	0x3d291081	0.041275505
84	0xbb37120d	-0.0027934343
85	0x3cc1bb6b	0.023648938
86	0x3c6fdbc6	0.0146398
87	0xbd904dae	-0.07046066
88	0xbd6876c7	-0.0567539
89	0xbd0dfa39	-0.03466246
90	0x3ca61626	0.020274233
91	0x3c346305	0.011009936
92	0x3c9e13a4	0.019296475
93	0x3cb80829	0.022464829
94	0x3cb28157	0.02179019
95	0x3cc7e21b	0.024399808
96	0x3d3db178	0.046311826
97	0x3d3410f7	0.04396149
98	0xbc9df745	-0.019282946
99	0xb983837a	-0.00025084225
100	0xbcc3921c	-0.023873381
101	0x3cd5541c	0.026041083
102	0xbc3e7a35	-0.011625816
103	0x3d2b2741	0.041785482
104	0xbca01c29	-0.019544678
105	0x3d1c0d91	0.038098875
106	0x3c6ebf80	0.014572024
107	0x3d22ef89	0.03977922
108	0x3d78b266	0.06071701
109	0x3b355978	0.0027671736
110	0x3d311c23	0.043239724
111	0x3d3f706c	0.046738073
112	0x3d2fa0d7	0.042878
113	0x3dbe874d	0.0930315
114	0x3afd644a	0.0019332257
115	0xbd1c1331	-0.03810424
116	0x3c20c156	0.00981172
117	0xbd040322	-0.03222955
118	0x3d281427	0.041034844
119	0x3d370aad	0.044687916
120	0x3cacc1ae	0.021088447
121	0x3cb2153f	0.021738647
122	0xbd16c38d	-0.036807586
123	0xbc284f1b	-0.010272766
124	0xbd087990	-0.033319056
125	0xbacc9f79	-0.0015611491
126	0x3ce37faf	0.027770845
127	0x3c84d495	0.016214648
128	0xbc930248	-0.017945424
129	0x3c84a6ac	0.016192757
130	0x3da4d5d9	0.08048601
131	0x3c8db99d	0.017300421
132	0xbaa50d8c	-0.0012592538
133	0x3c3ca42e	0.011513753
134	0xbc32ec6e	-0.010920627
135	0xbccc1c4d	-0.024915839
136	0xbd2e5f2e	-0.04257124
137	0xbd39ac51	-0.04533035
138	0xbd17bfef	-0.037048277
139	0x3ba17b15	0.0049280026
140	0x3d3ba383	0.045810234
141	0x3bcb505b	0.0062046475
142	0x3d8259fa	0.06364818
143	0x38f036d6	0.00011454306
144	0x3cf7a6e3	0.030230945
145	0x3cc7841d	0.024354989
146	0x3d399f91	0.04531819
147	0x3d9948ac	0.07484564
148	0x3d0b1e5e	0.033964507
149	0xbc6711d8	-0.014103375
150	0xbd14e424	-0.036350384
151	0x3cd8c051	0.026458891
152	0x3d9c3ccc	0.076287836
153	0x3d76206e	0.06008952
154	0x3d77ea55	0.06052621
155	0xbc73a846	-0.0148716625
156	0x3d315326	0.043292187
157	0xbbc1331d	-0.0058959858
158	0x3d941de0	0.07232261
159	0xbca81bdd	-0.020521099
160	0x3d835a09	0.06413657
161	0xbb60cb19	-0.0034300743
162	0xbb967755	-0.004591862
163	0x3ca51def	0.020155875
164	0xbc0122aa	-0.0078818
165	0xbc786945	-0.015161817
166	0x3d0a9d28	0.033841282
167	0x3af1b63e	0.0018441153
168	0x3d0d03c8	0.034427434
169	0xbd0cb0c2	-0.034348257
170	0x3cf4257c	0.02980303
171	0x3ccd1f81	0.025039436
172	0x3ba477fb	0.0050191856
173	0x3c471f71	0.012153492
174	0x3c563231	0.01307349
175	0xbbef727f	-0.00730735
176	0x3b9faca5	0.0048728758
177	0x3c60589f	0.013693004
178	0xbca11c25	-0.01966674
179	0xbc929673	-0.017894005
180	0xbcc18a07	-0.023625387
181	0xbc84d4d3	-0.016214764
182	0xbdab2b13	-0.08357825
183	0xbd4bf79a	-0.049796678
184	0x3b3c416c	0.0028725518
185	0xbd5d5a8b	-0.054041427
186	0xbc2755ed	-0.010213357
187	0xbd045773	-0.03230996
188	0x3c837dff	0.01605129
189	0xbcd15f6f	-0.025558202
190	0x3cc73dbc	0.02432143
191	0x3d3ff602	0.04686547
192	0xbc1d2748	-0.009591885
193	0xbd541abd	-0.051783312
194	0xbd0a630c	-0.033785865
195	0xbd1fa19e	-0.03897249
196	0x3d08b6b5	0.033377368
197	0x3cec2d43	0.028830176
198	0x3cd81e92	0.026381765
199	0x3c8087d7	0.015689773
200	0xbcdf5490	-0.027262002
201	0xbcb94e92	-0.022620473
202	0xbc7bec49	-0.015376159
203	0xbcf91e8e	-0.030410077
204	0x3d16de9c	0.03683339
205	0x3c1c509e	0.009540705
206	0xbab2d47d	-0.0013643649
207	0x3c76e025	0.015068089
208	0xbd2b87f3	-0.0418777
209	0x3cac7d1a	0.021055747
210	0xbd052c42	-0.03251291
211	0x3cbf3086	0.023338567
212	0xbd74c407	-0.05975726
213	0xbd1435fd	-0.0361843
214	0xbd31280d	-0.043251086
215	0x3d8cd799	0.068770595
216	0x3c3e3986	0.011610394
217	0x3c1686ac	0.009187382
218	0x3d709276	0.058733426
219	0xbd06ad8f	-0.032880362
220	0x3c88c08a	0.016693372
221	0x3d80754b	0.06272372
222	0x3da97567	0.08274346
223	0x3b40fbea	0.0029447027
224	0xbc1c1689	-0.009526857
225	0x3d1b8c37	0.037975516
226	0x3c187f10	0.009307638
227	0x3cffe94c	0.031239174
228	0xbad3cfcf	-0.0016159954
229	0x3d1fbec1	0.039000276
230	0xbcc3e14a	-0.023911137
231	0xbd901200	-0.07034683
232	0xbd97de91	-0.07415498
233	0x3caf272a	0.02138098
234	0x3bfe1d8e	0.007754988
235	0x3d5bfeec	0.05370991
236	0xbd234c9a	-0.039867975
237	0x3ce40ed5	0.027839104
238	0x3c9d1619	0.019175576
239	0x3b9b5258	0.0047400407
240	0x3d5491cf	0.051896866
241	0x3d4f55e3	0.050619017
242	0x3d965640	0.0734067
243	0x3d900571	0.07032288
244	0x3d2aee03	0.041730892
245	0x3d5d548f	0.05403572
246	0x3c64efc4	0.01397318
247	0x3c562284	0.013069753
248	0x3d60d597	0.054891195
249	0x3d265a5e	0.040613525
250	0x3c3a4b44	0.011370484
251	0x3d63f516	0.055653654
252	0xbb850e0f	-0.004060514
253	0xbb80175b	-0.003909034
254	0x3d1b6824	0.037941113
255	0x3d182c58	0.037151664

fc1.0.bias f4 [120]
0	0x3c30d89f	0.010793834
1	0x3d6fb8d3	0.05852587
2	0x3b3e35f0	0.0029023848
3	0xbd02c764	-0.031928435
4	0x3d3874af	0.045033153
5	0xbaab4c84	-0.0013069068
6	0x3d0d2ffa	0.034469582
7	0xbcb540a1	-0.022125544
8	0xbd2052fb	-0.039141636
9	0x3d19c595	0.037541945
10	0x3c43863e	0.011933861
11	0x3c8a66aa	0.016894657
12	0xbb821590	-0.0039698556
13	0x3d1210be	0.035660498
14	0xbc660bc7	-0.014040894
15	0x3bc2f1b3	0.005949223
16	0xbc929575	-0.017893532
17	0xbcd9298c	-0.026509069
18	0x3ccef7f7	0.025264723
19	0x3d182b29	0.037150536
20	0x3c82eae3	0.015981143
21	0xbc840069	-0.016113477
22	0x3d0b0e03	0.03394891
23	0xbca801e7	-0.02050872
24	0xbd0467be	-0.0323255
25	0x3d376661	0.04477537
26	0x3d3c2b62	0.04593981
27	0xbce520fa	-0.027969826
28	0x3d397f17	0.045287218
29	0xbd249f74	-0.04019113
30	0xbc3ec26c	-0.0116430335
31	0x3d16241f	0.03665554
32	0x3d5e2fdb	0.054244857
33	0xbd179a1b	-0.0370122
34	0xbc1c703d	-0.009548244
35	0x3bf6b3cb	0.007528757
36	0x3c6bce8e	0.014392508
37	0xbd193de2	-0.03741253
38	0x3cec306b	0.028831681
39	0x3c8e9858	0.017406628
40	0x3d42ba61	0.047541026
41	0xbd0cca47	-0.034372594
42	0xbd381333	-0.044940185
43	0xb9951b26	-0.00028439722
44	0x3d17bac8	0.037043363
45	0xbd325d61	-0.043546084
46	0xbbe787d0	-0.0070657507
47	0xbd3e6326	-0.046481274
48	0x3d57dbe4	0.05269994
49	0xbd0ac6be	-0.03388094
50	0x3d0d5893	0.0345083
51	0x3be52d38	0.006993916
52	0x3ce321c1	0.027726056
53	0x3aadd6f2	0.0013262911
54	0xbbe62ddd	-0.0070245103
55	0x3d64ca1e	0.055856816
56	0x3d0becec	0.034161493
57	0xbd3bf071	-0.0458836
58	0xbcb3e364	-0.021959014
59	0xbc8fb482	-0.017542128
60	0xbc991b96	-0.018689912
61	0xbba98b48	-0.0051740743
62	0x3d5e6046	0.054291032
63	0x3cf8cb11	0.030370267
64	0x3d070acf	0.032969292
65	0xbd003874	-0.031303838
66	0x3b3d142d	0.0028851137
67	0xbd0e7989	-0.034783874
68	0x3b24896b	0.0025106322
69	0xba6f5352	-0.0009129542
70	0xbd0324b1	-0.032017414
71	0x3c9558be	0.018230792
72	0xbd2aaf6b	-0.041671198
73	0x3cd6fc91	0.02624348
74	0x3c175002	0.009235384
75	0xbcff1ec4	-0.0311426
76	0xbca4cd91	-0.020117553
77	0xbcb05313	-0.021523988
78	0xbbaf6a41	-0.0053532426
79	0x3d39c2f5	0.04535194
80	0x3b715c83	0.0036828823
81	0xbc1493e4	-0.009068463
82	0x3c1bdb7d	0.009512779
83	0xbd03d309	-0.03218368
84	0xbd1528c0	-0.036415815
85	0xbb2e626a	-0.0026608952
86	0x3c610ae3	0.013735506
87	0x3d21840b	0.039432567
88	0x3c185293	0.009297031
89	0x3d102ccd	0.035198975
90	0xbc827a87	-0.015927566
91	0xbca1159c	-0.019663624
92	0x3b4b7590	0.0031045415
93	0x3d1d1b77	0.03835627
94	0x3c8ca7ac	0.017169796
95	0x3ce02806	0.027362835
96	0xbcd2d9c1	-0.025738599
97	0x3d6951ba	0.056962706
98	0xbc436286	-0.011925345
99	0x3cc39a02	0.023877148
100	0x3cf7dc81	0.030256512
101	0xbbfa43b2	-0.0076374644
102	0xbc76642a	-0.015038529
103	0xbb0a1cac	-0.0021074219
104	0xbc615ae5	-0.013754581
105	0xbc1a346d	-0.009411913
106	0x3ba5a305	0.005054834
107	0xbd419408	-0.047260314
108	0xbaff64ef	-0.0019485037
109	0x3d4f43f3	0.05060191
110	0x3d1b4240	0.037904978
111	0x3d2b34f3	0.041798543
112	0xbce96f75	-0.02849553
113	0xbd479119	-0.04872236
114	0xbca8343e	-0.020532724
115	0xbc918dd4	-0.017767824
116	0xbc83feca	-0.016112704
117	0xbc2adfd0	-0.010429338
118	0xba8ec3ae	-0.0010892057
119	0xbd4125fa	-0.047155358

fc2.0.weight f4 [84, 120]
0	0xbd21dab9	-0.03951523
1	0x3d1d696c	0.038430616
2	0xbcf6e683	-0.030139213
3	0x3d2d14ba	0.042256095
4	0x3d459424	0.04823698
5	0x3c74d28b	0.0149427755
6	0x3d202a8b	0.039103072
7	0xba133348	-0.00056152465
8	0xbcf0009a	-0.029297162
9	0x3cc1db14	0.023664035
10	0x3d50a7d8	0.05094132
11	0x3e076c91	0.13225009
12	0x3dabc4af	0.08387124
13	0xbcbe82e5	-0.023255775
14	0xbd858df2	-0.065212145
15	0x3d178789	0.03699449
16	0xbd52937e	-0.05141019
17	0xbca1298e	-0.019673135
18	0x3d76cfdc	0.060256824
19	0xbd6922b4	-0.05691786
20	0x3d866a98	0.065633
21	0xbca215b4	-0.01978574
22	0x3cc28203	0.023743635
23	0x3dc5136d	0.09622846
24	0xbcdb3bc8	-0.026761904
25	0x3d03e68d	0.032202292
26	0x3d154308	0.03644088
27	0xbcd17149	-0.025566714
28	0x3d8c0c63	0.068383
29	0xbd8ecdc3	-0.0697284
30	0xbd877c62	-0.06615521
31	0xbd805080	-0.06265354
32	0xbd89e5eb	-0.067333065
33	0x3d3e5eb8	0.04647705
34	0x3d136697	0.03598651
35	0xbdc4e7ad	-0.09614501
36	0xbda539f6	-0.08067696
37	0x3d7c7a0c	0.06163983
38	0xbd447f73	-0.047973108
39	0xbb0a9d60	-0.0021150932
40	0x3d73a751	0.059485737
41	0xbd8b855e	-0.06812547
42	0x3c218e25	0.00986055
43	0x3c99dd61	0.01878232
44	0xbc92050b	-0.01782467
45	0xbd96d1d8	-0.07364243
46	0x3dfd535f	0.123694174
47	0xbd7d5e9d	-0.06185781
48	0x3b9a4bd1	0.004708745
49	0x3d96d674	0.073651224
50	0x3d64d92f	0.055871185
51	0x3cf08710	0.029361278
52	0xbb1c06cb	-0.002380776
53	0x3d92c95e	0.07167314
54	0x3d298a85	0.04139187
55	0xbd4334c9	-0.04765776
56	0x3cd121f7	0.025528891
57	0x3c62e786	0.013849145
58	0xbd3e1863	-0.046409976
59	0xbd78dd72	-0.06075806
60	0x3d964526	0.07337408
61	0xbbab15e7	-0.005221117
62	0xbd9b7aeb	-0.07591804
63	0x3da0e8c0	0.078568935
64	0x3ba10d0b	0.004914885
65	0xbd28ad13	-0.04118068
66	0xbdd2ded7	-0.102964096
67	0xbbd2213b	-0.006412653
68	0xbaad40fb	-0.0013218218
69	0xbd1c4483	-0.038151275
70	0x3db4134e	0.087927446
71	0x3c1ac32a	0.009445945
72	0x3dc34ae2	0.09535767
73	0x3d85fe55	0.065426506
74	0xbd927d0a	-0.071527556
75	0x3d82e8fb	0.06392094
76	0xbdb145a1	-0.08655859
77	0x3ba9a473	0.0051770746
78	0xbd6200fb	-0.055176716
79	0xbd4a9178	-0.049455136
80	0x3d4d356a	0.050099768
81	0xbcdba9bc	-0.026814334
82	0x3c8d58e9	0.01725431
83	0x3dfc14d1	0.12308658
84	0x3dc466df	0.095899336
85	0xbd61e304	-0.05514814
86	0xbd23000a	-0.03979496
87	0x3d8cd2be	0.068761334
88	0x3d918051	0.071045525
89	0x3d6574c6	0.056019567
90	0x3c635641	0.013875545
91	0x3d76bbc1	0.06023765
92	0x3d370972	0.044686742
93	0xbd9eb26e	-0.077488765
94	0x3d979461	0.07401348
95	0xbd4edc0a	-0.050502814
96	0xba998bf1	-0.001171468
97	0xbddca550	-0.10773718
98	0x3d893dfc	0.06701276
99	0x3d5e7507	0.054310825
100	0xbd584653	-0.05280144
101	0x3c40e8dd	0.011774269
102	0x3ccd74ff	0.025080202
103	0xbd428789	-0.047492538
104	0xbd0bd9e4	-0.034143344
105	0x3d1d9645	0.038473386
106	0xbda5de2c	-0.080990165
107	0x3c7ba4ea	0.015359143
108	0x3dbac441	0.09119464
109	0x3ceffe16	0.029295962
110	0x3db4477d	0.08802698
111	0xbbf4dc32	-0.0074725384
112	0x3d595f86	0.053069614
113	0x3d85ab18	0.06526774
114	0x3dda6c35	0.1066517
115	0x3d2167a9	0.0394055
116	0x3dd629a6	0.104571626
117	0x3d9c17b1	0.07621706
118	0x3ada699a	0.0016663552
119	0x3d9c3331	0.076269515
120	0xbd979168	-0.07400781
121	0xbd7900de	-0.060791843
122	0x3c882428	0.016618803
123	0xbddd8856	-0.1081702
124	0x3ce79c8a	0.028272886
125	0xbc6e567e	-0.0145469885
126	0x3d5d3c83	0.054012787
127	0xbdcbecb8	-0.0995726
128	0x3c2dd4a7	0.010609782
129	0xbc4d960b	-0.01254798
130	0xbc53e8e7	-0.012933946
131	0x3d6f7a8b	0.058466475
132	0x3d6d6843	0.05796076
133	0x3d1fc656	0.039007507
134	0x3e200da8	0.1563021
135	0x3dbfa11e	0.093569025
136	0xbd855527	-0.06510382
137	0x3dbc1608	0.091838896
138	0xba8b947d	-0.0010649111
139	0x3d729de9	0.059232626
140	0x3d21c8fa	0.039498307
141	0x3da04504	0.07825664
142	0xbdb31a1a	-0.08745213
143	0x3c2d85af	0.010590955
144	0x3d9134f7	0.0709018
145	0x3d007cbb	0.031368952
146	0x3d99e3bc	0.0751414
147	0x3c0b2002	0.008491518
148	0xbca8a12f	-0.02058467
149	0x3ba2876c	0.004959991
150	0x3cfea58c	0.031084798
151	0x3e0263c3	0.12733369
152	0xbd3eee45	-0.04661395
153	0xbd722c34	-0.059124187
154	0xba05380a	-0.0005081898
155	0x3dc3dc0c	0.09563455
156	0xbda9a639	-0.082836576
157	0x3d782af7	0.06058785
158	0xbdae0268	-0.08496553
159	0xbda2945b	-0.07938453
160	0xbd093cea	-0.033505358
161	0x3c8bdd02	0.017073158
162	0xbd778ba6	-0.060435914
163	0xbddea534	-0.10871354
164	0x3d168dc1	0.03675628
165	0x3da2f2bc	0.07956454
166	0x3e175e5e	0.14782092
167	0xbd41e518	-0.04733762
168	0xbbb2e665	-0.005459594
169	0x3d8d81e8	0.06909543
170	0x3ddfd62d	0.10929523
171	0x3d6587d1	0.056037728
172	0x3dbe66f0	0.092969775
173	0xbc0842c5	-0.0083167
174	0x3c74812d	0.014923376
175	0x3c9e2b67	0.019307805
176	0xbd3c3e5c	-0.045957908
177	0x3d193c80	0.037411213
178	0x3a980dac	0.0011600754
179	0x3c8a22f4	0.01686237
180	0x3daeeaa4	0.08540848
181	0xbc977f9d	-0.018493468
182	0xbde750df	-0.11294722
183	0xbce7cf32	-0.02829704
184	0x3db5964b	0.08866557
185	0x3ce85f35	0.02836571
186	0xbd3c8969	-0.046029482
187	0xbd7b2237	-0.061311927
188	0x3d18dc3e	0.037319414
189	0x3d8430e6	0.06454639
190	0xbbd490df	-0.0064869965
191	0x3ded9e49	0.11602456
192	0x3de611db	0.112338744
193	0x3dcfee55	0.1015288
194	0xbc0bdf6f	-0.008537157
195	0xbd8382ec	-0.06421456
196	0x3d5be2ac	0.053682968
197	0xbd96a54e	-0.07355748
198	0xbd887444	-0.06662801
199	0xbd7d74cf	-0.061878975
200	0xbdafcf8b	-0.085845076
201	0x3d971067	0.073761754
202	0xbb04d8b0	-0.0020270757
203	0x3d702f76	0.058639012
204	0xbd6daec5	-0.058028
205	0x3d1782d6	0.03699001
206	0xbd9a8838	-0.07545513
207	0xbc8a1567	-0.016855909
208	0x3ddd0f86	0.107939765
209	0x3c8ea283	0.017411476
210	0xbd395f82	-0.0452571
211	0xbdac73a2	-0.08420493
212	0xbc16ed9d	-0.009211925
213	0x3c6ff4bc	0.014645752
214	0xbcbc3080	-0.022972345
215	0x3d73966e	0.059469633
216	0x3d7865ab	0.060643833
217	0xbb804ceb	-0.0039154193
218	0xbbb1ee87	-0.005430046
219	0x3c643921	0.013929636
220	0xbdee0a40	-0.11623049
221	0x3e0cb6eb	0.13741653
222	0xbd3d76e7	-0.046255972
223	0xbd72c3aa	-0.05926863
224	0xbd1e3dfa	-0.038633324
225	0xbd81155c	-0.06302902
226	0xbdf65522	-0.120279565
227	0x3d2ceec6	0.0422199
228	0x3ccbefd0	0.024894625
229	0xbd9533d2	-0.072852746
230	0x3cac04a1	0.020998301
231	0xbd9e7b9b	-0.077384196
232	0xbd63d107	-0.055619266
233	0xbcfceadb	-0.030873707
234	0xbd863818	-0.06553668
235	0x3d921a1c	0.07133886
236	0x3dc591ac	0.09646925
237	0xba078b62	-0.0005170611
238	0x3c36cbb7	0.011156968
239	0x3cffd0f9	0.031227576
240	0xbcd8c6f2	-0.026462052
241	0x3bd4e0f3	0.0064965426
242	0xbcf39b5f	-0.029737173
243	0xbd10594d	-0.035241414
244	0xbd21ad4c	-0.03947191
245	0xbdaedf3c	-0.08538672
246	0x3b2376a9	0.0024942553
247	0x3bfd0b36	0.0077222837
248	0x3d2066f4	0.039160684
249	0x3d32f48c	0.04369025
250	0xbc44a775	-0.0120028155
251	0xbd998897	-0.074967556
252	0x3d90483d	0.07045028
253	0xbddc227a	-0.107487634
254	0xbda62f83	-0.08114531
255	0x3d8033b2	0.0625986

fc2.0.bias f4 [84]
0	0xbcb7978b	-0.022411129
1	0xbb013db5	-0.0019720618
2	0x3bc0c2fc	0.005882619
3	0x3ab5c79a	0.001386869
4	0x3c140235	0.009033729
5	0x3d0a9f43	0.03384329
6	0xbd7d04b9	-0.061772082
7	0x3d752eb7	0.059859004
8	0xbd27dbb4	-0.04098101
9	0xbd33a0ea	-0.04385463
10	0xbc9a2cff	-0.018820284
11	0x3d8fa1a2	0.07013251
12	0xbd89d569	-0.06730158
13	0xbcd1f62c	-0.02563008
14	0x3d1c650f	0.038182314
15	0x3d00159b	0.031270605
16	0x3c9dbbdf	0.019254623
17	0x3c3e2f35	0.011607935
18	0xbdad67f2	-0.084670916
19	0x3d6def05	0.058089275
20	0x3db6b1da	0.08920641
21	0x3b93c8de	0.004510029
22	0x3ca40d96	0.02002601
23	0x3d8428c1	0.06453086
24	0xbd1380e6	-0.0360116
25	0xbd167b95	-0.03673895
26	0xbdac4e2b	-0.08413347
27	0x3cafa870	0.021442622
28	0xbc8dd32f	-0.017312614
29	0xbd4515ee	-0.048116617
30	0xbcd65b20	-0.026166499
31	0x3b967f75	0.004592831
32	0xbd82323f	-0.0635724
33	0xbd92ed05	-0.07174114
34	0x3dd32989	0.103106566
35	0x3dd5f31e	0.104467615
36	0x3d3358ed	0.043785978
37	0x3d140edd	0.036146987
38	0x3d46de30	0.04855174
39	0xbd0380ad	-0.032105137
40	0x3d2f460d	0.042791415
41	0xbdb6e196	-0.08929746
42	0x3d395e2a	0.045255817
43	0xbd67976e	-0.0565409
44	0xbd0db4c6	-0.034596227
45	0xbc9a86c9	-0.018863099
46	0xbccbf642	-0.024897698
47	0xbbebbf7f	-0.007194459
48	0x3da09c15	0.0784227
49	0x3c9ac393	0.018892085
50	0xbc2e8976	-0.01065289
51	0x3c0cdc62	0.008597465
52	0xbd89b6db	-0.0672433
53	0x3d34fd9b	0.04418717
54	0x3dc7b6a2	0.09751631
55	0x3c9892fc	0.018624775
56	0xbc9b2f8c	-0.01894357
57	0xbb64619f	-0.0034848226
58	0x3d93e30a	0.07221039
59	0xbbdea56c	-0.006794622
60	0xbd746aae	-0.05967205
61	0xbccd17af	-0.025035707
62	0x3db64f3e	0.08901833
63	0xbba7449c	-0.0051046144
64	0x3dacce25	0.084377564
65	0xbd6cbdc9	-0.05779818
66	0xbd98e210	-0.07464993
67	0xbcfdab16	-0.03096537
68	0xbd8733f9	-0.0660171
69	0x3bde86a5	0.006790953
70	0xbd53200f	-0.051544245
71	0x3cced08d	0.02524593
72	0x3d2798d3	0.04091723
73	0xbd203efe	-0.039122574
74	0xbd77daa6	-0.060511254
75	0x3b2ae829	0.002607832
76	0xbd7dda8e	-0.061976008
77	0xbb7972af	-0.0038062742
78	0xbaa810db	-0.0012822406
79	0x3d391c89	0.04519323
80	0x3d73cd83	0.059522163
81	0xbc77db17	-0.015127919
82	0xbd84da43	-0.064869426
83	0x3c834135	0.016022304
