计算机视觉实践-练习2/checkpoint/lenet_p/Saturday_15_April_2023_09h_48m_35s/lenet_p-10-regular.pth (torch, 260683 bytes, 30 tensors)

conv1.0.weight f4 [6, 1, 5, 5]
-0.13045439 -0.12180025 0.080862805 0.16456105 -0.083857246 -0.08013003 -0.09291939 -0.1254613
0.1103184 -0.0052234274 -0.20638262 0.033291306 0.0025273059 0.17293353 0.17759036 -0.12522449
-0.16607411 0.036480837 0.069514595 0.017700657 0.11240574 0.12617022 0.013457016 -0.1025802
0.1486932 -0.11724588 0.01945841 0.112887174 0.19597064 0.06375209 0.036355563 -0.14449789
-0.07189837 0.041008312 0.22989464 0.040882446 -0.2377139 0.04256614 -0.15683192 0.14729694
-0.13163199 -0.007400857 -0.021519583 0.10548407 -0.13013062 -0.15521319 -0.18661211 -0.17983092
0.055062003 0.039749194 -0.102719404 -0.048668824 0.11769077 0.09737598 0.18311512 0.11681657
0.09117758 0.13066266 -0.0049961484 -0.08930141 -0.15812112 0.108310305 0.21290593 0.22556329
0.040793892 -0.1066435 -0.0015647309 0.023943828 0.19923642 0.016341064 0.04618532 0.08058254
0.20545414 -0.004170631 -0.10901386 -0.0764294 0.07327618 -0.01220654 0.05241704 -0.21374959
0.012175476 -0.10487823 -0.021353906 0.20222116 -0.08656266 -0.14081372 -0.046567768 0.029327922
0.023470081 0.15508357 -0.051491287 -0.21357177 0.10497271 -0.0029155146 -0.066394195 0.010457653
-0.12795357 -0.19648711 -0.026972502 0.13964985 0.05563501 0.124921225 0.09508941 -0.04716644
0.031473648 0.11624268 -0.044944804 0.12888531 0.110407576 -0.0053487136 -0.1477768 0.02368385
0.10236548 0.120223075 0.10628889 -0.02445985 -0.18233733 1.6643044e-05 -0.061398335 0.16697411
-0.12367725 -0.061406408 -0.19450782 -0.1242982 -0.1612669 -0.0038196922 -0.033193618 0.13301776
0.19806834 0.22816785 0.11852495 0.14707087 0.035876833 -0.0978328 -0.040087882 0.06296344
-0.07067709 0.031748448 -0.04511841 -0.085475266 -0.11166537 0.07364446 -0.18179618 -0.14606029
-0.05408234 0.107116275 -0.13487758 0.08761649 0.1037315 0.10095632
00000000: d695 05be 6972 f9bd 669b a53d b182 283e
00000010: 59bd abbd 371b a4bd 854c bebd ed78 00be
00000020: 9dee e13d 4929 abbb f755 53be 775c 083d
00000030: 28a1 253b 7d15 313e 3fda 353e d93a 00be
00000040: 550f 2abe ee6c 153d ab5d 8e3d f800 913c
00000050: fb34 e63d c432 013e d17a 5c3c 9115 d2bd
00000060: 0843 183e 9c1e f0bd 3e67 9f3c 6431 e73d
00000070: 87ac 483e 7590 823d 92e9 143d 41f7 13be
00000080: 743f 93bd 55f8 273d 8069 6b3e 5a74 273d
00000090: 466b 73be d559 2e3d 8c98 20be 02d5 163e
000000a0: 89ca 06be e382 f2bb d649 b0bc 0808 d83d
000000b0: f640 05be 35f0 1ebe 3f17 3fbe 9925 38be
000000c0: b288 613d 0dd0 223d 8d5e d2bd f658 47bd
000000d0: dc07 f13d 0f6d c73d 8882 3b3e 873d ef3d
000000e0: 50bb ba3d 6fcc 053e bbb6 a3bb a8e3 b6bd
000000f0: 81ea 21be cbd1 dd3d 0304 5a3e 10fa 663e
00000100: 7f17 273d e867 dabd a817 cdba d925 c43c
00000110: a204 4c3e b2dd 853c d12c 3d3d 7508 a53d
00000120: 9262 523e caa9 88bb a942 dfbd 0487 9cbd
00000130: d211 963d f1fd 47bc 40b3 563d 2ce1 5abe
00000140: a67b 473c 66ca d6bd 63ee aebc 1013 4f3e
00000150: c447 b1bd 7931 10be d8bd 3ebd 1c41 f03c
00000160: 5444 c03c 3ace 1e3e 87e8 52bd 8fb2 5abe
00000170: effb d63d 3812 3fbb aef9 87bd 9356 2b3c
00000180: 4306 03be eb33 49be 70f5 dcbc 5f00 0f3e
00000190: 89e1 633d b3d6 ff3d 3dbe c23d 9931 41bd
000001a0: 83ea 003d a410 ee3d 0b18 38bd 83fa 033e
000001b0: 5e1d e23d 4344 afbb cd52 17be a204 c23c
000001c0: fea4 d13d 8437 f63d fdad d93d 0660 c8bc
000001d0: a3b6 3abe aa9c 8b37 d27c 7bbd 43fb 2a3e
000001e0: 804a fdbd 4985 7bbd 0f2d 47be 0e90 febd
000001f0: 2623 25be cd53 7abb 08f6 07bd cf35 083e
00000200: 6dd2 4a3e d5a4 693e 36bd f23d bf99 163e
00000210: 96f3 123d 905c c8bd 3133 24bd faf2 803d
00000220: 26bf 90bd a90a 023d 15ce 38bd a80d afbd
00000230: d0b0 e4bd e8d2 963d c728 3abe d490 15be
00000240: 7285 5dbd c75f db3d 591d 0abe 4670 b33d
00000250: 2e71 d43d 30c2 ce3d

conv1.0.bias f4 [6]
-0.15576887 -0.016591068 -0.064999975 0.0716526 -0.13856344 0.17280197
00000000: e081 1fbe fee9 87bc b51e 85bd 99be 923d
00000010: 93e3 0dbe 00f3 303e

conv1.1.weight f4 [6]
0.9853621 0.97264814 0.9755732 0.9771673 0.98536694 0.99038965
00000000: b140 7c3f 78ff 783f 2abf 793f a327 7a3f
00000010: 0241 7c3f 2d8a 7d3f

conv1.1.bias f4 [6]
0.010123114 -0.00480652 0.025145708 -0.032238707 0.030963486 -0.022226585
00000000: 6bdb 253c 0380 9dbb 5ffe cd3c bc0c 04bd
00000010: 23a7 fd3c 8714 b6bc

conv1.1.running_mean f4 [6]
-0.15701266 -0.028398199 -0.033953782 0.042799037 -0.149323 0.20277388
00000000: edc7 20be 57a3 e8bc 1f13 0bbd 0b4e 2f3d
00000010: 21e8 18be f5a3 4f3e

conv1.1.running_var f4 [6]
0.46176997 0.58335114 1.1780714 0.30602294 0.40040419 0.2738461
00000000: 1d6d ec3e 8056 153f 0bcb 963f 0aaf 9c3e
00000010: c701 cd3e 8e35 8c3e

conv2.0.weight f4 [6, 6, 3, 3]
-0.05015549 -0.005655416 0.14212495 -0.08417558 -0.07573718 -0.05956875 0.035337288 -0.04056682
0.115870856 0.03015937 0.101636685 0.1443676 0.042456947 -0.14566565 -0.047996983 -0.14344396
-0.13490781 -0.057840254 -0.039359998 -0.07875554 -0.09031427 -0.04020974 -0.043235138 0.030205132
-0.013373824 -0.09499658 0.025650667 0.12045534 0.08901039 0.060633834 -0.033960484 0.037368443
-0.13967064 0.048081815 0.11275196 -0.04661569 0.13408713 0.17397253 0.115956716 0.10006514
0.07572172 -0.19293432 0.018095177 -0.060354017 -0.02589733 -0.036255617 0.0007585059 0.018072879
-0.0439588 0.13605069 0.011597276 0.057307757 0.040069275 -0.045375127 0.007180141 0.07634836
0.085540764 -0.08134379 0.019113202 -0.09353488 0.13307661 0.06602752 -0.16127238 0.08635141
-0.057485588 -0.07928533 0.049602043 -0.11688889 0.107451044 -0.07458817 0.010254493 -0.11417629
0.046058565 -0.11805695 0.032793052 -0.13441427 -0.090933554 -0.1014812 -0.057638742 0.022925671
0.044666268 0.0049738884 -0.08888212 -0.041877527 0.11468397 0.02582275 -0.12621126 -0.03491839
0.08739585 -0.10103531 -0.03805878 0.05430265 0.076394424 0.1301405 -0.047982212 -0.029481744
-0.13683091 0.0010480258 0.00904146 -0.043307498 -0.06463128 0.08311819 0.03101062 0.11311944
0.15514728 -0.0987492 -0.002278443 -0.026349783 -0.091933936 -0.016514914 -0.08415423 0.01414248
-0.043450817 0.0003132722 0.023408473 0.013052166 0.035282224 -0.006495943 0.003975379 -0.023948237
-0.11155761 0.037729807 -0.11198466 0.10906628 -0.021445442 0.08850819 -0.044997096 0.07555052
0.04918848 0.09055272 0.05615219 0.0028718212 -0.07902069 -0.17648672 0.094129756 -0.0884971
-0.15587696 0.056797937 0.004833178 0.02742481 -0.064209126 0.1619683 -0.01884854 0.003598247
0.103330076 0.049939148 0.009522562 -0.04698895 -0.086188905 0.0879752 -0.046989616 -2.7958079e-06
-0.06181423 0.1373489 0.18818255 0.18018466 0.009502659 0.12284241 -0.07433346 -0.048797186
-0.021741815 -0.064545795 0.021431332 0.037605945 0.14552633 0.108972825 0.052359734 -0.03089326
0.052344535 -0.06985805 -0.08885162 -0.019324467 0.050580464 0.095301144 0.0056015705 -0.07411114
-0.09074215 0.12764737 0.12549727 -0.037848767 0.02613867 0.2053329 0.08647629 -0.058328133
0.1050506 -0.120389566 -0.0037490672 -0.033984795 -0.111314565 -0.021866085 -0.004267967 -0.11518953
0.030286169 0.06327396 -0.0029006149 -0.01749601 -0.004847522 0.007745748 -0.076129414 -0.11696544
-0.12791015 -0.12145173 -0.033344496 0.025451455 0.0847458 -0.017076805 -0.085517116 -0.08778582
-0.011150237 -0.15482818 0.013064233 0.06388016 0.06867886 -0.09770322 -0.014612033 0.07311805
0.029580696 0.13968392 0.04505123 -0.064408 0.047701776 -0.06378289 -0.014184464 0.04761166
0.07940491 0.029348463 -0.13647941 -0.049837075 0.10029608 -0.020359289 0.09040024 0.0048293415
0.08727865 0.0011002179 -0.047399644 0.018919671 0.05685913 0.14259443 0.0829426 0.15596871
-0.07765782 -0.023986736 0.113716625 0.08677375 0.075363725 0.025765441 0.12897922 0.07267849
0.116125725 -0.04337615 -0.037460763 -0.085660204 -0.090425 0.06692125 -0.11517696 0.14262247
00000000: d86f 4dbd 1151 b9bb 3489 113e 3f64 acbd
00000010: 181c 9bbd 5dfe 73bd d5bd 103d 6529 26bd
00000020: b34d ed3d c810 f73c e526 d03d 1ad5 133e
00000030: 56e7 2d3d 6029 15be 7c98 44bd f9e2 12be
00000040: 4625 0abe e7e9 6cbd f337 21bd 964a a1bd
00000050: b0f6 b8bd f8b2 24bd 5417 31bd c170 f73c
00000060: e21d 5bbc 918d c2bd 5921 d23c 4ab1 f63d
00000070: 144b b63d 2f5b 783d 261a 0bbd a70f 193d
00000080: d205 0fbe 70f1 443d 80ea e63d 18f0 3ebd
00000090: 234e 093e db25 323e b77a ed3d f4ee cc3d
000000a0: fd13 9b3d 9390 45be 563c 943c c635 77bd
000000b0: a326 d4bc c580 14bd 78d6 463a 930d 943c
000000c0: 250e 34bd df50 0b3e 8002 3e3c 8abb 6a3d
000000d0: ae1f 243d 45db 39bd 6347 eb3b 875c 9c3d
000000e0: ff2f af3d 9397 a6bd 4a93 9c3c 378f bfbd
000000f0: 3c45 083e 7039 873d 9624 25be 02d9 b03d
00000100: 0276 6bbd 5960 a2bd 832b 4b3d 7163 efbd
00000110: 4b0f dc3d afc1 98bd 7602 283c 42d5 e9bd
00000120: e8a7 3c3d d8c7 f1bd 0252 063d e5a3 09be
00000130: 5f3b babd 60d5 cfbd 9a16 6cbd 9ece bb3c
00000140: faf3 363d 00fc a23b d407 b6bd c587 2bbd
00000150: 6edf ea3d 3b8a d33c 863d 01be 9606 0fbd
00000160: 98fc b23d 9aeb cebd 86e3 1bbd 756c 5e3d
00000170: ae74 9c3d 8d43 053e ff88 44bd b383 f1bc
00000180: 671d 0cbe e95d 893a a222 143c 3463 31bd
00000190: 685d 84bd df39 aa3d fc09 fe3c 2aab e73d
000001a0: eede 1e3e 053d cabd ee51 15bb 80db d7bc
000001b0: dc47 bcbd 494a 87bc 0e59 acbd dcb5 673c
000001c0: 7cf9 31bd af3e a439 20c3 bf3c c1d8 553c
000001d0: 1884 103d ebdb d4bb e543 823b 182f c4bc
000001e0: 5178 e4bd 928a 1a3d 3758 e5bd 245e df3d
000001f0: 5aae afbc c843 b53d e04e 38bd 3bba 9a3d
00000200: dc79 493d b473 b93d d7ff 653d 2a35 3c3b
00000210: 99d5 a1bd efb8 34be 1ac7 c03d f83d b5bd
00000220: 369e 1fbe f4a4 683d a35f 9e3b ffa9 e03c
00000230: 1380 83bd 05db 253e 4168 9abc 91d0 6b3b
00000240: b89e d33d fe8c 4c3d 8504 1c3c 7c77 40bd
00000250: cf83 b0bd 572c b43d 2f78 40bd 9d9f 3bb6
00000260: eb30 7dbd 31a5 0c3e edb2 403e 5482 383e
00000270: 0ab1 1b3c cd94 fb3d 243c 98bd 8fdf 47bd
00000280: e41b b2bc 9630 84bd c390 af3c b108 1a3d
00000290: db04 153e 252d df3d 2977 563d dd13 fdbc
000002a0: 3967 563d bd11 8fbd d7f7 b5bd 584e 9ebc
000002b0: 762d 4f3d 3f2d c33d 618d b73b 95c7 97bd
000002c0: 05d7 b9bd feb5 023e 5b82 003e 4f07 1bbd
000002d0: c420 d63c ca42 523e 7b1a b13d 7be9 6ebd
000002e0: c524 d73d ce8e f6bd e9b2 75bb a433 0bbd
000002f0: e4f8 e3bd 8120 b3bc 4dda 8bbb 7de8 ebbd
00000300: b31a f83c c795 813d 3e18 3ebb cb53 8fbc
00000310: f6d7 9ebb 0bd0 fd3b bde9 9bbd 948b efbd
00000320: e1fa 02be afbb f8bd 3d94 08bd 927f d03c
00000330: 358f ad3d a8e4 8bbc 9923 afbd 0dc9 b3bd
00000340: 7caf 36bc 478b 1ebe 5d0b 563c 9ad3 823d
00000350: 81a7 8c3d a018 c8bd 4f67 6fbc ebbe 953d
00000360: 3753 f23c 4d09 0f3e a387 383d 57e8 83bd
00000370: f062 433d 9ba0 82bd f465 68bc 7204 433d
00000380: 0b9f a23d 306c f03c 42c1 0bbe f621 4cbd
00000390: 0868 cd3d 86c8 a6bc c323 b93d 743f 9e3b
000003a0: 26bf b23d 3035 903a 2126 42bd 6dfd 9a3c
000003b0: 1ee5 683d 4604 123e cfdd a93d 43b6 1f3e
000003c0: 100b 9fbd d57f c4bc 43e4 e83d 70b6 b13d
000003d0: 4c58 9a3d 0c12 d33c 2113 043e 76d8 943d
000003e0: 53d3 ed3d 31ab 31bd 7570 19bd 9e6e afbd
000003f0: be30 b9bd 020e 893d e6e1 ebbd a00b 123e

conv2.0.bias f4 [6]
-0.057921786 0.074133344 0.04833271 0.11172667 -0.0686805 0.10749397
00000000: 653f 6dbd 39d3 973d 85f8 453d f4d0 e43d
00000010: 5da8 8cbd cc25 dc3d

conv2.1.weight f4 [6]
1.0478697 0.96183527 0.98972857 0.9664545 0.9733349 0.9405234
00000000: 9820 863f d63a 763f da5e 7d3f 9069 773f
00000010: 7a2c 793f 24c6 703f

conv2.1.bias f4 [6]
0.048285183 0.03089806 0.041308418 0.029313656 0.031997982 -0.054258004
00000000: afc6 453d ee1d fd3c 0433 293d 3123 f03c
00000010: 5110 033d a43d 5ebd

conv2.1.running_mean f4 [6]
-0.013975619 -0.15181063 0.19460782 0.023492955 0.5931804 0.27011028
00000000: fff9 64bc 3f74 1bbe 4647 473e 4c74 c03c
00000010: acda 173f e54b 8a3e

conv2.1.running_var f4 [6]
0.23879795 0.17764218 0.32358426 0.25608054 0.59045935 0.20892668
00000000: 7387 743e d5e7 353e d6ac a53e fd1c 833e
00000010: 5828 173f e0f0 553e

conv3.0.weight f4 [6, 6, 3, 3]
-0.0031897728 0.03099892 -0.034255274 0.04416125 0.07033361 0.053930316 -0.011688001 -0.036671687
0.03590216 0.052891895 -0.11166054 0.0861782 -0.07313896 0.055978585 -0.13202362 -0.09135291
0.056729317 0.0037286421 0.03537797 0.15006243 0.07269525 -0.11727609 -0.056633588 0.06582081
-0.035081074 0.056895196 -0.15799673 0.023430225 0.09460202 0.03183752 0.069639996 -0.1744309
-0.102407075 -0.0023004801 -0.14096071 0.07620172 0.026288196 0.0024803786 0.02171529 -0.10488156
0.033679947 0.05357375 -0.06302377 -0.1249466 -0.019058252 -0.12179559 0.0374319 0.06529527
0.13287024 0.055981327 0.042011447 0.0469736 -0.13513 -0.0065021445 0.01794346 0.10038929
0.085260324 0.10666483 -0.0046359245 -0.09289598 0.0527054 0.00024541435 -0.009811967 0.054567143
-0.090825506 0.047431204 0.014841251 -0.06452916 -0.013634952 -0.07488237 -0.027619889 -0.08344048
-0.18491301 -0.037451684 -0.17957431 -0.11570022 -0.0680387 -0.110833816 0.12293446 0.15506874
0.120371036 -0.06788399 -0.014042028 0.00076353125 -0.002170377 0.045266762 0.060008302 -0.12246871
-0.05071623 0.1473425 0.09600875 0.1036224 0.030645141 0.15523995 -0.04680517 -0.11385231
-0.0052247983 -0.07677262 0.0011294568 -0.047032688 0.06795831 -0.03143007 0.059624687 0.10725949
-0.022711813 0.004032423 0.077899046 -0.05308549 -0.16912614 -0.05567461 -0.10646108 0.033082824
0.15925995 0.013039471 0.12402634 0.103901476 0.107854985 0.043728855 0.119440176 0.104163565
0.108317554 0.047757316 0.094758645 0.062778205 -0.060225997 0.05225553 -0.059049644 -0.018729458
0.008452895 -0.0801684 0.06954585 0.009248063 -0.088058114 0.07567624 0.039193466 0.03186158
0.0673082 0.08335958 -0.100951485 -0.07740558 -0.124421835 -0.06647316 -0.06602854 -0.08914312
-0.011726464 0.019924892 0.006829567 0.06799246 -0.01803034 0.009989146 0.089017436 0.004553335
-0.099996984 0.081410214 -0.02135941 -0.08351644 0.028235896 0.108321115 0.009414555 0.07509646
-0.006941249 0.06215796 -0.14524437 0.027168546 -0.10371633 -0.1436282 -0.098652914 0.040410396
-0.07736964 -0.16831042 0.066374995 0.052798774 0.019612031 -0.026599709 -0.084635735 -0.12312553
0.08038046 -0.10596711 0.021494186 0.1345288 0.030477297 -0.058548994 0.08148453 0.03888173
0.08435948 0.08019652 -0.089664966 0.037653796 -0.1325364 0.091492735 0.151216 0.06827252
-0.0443458 -0.104728796 0.077561855 -0.0066923443 -0.06385749 0.1125322 -0.09287122 0.077166244
-0.13119845 0.09104276 0.053787377 -0.14582707 0.023746941 -0.031131342 -0.11249332 0.065612175
-0.0090980325 -0.029679222 0.07183913 -0.022089036 0.11356432 0.08327638 -0.028568305 0.046625607
-0.1617459 -0.1136863 -0.09844808 0.07722081 -0.08077615 -0.09666922 8.8169734e-05 -0.051467653
-0.078954935 0.059303757 -0.10053812 -0.10309445 -0.00036690055 -0.11314866 -0.07441028 -0.027176932
-0.023668353 0.04129567 0.047069497 0.112189025 -0.08871507 -0.11192553 0.021725642 0.029455852
0.09364217 0.1205014 -0.040352777 -0.14733891 -0.02269171 0.063775875 -0.078920655 -0.08334713
-0.12193199 0.059505522 -0.06707917 -0.0085491035 -0.056181375 0.14256409 -0.024803266 0.122588396
00000000: 820b 51bb 72f1 fd3c 424f 0cbd 6de2 343d
00000010: 110b 903d 09e6 5c3d 087f 3fbc 0d35 16bd
00000020: 250e 133d 2ca5 583d 48ae e4bd 327e b03d
00000030: e1c9 95bd cd49 653d 3331 07be 3c17 bbbd
00000040: 005d 683d 3c5c 743b 7ee8 103d f7a9 193e
00000050: 3fe1 943d 722e f0bd 9ff8 67bd 10cd 863d
00000060: 2cb1 0fbd f00a 693d e5c9 21be bef0 bf3c
00000070: b4be c13d 0f68 023d 6a9f 8e3d 049e 32be
00000080: cdba d1bd a7c3 16bb 0158 10be a60f 9c3d
00000090: 585a d73c d98d 223b 44e4 b13c 25cc d6bd
000000a0: fcf3 093d 2670 5b3d 9b12 81bd 01e4 ffbd
000000b0: 0d20 9cbc f76f f9bd 3152 193d 87b9 853d
000000c0: 230f 083e ad4c 653d 3214 2c3d 6467 403d
000000d0: 855f 0abe f10f d5bb 2afe 923c e698 cd3d
000000e0: f79c ae3d 1773 da3d f4e8 97bb 3f40 bebd
000000f0: 9ee1 573d f5aa 8039 5fc2 20bc cc81 5f3d
00000100: b902 babd 3947 423d b828 733c dd27 84bd
00000110: 2265 5fbc ee5b 99bd 1b43 e2bc d8e2 aabd
00000120: d659 3dbe f066 19bd 54e2 37be 3df4 ecbd
00000130: e057 8bbd d7fc e2bd 10c5 fb3d 57ca 1e3e
00000140: 1785 f63d c306 8bbd 8910 66bc b727 483a
00000150: e23c 0ebb a469 393d 44cb 753d e0d0 fabd
00000160: d2bb 4fbd f4e0 163e 3ca0 c43d fb37 d43d
00000170: 850b fb3c 39f7 1e3e c7b6 3fbd 662b e9bd
00000180: c934 abbb f73a 9dbd 480a 943a 59a5 40bd
00000190: ba2d 8b3d d1bc 00bd 0439 743d ddaa db3d
000001a0: 200e babc 6a22 843b 8989 9f3d 2c70 59bd
000001b0: 672f 2dbe 0f0b 64bd 4408 dabd db81 073d
000001c0: 0a15 233e 81a3 553c 8601 fe3d 4cca d43d
000001d0: 13e3 dc3d 071d 333d 0d9d f43d b553 d53d
000001e0: 98d5 dd3d 2d9d 433d d210 c23d dc91 803d
000001f0: 89af 76bd e509 563d 0ade 71bd 856e 99bc
00000200: 037e 0a3c 552f a4bd 0e6e 8e3d 3085 173c
00000210: d057 b4bd 25fc 9a3d 5489 203d 4a81 023d
00000220: e2d8 893d 6db8 aa3d a7bf cebd d186 9ebd
00000230: e0d0 febd 1523 88bd f939 87bd ab90 b6bd
00000240: 5b20 40bc 8739 a33c 8fca df3b a23f 8b3d
00000250: 5db4 93bc 84a9 233c c64e b63d 2434 953b
00000260: 38cb ccbd 66ba a63d eef9 aebc ab0a abbd
00000270: f74e e73c 76d7 dd3d 813f 1a3c 2ccc 993d
00000280: 6b73 e3bb 5899 7e3d f1ba 14be 9290 de3c
00000290: 3a69 d4bd 4513 13be 8a0a cabd 5f85 253d
000002a0: f973 9ebd 9159 2cbe 9def 873d 8743 583d
000002b0: 69a9 a03c a2e7 d9bc 8055 adbd 3d29 fcbd
000002c0: 839e a43d 4905 d9bd 9314 b03c ebc1 093e
000002d0: 86ab f93c 12d1 6fbd 5ce1 a63d 7342 1f3d
000002e0: aac4 ac3d 133e a43d 44a2 b7bd de3a 1a3d
000002f0: 9fb7 07be 8b60 bb3d 5ed8 1a3e 77d2 8b3d
00000300: f1a3 35bd 0d7c d6bd c0d8 9e3d 744b dbbb
00000310: b7c7 82bd 4877 e63d 4433 bebd 5609 9e3d
00000320: e358 06be a074 ba3d 2750 5c3d b153 15be
00000330: f288 c23c 2807 ffbc e662 e6bd ad5f 863d
00000340: ea0f 15bc d721 f3bc 6520 933d 11f4 b4bc
00000350: 6994 e83d cf8c aa3d 1408 eabc 7efa 3e3d
00000360: b8a0 25be 5dd4 e8bd 269f c9bd f225 9e3d
00000370: f76d a5bd 83fa c5bd c4e7 b838 bfcf 52bd
00000380: 20b3 a1bd 7fe8 723d eee6 cdbd 2f23 d3bd
00000390: 8f5c c0b9 7cba e7bd 6b64 98bd 28a2 debc
000003a0: 22e4 c1bc a625 293d f2cb 403d 5cc3 e53d
000003b0: 3fb0 b5bd 3639 e5bd f9f9 b13c 664d f13c
000003c0: 77c7 bf3d 70c9 f63d f448 25bd 03e0 16be
000003d0: f7e3 b9bc ed9c 823d 27a1 a1bd e6b1 aabd
000003e0: 7bb7 f9bd 10bc 733d ce60 89bd 8a11 0cbc
000003f0: 711e 66bd 52fc 113e 3830 cbbc a00f fb3d

conv3.0.bias f4 [6]
0.09665913 0.04492668 0.09918259 0.07388974 -0.044896428 0.11033454
00000000: 39f5 c53d 0a05 383d 3e20 cb3d 8153 973d
00000010: 51e5 37bd 13f7 e13d

conv3.1.weight f4 [6]
0.96136695 0.98349917 0.9707124 0.9829603 1.0036922 0.98280233
00000000: 251c 763f 9ac6 7b3f 9c80 783f 49a3 7b3f
00000010: fc78 803f ef98 7b3f

conv3.1.bias f4 [6]
0.021645287 0.044857007 0.041901916 0.00768406 0.02697286 0.0023768118
00000000: 7551 b13c fbbb 373d 58a1 2b3d 91ca fb3b
00000010: 30f6 dc3c 49c4 1b3b

conv3.1.running_mean f4 [6]
0.020557571 0.069634564 0.35911995 -0.063132085 -0.43022773 -0.032229733
00000000: 5a68 a83c 919c 8e3d 92de b73e 654b 81bd
00000010: cf46 dcbe 5303 04bd

conv3.1.running_var f4 [6]
0.16654472 0.15178949 0.28369558 0.15838306 0.1250141 0.14644296
00000000: b38a 2a3e b46e 1b3e 8c40 913e 2b2f 223e
00000010: b203 003e 25f5 153e

conv4.0.weight f4 [16, 6, 5, 5]
-0.02977022 -0.07663037 0.053747967 0.031824756 -0.05132012 0.059595473 0.022003306 -0.06786155
0.04975495 0.08316352 0.059630543 -0.016835852 0.010056146 0.05536578 -0.007922969 -0.036460724
0.01049914 0.034904577 0.09137712 0.03961353 0.069266126 -0.01344364 0.00087285804 0.020458452
-0.105631195 0.023455778 0.095106475 0.027531022 0.06389756 0.026435824 -0.036785595 -0.028136117
-0.020346532 0.008233267 0.013395197 -0.007234811 -0.0374948 0.00010794643 0.048831373 0.0038315034
-0.007960213 0.04183692 -0.050824817 -0.06687981 0.069737576 0.048566367 -0.0031997338 0.03129664
-0.025221912 -0.01722898 -0.0032421958 0.077483624 0.059456985 -0.040879853 0.018393753 -0.05026318
-0.05954113 -0.038783703 0.07074047 0.023652015 -0.02187186 0.045243282 0.09264073 0.07281467
-0.06448472 -0.009919398 0.008366123 0.0055340827 -0.041814134 -0.041591402 0.027428987 0.016314305
0.035723776 -0.029644227 0.03153675 -0.0353025 -0.05899359 -0.0095038675 -0.012460564 -0.06590357
0.022390738 -0.047956515 -0.018020248 -0.07887759 0.022345694 -0.0064649624 -0.06085887 -0.09240246
-0.015815863 -0.034429982 0.024692219 -0.08870834 -0.029445652 -0.05255815 -0.05011427 -0.046615478
-0.045601703 -0.023855016 0.024636159 -0.0103057455 -0.032957513 0.011614559 -0.048524108 -0.053244714
-0.06013903 0.04252128 0.07249856 -0.041049454 -0.0033866658 -0.07240534 0.047602657 -0.015232252
-0.015647227 -0.023754068 -0.013107866 -0.03504449 -0.016715078 0.056088272 -0.053204864 0.06724388
0.041259523 0.015904073 -0.031655967 0.029494168 0.007839858 0.030071778 -0.048819672 0.04761138
0.006999416 0.00023947713 -0.0628322 0.027113982 0.03215245 -0.05799078 0.081699304 0.020739714
0.013792757 -0.042499714 -0.07797471 -0.06992581 -0.025175003 0.04703725 -0.060329337 0.024749784
-0.04058746 0.021630397 0.05397632 0.055845987 0.0042262767 -0.046988487 0.017989716 -0.07054717
-0.069096565 -0.07180347 -0.052768957 -0.045171928 -0.077434614 -0.08242775 0.023593698 0.066490225
0.018762436 -0.062653065 0.044477798 -0.0020273277 0.01322646 -0.038149413 -0.027187884 0.036864884
-0.052766293 -0.040483747 -0.0005342083 0.0020744216 0.024770154 0.040892176 0.09928868 0.041310735
-0.03786874 -0.004430144 -0.0037868172 -0.04395784 0.03362394 -0.037836157 0.053450797 0.017093966
0.004721381 -0.059369415 0.014540085 -0.09014885 -0.07011467 -0.07504086 0.026090162 0.038282946
0.0064892997 0.0006879478 -0.020342851 -0.05673779 -0.024546409 0.040317804 -0.031213917 0.07061573
-0.017066404 0.044599835 0.002709706 -0.07506213 0.053707473 0.04910757 0.028005823 -0.04829416
-0.07515722 -0.05880659 0.015195731 0.008396465 -0.023600455 0.03859405 0.04885631 -0.007180435
0.033371475 -0.03284773 0.039337415 0.13130617 -0.049019963 0.062792376 -0.04818646 0.07551061
0.044336233 -0.02817357 -0.04358747 -0.05782269 -0.025480589 -0.0342225 -0.075697616 -0.02386467
-0.07209679 -0.04105134 0.018023843 0.025782077 0.025374753 0.019079013 -0.003805836 -0.05114497
0.013523208 0.0062994543 -0.009492482 -0.004748526 -0.0012972937 -0.050996877 -0.048976533 -0.016163535
-0.051332016 -0.045859434 -0.02459513 -0.03257626 0.0028242704 -0.031542167 -0.059528876 -0.024532516
00000000: ade0 f3bc 62f0 9cbd d426 5c3d ad5a 023d
00000010: 0c35 52bd 621a 743d 4740 b43c fffa 8abd
00000020: d9cb 4b3d a351 aa3d 283f 743d 57eb 89bc
00000030: 89c2 243c 3ac7 623d 57cf 01bc d757 15bd
00000040: 9604 2c3c 1af8 0e3d ed23 bb3d cc41 223d
00000050: 66db 8d3d b742 5cbc 83d0 643a 7c98 a73c
00000060: 2b55 d8bd 5526 c03c 2fc7 c23d bd88 e13c
00000070: b9dc 823d f18f d83c 7eac 16bd b77d e6bc
00000080: c5ad a6bc d3e4 063c 8777 5b3c fe11 edbb
00000090: 2694 19bd 4c61 e238 6803 483d f619 7b3b
000000a0: 8e6b 02bc 315d 2b3d af2d 50bd 48f8 88bd
000000b0: 93d2 8e3d 87ed 463d a0b2 51bb e830 003d
000000c0: 2f9e cebc ca23 8dbc 057b 54bb bcaf 9e3d
000000d0: 2b89 733d a271 27bd 7fae 963c c4e0 4dbd
000000e0: 66e1 73bd a9db 1ebd 61e0 903d dfc1 c13c
000000f0: 9d2c b3bc 0551 393d 6cba bd3d dc1f 953d
00000100: 9110 84bd f984 22bc 1012 093c 4057 b53b
00000110: 4c45 2bbd bf5b 2abd c1b2 e03c 94a5 853c
00000120: 1853 123d 73d8 f2bc ae2c 013d 5b99 10bd
00000130: 43a3 71bd 1cb6 1bbc 6527 4cbc 73f8 86bd
00000140: c86c b73c 0d6e 44bd 339f 93bc 938a a1bd
00000150: 510e b73c 09d8 d3bb 2747 79bd 803d bdbd
00000160: 4590 81bc 7406 0dbd 5647 ca3c b8ac b5bd
00000170: 0238 f1bc 3747 57bd 9f44 4dbd dfef 3ebd
00000180: dac8 3abd 986b c3bc c5d1 c93c 6ed9 28bc
00000190: 75fe 06bd fe4a 3e3c 37c1 46bd 2117 5abd
000001a0: 5854 76bd cb2a 2e3d 207a 943d 7923 28bd
000001b0: d3f2 5dbb 4049 94bd 01fb 423d b290 79bc
000001c0: 9d2e 80bc e497 c2bc 60c2 56bc d08a 0fbd
000001d0: 0fee 88bc d1bc 653d 58ed 59bd 29b7 893d
000001e0: bfff 283d 4249 823c b0a9 01bd c19d f13c
000001f0: bf72 003c 1759 f63c 23f7 47bd 2704 433d
00000200: 5b5b e53b 271c 7b39 2bae 80bd 241e de3c
00000210: 4ab2 033d bd87 6dbd f751 a73d 55e6 a93c
00000220: 04fb 613c 2e14 2ebd 34b1 9fbd 4335 8fbd
00000230: cf3b cebc 22aa 403d e51b 77bd 0fc0 ca3c
00000240: 093f 26bd 3b32 b13c 4616 5d3d c3be 643d
00000250: 947c 8a3b 0077 40bd 2b5f 933c 097b 90bd
00000260: 8082 8dbd b30d 93bd 4324 58bd 3306 39bd
00000270: 0a96 9ebd e1cf a8bd 9247 c13c 072c 883d
00000280: aeb3 993c 4050 80bd 5a2e 363d eadc 04bb
00000290: cbb3 583c 8f42 1cbd 20b9 debc a2ff 163d
000002a0: 7821 58bd 49d2 25bd 1d0a 0cba 05f3 073b
000002b0: c7ea ca3c 8e7e 273d dd57 cb3d 7235 293d
000002c0: 401c 1bbd be2a 91bb 402c 78bb 230d 34bd
000002d0: 42b9 093d 16fa 1abd 39ef 5a3d a508 8c3c
000002e0: d0b5 9a3b 582d 73bd 8939 6e3c f69f b8bd
000002f0: 4898 8fbd 06af 99bd 09bb d53c 94ce 1c3d
00000300: 31a4 d43b 6557 343a 0da6 a6bc e365 68bd
00000310: 8d15 c9bc 4824 253d 54b4 ffbc fb9e 903d
00000320: d8ce 8bbc 51ae 363d 5395 313b 2dba 99bd
00000330: 5efc 5b3d 0525 493d 786c e53c 19d0 45bd
00000340: 07ec 99bd 2edf 70bd 84f7 783c 5491 093c
00000350: be55 c1bc cb14 1e3d 8e1d 483d db49 ebbb
00000360: 87b0 083d 578b 06bd 4520 213d 2075 063e
00000370: 28c9 48bd 4a99 803d 2a5f 45bd 4fa5 9a3d
00000380: e999 353d 42cc e6bc c688 32bd 7cd7 6cbd
00000390: abbc d0bc e42c 0cbd 5a07 9bbd d77f c3bc
000003a0: 7ba7 93bd 7325 28bd bda6 933c ef34 d33c
000003b0: b7de cf3c 974b 9c3c 556b 79bb 637d 51bd
000003c0: 7290 5d3c a76b ce3b 5b86 1bbc 8699 9bbb
000003d0: f409 aaba 1ae2 50bd 9e9b 48bd 6469 84bc
000003e0: 8541 52bd 1ad7 3bbd ba7b c9bc af6e 05bd
000003f0: 6517 393b 5c32 01bd 8dd4 73bd 6af8 c8bc

conv4.0.bias f4 [16]
0.063390285 -0.056014523 0.07288604 -0.053160876 0.04423688 -0.05095139 0.066606894 0.03297582
-0.047644787 -0.0040131044 -0.0021053194 -0.07203279 -0.013258693 0.0649408 -0.0349646 0.023882367
00000000: c4d2 813d 7c6f 65bd 4745 953d 38bf 59bd
00000010: bb31 353d 68b2 50bd 3269 883d a711 073d
00000020: 2e27 43bd 5c80 83bb 66f9 09bb ed85 93bd
00000030: fd3a 59bc afff 843d 0a37 0fbd f4a4 c33c

conv4.1.weight f4 [16]
1.1627245 1.2049966 1.1247947 1.2257223 1.1557882 1.2010895 1.1540654 1.2535803
1.2023649 1.1771111 1.1604034 1.2382625 1.1330873 1.1219022 1.2509421 1.234576
00000000: 28d4 943f 543d 9a3f 46f9 8f3f 78e4 9c3f
00000010: def0 933f 4dbd 993f 6ab8 933f 5275 a03f
00000020: 18e7 993f 94ab 963f 1988 943f 637f 9e3f
00000030: 0109 913f 7e9a 8f3f df1e a03f 9606 9e3f

conv4.1.bias f4 [16]
0.08297775 0.08256712 0.0628741 0.08718645 0.07988441 0.08402393 0.070518516 0.07626251
0.073422275 0.07467643 0.08597584 0.091472335 0.0750598 0.0639872 0.09850123 0.09023898
00000000: 3df0 a93d f318 a93d 23c4 803d cf8e b23d
00000010: 709a a33d bd14 ac3d 036c 903d 852f 9c3d
00000020: 6b5e 963d f5ef 983d 1a14 b03d d955 bb3d
00000030: f4b8 993d b90b 833d 03bb c93d 37cf b83d

conv4.1.running_mean f4 [16]
-0.08854209 -0.36208063 -0.009269112 0.45352265 0.14506295 0.12605695 -0.11023131 0.330112
0.07580062 0.2279104 0.009358244 -0.14079463 -0.3733151 0.41881663 0.2363328 0.39525148
00000000: 8e55 b5bd a262 b9be 79dd 17bc 1f34 e83e
00000010: 628b 143e 1315 013e f4c0 e1bd 7104 a93e
00000020: 5b3d 9b3d 5861 693e 5253 193c 782c 10be
00000030: 2823 bfbe 226f d63e 3a01 723e 675e ca3e

conv4.1.running_var f4 [16]
0.15927202 0.12147229 0.16526549 0.117616415 0.20331308 0.16675426 0.11445733 0.11075267
0.17857803 0.36808494 0.18349308 0.20175232 0.10344929 0.23317906 0.09196148 0.13050342
00000000: 3418 233e 77c6 f83d 5b3b 293e e0e0 f03d
00000010: 4e31 503e a1c1 2a3e 9b68 ea3d 4cd2 e23d
00000020: 29dd 363e a175 bc3e 9ce5 3b3e 2998 4e3e
00000030: 39dd d33d 7ec6 6e3e 4d56 bc3d b0a2 053e

fc1.0.weight f4 [120, 400]
-0.0009213673 -0.004568066 0.013784489 0.030681957 -0.042565037 -0.054831855 -0.04073461 -0.06054892
0.039429873 0.001922051 -0.029931886 -0.0070874076 -0.06355041 -0.037001137 0.019557873 -0.010760549
-0.010728052 -0.029443841 -0.050433375 -0.016759736 0.055729277 0.025020065 0.03736915 0.045301687
-0.0058794003 -0.0062111174 -0.004824451 0.007664151 0.028151227 0.038027596 -0.008262706 -0.069143794
-0.022309072 -0.032556128 -0.040806416 0.0464279 0.014918528 -0.07134316 -0.05589475 0.015208843
0.03501404 -0.007402431 -0.0038611726 0.028679186 0.04336112 -0.02931377 0.049937032 -0.01501025
0.030012723 -0.013742611 0.021702012 -0.009385924 -0.02998227 0.040898368 0.010420734 0.028450307
0.022380874 -0.029050048 -0.0034638864 0.009170785 -0.03773434 0.034180243 -0.037962317 -0.032089967
-0.022787508 -0.0061896658 -0.023013314 0.00093443104 0.061769605 -0.018214088 0.025854293 0.05313966
-0.038984407 0.010782416 0.033317268 0.02639564 0.008150269 0.032059394 0.045818355 0.05188736
0.03916384 -0.012503361 -0.038791228 0.04153276 -0.0026001385 0.023464506 0.014321709 -0.07097668
-0.057075743 -0.034771796 0.020382755 0.011256099 0.019588303 0.022608124 0.021316322 0.024613857
0.0465908 0.043821733 -0.019355288 -0.00040419106 -0.02397875 0.025701571 -0.011718243 0.04198461
-0.019613393 0.037646294 0.014285997 0.039865986 0.06052638 0.0027985089 0.043124773 0.04685587
0.042912222 0.092757925 0.0020830592 -0.03803582 0.009907644 -0.032426655 0.04085701 0.04472951
0.021189647 0.021730542 -0.03685294 -0.010348533 -0.033331692 -0.0018472939 0.02744701 0.016569791
-0.017818956 0.016349623 0.07998758 0.017290644 -0.0011579994 0.011461113 -0.010868608 -0.02481407
-0.042574782 -0.045454953 -0.037188426 0.0048149503 0.045796365 0.0059679565 0.0632945 -0.00023380773
0.030286947 0.024247566 0.04504525 0.07454162 0.0338652 -0.014249833 -0.03623846 0.026541632
0.07620124 0.06027068 0.06033855 -0.014954349 0.043002047 -0.0056479676 0.07220637 -0.020637462
0.06412145 -0.003238738 -0.0039803567 0.020334886 -0.008016957 -0.01495029 0.03402159 0.0019294585
0.034577105 -0.0345939 0.029921437 0.02512417 0.0050631324 0.012386756 0.013305176 -0.0073633348
0.0046544173 0.013415655 -0.019468803 -0.017437529 -0.02360547 -0.016378894 -0.083666526 -0.049884398
0.0028691299 -0.053904656 -0.010246224 -0.032605868 0.0162439 -0.025106328 0.02411818 0.046802036
-0.009898899 -0.05185298 -0.033385735 -0.03900143 0.03320541 0.029035417 0.026667798 0.015717065
-0.027377587 -0.022671837 -0.015619708 -0.0302836 0.036844704 0.00943481 -0.001509622 0.015113978
-0.04170096 0.021156076 -0.032281525 0.023587322 -0.059662484 -0.036284152 -0.04336505 0.06876394
0.011543006 0.009002312 0.05849552 -0.032928705 0.016461212 0.06253787 0.08246156 0.0022412078
-0.0100872945 0.038039837 0.009435702 0.03137122 -0.0015269662 0.03910354 -0.023946345 -0.07035207
-0.074184656 0.021468183 0.0076709054 0.053759925 -0.039861053 0.027666423 0.019019721 0.0046040956
0.051962014 0.050800532 0.07339764 0.07015383 0.041636806 0.054063346 0.014192584 0.013137605
0.054813486 0.04043727 0.01131969 0.05569393 -0.0041176835 -0.0039183265 0.037915803 0.03708921
00000000: ea87 71ba b7af 95bb 56d8 613c ba58 fb3c
00000010: ad58 2ebd 5e97 60bd 56d9 26bd 2502 78bd
00000020: 3881 213d 54ed fb3a b733 f5bc 7c3d e8bb
00000030: b826 82bd 818e 17bd d537 a03c 044d 30bc
00000040: b6c4 2fbc 3634 f1bc 3a93 4ebd b74b 89bc
00000050: 6244 643d e1f6 cc3c 6510 193d 438e 393d
00000060: fca7 c0bb a186 cbbb 6e16 9ebb 8f23 fb3b
00000070: 679d e63c d3c2 1b3d 4d60 07bc 439b 8dbd
00000080: 84c1 b6bc 9359 05bd a124 27bd 2f2b 3e3d
00000090: d76c 743c 5d1c 92bd e5f1 64bd 832e 793c
000000a0: e26a 0f3d 1890 f2bb ba0b 7dbb 9df0 ea3c
000000b0: 6e9b 313d 6e23 f0bc c68a 4c3d 8ded 75bc
000000c0: 3edd f53c b028 61bc 6bc8 b13c 6bc7 19bc
000000d0: 619d f5bc 0c85 273d babb 2a3c 9e10 e93c
000000e0: 1858 b73c 5efa edbc 5f02 63bb 0f41 163c
000000f0: 538f 1abd 9500 0c3d 607e 1bbd c570 03bd
00000100: deac babc aed2 cabb 6b86 bcbc 9bf4 743a
00000110: 2002 7d3d b635 95bc 62cc d33c f9a8 593d
00000120: 1dae 1fbd bba8 303c b077 083d ab3b d83c
00000130: b588 053c b650 033d 07ac 3b3d d787 543d
00000140: 436a 203d e6da 4cbc 8de3 1ebd 411e 2a3d
00000150: 1667 2abb a338 c03c 9aa5 6a3c 395c 91bd
00000160: 41c8 69bd df6c 0ebd bcf9 a63c 806b 383c
00000170: a677 a03c ac34 b93c 919f ae3c 00a3 c93c
00000180: ffd5 3e3d 6b7e 333d fb8e 9ebc 9be9 d3b9
00000190: 156f c4bc 1a8c d23c e0fd 3fbc 0ef8 2b3d
000001a0: 44ac a0bc 0033 1a3d d00f 6a3c 844a 233d
000001b0: 82ea 773d 3067 373b 9aa3 303d f1eb 3f3d
000001c0: bac4 2f3d def7 bd3d ef83 083b 73cb 1bbd
000001d0: ac53 223c d0d1 04bd ae59 273d 4a36 373d
000001e0: e995 ad3c 4004 b23c 1cf3 16bd e58c 29bc
000001f0: d086 08bd e620 f2ba 8dd8 e03c 5fbd 873c
00000200: 0ff9 91bc a5ef 853c 87d0 a33d 1ca5 8d3c
00000210: 03c8 97ba 64c7 3b3c 3f12 32bc e046 cbbc
00000220: e562 2ebd f92e 3abd e452 18bd bbc6 9d3b
00000230: f894 3b3d d98e c33b 8ca0 813d 492a 75b9
00000240: 551c f83c d5a2 c63c 5e81 383d 47a9 983d
00000250: 3cb6 0a3d 2278 69bc c86e 14bd d66d d93c
00000260: 650f 9c3d 63de 763d 8e25 773d 1603 75bc
00000270: ea22 303d 9612 b9bb efe0 933d e50f a9bc
00000280: 1b52 833d 0241 54bb a76d 82bb 5995 a63c
00000290: 8e59 03bc 10f2 74bc 395a 0b3d e2e5 fc3a
000002a0: b9a0 0d3d 55b2 0dbd cd1d f53c 34d1 cd3c
000002b0: a2e8 a53b d2f1 4a3c f4fd 593c 2148 f1bb
000002c0: 1584 983b 56cd 5b3c 0a7d 9fbc 26d9 8ebc
000002d0: 4260 c1bc 082d 86bc 5b59 abbd 9553 4cbd
000002e0: 0308 3c3b 21cb 5cbd c7df 27bc bb8d 05bd
000002f0: ed11 853c c9ab cdbc 7d93 c53c 7eb3 3f3d
00000300: fe2e 22bc ca63 54bd 7bbf 08bd f7bf 1fbd
00000310: 6502 083d afdb ed3c 6d76 da3c 13c1 803c
00000320: f646 e0bc 4aba b9bc cee9 7fbc 5015 f8bc
00000330: 79ea 163d 7694 1a3c 82de c5ba 9ea0 773c
00000340: a0ce 2abd 824f ad3c a239 04bd 333a c13c
00000350: a660 74bd b19e 14bd 8d9f 31bd 1cd4 8c3d
00000360: e01e 3d3c 6f7e 133c 0099 6f3d 40e0 06bd
00000370: aad9 863c db13 803d 9be1 a83d 3ae1 123b
00000380: 2e45 25bc a9cf 1b3d 3498 1a3c 1c7f 003d
00000390: 7c24 c8ba 092b 203d 202b c4bc bf14 90bd
000003a0: 20ee 97bd 0bde af3c 385c fb3b 5e33 5c3d
000003b0: 5845 23bd b2a4 e23c 3fcf 9b3c f4dd 963b
000003c0: 1fd6 543d 3814 503d 8051 963d d0ac 8f3d
000003d0: 5b8b 2a3d 8771 5d3d 0388 683c 1c3f 573c
000003e0: 1b84 603d 8da1 253d 3976 393c 511f 643d
000003f0: a2ed 86bb 4e65 80bb 9a4d 1b3d dbea 173d

fc1.0.bias f4 [120]
0.01086748 0.05855926 0.0028515533 -0.031922072 0.04506975 -0.0013111868 0.034501933 -0.022110865
-0.039175194 0.037590474 0.011892612 0.016823044 -0.004008147 0.03573655 -0.014076648 0.005910973
-0.01790681 -0.026518896 0.025202962 0.03720818 0.016008636 -0.016144454 0.03402482 -0.020570155
-0.032353472 0.044752035 0.04598462 -0.02799254 0.04530857 -0.04023377 -0.01164633 0.036644533
0.05429592 -0.03707147 -0.009504566 0.0075919344 0.014381218 -0.03744026 0.028833421 0.017449714
0.047556333 -0.03440009 -0.04497402 -0.00024019799 0.037117 -0.043580156 -0.0070836516 -0.04652445
0.052775636 -0.03390363 0.03454435 0.007017208 0.027690543 0.0012818638 -0.0070409616 0.055863243
0.034175705 -0.045959078 -0.0220244 -0.017568838 -0.018733298 -0.005159908 0.054341495 0.030388234
0.032951243 -0.03138301 0.0028566197 -0.034870815 0.0025113518 -0.0009980832 -0.03214593 0.018237269
-0.041797616 0.026229223 0.0092583485 -0.031174975 -0.02016477 -0.021509737 -0.0053044055 0.04541739
0.0036623713 -0.009079893 0.00952549 -0.03223362 -0.036480967 -0.0026377803 0.013712055 0.03944258
0.009294214 0.03521022 -0.015946198 -0.019708846 0.0031202137 0.038373362 0.017104344 0.027433038
-0.025765777 0.057081476 -0.011927362 0.023842515 0.030281542 -0.007668326 -0.0150380945 -0.0022249075
-0.013761014 -0.00941909 0.005065406 -0.04733543 -0.0020262953 0.050625246 0.03793892 0.041840393
-0.02850563 -0.048772134 -0.020534813 -0.017796561 -0.016173061 -0.010484832 -0.0011749913 -0.047197457
00000000: 840d 323c d6db 6f3d 20e1 3a3b b8c0 02bd
00000010: 0f9b 383d 21dc abba e651 0d3d d821 b5bc
00000020: 2b76 20bd 78f8 193d 3bd9 423c 7bd0 893c
00000030: c656 83bb 7d60 123d bea1 66bc d6b0 c13b
00000040: 4db1 92bc 283e d9bc 7176 ce3c 9b67 183d
00000050: 8b24 833c 6041 84bc 9c5d 0b3d be82 a8bc
00000060: 1385 04bd e94d 373d 5e5a 3c3d 9c50 e5bc
00000070: 7b95 393d 2acc 24bd 40d0 3ebc 9418 163d
00000080: 6665 5e3d 41d8 17bd 0ab9 1bbc c3c5 f83b
00000090: 339f 6b3c f55a 19bd 1134 ec3c b4f2 8e3c
000000a0: 6eca 423d 1ce7 0cbd ae36 38bd a8dd 7bb9
000000b0: ff07 183d 1b81 32bd fa1d e8bb 6c90 3ebd
000000c0: 442b 583d 88de 0abd 607e 0d3d 9bf0 e53b
000000d0: 47d7 e23c 3604 a83a deb7 e6bb dbd0 643d
000000e0: d3fb 0b3d 963f 3cbd 846c b4bc 86ec 8fbc
000000f0: 9376 99bc 7214 a9bb 3095 5e3d bff0 f83c
00000100: e2f7 063d 798b 00bd 2036 3b3b b3d4 0ebd
00000110: 7e95 243b 1dd2 82ba 73ab 03bd 5366 953c
00000120: fa33 2bbd abde d63c 54b0 173c a962 ffbc
00000130: 9630 a5bc 3035 b0bc 94d0 adbb 9607 3a3d
00000140: 6504 703b d5c3 14bc cd10 1c3c 6607 04bd
00000150: 116d 15bd 9cde 2cbb 87a8 603c 8b8e 213d
00000160: c246 183c 9738 103d 9aa1 82bc 7274 a1bc
00000170: 807c 4c3b 632d 1d3d 691e 8c3c 40bb e03c
00000180: c012 d3bc 44ce 693d fb6a 43bc 6151 c33c
00000190: ff10 f83c 9546 fbbb 5762 76bc c1cf 11bb
000001a0: e075 61bc 8752 1abc b5fb a53b cce2 41bd
000001b0: 98cb 04bb 6b5c 4f3d d765 1b3d d560 2b3d
000001c0: a484 e9bc 4ac5 47bd a038 a8bc 18ca 91bc
000001d0: 5e7d 84bc 93c8 2bbc 2a02 9aba 1f52 41bd

fc2.0.weight f4 [84, 120]
-0.039249506 0.038362503 -0.030144548 0.042246383 0.048273757 0.015032808 0.039134964 -0.00046208987
-0.029200895 0.023638232 0.05094908 0.1320772 0.083757944 -0.02332401 -0.06543566 0.037008855
-0.05145497 -0.019536316 0.060115103 -0.05699652 0.065808535 -0.019816516 0.023864308 0.09596098
-0.026784612 0.032137897 0.036416575 -0.025589427 0.068509094 -0.069862954 -0.065988645 -0.06275905
-0.067225434 0.046518207 0.036101904 -0.09594655 -0.08069254 0.061685964 -0.048017465 -0.0021095495
0.05951135 -0.06818138 0.009867602 0.018899122 -0.01773126 -0.07365256 0.12367351 -0.061905224
0.00469906 0.07370558 0.056025643 0.029284626 -0.0025316186 0.07162469 0.041454814 -0.04771244
0.025548689 0.013830911 -0.046297807 -0.060849834 0.07338271 -0.0053749066 -0.07596122 0.07861445
0.004934074 -0.041277274 -0.10284222 -0.0063861012 -0.0014383798 -0.038172927 0.087872446 0.0095281955
0.09510388 0.06532152 -0.07159703 0.06407995 -0.08654916 0.0052486593 -0.055234157 -0.04956744
0.050138764 -0.026812837 0.017275805 0.123008914 0.09587759 -0.055128783 -0.039738473 0.06887803
0.07111666 0.056059193 0.013891578 0.060082536 0.04481192 -0.07753401 0.07385855 -0.05040599
-0.0011872917 -0.10765904 0.067060694 0.054495104 -0.052923694 0.011797217 0.025058445 -0.047611773
-0.03416976 0.03850048 -0.081126414 0.015335733 0.09115379 0.029406207 0.08808276 -0.007567297
0.05319223 0.06531432 0.10658104 0.039476663 0.10445826 0.07608236 0.0015882675 0.07632123
-0.07398884 -0.06052934 0.016585907 -0.10807608 0.028288247 -0.014591052 0.054066185 -0.09959522
0.010709281 -0.012331884 -0.012650778 0.058494836 0.05807762 0.038809553 0.15598029 0.09338559
-0.065155596 0.09175386 -0.00068445853 0.059245564 0.0395036 0.078115396 -0.08761893 0.010683958
0.07095771 0.031111393 0.07541038 0.008498507 -0.02067785 0.004861218 0.031009063 0.12725976
-0.04678708 -0.059138287 -0.00068029534 0.09529299 -0.08274692 0.06063279 -0.08492522 -0.0794211
-0.033460435 0.017087018 -0.060478225 -0.10843987 0.036809057 0.0792498 0.1476399 -0.047380093
-0.0052544586 0.06879727 0.10906798 0.055927653 0.09280586 -0.008446686 0.014927546 0.019483024
-0.046002 0.037198417 0.0008112465 0.016686691 0.08559176 -0.018545445 -0.1127445 -0.028327262
0.088548295 0.02855819 -0.046258967 -0.061399195 0.037182875 0.064344786 -0.0063292976 0.115817204
0.1122854 0.10153273 -0.008554167 -0.064390525 0.053654995 -0.07371988 -0.06673032 -0.06175164
-0.085915156 0.07342577 -0.0020303975 0.058955494 -0.058073994 0.037029453 -0.07529216 -0.016912064
0.10761969 0.017545365 -0.045277853 -0.08397483 -0.009047188 0.0146954935 -0.023244616 0.05954914
0.060685605 -0.004001232 -0.005616561 0.013699405 -0.116281934 0.13694884 -0.04613733 -0.059402782
-0.038659148 -0.063087694 -0.119976975 0.042236302 0.025110856 -0.073041566 0.021013629 -0.07734329
-0.055674087 -0.03091594 -0.06582001 0.07117927 0.09614682 -0.00061266375 0.011100542 0.031261265
-0.026411226 0.0068175658 -0.029696943 -0.035096344 -0.03950586 -0.085333124 0.0024933435 0.007803299
0.039282445 0.043860514 -0.012057507 -0.07471247 0.07048518 -0.10725023 -0.08103089 0.062651396
00000000: 17c4 20bd 0022 1d3d b3f1 f6bc 8b0a 2d3d
00000010: b4ba 453d 2b4c 763c fc4b 203d a744 f2b9
00000020: b736 efbc f7a4 c13c fcaf 503d 3f3f 073e
00000030: 4989 ab3d ff11 bfbc 2203 86bd 9996 173d
00000040: 72c2 52bd a00a a0bc 413b 763d 2f75 69bd
00000050: a0c6 863d 3f56 a2bc 157f c33c 3187 c43d
00000060: 676b dbbc 07a3 033d 8c29 153d eba0 d1bc
00000070: 7f4e 8c3d 4f14 8fbd 0e25 87bd d187 80bd
00000080: 7dad 89bd e089 3e3d 97df 133d a07f c4bd
00000090: 2142 a5bd 6caa 7c3d f6ad 44bd 5e40 0abb
000000a0: 2cc2 733d aea2 8bbd b9ab 213c 55d2 9a3c
000000b0: 2641 91bc 27d7 96bd 8a48 fd3d 5590 7dbd
000000c0: 93fa 993b f3f2 963d 257b 653d 50e6 ef3c
000000d0: 83e9 25bb f7af 923d 86cc 293d 1f6e 43bd
000000e0: 7c4b d13c 0c9b 623c c5a2 3dbd ad3d 79bd
000000f0: ad49 963d fc1f b0bb 8e91 9bbd 9d00 a13d
00000100: 03ae a13b 5c12 29bd f19e d2bd 8042 d1bb
00000110: 0488 bcba 375b 1cbd 78f6 b33d 261c 1c3c
00000120: d3c5 c23d 4ac7 853d 77a1 92bd 593c 833d
00000130: b040 b1bd f2fc ab3b 363d 62bd 3a07 4bbd
00000140: 4e5e 4d3d 98a6 dbbc fd85 8d3c 19ec fb3d
00000150: 785b c43d b8ce 61bd cfc4 22bd ed0f 8d3d
00000160: 9da5 913d 539e 653d 8099 633c 1b19 763d
00000170: b48c 373d 27ca 9ebd 2743 973d 8376 4ebd
00000180: e69e 9bba 587c dcbd 1e57 893d 4236 5f3d
00000190: 84c6 58bd 1d49 413c 5e47 cd3c 9004 43bd
000001a0: 97f5 0bbd aeb2 1d3d 9b25 a6bd ba42 7b3c
000001b0: d7ae ba3d 49e5 f03c bc64 b43d 17f7 f7bb
000001c0: 19e0 593d 84c3 853d 2947 da3d 48b2 213d
000001d0: 36ee d53d 12d1 9b3d 6a2d d03a 4e4e 9c3d
000001e0: 7687 97bd 9ded 77bd 2bdf 873c fe56 ddbd
000001f0: c1bc e73c 4f0f 6fbc 8174 5d3d 94f8 cbbd
00000200: fb75 2f3c ac0b 4abc 3545 4fbc 4898 6f3d
00000210: cce2 6d3d c4f6 1e3d 4cb9 1f3e f240 bf3d
00000220: 4c70 85bd 73e9 bb3d 3c6d 33ba 7aab 723d
00000230: 87ce 213d f7fa 9f3d 8e71 b3bd c50b 2f3c
00000240: 4752 913d 52dd fe3c c270 9a3d 523d 0b3c
00000250: 9864 a9bc da4a 9f3b b806 fe3c 6250 023e
00000260: cfa3 3fbd fd3a 72bd d955 32ba f928 c33d
00000270: 3877 a9bd 175a 783d 46ed adbd 88a7 a2bd
00000280: cf0d 09bd 13fa 8b3c 04b8 77bd b915 debd
00000290: 18c5 163d b84d a23d ea2e 173e a111 42bd
000002a0: 982d acbb 95e5 8c3d 085f df3d 6514 653d
000002b0: 0011 be3d f863 0abc aa92 743c dd9a 9f3c
000002c0: 986c 3cbd 5e5d 183d d5a9 543a 87b2 883c
000002d0: bc4a af3d 9eec 97bc 97e6 e6bd 930e e8bc
000002e0: cf58 b53d def2 e93c 0b7a 3dbd b97d 7bbd
000002f0: 124d 183d 33c7 833d ff65 cfbb 9231 ed3d
00000300: e3f5 e53d 64f0 cf3d c726 0cbc 2edf 83bd
00000310: 57c5 5b3d 73fa 96bd e8a9 88bd 4aef 7cbd
00000320: 49f4 afbd 4060 963d 6b10 05bb 517b 713d
00000330: ffde 6dbd 32ac 173d c732 9abd 2b8b 8abc
00000340: b667 dc3d 4cbb 8f3c 4575 39bd fffa abbd
00000350: a83a 14bc 5ec5 703c 7e6b bebc cde9 733d
00000360: 7891 783d c41c 83bb 210b b8bb 7873 603c
00000370: 3925 eebd 513c 0c3e 7ffa 3cbd 5550 73bd
00000380: 0e59 1ebd 1f34 81bd 7db6 f5bd f9ff 2c3d
00000390: 48b5 cd3c d196 95bd c624 ac3c 2966 9ebd
000003a0: 830a 64bd 6d43 fdbc a4cc 86bd 70c6 913d
000003b0: a0e8 c43d 2b9b 20ba 0cdf 353c d00b 003d
000003c0: 5b5c d8bc e365 df3b 0147 f3bc 2fc1 0fbd
000003d0: e6d0 21bd 22c3 aebd 5d67 233b d1b2 ff3b
000003e0: a1e6 203d 15a7 333d da8c 45bc da02 99bd
000003f0: 895a 903d 02a6 dbbd 86f3 a5bd 604f 803d

fc2.0.bias f4 [84]
-0.022489633 -0.001986713 0.005845045 0.001360993 0.0089778155 0.033871245 -0.06181751 0.059832167
-0.041046496 -0.043885972 -0.018749716 0.070213914 -0.067479424 -0.02560187 0.038205963 0.031183112
0.01920943 0.011629792 -0.084777474 0.058087632 0.089267276 0.0045135235 0.020047842 0.0646101
-0.036020566 -0.036707897 -0.08422601 0.021458784 -0.017322732 -0.04818582 -0.026173595 0.0045712995
-0.06362831 -0.07181075 0.103110194 0.104536556 0.043903794 0.0362122 0.048609503 -0.032033306
0.042764336 -0.089333095 0.045298047 -0.056586325 -0.03462791 -0.018921377 -0.024906648 -0.0072181113
0.078449786 0.018906062 -0.01069198 0.008616114 -0.0673122 0.044178367 0.097569585 0.018597195
-0.018975724 -0.0035999448 0.072267294 -0.0068747373 -0.059647236 -0.025004162 0.089000605 -0.0051435013
0.0844293 -0.05779275 -0.07470584 -0.031005252 -0.066089466 0.006773382 -0.051608652 0.025354475
0.040944677 -0.03914397 -0.060608592 0.0025664053 -0.062021434 -0.0038403522 -0.0013464951 0.045216832
0.05949965 -0.015096672 -0.06490775 0.016038591
00000000: 2e3c b8bc 8333 02bb cb87 bf3b 5963 b23a
00000010: b017 133c 93bc 0a3d 5b34 7dbd 9312 753d
00000020: 5f20 28bd c7c1 33bd 0199 99bc 50cc 8f3d
00000030: a732 8abd 03bb d1bc db7d 1c3d ba73 ff3c
00000040: 185d 9d3c e28a 3e3c d09f adbd 4ced 6d3d
00000050: c3d1 b63d 2ee6 933b 5f3b a43c 4d52 843d
00000060: 4d8a 13bd 055b 16bd b07e acbd 55ca af3c
00000070: 67e8 8dbc 7f5e 45bd 026a d6bc d7ca 953b
00000080: 8f4f 82bd 8411 93bd 702b d33d 4317 d63d
00000090: 77d4 333d 3e53 143d c21a 473d 5b35 03bd
000000a0: a829 2f3d 45f4 b6bd 728a 393d 10c7 67bd
000000b0: ffd5 0dbd 0101 9bbc 0709 ccbc e885 ecbb
000000c0: 48aa a03d e3e0 9a3c 6a2d 2fbc 9a2a 0d3c
000000d0: fbda 89bd 60f4 343d 90d2 c73d 2559 983c
000000e0: fa72 9bbc 0ded 6bbb e000 943d 7a45 e1bb
000000f0: a950 74bd 87d5 ccbc f345 b63d d18a a8bb
00000100: 45e9 ac3d 17b8 6cbd 60ff 98bd bafe fdbc
00000110: ea59 87bd 3ff3 dd3b 9863 53bd 30b4 cf3c
00000120: 9bb5 273d 6d55 20bd b740 78bd 2331 283b
00000130: 300a 7ebd 6bae 7bbb e17c b0ba 4935 393d
00000140: e8b5 733d 0858 77bc 5bee 84bd 5d63 833c
