计算机视觉实践-练习2/checkpoint/lenet_p/Saturday_15_April_2023_09h_48m_35s/lenet_p-12-best.pth (torch, 260575 bytes, 30 tensors)

conv1.0.weight f4 [6, 1, 5, 5]
000000 ac 00 05 be df 6c f8 bd e8 bc a6 3d 38 8c 28 3e
       -0.12988538 -0.121301405 0.081415 0.16459739
000010 f8 eb ab bd d0 dc a4 bd b6 d0 be bd f6 03 00 be
       -0.08394617 -0.08049929 -0.09317152 -0.12501511
000020 7b e7 e2 3d a9 96 97 bb 07 fa 53 be 89 b9 05 3d
       0.11079308 -0.0046261144 -0.20700847 0.032647643
000030 5e 2b ed 3a 31 7e 30 3e 20 59 35 3e be 77 00 be
       0.001809459 0.17235638 0.1770978 -0.12545678
000040 4e 1a 2a be 27 07 15 3d 6e 3d 8e 3d 88 fd 92 3c
       -0.16611597 0.036383774 0.069453105 0.017943159
000050 7d b7 e5 3d 85 25 01 3e d6 42 60 3c 74 76 d2 bd
       0.11216638 0.12611969 0.01368781 -0.102764994
000060 75 0a 18 3e 50 36 ef bd 5a 6d a3 3c 05 18 e6 3d
       0.14847739 -0.11680281 0.019949604 0.1123505
000070 b0 0f 48 3e 1e 21 82 3d d3 9e 15 3d e6 b1 13 be
       0.19537234 0.06353973 0.03652842 -0.14423332
000080 33 c5 93 bd 9f ee 28 3d 58 2e 6c 3e 86 8d 24 3d
       -0.07215347 0.04124319 0.23064554 0.04017403
000090 fe 9d 73 be 2f 8a 2c 3d 01 a1 20 be 31 d9 16 3e
       -0.23790738 0.04212397 -0.15686418 0.1473129
0000a0 36 75 07 be 23 97 05 bc b7 07 b7 bc 20 2a d6 3d
       -0.13228306 -0.00815371 -0.022342546 0.104572535
0000b0 43 3c 05 be 48 e5 1e be 02 e4 3e be 1c e3 37 be
       -0.1301127 -0.15517151 -0.18641666 -0.17957729
0000c0 0e b7 5f 3d 8c 19 24 3d 42 b6 d0 bd 0a 6c 44 bd
       0.054617934 0.040063426 -0.10191013 -0.047954597
0000d0 12 3b f1 3d 2f 2b c7 3d 54 ba 3b 3e a3 d2 ef 3d
       0.11778845 0.097250335 0.18332797 0.11710098
0000e0 f8 1c bb 3d 44 d6 05 3e 5c 7e 98 bb ea 66 b6 bd
       0.09136385 0.13070017 -0.004653735 -0.08906348
0000f0 56 9e 21 be aa 1d dd 3d 2c 0e 5a 3e 09 bb 66 3e
       -0.15783057 0.107966736 0.21294469 0.22532286
000100 52 4f 25 3d a8 de da bd 60 87 cc ba 18 43 c6 3c
       0.04035885 -0.106869996 -0.001560431 0.024201915
000110 99 08 4c 3e d4 14 80 3c 59 17 3b 3d 88 cc a4 3d
       0.19925155 0.015634932 0.045676563 0.08046824
000120 0b 32 52 3e 43 af 99 bb 01 35 e1 bd 4c d6 9c bd
       0.20526902 -0.0046900823 -0.10996438 -0.076580614
000130 21 72 94 3d af b2 3d bc 00 21 5a 3d dc 19 5b be
       0.07248331 -0.011578246 0.053254128 -0.21396583
000140 78 97 46 3c ce 6d d6 bd 71 3b a7 bc 32 a2 4f 3e
       0.012121074 -0.10470162 -0.020414086 0.20276716
000150 ec f7 b1 bd 49 b2 0f be b4 7a 3d bd 30 82 ee 3c
       -0.086898655 -0.14032854 -0.046259597 0.029114813
000160 3b 65 c4 3c 55 0a 1f 3e 0c ea 52 bd 5e bd 5a be
       0.023974052 0.15531285 -0.051492736 -0.213613
000170 1f 0b d6 3d 24 0f 38 bb eb ec 87 bd bb 53 30 3c
       0.1045134 -0.0028085196 -0.066369854 0.01076215
000180 59 e2 02 be 02 df 48 be ee e3 e0 bc e5 46 0e 3e
       -0.12781657 -0.1961632 -0.027452435 0.13894232
000190 1f f0 62 3d e3 32 fe 3d af 96 c1 3d 2d 58 44 bd
       0.05540478 0.124120496 0.09452569 -0.047935653
0001a0 52 ec f9 3c 14 e9 eb 3d ba 5d 38 bd 9d c9 03 3e
       0.030508194 0.115190655 -0.04501126 0.12869878
0001b0 b1 11 e2 3d e8 53 b8 bb c6 2b 18 be 5e 58 bd 3c
       0.110385306 -0.005625237 -0.14860448 0.023113426
0001c0 70 b1 d0 3d 5c 8a f7 3d e3 34 d9 3d f2 4e cd bc
       0.101900935 0.12086937 0.106057905 -0.025062058
0001d0 4e 67 3b be 42 da aa b9 53 19 78 bd 02 bf 2a 3e
       -0.18301126 -0.00032587542 -0.060571026 0.16674426
0001e0 28 b4 fd bd 28 fc 7d bd 38 01 47 be 88 3d ff bd
       -0.12387878 -0.062008053 -0.19434059 -0.12462908
0001f0 5b f1 24 be b1 7d 89 bb 47 20 0a bd 2f 3a 08 3e
       -0.16107695 -0.004195892 -0.03372219 0.13303445
000200 05 e2 4b 3e 83 32 69 3e 65 72 f1 3d de dd 16 3e
       0.19910438 0.22773175 0.11789397 0.14733073
000210 3d fe 14 3d cb 86 c6 bd 5f 5f 24 bd 11 9a 7d 3d
       0.036375273 -0.096936785 -0.040130015 0.061914507
000220 d4 ef 8f bd f8 2f 00 3d f0 13 3a bd 84 0f ad bd
       -0.070281655 0.031295747 -0.04542917 -0.08450225
000230 2f cd e3 bd 93 61 95 3d e6 58 3b be e1 12 15 be
       -0.1112312 0.072940014 -0.18295631 -0.14557983
000240 c2 88 5a bd 78 4b db 3d b7 ad 09 be fd 9b b4 3d
       -0.05335308 0.10707754 -0.13445173 0.08818815
000250 e6 25 d6 3d bc 30 ce 3d
       0.10456447 0.10067889

conv1.0.bias f4 [6]
000000 38 73 1f be 56 db 87 bc 0d 10 85 bd f1 af 92 3d
       -0.15571296 -0.01658408 -0.06497202 0.071624644
000010 eb d4 0d be 58 e4 30 3e
       -0.13850753 0.17274606

conv1.1.weight f4 [6]
000000 33 1e 7c 3f 0e e8 78 3f 76 ab 79 3f ca 1f 7a 3f
       0.9848358 0.9722909 0.97527254 0.97704756
000010 16 2d 7c 3f 84 61 7d 3f
       0.98506296 0.9897692

conv1.1.bias f4 [6]
000000 f4 05 2b 3c 6e 1b ac bb a9 23 d2 3c 5c 4c 04 bd
       0.010438431 -0.0052522933 0.02565177 -0.032299384
000010 25 d5 fe 3c f2 b9 b5 bc
       0.031107495 -0.022183392

conv1.1.running_mean f4 [6]
000000 55 f1 20 be aa 44 cc bc f8 93 37 bd b3 c3 43 3d
       -0.15717061 -0.024935085 -0.04481885 0.047794055
000010 4c 29 19 be 2c e9 4b 3e
       -0.1495716 0.19913167

conv1.1.running_var f4 [6]
000000 04 27 ec 3e 62 6e 12 3f 75 37 94 3f 2f 67 98 3e
       0.46123517 0.5719968 1.1579424 0.29766223
000010 08 83 c4 3e ed 27 89 3e
       0.3838122 0.26788273

conv2.0.weight f4 [6, 6, 3, 3]
000000 71 1f 4d bd 25 bf 9b bb dc 20 11 3e a0 6b ab bd
       -0.050078813 -0.004753011 0.14172691 -0.08370137
000010 5c 0b 9b bd 06 d0 73 bd ce f0 0e 3d 9a b4 25 bd
       -0.07570526 -0.05952456 0.034897618 -0.04045544
000020 96 f2 ed 3d f8 60 f4 3c 54 9b d0 3d 30 77 13 3e
       0.11618535 0.029831395 0.101858765 0.14400935
000030 5b 3f 2c 3d 65 f3 14 be 3b 7c 48 bd 5d e2 12 be
       0.042052608 -0.14545973 -0.0489466 -0.14344163
000040 5d 14 0a be eb fe 6c bd 47 eb 1e bd 5e 91 a0 bd
       -0.1348433 -0.057860296 -0.038798597 -0.078402266
000050 75 aa b8 bd 2a 9d 20 bd 5b 77 32 bd 6c 1c f6 3c
       -0.09016887 -0.039212383 -0.043570857 0.03004285
000060 e5 3c 55 bc 4b 82 c2 bd f1 bd d6 3c 12 99 f6 3d
       -0.013015007 -0.09497508 0.026213618 0.120409146
000070 28 7f b7 3d 51 95 7a 3d 7b dc 0b bd 26 9c 18 3d
       0.089598 0.061177555 -0.034145813 0.03725829
000080 0b 32 0f be 2b 2a 44 3d 04 fe e6 3d 59 e8 3d bd
       -0.13983934 0.047891777 0.112789184 -0.046364162
000090 c9 5c 09 3e 4f a4 32 3e 16 c9 ec 3d bc eb cb 3d
       0.13414301 0.17445491 0.115617916 0.09957072
0000a0 da 00 9a 3d 3d da 45 be 8e f7 90 3c 8f 0a 76 bd
       0.07519694 -0.19321533 0.017696168 -0.060068663
0000b0 90 08 c8 bc 32 82 19 bd 4d 6e 4f 3a e3 28 97 3c
       -0.024418145 -0.03747768 0.00079128594 0.018452113
0000c0 33 7b 33 bd 43 d5 0b 3e 28 ef 37 3c 7c 8a 69 3d
       -0.043818664 0.13655572 0.011226453 0.057016835
0000d0 b2 ec 22 3d 29 44 38 bd ae 54 d1 3b fb 61 9a 3d
       0.03977651 -0.044986878 0.0063882684 0.075382195
0000e0 97 3d af 3d 0e 78 a6 bd 1c c8 9d 3c e4 b8 be bd
       0.08556669 -0.08128367 0.019260459 -0.09312609
0000f0 84 05 08 3e 19 e7 86 3d 58 a1 25 be 09 7e b0 3d
       0.13283354 0.06587047 -0.16174829 0.08617789
000100 59 21 6d bd ea 06 a3 bd 4f 83 49 3d ef 1b f0 bd
       -0.05789313 -0.07960303 0.04919749 -0.11724078
000110 ea 3f d9 3d 36 04 99 bd 77 a0 26 3c 11 ec eb bd
       0.10607894 -0.07471506 0.010170094 -0.115196355
000120 15 f1 3e 3d 0b 9c f1 bd 1d 46 08 3d 28 b9 09 be
       0.046616632 -0.11797341 0.03326999 -0.13449538
000130 1d 92 bb bd f8 92 ce bd 3a c8 6b bd 89 3a c1 3c
       -0.09158728 -0.10086626 -0.057563998 0.023587482
000140 78 4c 3b 3d a3 10 a4 3b 68 ab b4 bd df dd 2a bd
       0.045727223 0.005006866 -0.08821756 -0.0417155
000150 4e 4f eb 3d 42 29 d5 3c 12 0d 01 be 22 ea 0f bd
       0.114897355 0.02602065 -0.12602642 -0.035135396
000160 fc f5 b1 3d 07 a8 cd bd 78 e1 19 bd 23 ea 5e 3d
       0.08689496 -0.10041814 -0.03756854 0.05442251
000170 ea 31 9c 3d 46 90 05 3e 05 94 43 bd 4d e4 f9 bc
       0.07626708 0.13043317 -0.047748584 -0.03050437
000180 0b 83 0c be 8e d4 d0 3a c1 11 19 3c c0 d6 30 bd
       -0.13721864 0.0015932487 0.009342612 -0.04317355
000190 23 c8 84 bd 0a c9 a8 3d 1f d4 fa 3c c5 d1 e6 3d
       -0.064834855 0.0824147 0.030618725 0.11270479
0001a0 28 72 1e 3e 00 30 cb bd 93 24 7e bb 9f fd de bc
       0.15473235 -0.09921265 -0.0038779124 -0.027220545
0001b0 37 13 bb bd af 1c 87 bc 5f 98 ac bd 67 7a 6b 3c
       -0.09134524 -0.01649317 -0.084275 0.014372445
0001c0 0a 54 32 bd 09 55 b9 39 48 f1 c3 3c bd 11 5c 3c
       -0.043537177 0.00035349306 0.023918763 0.0134319635
0001d0 18 e9 13 3d a2 42 d1 bb 1d 22 6c 3b 0b ad be bc
       0.036110967 -0.006386117 0.0036031075 -0.023275873
0001e0 94 c7 e3 bd 22 1d 19 3d a1 4f e4 bd 1c de df 3d
       -0.11122051 0.0373813 -0.111480005 0.10931036
0001f0 88 f5 af bc 15 26 b5 3d 46 4d 36 bd ca 3d 9a 3d
       -0.021479383 0.08845154 -0.044507287 0.075313166
000200 d6 c7 49 3d 5e 9f ba 3d f3 4e 66 3d 5d 06 26 3b
       0.049262844 0.09112428 0.056227636 0.0025333383
000210 3e db a1 bd cd fe 34 be a4 dd bf 3d 98 fc b4 bd
       -0.07903145 -0.17675324 0.093684465 -0.08837241
000220 a5 40 20 be 4d e4 68 3d aa cd 9b 3b b4 c8 df 3c
       -0.1564966 0.05685835 0.0047547417 0.027317382
000230 bf 00 83 bd 09 39 26 3e 50 e6 96 bc b9 f6 82 3b
       -0.06396627 0.16232695 -0.018420368 0.003996697
000240 a3 8a d3 3d 90 57 4c 3d ee 0c 26 3c ad 4c 41 bd
       0.10329177 0.049888194 0.010134919 -0.047192264
000250 c1 79 b0 bd 25 bc b3 3d ed 3c 3f bd 50 ee 16 39
       -0.08616973 0.0877612 -0.046688963 0.00014393893
000260 1a bd 7d bd d8 2f 0c 3e 11 fc 40 3e 9d 9a 37 3e
       -0.06194792 0.13690126 0.18846156 0.17930074
000270 cc 05 1e 3c c3 4e fb 3d b3 fa 97 bd 92 2c 48 bd
       0.009644937 0.12270882 -0.07420864 -0.04887063
000280 39 c7 b1 bc 3c 2c 85 bd 2e 17 ab 3c 17 4a 18 3d
       -0.021701442 -0.06502578 0.020885076 0.037180033
000290 3f 24 15 3e 39 d8 dd 3d 23 76 54 3d 05 f2 fe bc
       0.14564608 0.10832257 0.051870476 -0.031121263
0002a0 48 a9 55 3d e8 b1 8f bd 7b 92 b6 bd b9 c3 a2 bc
       0.052163392 -0.07016355 -0.08914658 -0.019868718
0002b0 27 46 4d 3d ac cb c3 3d 65 13 b1 3b 99 c2 96 bd
       0.05011573 0.09560332 0.0054039233 -0.07361335
0002c0 58 e8 b8 bd 42 e1 02 3e 9f b4 00 3e 49 c3 1d bd
       -0.09028691 0.12781242 0.12568901 -0.038516317
0002d0 2e dd e4 3c c1 43 52 3e a4 ff af 3d 0b d6 6c bd
       0.027937498 0.20533659 0.085936815 -0.057821315
0002e0 1b 3f d8 3d f8 ce f5 bd 1a 48 76 bb 2c 2a 09 bd
       0.105589114 -0.12002367 -0.0037579597 -0.033487484
0002f0 b4 74 e2 bd 29 77 b4 bc 8a 36 97 bb 7d 3e ec bd
       -0.110574156 -0.022029476 -0.004614656 -0.11535356
000300 f6 d7 f6 3c eb 73 81 3d 7f 18 4a bb 97 56 91 bc
       0.030132275 0.06320938 -0.0030837355 -0.017741485
000310 af b0 9b bb c1 ab f3 3b 25 4c 9d bd 5b a1 ef bd
       -0.004751287 0.007436246 -0.07680539 -0.11700698
000320 f2 a5 02 be 9a 2f f8 bd a1 c5 0a bd 13 b3 cd 3c
       -0.12758616 -0.12118454 -0.03387988 0.025109803
000330 01 76 ae 3d 96 8c 8b bc f6 d8 af bd 5e d4 b0 bd
       0.08518601 -0.01703481 -0.08586304 -0.08634256
000340 fe 21 36 bc 04 89 1f be 16 ff 5b 3c 92 24 83 3d
       -0.011116503 -0.15579611 0.013427516 0.064034596
000350 68 00 8d 3d cb df c7 bd b5 d9 6f bc 56 3c 94 3d
       0.06884843 -0.09759482 -0.014639308 0.07238071
000360 2f 1d f1 3c 47 1a 0f 3e f1 37 38 3d 8c e9 82 bd
       0.029432861 0.13974868 0.044975225 -0.06392202
000370 ba f1 43 3d 78 f4 82 bd 66 a1 69 bc 9d 1d 43 3d
       0.04783795 -0.06394285 -0.014259672 0.047635663
000380 92 fd a2 3d c2 b4 f1 3c 44 68 0b be 6f 62 4c bd
       0.07958521 0.029505137 -0.13613993 -0.04989856
000390 bf 30 ce 3d bc d7 a1 bc 77 ae b8 3d 6f 90 b0 3b
       0.10067891 -0.01975619 0.090176515 0.0053883116
0003a0 d9 16 b3 3d f8 7e 8d 3a f8 f7 40 bd fe a0 9c 3c
       0.08744592 0.0010795286 -0.04711148 0.019119736
0003b0 ec 6f 69 3d 4f b0 11 3e 21 fc aa 3d 62 3a 20 3e
       0.056991503 0.14227413 0.08348871 0.15647271
0003c0 f7 fe 9e bd 95 a3 bc bc c4 86 e8 3d 7a 56 b2 3d
       -0.077634744 -0.02302722 0.113538295 0.087079
0003d0 d3 f3 99 3d 3b 25 d1 3c 5e a2 04 3e c3 f0 94 3d
       0.07517209 0.025530448 0.12952563 0.07272484
0003e0 33 13 ee 3d b5 ad 31 bd 61 a6 1a bd a5 e8 ad bd
       0.11624756 -0.04337855 -0.037756328 -0.08491639
0003f0 db c1 b8 bd 5d c5 88 3d 6a 92 ec bd aa 93 11 3e
       -0.0902135 0.06678269 -0.11551364 0.14216486

conv2.0.bias f4 [6]
000000 69 29 6d bd 91 c4 97 3d 89 e2 45 3d f8 ba e4 3d
       -0.05790082 0.07410539 0.048311744 0.11168474
000010 b5 99 8c bd d0 0f dc 3d
       -0.06865255 0.107452035

conv2.1.weight f4 [6]
000000 27 1b 86 3f 56 1e 76 3f fd 50 7d 3f 48 2f 77 3f
       1.0477036 0.9614004 0.98951703 0.9655652
000010 1d 29 79 3f 47 a1 70 3f
       0.9732836 0.9399609

conv2.1.bias f4 [6]
000000 58 ae 43 3d 0a 09 01 3d dd 13 2c 3d 97 f5 f4 3c
       0.04777369 0.03150276 0.04201113 0.029902263
000010 71 a0 04 3d 1f 97 5f bd
       0.03237957 -0.05458748

conv2.1.running_mean f4 [6]
000000 aa 14 3b bc c1 2c 1e be 79 ae 48 3e 71 fd c4 3c
       -0.011418501 -0.1544676 0.19597806 0.024046632
000010 33 be 17 3f d4 f5 88 3e
       0.59274596 0.26750052

conv2.1.running_var f4 [6]
000000 83 a5 70 3e 84 8e 35 3e 43 2c a5 3e 27 b5 84 3e
       0.23500638 0.17730147 0.32260332 0.25919458
000010 98 d7 17 3f db fe 53 3e
       0.59313345 0.20702688

conv3.0.weight f4 [6, 6, 3, 3]
000000 17 33 70 bb 7c ac fa 3c f6 2a 0c bd b5 a0 32 3d
       -0.0036651546 0.030599825 -0.03422066 0.043610293
000010 0d da 8e 3d 6e ea 5b 3d cd 52 3e bc 86 09 16 bd
       0.06975184 0.053690366 -0.011616421 -0.036630176
000020 5b 83 14 3d e8 a5 54 3d 26 60 e5 bd 76 ac ae 3d
       0.036258083 0.051916033 -0.111999795 0.08528988
000030 7e f9 95 bd 37 79 64 3d a5 47 07 be 14 08 bb bd
       -0.073229775 0.055779662 -0.13210924 -0.091324
000040 64 94 68 3d 61 8f 5b 3b d4 a4 11 3d e0 b8 19 3e
       0.05678214 0.0033502209 0.035557583 0.1501193
000050 37 5f 94 3d 0a 3c f2 bd f7 ea 68 bd df fb 86 3d
       0.07244723 -0.11827858 -0.056864705 0.06591009
000060 0e f0 0f bd a0 46 69 3d b1 77 21 be 8c 02 c2 3c
       -0.035141043 0.05695212 -0.15768315 0.023682855
000070 7c 4e c1 3d 36 25 04 3d 5f d4 8f 3d 6f 86 32 be
       0.09438798 0.03226205 0.070229284 -0.17434095
000080 27 7d d1 bd c2 ff fc ba 72 60 10 be c0 c1 9a 3d
       -0.10228949 -0.0019302296 -0.14099291 0.07556486
000090 f3 2d d5 3c a4 a9 15 3b a5 ae ae 3c 54 67 d6 bd
       0.026022887 0.002283671 0.021323511 -0.10468927
0000a0 31 57 09 3d eb 25 5a 3d 7f 3f 81 bd 94 33 00 be
       0.033530418 0.053258818 -0.06310939 -0.12519675
0000b0 56 db 9e bc a7 bb f8 bd 2a 7b 19 3d 7d b2 85 3d
       -0.019391697 -0.12145167 0.037470974 0.065281846
0000c0 1c 52 08 3e d7 b8 65 3d d0 f5 2b 3d 6e bc 3f 3d
       0.13312572 0.05608448 0.041982472 0.04681056
0000d0 c6 7b 0a be 99 20 cf bb 3d d6 8c 3c 20 ba cd 3d
       -0.13523778 -0.0063210246 0.017192 0.10045266
0000e0 00 da af 3d 2f 5f d8 3d 31 0a ac bb 3d d2 bd bd
       0.08586502 0.1056503 -0.0052502383 -0.092686154
0000f0 2a 00 56 3d d4 8d 3a 3a ab 12 19 bc 8b 49 5d 3d
       0.05224625 0.0007116471 -0.00934283 0.054025214
000100 e6 30 b9 bd b6 b9 43 3d 99 ee 71 3c 43 c0 85 bd
       -0.0904253 0.04778453 0.014766359 -0.06530812
000110 5c f2 5e bc e1 ee 98 bd 48 0e e4 bc 6a d2 a9 bd
       -0.013607588 -0.074674375 -0.027838841 -0.082920864
000120 d3 3c 3d be c6 54 18 bd c8 1e 38 be b6 f4 ec bd
       -0.18480234 -0.03719022 -0.17980492 -0.115701124
000130 33 f8 89 bd 71 1c e2 bd 93 c1 fb 3d a2 89 1f 3e
       -0.06736793 -0.11040581 0.12292781 0.15579847
000140 9d 02 f8 3d e6 1b 8b bd 93 ff 63 bc 05 02 4b 3a
       0.121098734 -0.067924306 -0.013915914 0.00077441364
000150 c1 14 fc ba 5f e2 39 3d 34 48 76 3d 39 a7 fa bd
       -0.0019232259 0.0453819 0.060127452 -0.122389264
000160 50 e9 50 bd 9c cd 15 3e c5 39 c5 3d fd 4f d4 3d
       -0.051003754 0.14629215 0.09630159 0.10366819
000170 79 52 fb 3c 16 51 1f 3e fe 87 41 bd 44 af e9 bd
       0.030678974 0.15558276 -0.047248833 -0.114103824
000180 ef 9d aa bb 05 b7 9d bd fc b6 d7 3a 8f 38 3e bd
       -0.0052068154 -0.07700924 0.0016457732 -0.046440657
000190 43 1e 8b 3d ee 22 ff bc da 6d 74 3d cb 8f db 3d
       0.06792881 -0.031144585 0.059675075 0.10720786
0001a0 85 9c b6 bc 1b a5 51 3b 31 4d 9e 3d d3 ab 59 bd
       -0.022291431 0.003198928 0.07729567 -0.05314238
0001b0 eb 95 2d be c7 13 65 bd 42 77 db bd 7f e8 04 3d
       -0.1695172 -0.055927064 -0.10716106 0.032448288
0001c0 53 d4 22 3e 41 92 55 3c 1a 39 fd 3d f3 3d d5 3d
       0.15901308 0.013035358 0.12364407 0.104122065
0001d0 3f 88 dc 3d 8f 40 33 3d 45 59 f4 3d 81 be d5 3d
       0.107681744 0.04376274 0.11931089 0.10436726
0001e0 bb 16 dd 3d a4 92 43 3d f6 99 c2 3d 42 04 81 3d
       0.10795351 0.04774727 0.09502022 0.0629964
0001f0 5f a3 73 bd 6d 10 55 3d 07 7c 71 bd d4 c4 9a bc
       -0.059481975 0.052017618 -0.058956172 -0.018892683
000200 51 7c 05 3c 5c 57 a4 bd c0 46 8d 3d 4e db 0f 3c
       0.008147315 -0.08024475 0.0689826 0.008780314
000210 43 ab b4 bd b0 97 99 3d 8a f2 1d 3d 7a 4a 01 3d
       -0.08821728 0.07499635 0.03856138 0.031565167
000220 8a bf 88 3d b3 68 ab 3d 6b 7f cf bd 9f 5b 9f bd
       0.06677158 0.08369579 -0.10131725 -0.07781147
000230 f7 c3 fe bd 9b e6 87 bd 58 d2 86 bd d3 0d b6 bd
       -0.12439721 -0.066357814 -0.06583089 -0.088893555
000240 cb eb 46 bc 68 bd 9a 3c e0 a2 c1 3b d8 15 8b 3d
       -0.012141178 0.018889144 0.005909309 0.06791276
000250 4b 87 98 bc f5 31 18 3c 0c a9 b7 3d c7 9a a3 3b
       -0.0186192 0.009289254 0.0896779 0.004992816
000260 c5 96 cc bd 8d 21 a7 3d 0e 73 ac bc bb dc aa bd
       -0.099896945 0.08160696 -0.021050956 -0.08342882
000270 f6 52 e2 3c c4 4e dd 3d 76 4f 19 3c dc 1a 9a 3d
       0.02762745 0.10806039 0.009357324 0.07524654
000280 3e 94 e0 bb 28 ec 7d 3d e6 6f 14 be 2e 6e db 3c
       -0.0068536093 0.061992794 -0.14495811 0.026785936
000290 6c be d4 bd c6 7f 13 be a3 f0 c9 bd 4a 0d 26 3d
       -0.103878826 -0.1440421 -0.09860351 0.040540017
0002a0 00 39 a0 bd f4 a4 2c be 39 f1 86 3d 2b a1 58 3d
       -0.07823372 -0.168598 0.06588978 0.052888077
0002b0 62 d2 a3 3c 0a c5 d9 bc 59 e0 ab bd 47 07 fb bd
       0.01999778 -0.026583213 -0.083924 -0.122572474
0002c0 18 3e a4 3d cd 85 d9 bd ad 6b b6 3c 36 4d 0a 3e
       0.08019656 -0.106212236 0.02226814 0.13506016
0002d0 88 27 ff 3c 6c 31 6d bd e5 29 a8 3d 95 4e 23 3d
       0.03114678 -0.05790846 0.08211116 0.039869864
0002e0 9f 73 ae 3d cb a2 a5 3d 2d 9c b5 bd e6 da 1c 3d
       0.08518147 0.08087691 -0.08867679 0.038294695
0002f0 92 64 07 be 1f 75 ba 3d 3a 93 1a 3e 64 dd 8a 3d
       -0.13221958 0.0910437 0.15095225 0.06780508
000300 8f 94 35 bd 86 5d d6 bd 71 df 9d 3d 7e e7 f5 bb
       -0.04433113 -0.10467057 0.07708634 -0.0075044027
000310 06 12 83 bd d3 6d e6 3d b2 fd be bd 65 f8 9c 3d
       -0.06399922 0.11251416 -0.09325732 0.07664565
000320 ad 4f 06 be 07 9e ba 3d 57 22 5a 3d 06 59 15 be
       -0.13116331 0.091121726 0.053255405 -0.14584741
000330 d0 63 b9 3c 92 75 01 bd 17 de e5 bd e9 72 85 3d
       0.022630602 -0.031606264 -0.11224001 0.06516058
000340 9f 0f 22 bc 5b 78 f2 bc 75 ea 92 3d e8 21 b2 bc
       -0.00989142 -0.029598406 0.071736254 -0.021744683
000350 78 d1 e7 3d e9 69 aa 3d d3 7d e8 bc 57 51 3d 3d
       0.1131925 0.08320982 -0.02838031 0.04622015
000360 7b a0 25 be 53 19 e9 bd d3 91 c9 bd a3 67 9e 3d
       -0.161745 -0.11381783 -0.09842267 0.07734611
000370 ec c1 a5 bd 96 36 c6 bd 00 d2 1d ba 7c 3d 55 bd
       -0.08093628 -0.0967838 -0.0006020367 -0.05206059
000380 f1 2a a2 bd c5 01 72 3d e4 34 ce bd 84 a2 d3 bd
       -0.07918347 0.05908372 -0.10068682 -0.10333732
000390 26 43 a6 38 21 d3 e7 bd 7a e7 97 bd 52 26 d7 bc
       7.928004e-05 -0.113195665 -0.074171975 -0.02626339
0003a0 92 53 c1 bc e4 35 28 3d eb 94 3d 3d 03 5a e4 3d
       -0.02359942 0.04106702 0.046284597 0.11149981
0003b0 ac 9d b5 bd 64 75 e6 bd 55 e6 ae 3c 5e 4c f5 3c
       -0.08867964 -0.11252859 0.021350065 0.029943641
0003c0 68 ba bf 3d 00 97 f5 3d 73 f5 25 bd 04 81 16 be
       0.09361726 0.119916916 -0.04051728 -0.14697653
0003d0 3c 12 b7 bc 46 c5 81 3d 9c d4 a0 bd 5c aa a9 bd
       -0.022347562 0.06336455 -0.07853052 -0.082844466
0003e0 06 3b fa bd 53 95 76 3d f0 cf 87 bd 43 56 0f bc
       -0.12218289 0.060201 -0.06631458 -0.008748594
0003f0 e7 99 64 bd a8 05 12 3e a4 d1 c9 bc ca eb fb 3d
       -0.055810835 0.1425997 -0.024636097 0.123008326

conv3.0.bias f4 [6]
000000 3d df c5 3d 62 f6 37 3d 42 0a cb 3d d9 44 97 3d
       0.0966172 0.044912703 0.09914066 0.073861785
000010 a9 d6 37 bd 17 e1 e1 3d
       -0.04488245 0.110292606

conv3.1.weight f4 [6]
000000 1e 03 76 3f 80 7b 7b 3f 51 6d 78 3f 3f 92 7b 3f
       0.96098506 0.9823532 0.97041804 0.9827003
000010 c5 77 80 3f 5e 90 7b 3f
       1.0036551 0.9826716

conv3.1.bias f4 [6]
000000 d4 0e b2 3c d4 84 38 3d e2 eb 2c 3d e4 02 01 3c
       0.021735586 0.04504855 0.042217143 0.007874224
000010 1e 95 e0 3c 85 dd 22 3b
       0.027414855 0.0024851274

conv3.1.running_mean f4 [6]
000000 81 f4 95 3c 85 af 8d 3d 2f 2e b6 3e 75 02 81 bd
       0.018305065 0.06918243 0.3558211 -0.06299297
000010 2d 9e db be 0b 78 fa bc
       -0.42894116 -0.03057482

conv3.1.running_var f4 [6]
000000 60 5d 2a 3e b7 6c 1b 3e 3b 4e 8e 3e e3 6a 21 3e
       0.16637182 0.1517819 0.2779406 0.1576343
000010 06 bf 00 3e 17 70 14 3e
       0.1257287 0.14495884

conv4.0.weight f4 [16, 6, 5, 5]
000000 61 40 f6 bc 43 11 9d bd 49 5a 5b 3d 9c 90 01 3d
       -0.030059995 -0.07669308 0.0535529 0.03163205
000010 7e 09 52 bd 0f e0 72 3d e2 17 b1 3c ab d7 8b bd
       -0.051278584 0.05929571 0.021617834 -0.06828245
000020 9d c4 4a 3d 5c 33 aa 3d c4 ea 74 3d 5d 78 8a bc
       0.04950391 0.08310577 0.059794202 -0.016903097
000030 f1 09 25 3c 4e 4a 63 3d db cd 08 bc 82 70 15 bd
       0.010073171 0.055490784 -0.008349861 -0.03648425
000040 61 58 2e 3c 68 b3 0f 3d 63 43 bb 3d 86 3b 21 3d
       0.010641188 0.035083205 0.09143712 0.039363407
000050 03 18 8f 3d a9 78 54 bc 54 2d 32 3a 45 f6 a3 3c
       0.06987002 -0.012968221 0.00067969155 0.020014891
000060 bd ae d8 bd 29 70 bf 3c f6 a7 c2 3d 87 29 e5 3c
       -0.10580204 0.023368912 0.09504692 0.027973903
000070 e3 4c 82 3d 99 3a d1 3c a7 ca 15 bd 68 52 e3 bc
       0.06362321 0.025540637 -0.036570217 -0.027749255
000080 0c 4e a3 bc 95 71 05 3c d6 78 58 3c 04 6b e0 bb
       -0.019934677 0.008144756 0.013212403 -0.0068486948
000090 15 e5 18 bd f7 c2 24 38 d6 cb 47 3d f5 71 89 3b
       -0.037327845 3.9282222e-05 0.048778377 0.004194493
0000a0 6a 96 06 bc 9c b5 2a 3d 9f 5c 50 bd 60 02 89 bd
       -0.008214572 0.041677102 -0.05086958 -0.06689906
0000b0 3c 9f 8e 3d 9d 02 48 3d 98 23 48 bb e0 cc 00 3d
       0.06963965 0.048830617 -0.0030538794 0.031445384
0000c0 83 98 cd bc 8a a5 8a bc 30 ee 71 bb 7a 90 9d 3d
       -0.025097137 -0.016924638 -0.0036915652 0.07693572
0000d0 58 e9 70 3d 44 9f 28 bd d2 30 96 3c 67 54 4f bd
       0.058816284 -0.041167513 0.018333826 -0.0506176
0000e0 39 1e 76 bd fa 1f 22 bd 05 93 8f 3d 4a 9d be 3c
       -0.060087416 -0.039581276 0.070104636 0.02326836
0000f0 f0 b0 b4 bc 8a e0 37 3d b6 b5 bd 3d 9f 8f 95 3d
       -0.022057027 0.04489187 0.09263174 0.07302784
000100 82 1d 84 bd b7 58 28 bc 87 6f 08 3c 2f 3c b7 3b
       -0.06450941 -0.0102750575 0.008327371 0.0055918912
000110 fc 44 2c bd a6 89 2b bd 43 75 e0 3c 19 9e 86 3c
       -0.042057976 -0.04187932 0.027399665 0.016432809
000120 73 c2 12 3d 1b a3 f1 bc 14 4a 02 3d 08 3d 12 bd
       0.035829972 -0.02949672 0.031808928 -0.035702735
000130 ee 50 72 bd c3 88 18 bc 0a 85 42 bc 9a 20 86 bd
       -0.05915921 -0.00930995 -0.011872539 -0.06549187
000140 db f9 b3 3c c2 c7 43 bd 29 f2 92 bc ee b9 a0 bd
       0.021969726 -0.047797926 -0.017937737 -0.07847963
000150 5e b1 b8 3c 62 fe cc bb f0 21 79 bd cb 88 bd bd
       0.022545513 -0.0062559107 -0.06082338 -0.09254607
000160 6e 16 81 bc db ae 0c bd 51 b1 c8 3c e7 e9 b5 bd
       -0.015757766 -0.034346443 0.024498614 -0.08882504
000170 57 c9 f5 bc b5 db 57 bd fa 2b 4d bd fa a0 3f bd
       -0.030003233 -0.052699763 -0.050090767 -0.04678438
000180 22 7c 3a bd f3 68 c2 bc fb 6d c9 3c f3 9c 25 bc
       -0.04552854 -0.023731684 0.024588576 -0.01010822
000190 43 b1 06 bd cb 35 45 3c 39 bb 43 bd 18 9e 58 bd
       -0.032883894 0.012036751 -0.04778597 -0.052885145
0001a0 d7 46 76 bd 66 30 30 3d 4d 27 95 3d f5 ef 26 bd
       -0.060126152 0.043014906 0.07282887 -0.040756185
0001b0 12 ff 5c bb 38 6b 94 bd c3 a3 43 3d c0 ee 74 bc
       -0.003372137 -0.07247013 0.047763597 -0.014949501
0001c0 37 28 7c bc b4 28 c2 bc e5 a5 56 bc f6 c6 0f bd
       -0.015390447 -0.02370105 -0.013101076 -0.035101853
0001d0 9a 23 89 bc 2a fd 65 3d c6 5c 58 bd c7 42 8a 3d
       -0.016740609 0.05614964 -0.05282285 0.06751018
0001e0 92 eb 28 3d 04 6e 82 3c fd 21 01 bd db 56 f3 3c
       0.041240282 0.0159216 -0.031526554 0.029704502
0001f0 d8 5b 00 3c de 03 f6 3c e0 70 47 bd f6 6f 43 3d
       0.007834397 0.03003114 -0.04869163 0.047714196
000200 cf 8c d8 3b 02 a0 ed b9 02 70 80 bd b3 10 df 3c
       0.0066085826 -0.00045323378 -0.06271364 0.027229642
000210 5e 10 04 3d 72 51 6d bd ae 7b a6 3d f4 02 aa 3c
       0.03224217 -0.057939 0.08129059 0.020753361
000220 a6 f8 65 3c 38 95 2d bd 0a a3 9f bd da 15 8f bd
       0.014036333 -0.042378634 -0.07794769 -0.0698659
000230 c1 5b ce bc 54 16 41 3d cb 32 76 bd 63 00 cb 3c
       -0.025190236 0.047140434 -0.060107034 0.024780458
000240 2f ca 25 bd 61 a0 b1 3c ee c7 5d 3d fe b6 64 3d
       -0.04047602 0.02168292 0.054145746 0.055838577
000250 7f 2d 89 3b 5e a0 40 bd ae a3 92 3c 9e f7 8f bd
       0.0041863318 -0.047027938 0.017900314 -0.07029651
000260 2e 5a 8d bd a1 87 92 bd a6 5c 57 bd 09 11 3a bd
       -0.06901966 -0.071547754 -0.05257859 -0.045426402
000270 8c 4b 9e bd 3e a0 a8 bd a5 a6 c2 3c a3 7a 88 3d
       -0.07729253 -0.08233689 0.023761103 0.06664016
000280 83 01 99 3c 9b 1e 7f bd 12 32 36 3d 95 71 de ba
       0.018677479 -0.062285047 0.044481345 -0.0016971106
000290 8a cc 5c 3c b8 86 1d bd 7a 66 dd bc 0e d9 16 3d
       0.0134765 -0.038458556 -0.027026404 0.036828093
0002a0 59 2f 59 bd da e8 25 bd 1b 82 ff b9 41 00 de 3a
       -0.05302367 -0.040505268 -0.00048734326 0.0016937332
0002b0 d4 1f c6 3c 30 17 25 3d a1 2a ca 3d b5 1e 28 3d
       0.024185099 0.040305316 0.09871412 0.04104491
0002c0 10 fb 1b bd 07 8a a2 bb 4c 5a 87 bb 73 b5 31 bd
       -0.03808123 -0.004960302 -0.0041306373 -0.043385934
0002d0 d7 2c 0a 3d 76 b7 1a bd 50 b4 5a 3d cf 80 89 3c
       0.03373417 -0.03777262 0.053394616 0.016785054
0002e0 78 df 9d 3b 8b 9e 73 bd ea 93 68 3c e7 5e b8 bd
       0.0048178993 -0.05947737 0.014195422 -0.09002476
0002f0 d9 68 8f bd bb 7b 99 bd 56 f8 d3 3c 31 ed 1d 3d
       -0.0700242 -0.07494303 0.025875252 0.03855628
000300 6b 59 de 3b 1e 03 e2 39 a0 76 ad bc d8 2d 68 bd
       0.006785562 0.00043108402 -0.021174729 -0.056684345
000310 d7 94 c7 bc 44 b5 26 3d 03 e6 fe bc cd aa 8f 3d
       -0.024362965 0.040700212 -0.031115538 0.070149995
000320 ad f2 8f bc de a6 33 3d 0b d1 13 3b 6d 3e 9a bd
       -0.017571772 0.04386031 0.002255502 -0.07531438
000330 0c f2 5b 3d 0e 05 47 3d a0 d9 e3 3c b5 31 46 bd
       0.05369763 0.048588805 0.027813733 -0.048387248
000340 51 7a 9a bd 32 3d 72 bd e9 51 77 3c 30 5a 05 3c
       -0.07542861 -0.05914039 0.0150952125 0.008139178
000350 44 82 c2 bc 0a e3 1d 3d c2 33 49 3d 2e da f2 bb
       -0.023743756 0.0385466 0.049121626 -0.007411263
000360 1b 93 08 3d b6 49 08 bd e1 58 1f 3d 0d 66 06 3e
       0.033343416 -0.03327342 0.03890312 0.13124867
000370 68 6b 48 bd 44 28 80 3d fb cd 45 bd 2b 57 9b 3d
       -0.048930556 0.0625768 -0.04829214 0.07584985
000380 0f f7 38 3d 71 2b e5 bc 42 c1 30 bd 83 30 6b bd
       0.04515749 -0.027974816 -0.043153055 -0.05741931
000390 a8 e0 d1 bc 2f ab 0c bd 5f 09 9b bd 2a 92 c2 bc
       -0.02561982 -0.03434294 -0.07570147 -0.023751337
0003a0 1e 55 93 bd 3a 5e 29 bd b5 5d 92 3c 0f 15 d6 3c
       -0.07193969 -0.041349627 0.017866949 0.026133088
0003b0 6a 7c ce 3c 32 7b 9e 3c c8 50 6d bb d5 f3 4f bd
       0.02520581 0.019345853 -0.003621148 -0.050769646
0003c0 8d e4 55 3c 09 5f b9 3b 1b ea 21 bc 94 1d 98 bb
       0.013054979 0.005657081 -0.009882475 -0.004642198
0003d0 ee 1b 92 ba 09 2f 52 bd 74 9e 49 bd 0f be 86 bc
       -0.001114724 -0.051314387 -0.04922338 -0.016448049
0003e0 33 cb 50 bd 85 c2 3b bd 44 28 cb bc bc ab 05 bd
       -0.050975036 -0.045839805 -0.024799474 -0.03263448
0003f0 a5 49 14 3b ed 94 02 bd 8d d6 74 bd c1 b3 c9 bc
       0.0022626903 -0.031880308 -0.059774924 -0.024621846

conv4.0.bias f4 [16]
000000 1c c4 81 3d 80 59 65 bd 9f 36 95 3d 3c a9 59 bd
       0.06336233 -0.055993557 0.07285809 -0.05313991
000010 13 23 35 3d 6c 9c 50 bd 8a 5a 88 3d ff 02 07 3d
       0.044222903 -0.050930426 0.06657894 0.03296184
000020 32 11 43 bd b4 71 83 bb be ea 09 bb 45 77 93 bd
       -0.04762382 -0.004011357 -0.0021044458 -0.07200483
000030 01 25 59 bc 07 f1 84 3d 62 28 0f bd f8 8e c3 3c
       -0.013253451 0.06491285 -0.03495062 0.023871884

conv4.1.weight f4 [16]
000000 76 e6 94 3f 88 56 9a 3f 33 08 90 3f 3d 06 9d 3f
       1.1632831 1.2057657 1.1252502 1.2267529
000010 cb ff 93 3f a8 da 99 3f bc cc 93 3f ba a3 a0 3f
       1.1562437 1.2019854 1.1546855 1.2549965
000020 35 f7 99 3f e7 b5 96 3f 5a 95 94 3f 5c 9e 9e 3f
       1.2028567 1.1774262 1.1608078 1.2392077
000030 70 1d 91 3f 25 9e 8f 3f 8e 39 a0 3f 57 21 9e 3f
       1.1337109 1.1220137 1.2517564 1.2353925

conv4.1.bias f4 [16]
000000 9e 7b aa 3d 06 d8 a9 3d 68 3e 81 3d f9 4c b3 3d
       0.08324359 0.08293156 0.06310731 0.08754916
000010 14 47 a4 3d f6 fb ac 3d e2 f0 90 3d 54 ef 9c 3d
       0.080213696 0.08446495 0.07077195 0.07662836
000020 ed 73 96 3d 96 73 99 3d 2f 66 b0 3d 4d 27 bc 3d
       0.0734633 0.074927494 0.0861324 0.091871835
000030 0b 3d 9a 3d bb 82 83 3d 2a 99 ca 3d e4 53 b9 3d
       0.07531174 0.06421419 0.09892495 0.09049204

conv4.1.running_mean f4 [16]
000000 74 60 b0 bd df 12 bb be 9b d4 e9 bb f9 2b e7 3e
       -0.08612147 -0.36537835 -0.0071359403 0.45150736
000010 0a 68 16 3e 4a 6a 03 3e 3c 6d dd bd bc 8f a7 3e
       0.14688125 0.12833515 -0.108118504 0.32726848
000020 b1 49 a2 3d f0 09 67 3e ee ab 90 3c 97 a1 13 be
       0.07924212 0.22562385 0.017660107 -0.1441711
000030 54 ef bf be 7d b8 d5 3e 9a bc 6d 3e 9a c8 c8 3e
       -0.3748728 0.41742316 0.23216477 0.39215547

conv4.1.running_var f4 [16]
000000 2f 7a 1e 3e 7a 79 f5 3d bd 48 29 3e 43 b5 f4 3d
       0.15476297 0.119860604 0.16531654 0.119486354
000010 45 d5 4e 3e 7b bd 29 3e a9 3e ef 3d f3 77 e0 3d
       0.20198543 0.16576187 0.11681873 0.109603785
000020 3c 33 37 3e 38 62 b8 3e 0b 03 3c 3e 24 54 52 3e
       0.17890638 0.36012435 0.18360536 0.2053991
000030 fb 38 ce 3d ba 72 6d 3e dd 5f b9 3d 7b 24 00 3e
       0.10069462 0.23188296 0.090514876 0.12513916

fc1.0.weight f4 [120, 400]
000000 68 cd 80 ba 26 13 99 bb b2 36 60 3c ed e4 fa 3c
       -0.0009826841 -0.004671472 0.013684915 0.030626738
000010 f7 22 2e bd 10 2b 60 bd c8 c5 26 bd 2f 2b 78 bd
       -0.042513814 -0.054728568 -0.040715963 -0.060588058
000020 d8 f6 20 3d b7 60 fd 3a 96 63 f4 bc ae b5 e5 bb
       0.03929791 0.0019331191 -0.029832643 -0.0070101833
000030 6c 4f 82 bd 2d 11 17 bd ae bf a0 3c 5b c1 32 bc
       -0.06362805 -0.036881614 0.01962265 -0.010910357
000040 85 0a 33 bc 21 14 f3 bc 80 1b 4f bd 7d ca 88 bc
       -0.010927801 -0.029672684 -0.050563335 -0.016698116
000050 fd 14 64 3d 20 80 cc 3c 7d 2f 19 3d 25 04 3a 3d
       0.05568408 0.024963439 0.037398804 0.04541411
000060 b7 c1 be bb 18 a1 cc bb 9c e6 9f bb e1 41 fb 3b
       -0.0058214325 -0.00624479 -0.0048797857 0.0076677655
000070 35 28 e6 3c 38 75 1b 3d 54 58 07 bc e1 f8 8d bd
       0.028095344 0.037953585 -0.008260805 -0.069322355
000080 c0 a7 b7 bc 2e 6f 05 bd b0 61 27 bd 1f 47 3e 3d
       -0.022418857 -0.032576732 -0.040864646 0.046454545
000090 99 6f 74 3c 16 58 92 bd fb b8 64 bd 2b b1 77 3c
       0.014919185 -0.07145707 -0.055840474 0.015117924
0000a0 3d 2c 0f 3d 30 19 f2 bb ee b8 7a bb 24 2e ea 3c
       0.0349543 -0.0073882565 -0.00382572 0.028586455
0000b0 b1 8d 31 3d e8 ea ef bc b6 fe 4b 3d 0f db 76 bc
       0.043348018 -0.029286817 0.04980346 -0.015066876
0000c0 61 5c f6 3c a5 bc 61 bc c0 31 b2 3c 42 7a 19 bc
       0.030073347 -0.0137778865 0.021752238 -0.009367527
0000d0 ba 8f f6 bc f8 59 27 3d 21 88 29 3c ca 87 e8 3c
       -0.030097831 0.040857285 0.010347397 0.028385062
0000e0 8e 5b b6 3c 26 9a ee bc 91 61 67 bb 5c bd 15 3c
       0.022260454 -0.029126238 -0.0035305957 0.009139385
0000f0 0a 2c 1a bd 06 8e 0c 3d 11 96 1a bd 25 ed 03 bd
       -0.037639655 0.03431513 -0.03774077 -0.03220858
000100 f1 25 ba bc 64 a3 c9 bb 0c 76 bc bc 61 09 77 3a
       -0.02272317 -0.006153511 -0.023005508 0.00094237
000110 58 a8 7c 3d 72 ae 95 bc 6c fd d3 3c bb 16 59 3d
       0.061683983 -0.018271659 0.025877677 0.053000193
000120 72 63 20 bd b1 d3 30 3c d6 39 08 3d fa 0a d9 3c
       -0.03915734 0.010792659 0.03325828 0.026494492
000130 1f c3 08 3c 18 20 03 3d e8 dc 3b 3d 56 5b 54 3d
       0.008347302 0.03201303 0.04586497 0.051844917
000140 a7 b9 1f 3d 4f d3 4b bc e4 52 1f bd 7e 9f 29 3d
       0.03899541 -0.012440517 -0.03889741 0.04141187
000150 66 53 30 bb 3a f0 c0 3c 1e 28 6d 3c 17 d6 90 bd
       -0.0026905178 0.023552049 0.014474897 -0.070720844
000160 07 20 69 bd 4b 36 0e bd bc 90 a6 3c ab 72 36 3c
       -0.05691531 -0.034719747 0.020332687 0.011135737
000170 27 63 9f 3c 28 9a b8 3c 53 7c b0 3c 0d d9 c8 3c
       0.01945646 0.022534445 0.021543657 0.02451756
000180 fd 49 3e 3d 0f bf 33 3d b4 54 9e bc 05 e7 ab b9
       0.04645728 0.04388338 -0.019327499 -0.00032787785
000190 7b 0c c4 bc 70 e4 d3 3c 8d 2c 3f bc 9a 9a 2b 3d
       -0.023931732 0.025865763 -0.011668337 0.041895486
0001a0 0e 57 a0 bc ac 13 1b 3d c1 56 6c 3c c6 17 23 3d
       -0.01957276 0.037860557 0.014424981 0.039817594
0001b0 54 4e 78 3d 54 03 37 3b 6a d8 30 3d 08 b5 3f 3d
       0.060621575 0.0027925568 0.04317514 0.046803504
0001c0 22 a1 2f 3d ca 3b be 3d 3e 7d 03 3b 44 e5 1b bd
       0.042878278 0.092887476 0.0020063664 -0.03806044
0001d0 a1 a5 21 3c 83 81 04 bd de ae 27 3d 0c 1f 37 3d
       0.009866149 -0.032350074 0.04093825 0.044707343
0001e0 70 33 ad 3c 2f 0d b2 3c 56 e7 16 bd 07 e2 28 bc
       0.021142691 0.021734802 -0.036841713 -0.010307795
0001f0 33 87 08 bd 81 25 e0 ba 1b 2d e2 3c 51 43 86 3c
       -0.03333206 -0.0017101021 0.027609399 0.01638952
000200 d9 6c 92 bc 11 4c 85 3c 9a 4f a4 3d 51 b6 8d 3c
       -0.017874168 0.016271623 0.08022995 0.01729885
000210 90 f3 9e ba 22 52 3c 3c 5d 73 32 bc 3a af cb bc
       -0.0012127031 0.011494191 -0.010891763 -0.024863828
000220 06 64 2e bd e3 e7 39 bd d8 fc 17 bd 9f 9c 9f 3b
       -0.04257586 -0.04538716 -0.037106365 0.0048709656
000230 78 a8 3b 3d f3 59 c7 3b c0 f6 81 3d b0 d0 7b b8
       0.04581496 0.006083721 0.06345892 -6.003742e-05
000240 92 ef f7 3c 0d 0a c7 3c 7c f7 38 3d a4 f5 98 3d
       0.030265603 0.024296785 0.045157894 0.07468727
000250 51 e7 0a 3d ff 53 68 bc cc a6 14 bd e5 32 d9 3c
       0.033912007 -0.0141801825 -0.036291882 0.026513526
000260 cf 2b 9c 3d 01 73 76 3d 08 86 77 3d ff 89 74 bc
       0.07625543 0.06016827 0.060430557 -0.014925479
000270 85 b3 30 3d d0 b8 bd bb 2f f7 93 3d b3 a0 a8 bc
       0.043139953 -0.0057898536 0.07224881 -0.02058444
000280 70 57 83 3d fd 50 5a bb f1 0b 8c bb a2 c0 a5 3c
       0.06413162 -0.0033312433 -0.0042738845 0.020233456
000290 78 5c 02 bc 15 94 76 bc 11 03 0b 3d 9e 39 f6 3a
       -0.007956617 -0.015049954 0.03393847 0.0018785482
0002a0 ef 4c 0d 3d 29 3b 0d bd 5b ab f4 3c 36 7e cd 3c
       0.034497198 -0.034480248 0.029866865 0.025084596
0002b0 6c 4e a5 3b 27 47 49 3c 4e 4b 58 3c bd 4e f0 bb
       0.005044749 0.01228503 0.013201548 -0.007333605
0002c0 aa ec 9b 3b f8 23 5e 3c 9a 30 a0 bc 50 94 90 bc
       0.004758437 0.01355838 -0.019554425 -0.017648846
0002d0 46 78 c1 bc ae 80 85 bc 6a 40 ab bd 74 1c 4c bd
       -0.023616921 -0.01629671 -0.083618954 -0.049831823
0002e0 fd 7f 3c 3b 4f 1d 5d bd 91 84 27 bc 01 e3 04 bd
       0.002876281 -0.05398303 -0.010224477 -0.03244305
0002f0 23 87 84 3c 38 65 cf bc 67 64 c6 3c 0e cf 3f 3d
       0.01617772 -0.02531682 0.024217797 0.046828322
000300 5a d9 1f bc 67 3a 54 bd 9d 82 09 bd 08 b3 1f bd
       -0.0097564105 -0.05181351 -0.03357183 -0.038989097
000310 c1 48 08 3d 4b 04 ed 3c 9c 5f d9 3c 4d a6 80 3c
       0.03327251 0.028932711 0.026534848 0.015704298
000320 ea c7 df bc dd 95 b9 bc 45 e5 7d bc 3b a1 f8 bc
       -0.027317006 -0.022654468 -0.015496557 -0.030350318
000330 11 e6 16 3d 20 64 1b 3c ea 8e bc ba 2e 2f 77 3c
       0.036840502 0.009484321 -0.0014385853 0.015086932
000340 09 24 2b bd 7d f6 ac 3c d6 ae 04 bd 24 47 c0 3c
       -0.041782413 0.021113629 -0.0323933 0.023471422
000350 f8 8a 74 bd ac 6c 14 bd e8 60 31 bd 97 d7 8c 3d
       -0.059702843 -0.03623645 -0.043305308 0.06877058
000360 43 e5 3d 3c db 39 15 3c 09 26 70 3d b0 c4 06 bd
       0.011590305 0.009108032 0.058630023 -0.03290242
000370 03 a8 87 3c fc 35 80 3d f2 21 a9 3d 18 d4 28 3b
       0.016559606 0.06260297 0.08258428 0.0025761183
000380 80 ec 20 bc 5b b0 1b 3d 44 9b 19 3c 2e 3c 00 3d
       -0.009822011 0.038009983 0.009375397 0.03130739
000390 0d 6d cd ba c6 f8 1f 3d 3b 0b c4 bc 87 13 90 bd
       -0.0015672758 0.03905561 -0.023931136 -0.070349745
0003a0 f5 e2 97 bd 45 91 af 3c 73 cb fc 3b 63 22 5c 3d
       -0.074163355 0.021431575 0.0077146827 0.05374373
0003b0 04 3e 23 bd ce 74 e3 3c 9d 74 9c 3c 73 f8 98 3b
       -0.039854065 0.027765658 0.019098574 0.0046682893
0003c0 1b bb 54 3d a2 bc 4f 3d f9 57 96 3d a3 d4 8f 3d
       0.05193625 0.050717004 0.07340998 0.07022979
0003d0 cb b6 2a 3d d1 5b 5d 3d 94 ba 66 3c 7a cb 56 3c
       0.04167823 0.05404264 0.01408257 0.013110036
0003e0 37 ae 60 3d f7 fa 25 3d cb db 39 3c f7 07 64 3d
       0.054853644 0.04052254 0.011343907 0.05567166
0003f0 4e b4 85 bb 64 43 80 bb c8 59 1b 3d 36 09 18 3d
       -0.004080332 -0.0039142836 0.03792742 0.03711816

fc1.0.bias f4 [120]
000000 83 7c 31 3c b6 c1 6f 3d a8 f1 3b 3b 68 c3 02 bd
       0.010832909 0.058534347 0.0028677974 -0.031924635
000010 55 87 38 3d 83 47 ab ba 49 41 0d 3d 43 2f b5 bc
       0.045050938 -0.0013067577 0.03448609 -0.022117263
000020 ff 62 20 bd 4c e5 19 3d f4 0f 43 3c 27 09 8a 3c
       -0.03915691 0.03757219 0.011905659 0.016850067
000030 45 7b 82 bb b8 3e 12 3d 0d 65 66 bc a8 36 c2 3b
       -0.00398198 0.035704345 -0.014062178 0.0059269257
000040 eb a3 92 bc a6 33 d9 bc 58 c4 ce 3c ae 49 18 3d
       -0.017900428 -0.026513886 0.025240108 0.03717964
000050 1f 06 83 3c 07 27 84 bc 35 3c 0b 3d e5 2f a8 bc
       0.01599413 -0.016131891 0.033992965 -0.02053065
000060 4d 76 04 bd 8e 5d 37 3d 22 44 3c 3d a0 3a e5 bc
       -0.032339383 0.044766955 0.045963414 -0.027982056
000070 36 8b 39 3d 0f ac 24 bd 39 d2 3e bc 7d 25 16 3d
       0.045298778 -0.04020315 -0.011646801 0.036656845
000080 72 3c 5e 3d 19 ba 17 bd a4 f8 1b bc 9e ea f7 3b
       0.054256864 -0.03704271 -0.00951973 0.0075658103
000090 6d a7 6b 3c 4f 4c 19 bd 2e 3b ec 3c b2 c0 8e 3c
       0.014383179 -0.03742629 0.028836813 0.017425869
0000a0 80 c8 42 3d c7 d8 0c bd 9d 25 38 bd 12 50 86 b9
       0.047554493 -0.034386422 -0.044957746 -0.0002561813
0000b0 b2 e8 17 3d 40 6d 32 bd ed e7 e7 bb 1a 7b 3e bd
       0.03708715 -0.04356122 -0.0070772083 -0.046504118
0000c0 c9 fd 57 3d e8 ce 0a bd 65 72 0d 3d 62 ea e5 3b
       0.052732263 -0.033888727 0.034532923 0.007016466
0000d0 3f df e2 3c f3 a4 ab 3a 88 90 e6 bb cd ce 64 3d
       0.027694343 0.0013095423 -0.0070362724 0.055861283
0000e0 bc f6 0b 3d f9 1a 3c bd 64 23 b4 bc 54 dd 8f bc
       0.03417085 -0.04592416 -0.021989532 -0.017561592
0000f0 c4 4e 99 bc 6f 5c a9 bb f0 7b 5e 3d 69 dc f8 3c
       -0.018714316 -0.0051684896 0.054317415 0.030378537
000100 71 01 07 3d bc 61 00 bd 38 7f 3c 3b 26 ad 0e bd
       0.03296036 -0.031343207 0.0028762352 -0.034833096
000110 0a d8 23 3b 0c e6 7c ba d5 67 03 bd 77 70 95 3c
       0.0025000595 -0.0009647317 -0.032081444 0.018242104
000120 30 f5 2a bd 14 f3 d6 3c 33 80 17 3c da 36 ff bc
       -0.041737735 0.026238956 0.009246874 -0.031154085
000130 38 07 a5 bc e4 39 b0 bc 0a c0 ae bb 5b e7 39 3d
       -0.020145044 -0.02151198 -0.0053329514 0.045386653
000140 b3 94 70 3b 4d b0 14 bc 0b f7 1b 3c a3 e5 03 bd
       0.0036709725 -0.0090752365 0.009519349 -0.03220142
000150 17 4e 15 bd 29 88 2d bb 25 c9 60 3c f2 86 21 3d
       -0.036451425 -0.0026478863 0.013719832 0.039435335
000160 db 58 18 3c 45 35 10 3d df 9e 82 bc de 48 a1 bc
       0.009298529 0.03520705 -0.015944896 -0.019688066
000170 1f b4 4b 3b a7 23 1d 3d ed 5d 8c 3c 4a 82 e0 3c
       0.0031082702 0.03836408 0.017134631 0.027405877
000180 56 f8 d2 bc a9 97 69 3d 5b 78 43 bc 6b 6a c3 3c
       -0.025753181 0.0570294 -0.01193055 0.023854455
000190 be 00 f8 3c a0 e3 fa bb b6 5b 76 bc 13 f2 0e bb
       0.030273791 -0.0076565295 -0.015036514 -0.0021811768
0001a0 9d 68 61 bc e4 47 1a bc e7 da a5 3b 8a bd 41 bd
       -0.013757852 -0.009416554 0.0050614956 -0.0472999
0001b0 d8 66 02 bb 7a 50 4f 3d be 53 1b 3d 21 4c 2b 3d
       -0.0019897725 0.050613858 0.03792166 0.04182065
0001c0 57 6f e9 bc cb aa 47 bd fb 30 a8 bc 27 ac 91 bc
       -0.028495474 -0.048746865 -0.020531168 -0.017782284
0001d0 3b 48 84 bc 3b 6c 2b bc 8c 81 94 ba 32 3d 41 bd
       -0.016147723 -0.010462816 -0.0011330112 -0.0471775

fc2.0.weight f4 [84, 120]
000000 d1 4a 21 bd 1b 51 1d 3d 8c e7 f6 bc 89 14 2d 3d
       -0.03937799 0.038407426 -0.030139707 0.042255912
000010 5b a8 45 3d d9 8d 75 3c 0b 3c 20 3d 3b 6d 05 ba
       0.04825626 0.014987432 0.03911976 -0.0005089824
000020 1b 8f ef bc 2a c3 c1 3c ff b3 50 3d 71 56 07 3e
       -0.029243043 0.023652632 0.050952908 0.13216569
000030 4a a8 ab 3d 36 cb be bc 75 cd 85 bd 9a 8e 17 3d
       0.08381708 -0.023290258 -0.065333284 0.03700123
000040 b5 ac 52 bd 56 8f a0 bc 44 89 76 3d 19 49 69 bd
       -0.051434238 -0.019599598 0.0601895 -0.056954477
000050 d5 9a 86 3d 05 3d a2 bc 0f 0c c3 3c c9 c7 c4 3d
       0.065725006 -0.019804487 0.02380946 0.096084185
000060 68 55 db bc 3f c9 03 3d d0 39 15 3d ef 8a d1 bc
       -0.026774123 0.032174345 0.036432087 -0.025578944
000070 6c 2d 8c 3d 81 f6 8e bd c2 50 87 bd c9 72 80 bd
       0.06844601 -0.06980611 -0.066072 -0.062718935
000080 78 c6 89 bd 9c 74 3e 3d e1 a4 13 3d 11 b4 c4 bd
       -0.06727308 0.046497926 0.036045913 -0.096046574
000090 3e 3e a5 bd 1e 94 7c 3d 03 9c 44 bd bb 42 0a bb
       -0.080685124 0.061664693 -0.048000347 -0.0021096903
0000a0 da b7 73 3d 06 94 8b bd 82 9d 21 3c c7 69 9a 3c
       0.059501506 -0.068153426 0.009864213 0.018849267
0000b0 73 a9 91 bc e3 d6 96 bd a2 4e fd 3d 3a 79 7d bd
       -0.017780995 -0.07365205 0.12368514 -0.06188319
0000c0 5e 41 9a 3b 5d e5 96 3d a0 24 65 3d b4 37 f0 3c
       0.0047074994 0.07367966 0.05594313 0.029323436
0000d0 b9 1b 21 bb c6 ba 92 3d c4 aa 29 3d dc 4e 43 bd
       -0.0024583174 0.071645305 0.04142262 -0.047682628
0000e0 7d 36 d1 3c e0 ca 62 3c 98 dc 3d bd 5b 13 79 bd
       0.025538677 0.0138423145 -0.046352953 -0.060809474
0000f0 d9 4b 96 3d 6d b8 ad bb e1 85 9b bd ea f4 a0 3d
       0.073386855 -0.0053015263 -0.07593895 0.07859214
000100 d4 45 a1 3b 6a eb 28 bd 9d c1 d2 bd 27 ac d1 bb
       0.0049216542 -0.041240133 -0.10290835 -0.006398696
000110 c6 df b5 ba c5 4d 1c bd 8c 02 b4 3d 95 6f 1b 3c
       -0.0013875894 -0.038160104 0.08789548 0.009487052
000120 63 05 c3 3d 4e df 85 3d b3 8f 92 bd 34 0e 83 3d
       0.09522512 0.065367326 -0.07156315 0.063991934
000130 6d 3f b1 bd ee db aa 3b 33 21 62 bd a8 ca 4a bd
       -0.08654676 0.005214206 -0.055207442 -0.049509674
000140 28 4b 4d 3d e7 a8 db bc b8 70 8d 3c db ff fb 3d
       0.050120503 -0.026813937 0.017265663 0.1230466
000150 2a 62 c4 3d e2 da 61 bd 2f e3 22 bd a4 f1 8c 3d
       0.09589036 -0.055140384 -0.03976744 0.06882027
000160 43 92 91 3d ef 8a 65 3d 0a 72 63 3c e4 6f 76 3d
       0.07107975 0.0560407 0.0138821695 0.0601653
000170 e4 52 37 3d e8 be 9e bd bc 69 97 3d 5d a2 4e bd
       0.044756785 -0.07751256 0.07393214 -0.05044781
000180 a8 9f 9a ba 06 93 dc bd a0 49 89 3d b8 d9 5e 3d
       -0.0011796849 -0.1077023 0.06703496 0.05440685
000190 0f 86 58 bd f7 05 41 3c cf 68 cd 3c f0 c1 42 bd
       -0.052862223 0.011781207 0.02507439 -0.047548234
0001a0 d5 e7 0b bd 8e a4 1d 3d 50 00 a6 bd ea 6f 7b 3c
       -0.03415664 0.03848701 -0.08105528 0.015346507
0001b0 8c b9 ba 3d b2 74 f0 3c 1c 56 b4 3d d7 78 f6 bb
       0.091174215 0.02935252 0.088054866 -0.0075217295
0001c0 9b a3 59 3d af b7 85 3d 3d 5c da 3d 33 87 21 3d
       0.053134542 0.065291755 0.10662124 0.039435577
0001d0 35 0b d6 3d e1 f3 9b 3d 3d db d6 3a 1a 41 9c 3d
       0.10451356 0.076148756 0.0016392242 0.07629605
0001e0 e5 8a 97 bd f0 83 78 bd 84 fa 87 3c 7d 6f dd bd
       -0.07399539 -0.0606727 0.016598947 -0.1081228
0001f0 9f ae e7 3c d9 ba 6e bc cf 59 5d 3d 5e f5 cb bd
       0.028281508 -0.014570915 0.054040726 -0.099589095
000200 69 95 2e 3c 42 db 4b bc 56 9a 51 bc eb 83 6f 3d
       0.010655739 -0.012442412 -0.012793144 0.058475416
000210 f8 96 6d 3d 07 5a 1f 3d 0d e2 1f 3e f1 6e bf 3d
       0.058005303 0.038904216 0.15613575 0.09347332
000220 c2 62 85 bd 5b fc bb 3d c1 3e 68 ba 90 a1 72 3d
       -0.06512977 0.09178992 -0.0008859449 0.05923611
000230 8f d4 21 3d 93 1d a0 3d 5f 4b b3 bd 43 40 2e 3c
       0.039509352 0.07818141 -0.0875461 0.010635438
000240 9f 43 91 3d 8d d1 ff 3c 58 2b 9a 3d aa 2e 0b 3c
       0.07092976 0.031227851 0.075277984 0.008495012
000250 30 1b a9 bc ee ea a0 3b a7 52 fe 3c 31 58 02 3e
       -0.020642847 0.0049108183 0.031045271 0.12728955
000260 75 52 3f bd d8 33 72 bd 39 36 1c ba 08 81 c3 3d
       -0.046709497 -0.059131473 -0.00059590075 0.09546095
000270 49 8e a9 bd 34 44 78 3d d0 fa ad bd cb 9e a2 bd
       -0.08279092 0.06061192 -0.08495104 -0.079404436
000280 32 28 09 bd 8e eb 8b 3c a6 a3 77 bd af 65 de bd
       -0.0334856 0.017080095 -0.0604588 -0.10859238
000290 0e ad 16 3d e7 9a a2 3d fa 42 17 3e ef fc 41 bd
       0.03678613 0.079397015 0.14771643 -0.047360357
0002a0 7d 5c af bb 47 2e 8d 3d 54 95 df 3d 70 37 65 3d
       -0.0053516016 0.06893592 0.10917154 0.055961072
0002b0 dd 3d be 3d 77 68 09 bc b7 b2 74 3c fc d4 9e 3c
       0.09289143 -0.008386723 0.014935187 0.019388668
0002c0 51 57 3c bd d1 bd 18 3d 50 f4 7e 3a 62 5d 89 3c
       -0.04598171 0.037290398 0.00097257365 0.016768161
0002d0 6e 17 af 3d b2 b5 97 bc d2 1a e7 bd 33 f0 e7 bc
       0.08549391 -0.018519256 -0.112844124 -0.028312778
0002e0 34 70 b5 3d 17 24 e9 3c bd 08 3d bd 28 56 7b bd
       0.08859292 0.028459592 -0.04615091 -0.061361462
0002f0 b0 94 18 3d fa f6 83 3d a7 02 d2 bb f6 62 ed 3d
       0.037251174 0.064435914 -0.0064090076 0.11591141
000300 aa fb e5 3d 87 ef cf 3d ba 04 0c bc 95 b3 83 bd
       0.11229642 0.10153108 -0.008546049 -0.06430737
000310 9e cc 5b 3d f1 ce 96 bd 75 8e 88 bd 0a 32 7d bd
       0.053661935 -0.0736369 -0.066677965 -0.0618153
000320 b9 e2 af bd 2f b3 96 3d e2 ee 04 bb 51 cc 70 3d
       -0.08588166 0.07358395 -0.0020283987 0.0587886
000330 32 c7 6d bd 53 98 17 3d d6 5d 9a bd 31 4f 8a bc
       -0.058051296 0.037010502 -0.07537429 -0.016883465
000340 76 b7 dc 3d 67 33 8f 3c e5 6b 39 bd 04 3a ac bd
       0.1077718 0.017480565 -0.045268912 -0.08409503
000350 4a d0 15 bc 7c 5a 70 3c 07 5f bd bc 23 bb 73 3d
       -0.009143898 0.014670011 -0.023116602 0.05950464
000360 6e 7c 78 3d 5b cf 81 bb b6 2b b5 bb 39 44 62 3c
       0.06066554 -0.0039614863 -0.0055288924 0.013810211
000370 3f 19 ee bd 9a 78 0c 3e 4f 3b 3d bd 96 0f 73 bd
       -0.11625909 0.13717881 -0.04619914 -0.059341036
000380 a2 4b 1e bd e5 24 81 bd b8 0b f6 bd a8 f7 2c 3d
       -0.038646348 -0.06305865 -0.12013954 0.04222837
000390 e6 cd cc 3c 57 67 95 bd 15 15 ac 3c 63 71 9e bd
       0.025000524 -0.07295101 0.021006146 -0.077364706
0003a0 d8 f3 63 bd 69 16 fd bc 77 89 86 bd 82 ef 91 3d
       -0.05565247 -0.030894475 -0.06569188 0.071257606
0003b0 05 38 c5 3d b2 bf 14 ba d4 02 36 3c c3 f7 ff 3c
       0.096298255 -0.0005674317 0.011109073 0.031246072
0003c0 68 89 d8 bc 0a a8 da 3b 91 61 f3 bc 7a 0a 10 bd
       -0.026432708 0.006672864 -0.02970961 -0.03516624
0003d0 7f bf 21 bd fc d0 ae bd f3 6f 23 3b b8 7b fe 3b
       -0.039489266 -0.08535954 0.0024938553 0.0077662133
0003e0 d5 ad 20 3d d7 4f 33 3d ea 0b 45 bc da 3a 99 bd
       0.03922828 0.043777313 -0.012026766 -0.07481928
0003f0 99 55 90 3d 4e e3 db bd 58 0e a6 bd e3 44 80 3d
       0.070475765 -0.10736714 -0.081082046 0.06263139

fc2.0.bias f4 [84]
000000 8b ed b7 bc 22 c4 01 bb c2 35 c0 3b 49 7a b3 3a
       -0.022452137 -0.0019800742 0.0058657834 0.001369306
000010 21 6d 13 3c eb ad 0a 3d 5f 1e 7d bd 3f 1f 75 3d
       0.008998186 0.033857267 -0.061796542 0.05984425
000020 86 fe 27 bd d8 b1 33 bd f0 c9 99 bc 7e b8 8f 3d
       -0.041014217 -0.043870777 -0.01877305 0.07017611
000030 4b 0c 8a bd 17 c6 d1 bc 9d 6a 1c 3d fa cc ff 3c
       -0.06740626 -0.025607152 0.03818761 0.03122567
000040 06 85 9d 3c 9d 7a 3e 3c ea 83 ad bd 98 f1 6d 3d
       0.01922847 0.011625913 -0.08472426 0.05809173
000050 84 c3 b6 3d 86 d7 93 3b ce 28 a4 3c ac 3c 84 3d
       0.089240104 0.0045117764 0.020038988 0.06456885
000060 3d 84 13 bd dc 69 16 bd 93 63 ac bd 12 a5 af 3c
       -0.036014784 -0.03672205 -0.0841743 0.021441016
000070 f4 dd 8d bc 3c 43 45 bd fc 6f d6 bc ad 45 96 3b
       -0.01731775 -0.048159823 -0.026176445 0.0045859427
000080 e7 40 82 bd 08 fc 92 bd c2 2b d3 3d a7 05 d6 3d
       -0.063600354 -0.071769774 0.103110805 0.10450297
000090 88 a2 33 3d ef 2c 14 3d cd fb 46 3d 39 4f 03 bd
       0.043856174 0.036175665 0.04857998 -0.032057974
0000a0 1b 35 2f 3d bd e7 b6 bd e3 7b 39 3d 14 b1 67 bd
       0.042775255 -0.08930919 0.045284163 -0.05656536
0000b0 ef c8 0d bd 7d c4 9a bc 50 fc cb bc f1 51 ec bb
       -0.034615453 -0.018892521 -0.024900585 -0.0072119166
0000c0 37 a4 a0 3d 3b d2 9a 3c b7 c5 2e bc 6a 13 0d 3c
       0.078438215 0.018899074 -0.010667256 0.008610586
0000d0 5c cb 89 bd 7b fe 34 3d 32 c2 c7 3d 8c 70 98 3c
       -0.06728241 0.044188004 0.09753837 0.018608354
0000e0 b2 55 9b bc 3e 19 68 bb e7 f1 93 3d 38 e5 df bb
       -0.018961761 -0.0035415436 0.072238736 -0.006832745
0000f0 90 5d 74 bd 48 d9 cc bc a0 48 b6 3d 97 a6 a7 bb
       -0.05965954 -0.025005952 0.08900571 -0.0051162946
000100 7d da ac 3d f6 ba 6c bd b8 f0 98 bd ae be fd bc
       0.08440111 -0.057795487 -0.074677885 -0.030974712
000110 cc 44 87 bd 37 fa dd 3b 6e 45 53 bd 3b 59 cf 3c
       -0.06604919 0.0067742127 -0.051579885 0.025311103
000120 ba a4 27 3d b5 4e 20 bd d2 16 78 bd 33 b4 29 3b
       0.04092858 -0.03913756 -0.06056864 0.002589476
000130 34 f4 7d bd 31 3c 7b bb 0f 2e ad ba 4c 20 39 3d
       -0.06200047 -0.0038335437 -0.0013212579 0.045196816
000140 c4 ba 73 3d bb 99 77 bc 6a e3 84 bd a4 43 83 3c
       0.059504285 -0.015112336 -0.06488688 0.016023465
