计算机视觉实践-练习2/checkpoint/lenet_p/Saturday_15_April_2023_09h_48m_35s/lenet_p-11-best.pth (torch, 260575 bytes, 30 tensors)

conv1.0.weight f4 [6, 1, 5, 5]
00000000: c121 05be 54bc f8bd 2549 a63d bb99 283e
00000010: e7ab abbd 3741 a4bd 014d bebd 2f29 00be
00000020: 5298 e23d 9d9f 9dbb c890 53be a465 073d
00000030: af81 113b 27e2 303e 39c1 353e a950 00be
00000040: 070d 2abe 6850 153d a280 8e3d bf7b 933c
00000050: b0fc e53d 0431 013e 2d0e 5e3c 671c d2bd
00000060: 7e4b 183e 6b9f efbd e0ca a13c ffd1 e63d
00000070: ab73 483e 476e 823d 88f4 143d 87da 13be
00000080: 1f7b 93bd 8a99 283d dbd3 6b3e 37c1 253d
00000090: 5f88 73be a397 2d3d bf8b 20be afe3 163e
000000a0: 8413 07be 1314 fdbb fe3d b3bc eb36 d73d
000000b0: 6738 05be 32d6 1ebe d9e8 3ebe 6df9 37be
000000c0: 27ce 603d efca 233d 909b d1bd d503 46bd
000000d0: 541a f13d 246c c73d 4fad 3b3e 8852 ef3d
000000e0: 0ebf ba3d 1ecb 053e 7030 9dbb d791 b6bd
000000f0: 33db 21be b352 dd3d 96fd 593e 99e4 663e
00000100: 9e70 263d d4d2 dabd c2f5 d3ba 78ab c43c
00000110: de0c 4c3e f467 833c 65d6 3b3d e0d0 a43d
00000120: a547 523e 89e7 8fbb 5624 e0bd 0b2c 9cbd
00000130: 2a87 953d 000f 42bc 5632 583d 8411 5bbe
00000140: 5c24 483c 7b95 d6bd 25e2 aabc 3a42 4f3e
00000150: 2bd8 b1bd 3d07 10be 4244 3ebd 9471 ef3c
00000160: c74d c13c dfd4 1e3e 2405 53bd fac3 5abe
00000170: 4b6a d63d d23e 42bb 8d05 88bd 7e54 2d3c
00000180: d607 03be 350a 49be 5312 dfbc 5d94 0e3e
00000190: 48ef 623d 72e1 fe3d 4c0f c23d 49d2 42bd
000001a0: 490b fe3c 0fd3 ec3d ac89 38bd 1bdb 033e
000001b0: 4901 e23d a573 b4bb afda 17be f88f bf3c
000001c0: 7c1f d13d cfc5 f63d 675c d93d 734d cbbc
000001d0: c816 3bbe 4de8 6bb9 f612 7abd e0ca 2a3e
000001e0: 9c88 fdbd 74f4 7cbd bf1e 47be c2ed febd
000001f0: 2528 25be 3a6f 8cbb 456e 0abd 560f 083e
00000200: 0449 4b3e 5f62 693e cbc7 f13d b18e 163e
00000210: 8076 133d 81a5 c7bd 23e4 24bd caf2 7f3d
00000220: 4769 90bd 2859 003d 5b6a 3abd 7887 aebd
00000230: 4538 e4bd 5ec5 953d 1d01 3bbe 5da7 15be
00000240: e948 5dbd 7c19 db3d c214 0abe ffab b33d
00000250: 66a8 d43d 1beb cd3d
-0.13001157 -0.12145296 0.0811942 0.16464894 -0.08382397 -0.08020251 -0.09292031 -0.1251571
0.11064209 -0.004810287 -0.20660698 0.033055916 0.0022202542 0.1727377 0.1774949 -0.1253077
-0.16606532 0.036453635 0.069581285 0.018003343 0.11229837 0.12616354 0.013553184 -0.102593236
0.14872548 -0.117003284 0.019750059 0.11270522 0.19575374 0.0636869 0.036366016 -0.1443883
-0.07201218 0.04116205 0.23030035 0.040467467 -0.2378249 0.04238094 -0.15678309 0.14735292
-0.13191038 -0.0077233403 -0.021880146 0.10508522 -0.13009797 -0.15511397 -0.18643512 -0.17966242
0.054884102 0.039988454 -0.10234749 -0.0483435 0.117726 0.09737423 0.1832783 0.116856635
0.09118472 0.13065764 -0.004797034 -0.089145355 -0.15806274 0.10806789 0.21288142 0.2254814
0.040634744 -0.106847435 -0.0016171264 0.024007544 0.19926783 0.01604078 0.04585876 0.08047652
0.20535143 -0.004391615 -0.109444305 -0.07625588 0.07301171 -0.011844397 0.05278238 -0.213934
0.0122157 -0.1047773 -0.020859787 0.20240107 -0.08683809 -0.14065261 -0.046451814 0.029228963
0.023596657 0.15510891 -0.051518574 -0.21363822 0.104694925 -0.0029639495 -0.06641684 0.010579227
-0.12795958 -0.196328 -0.027230417 0.13923784 0.055403978 0.12445344 0.09475574 -0.047563825
0.03101124 0.11563694 -0.04505317 0.12876551 0.110354014 -0.00550695 -0.14829515 0.02338408
0.10211083 0.12049448 0.106133275 -0.024817204 -0.18270409 -0.00022497885 -0.06105324 0.16678953
-0.12379572 -0.061756566 -0.19445322 -0.124476925 -0.16128595 -0.00428572 -0.033796567 0.132871
0.19852072 0.22791432 0.118056856 0.1470287 0.036001682 -0.09748364 -0.04025663 0.0624874
-0.0705133 0.031335026 -0.045511585 -0.08521932 -0.11143545 0.073130354 -0.18262143 -0.14614625
-0.05402461 0.1069822 -0.13484481 0.0877304 0.10383682 0.100546084

conv1.0.bias f4 [6]
00000000: 8c7a 1fbe aae2 87bc 6117 85bd 45b7 923d
00000010: 3fdc 0dbe aceb 303e
-0.15574092 -0.016587574 -0.064986 0.07163862 -0.13853548 0.17277402

conv1.1.weight f4 [6]
00000000: 8e31 7c3f a9f8 783f 89b7 793f 7b1e 7a3f
00000010: ff31 7c3f d176 7d3f
0.98513114 0.97254425 0.9754568 0.9770276 0.9851379 0.99009424

conv1.1.bias f4 [6]
00000000: ad2e 283c 7ba7 a2bb 6a4b d03c 5473 04bd
00000010: 6c4e fe3c 1bf2 b5bc
0.010265035 -0.004963813 0.025426585 -0.032336548 0.031043254 -0.022210171

conv1.1.running_mean f4 [6]
00000000: 1db9 20be a1bb ddbc 172b 1cbd 451f 373d
00000010: 412f 19be 6a02 4e3e
-0.15695615 -0.027067007 -0.03812703 0.044707555 -0.14959432 0.20118108

conv1.1.running_var f4 [6]
00000000: ed8d ea3e 884b 133f 3099 943f 469e 993e
00000010: 9ede cc3e 5820 8d3e
0.45811406 0.57537127 1.1609249 0.30003566 0.40013593 0.2756374

conv2.0.weight f4 [6, 6, 3, 3]
00000000: e086 4dbd 7170 adbb cf45 113e 00de abbd
00000010: 6456 9bbd 7cea 73bd 255d 0f3d 7b1c 27bd
00000020: 988b ed3d e7b0 f43c 4a6d d03d a8be 133e
00000030: 9fe1 2b3d 943e 15be 2390 46bd 7d0f 13be
00000040: 9061 0abe 465b 6dbd 4723 20bd 0b57 a1bd
00000050: 4237 b9bd 655b 22bd 92b0 32bd fb31 f43c
00000060: c50b 56bc 17c3 c2bd 2430 d23c ea77 f63d
00000070: b8d9 b63d 95c6 793d 8d22 0cbd cf45 183d
00000080: d611 0fbe d6df 433d 6899 e63d 1376 3ebd
00000090: e201 093e 0d33 323e 9c14 ed3d b9d6 cb3d
000000a0: 85c3 993d eef5 45be 9598 923c e0f4 76bd
000000b0: cfea cebc e8e6 16bd c654 4a3a cdd6 943c
000000c0: cf96 34bd 1f5c 0b3e d194 363c 24ad 6a3d
000000d0: b530 233d 2ef9 39bd b982 d83b 763d 9b3d
000000e0: 6f69 af3d 33f6 a6bd cbae 9c3c b209 bfbd
000000f0: d1eb 073e 811d 873d 8d4f 25be ac47 b03d
00000100: e284 6cbd e493 a2bd a274 493d f9d8 efbd
00000110: e3b4 da3d 4b31 99bd 8f7d 263c 09e5 eabd
00000120: 86e2 3c3d 4717 f2bd 8908 073d eed7 09be
00000130: 9335 bbbd 3d41 cfbd e021 6cbd 260c be3c
00000140: d63c 393d 79e7 9f3b 6952 b5bd deee 2abd
00000150: 72ea ea3d b07f d43c 711f 01be bcd6 0fbd
00000160: 8b71 b23d cb35 cebd b6f6 1bbd fa03 5e3d
00000170: 2454 9c3d 8f24 053e 33ba 44bd 3600 f6bc
00000180: 4d7d 0cbe 3ae6 973a 7df3 143c b224 32bd
00000190: 6eef 84bd 9d59 a93d 6f86 fb3c 362e e73d
000001a0: 9ea8 1e3e 25a4 cabd 58a5 4cbb 44b6 dbbc
000001b0: 1893 bbbd fd90 86bc 428e acbd 0b6e 693c
000001c0: e431 32bd 83f6 7d39 4d25 c13c 66aa 573c
000001d0: abae 113d 9bf6 d3bb 2ad2 793b 3238 c1bc
000001e0: 894a e4bd 1489 193d 73f8 e4bd 1950 df3d
000001f0: 33bd b0bc 86e3 b43d 148f 37bd d47f 9a3d
00000200: 9ec7 493d 56f7 b93d 7305 663d 3316 2c3b
00000210: 5bfb a1bd f3ec 34be 26f5 bf3d 050d b5bd
00000220: 96f2 1fbe b9b4 683d 1a2c 9b3b c9ef df3c
00000230: 5958 83bd f2fe 253e 4415 99bc 57f3 733b
00000240: 5972 d33d 1353 4c3d 27b4 213c 263c 41bd
00000250: eba3 b0bd 5dc4 b33d 71fe 3fbd 0d05 ccb5
00000260: b8f4 7dbd a748 0c3e c8d2 403e 003a 383e
00000270: 4018 1e3c 17bf fb3d 54d6 97bd 2709 48bd
00000280: 6e9c b2bc 4eec 84bd a59b ac3c f5d8 183d
00000290: 4600 153e 1a3b de3d 1de5 543d f0bd febc
000002a0: 0a95 553d 61b4 8fbd 1867 b6bd 364c a1bc
000002b0: 9020 4e3d 7972 c33d ba34 b13b aa44 97bd
000002c0: b975 b9bd b1be 023e bd96 003e ee91 1cbd
000002d0: 8c70 dd3c 973c 523e 695f b03d b29a 6dbd
000002e0: 98c9 d73d a641 f6bd 9cb6 72bb 9aa7 09bd
000002f0: 6737 e3bd 93d0 b4bc 8834 92bb 220a ecbd
00000300: 6ac6 f63c 827b 813d fd4a 42bb f021 91bc
00000310: ec4a a0bb fe37 f83b 4be5 9cbd 95b6 efbd
00000320: 0dec 02be c064 f8bd 5c84 09bd 4bcc ce3c
00000330: 8a17 ae3d 1ae6 8bbc 6994 afbd 0872 b2bd
00000340: aa6d 39bc 0354 1fbe 9a35 593c 419f 823d
00000350: 2a4b 8c3d d6f5 c7bd e29f 70bc d4ae 943d
00000360: 3a1c f13c 33f0 0e3e 3579 383d fa75 83bd
00000370: 00ab 433d bf8c 82bd cacf 68bc 3398 433d
00000380: 2d29 a33d 7e39 f13c e895 0bbe ac1e 4cbd
00000390: efd5 cd3d 8140 a4bc 7602 b93d 5720 a73b
000003a0: aafc b23d 6656 973a e5d0 41bd 3deb 9a3c
000003b0: 10ec 683d cdb1 113e 7318 aa3d efec 1f3e
000003c0: ee55 9fbd 8e57 c1bc a5e9 e83d 951a b23d
000003d0: 1132 9a3d 5e69 d23c f370 043e 4314 953d
000003e0: 5402 ee3d e559 31bd 81a3 19bd 22a8 aebd
000003f0: ade5 b8bd 150d 893d 191a ecbd 05ce 113e
-0.050177455 -0.005292945 0.14186786 -0.083919525 -0.07584837 -0.059549794 0.03500094 -0.040798645
0.11598891 0.02986951 0.10177095 0.14428198 0.041963216 -0.14574653 -0.048477303 -0.14361377
-0.1351378 -0.057948373 -0.039096143 -0.0787793 -0.09043743 -0.039637942 -0.04362542 0.029808989
-0.0130643295 -0.09509867 0.02565772 0.120345905 0.08928245 0.0609804 -0.034212638 0.03717595
-0.13971648 0.04782089 0.11259729 -0.046499323 0.13379624 0.17402287 0.115761966 0.099530645
0.075079955 -0.19332096 0.017895022 -0.060292125 -0.02525845 -0.036841303 0.00077183207 0.018168831
-0.044089135 0.1360936 0.011143879 0.057294026 0.039841373 -0.045403652 0.00660738 0.07580082
0.08565032 -0.081524275 0.019126317 -0.09328021 0.1327355 0.06597424 -0.16143627 0.0860742
-0.057743914 -0.07938364 0.049183495 -0.11711306 0.10679033 -0.07480105 0.010161771 -0.11469466
0.046114467 -0.11820846 0.032967124 -0.13461277 -0.09141078 -0.10119865 -0.057649493 0.023199152
0.045224033 0.0048798886 -0.08853609 -0.041731708 0.11470498 0.025939792 -0.1260965 -0.035116896
0.08713063 -0.10068854 -0.03807708 0.05420301 0.07633236 0.13002227 -0.048029136 -0.030029397
-0.13719673 0.0011588999 0.009091255 -0.043492027 -0.0649098 0.082690455 0.030703751 0.11288111
0.1549401 -0.09894589 -0.0031226482 -0.02682031 -0.09158915 -0.016426558 -0.08425571 0.014247428
-0.04350461 0.00024219793 0.023577357 0.013163185 0.035566967 -0.0064686066 0.0038119652 -0.023586366
-0.11147029 0.037484244 -0.111802004 0.10903949 -0.021574592 0.08832459 -0.044814184 0.075439125
0.049262635 0.09080379 0.05615754 0.002625835 -0.079092704 -0.17668514 0.0937293 -0.08840374
-0.15619883 0.056812976 0.004735482 0.027336018 -0.06413335 0.16210535 -0.018686898 0.00372239
0.103245445 0.049883913 0.009869612 -0.047176503 -0.08625015 0.08777688 -0.046873514 -1.5200654e-06
-0.06200096 0.1369959 0.18830407 0.17990875 0.009649336 0.12292307 -0.07413927 -0.048836853
-0.021803107 -0.06490384 0.02107031 0.03731628 0.14550886 0.108511165 0.051976312 -0.031096429
0.052144088 -0.070168264 -0.08906382 -0.01968966 0.050324023 0.09543318 0.005407897 -0.073861435
-0.09055657 0.12768055 0.12557502 -0.038225107 0.027031206 0.20530926 0.08611948 -0.058008857
0.10536498 -0.1202424 -0.0037035113 -0.033607103 -0.110945515 -0.022072112 -0.0044618286 -0.1152537
0.030123908 0.06322385 -0.0029646747 -0.017716378 -0.004891744 0.007575034 -0.07660922 -0.11704747
-0.12785359 -0.121285915 -0.033573493 0.025243899 0.085005835 -0.017077494 -0.08573229 -0.08713156
-0.01131765 -0.15559392 0.0132574085 0.063780315 0.06850274 -0.09763686 -0.0146865565 0.07259908
0.029432405 0.13958816 0.045037467 -0.064189866 0.0477705 -0.063745014 -0.014209697 0.04775257
0.07966838 0.02944636 -0.13631403 -0.04983394 0.1005057 -0.02005029 0.090336725 0.0051002908
0.08739598 0.0011546134 -0.047318358 0.018910998 0.05686575 0.14227982 0.083054446 0.15617727
-0.07780062 -0.02360132 0.11372689 0.08696476 0.07529081 0.025685009 0.12933712 0.07279255
0.11621538 -0.04329862 -0.037509445 -0.085281625 -0.09028182 0.06691948 -0.11528415 0.14238746

conv2.0.bias f4 [6]
00000000: 6734 6dbd e5cb 973d 87ed 453d f6c5 e43d
00000010: 09a1 8cbd ce1a dc3d
-0.057911303 0.07411937 0.048322227 0.111705706 -0.068666525 0.107473

conv2.1.weight f4 [6]
00000000: 8b1b 863f 402c 763f 1352 7d3f c54d 773f
00000010: fa2f 793f d5b8 703f
1.0477155 0.9616127 0.9895336 0.9660304 0.9733883 0.9403203

conv2.1.bias f4 [6]
00000000: d8c4 443d 8368 ff3c 4291 2a3d fd75 f23c
00000010: 3cf4 033d b1d0 5ebd
0.048039287 0.031177765 0.041642435 0.029597277 0.032215342 -0.054398242

conv2.1.running_mean f4 [6]
00000000: 5a52 7abc 8f1f 20be 930e 463e 850d c13c
00000010: b1f2 173f 691b 8c3e
-0.015278423 -0.15637039 0.19341497 0.023566017 0.5935469 0.27364662

conv2.1.running_var f4 [6]
00000000: eaf6 763e e06d 373e 0c6f a53e dca8 843e
00000010: 07f1 163f fedc 523e
0.24117628 0.17913008 0.32311285 0.2591008 0.5896153 0.20592114

conv3.0.weight f4 [6, 6, 3, 3]
00000000: c311 67bb aeac fb3c 6d8a 0cbd 3a20 333d
00000010: ac2b 8f3d 45e2 5b3d a61e 3fbc 4379 16bd
00000020: aa5b 133d bd08 563d e52a e5bd eb8f af3d
00000030: 6808 96bd d795 643d 2940 07be 1cff babd
00000040: 8353 683d f658 683b e925 113d a79d 193e
00000050: c2b8 943d 9738 f1bd 3653 68bd 47ed 863d
00000060: cc6b 0fbd a369 693d e89f 21be 68ca c23c
00000070: 70ec c13d 04d8 033d fe8a 8f3d 6685 32be
00000080: 4a6b d1bd 604f 04bb f84b 10be d1ba 9b3d
00000090: 41ea d63c 8127 233b d255 b13c 2953 d6bd
000000a0: 3a44 0a3d db68 5b3d 01cc 80bd 8ad0 ffbd
000000b0: e3e9 9bbc f6e6 f8bd 5c34 1a3d 920d 863d
000000c0: b84b 083e 024c 663d bd2b 2c3d de7a 403d
000000d0: ce74 0abe d49d d6bb ab7f 8f3c 218c cd3d
000000e0: 2605 af3d e24b d93d 5ac5 a6bb 3f57 bebd
000000f0: 9e0f 573d 6c16 023a a5cd 1bbc b989 5e3d
00000100: 1495 b9bd 009e 423d d972 713c 9743 85bd
00000110: 253f 60bc a5e8 98bd 6018 e3bc d23d aabd
00000120: 3843 3dbe eeb3 18bd 7703 38be 2b07 edbd
00000130: 05ec 8abd 320c e3bd 5390 fb3d f90b 1f3e
00000140: 811e f73d f5d6 8abd 413e 64bc 9e72 4d3a
00000150: b8b5 f5ba 94fb 393d e7d2 763d 3988 fabd
00000160: 05ff 4fbd ec75 163e e239 c53d 5465 d43d
00000170: a0fc fa3c b050 1f3e 81fb 3fbd 0b53 e9bd
00000180: d961 a5bb de31 9dbd 80f3 b93a b217 3fbd
00000190: 0e2b 8b3d 877c 00bd f6ec 733d a16a db3d
000001a0: c19c b9bc 9dcc 653b d1c0 9e3d 112f 5abd
000001b0: ac6b 2dbe 9fc0 64bd 18cf dabd 8701 063d
000001c0: c7f7 223e 2078 563c e243 fd3d 8db7 d43d
000001d0: 1982 dc3d 0102 333d c087 f43d dba5 d53d
000001e0: 7164 dd3d 2cd6 433d ca62 c23d be8a 803d
000001f0: 2178 75bd 0412 553d 932d 72bd d96c 9bbc
00000200: 28f0 053c 2447 a4bd b5d7 8d3d d480 153c
00000210: 1776 b4bd f25e 9a3d 5167 1f3d 788e 013d
00000220: 4d69 893d a55f ab3d fb07 cfbd 07b8 9ebd
00000230: 12be febd 01da 87bd cad2 86bd c346 b6bd
00000240: 82e4 44bc 4afe 9e3c bed7 d23b a217 8b3d
00000250: 9a12 96bc dbc1 1e3c 7c29 b73d 00ea 9d3b
00000260: 66ba ccbd 571b a73d 547e adbc 83dc aabd
00000270: 79fc e43c 12be dd3d 1e17 1c3c 4943 9a3d
00000280: 15fe dcbb 6ea1 7e3d c392 14be dd04 dd3c
00000290: fb8c d4bd 7955 13be 6e0f cabd ee92 253d
000002a0: fe58 9fbd af7e 2cbe 486d 873d 987a 583d
000002b0: 7c43 a23c ec9b d9bc 94c4 acbd 62a4 fbbd
000002c0: c84e a43d ac46 d9bd 41fd b23c a602 0a3e
000002d0: 4fda fc3c 6007 6ebd d6a6 a73d f3f5 213d
000002e0: 4ee1 ad3d 0105 a53d 7a30 b6bd 592d 1c3d
000002f0: 1783 07be dd4a bb3d 17c3 1a3e ea54 8b3d
00000300: ad1d 35bd 8068 d6bd b551 9e3d 242d e4bb
00000310: 2327 83bd 9e39 e63d 2928 bebd 5794 9d3d
00000320: 1963 06be 07eb ba3d e592 5b3d da61 15be
00000330: f034 bf3c 38e9 ffbc 0532 e6bd 92c8 853d
00000340: e1fd 1dbc 467e f4bc f695 923d 028b b5bc
00000350: f0d2 e73d 5238 aa3d c430 eabc 52c6 3d3d
00000360: 3595 25be a3ed e8bd 337c c9bd b16a 9e3d
00000370: 6589 a5bd db1a c6bd 227a dfb9 78a4 54bd
00000380: bd23 a2bd 59fa 723d cff8 cdbd 7958 d3bd
00000390: 19f9 0fb9 c8b7 e7bd 7e34 98bd e57f dbbc
000003a0: ae00 c2bc 33b8 283d d703 403d 9798 e53d
000003b0: cf5c b5bd 687b e5bd 0a6f b13c 4229 f43c
000003c0: 3f68 bf3d a3f2 f53d 18b1 25bd d8b2 16be
000003d0: c117 b9bc 7a01 823d 9851 a1bd 8c36 aabd
000003e0: f4f7 f9bd 4241 753d fe55 88bd 6e31 0cbc
000003f0: acc0 64bd 5524 123e e2de c9bc ed51 fb3d
-0.003525839 0.030721989 -0.0343117 0.043731906 0.069907516 0.053682584 -0.011665022 -0.036736738
0.03597609 0.052254427 -0.11189822 0.08572372 -0.07325822 0.05580696 -0.13208069 -0.091306895
0.056720268 0.0035453415 0.035436545 0.15001546 0.07261802 -0.11778372 -0.05671998 0.06588226
-0.035014912 0.05698551 -0.15783656 0.023778155 0.09468925 0.03218843 0.070089325 -0.174337
-0.10225542 -0.0020188913 -0.1409148 0.07603992 0.026234748 0.0024895372 0.021647368 -0.1046508
0.033756472 0.053566795 -0.06288911 -0.124909475 -0.019032424 -0.12153427 0.03764759 0.06545557
0.13310134 0.05622483 0.0420339 0.046992175 -0.1352112 -0.0065495763 0.017516932 0.10036493
0.08545904 0.106101766 -0.005089444 -0.092939846 0.052505128 0.00049624476 -0.009509479 0.05433056
-0.090616375 0.04751396 0.0147368545 -0.06507032 -0.01368693 -0.074662484 -0.027721584 -0.083125725
-0.18482673 -0.03728097 -0.17970072 -0.11573633 -0.067832984 -0.110863104 0.12283387 0.15531911
0.12066365 -0.06779281 -0.013930858 0.00078372087 -0.0018746173 0.04540594 0.060259726 -0.12233014
-0.050780315 0.14693421 0.09630181 0.10370889 0.03063804 0.15558124 -0.046870712 -0.11392792
-0.0050470647 -0.07675527 0.0014186949 -0.046653457 0.067953214 -0.03136876 0.059552155 0.10713697
-0.022657754 0.0035064586 0.077516206 -0.053267542 -0.16935605 -0.05584776 -0.10684031 0.0327163
0.15914832 0.0130901635 0.12366463 0.10386572 0.10767002 0.043703083 0.11939955 0.10432025
0.10810173 0.047811672 0.09491499 0.06276463 -0.059929017 0.052019134 -0.059125494 -0.018972801
0.0081749335 -0.080213815 0.069259085 0.009124953 -0.08811586 0.07537641 0.03891689 0.03163001
0.06709538 0.08367852 -0.10108944 -0.07749944 -0.12438597 -0.06633378 -0.065831736 -0.089002155
-0.012017371 0.019408364 0.00643441 0.06791617 -0.018319417 0.009689773 0.089434594 0.0048191547
-0.0999649 0.081595115 -0.021178402 -0.083428405 0.02795242 0.10827269 0.009526996 0.07532365
-0.006744156 0.06216567 -0.1450911 0.026979858 -0.103784524 -0.14388074 -0.09866224 0.040423326
-0.07780646 -0.16845201 0.066126406 0.05285129 0.01980757 -0.026563607 -0.08435932 -0.12287213
0.08022839 -0.10609183 0.021849276 0.13477573 0.030865816 -0.058112502 0.08186118 0.039541196
0.08490239 0.08057595 -0.08895965 0.038129184 -0.132336 0.091451384 0.15113483 0.068033054
-0.044217754 -0.104691505 0.07730428 -0.006963389 -0.06403949 0.11241458 -0.09285004 0.07694309
-0.1312374 0.09126859 0.053606886 -0.14588109 0.023340672 -0.031239137 -0.11240009 0.065323964
-0.009643049 -0.029845368 0.07157509 -0.02216101 0.1131953 0.083115235 -0.028587706 0.04633171
-0.16170199 -0.113734506 -0.09838142 0.077351935 -0.080828466 -0.09673091 -0.0004262487 -0.051914662
-0.07916973 0.05932078 -0.10057222 -0.10319609 -0.00013730339 -0.1131435 -0.07431887 -0.026794383
-0.023681965 0.04119129 0.046878662 0.11210745 -0.088555925 -0.112051785 0.021659393 0.02980483
0.09346055 0.1200917 -0.040452093 -0.14716661 -0.022594335 0.06347938 -0.07876891 -0.08311185
-0.122054964 0.059876688 -0.06657027 -0.008556707 -0.05584781 0.14271672 -0.024642412 0.122714855

conv3.0.bias f4 [6]
00000000: 3bea c53d b6fd 373d 4015 cb3d 2d4c 973d
00000010: fddd 37bd 15ec e13d
0.096638165 0.044919692 0.099161625 0.07387576 -0.04488944 0.11031357

conv3.1.weight f4 [6]
00000000: 4e11 763f 96a3 7b3f d176 783f 6098 7b3f
00000010: 6e77 803f d794 7b3f
0.96120155 0.9829649 0.970563 0.9827938 1.0036447 0.98273987

conv3.1.bias f4 [6]
00000000: 71e1 b13c 6d36 383d 3c40 2c3d 8f12 fd3b
00000010: 66b7 de3c 787c 1e3b
0.021713944 0.04497378 0.042053446 0.0077231596 0.02718706 0.0024183076

conv3.1.running_mean f4 [6]
00000000: 6e80 a93c cc80 8f3d c54f b73e 9237 81bd
00000010: cd4b dcbe b843 fbbc
0.020691123 0.07006988 0.35803047 -0.06309427 -0.4302658 -0.03067194

conv3.1.running_var f4 [6]
00000000: db99 2b3e 42c8 1c3e 8525 903e 4ccf 1e3e
00000010: 229d fb3d 5424 133e
0.1675791 0.15310767 0.28153625 0.15508765 0.1228583 0.14369327

conv4.0.weight f4 [16, 6, 5, 5]
00000000: 3c3a f5bc a500 9dbd 5dc4 5b3d 8e03 023d
00000010: 5017 52bd ef7b 733d 11a7 b23c d76c 8bbd
00000020: d13e 4b3d f153 aa3d a7a0 743d 6929 8abc
00000030: 1bdd 243c e52e 633d 1fea 04bc 705c 15bd
00000040: 2df2 2c3c 5f34 0f3d 592e bb3d c3bd 213d
00000050: 9859 8e3d c37d 59bc 4dcc 383a e326 a53c
00000060: e79e d8bd 2cf3 bf3c fac5 c23d 0124 e33c
00000070: a683 823d a7b7 d43c e440 16bd 7a8b e4bc
00000080: 4bd8 a4bc 705e 063c 6bfc 593c e424 e8bb
00000090: b637 19bd b612 9638 d0ce 473d e0fd 823b
000000a0: a902 04bc 7b36 2b3d 8657 50bd 7b0b 89bd
000000b0: 02a7 8e3d bca4 473d 5554 4abb d4a5 003d
000000c0: e2ac cdbc c983 8bbc f73a 65bb 5009 9e3d
000000d0: 650d 723d 342d 28bd 256a 963c cfc6 4ebd
000000e0: 872a 75bd a696 20bd 283a 903d b448 c03c
000000f0: 40a6 b4bc 1a49 383d d79a bd3d 7c4a 953d
00000100: f824 84bd adbf 26bc 4a8e 073c c512 b43b
00000110: 0efa 2bbd 6326 2bbd 8d8e e03c 9f55 863c
00000120: fc9b 123d cc00 f2bc 68ea 013d 5876 11bd
00000130: 11e7 71bd 47ce 19bc 005c 47bc 598f 86bd
00000140: 4ab0 b53c fcd3 43bd 4617 93bc 591a a1bd
00000150: 4625 b83c 31e7 cfbb 32e7 78bd 8754 bdbd
00000160: dd09 81bc 9bce 0cbd e5b3 c93c 20c4 b5bd
00000170: 73d5 f2bc 1951 57bd 9639 4dbd a052 3fbd
00000180: 6c98 3abd 4ce6 c2bc 20db c93c 897d 27bc
00000190: e6a1 06bd b249 423c 493a 45bd 7561 59bd
000001a0: 9567 76bd 7635 2f3d 73d0 943d 597e 27bd
000001b0: 082e 5dbb 7a67 94bd 415b 433d 793c 77bc
000001c0: 1865 7ebc 2484 c2bc 6d25 57bc f1a7 0fbd
000001d0: 85da 88bc 02e6 653d d61d 59bd 0e01 8a3d
000001e0: 22f4 283d d784 823c d169 01bd a183 f23c
000001f0: dddb 003c 143e f63c e09d 47bd eb1a 433d
00000200: 7045 de3b a5e4 18b9 148c 80bd 1a9c de3c
00000210: 7dd2 033d b782 6dbd fadf a63d d93a aa3c
00000220: 5abd 643c 70be 2dbd 07b5 9fbd a52d 8fbd
00000230: 0ac1 cdbc 6352 413d 9a6c 76bd e514 cb3c
00000240: c900 26bd 6097 b13c 17be 5d3d 0115 653d
00000250: 3629 8b3b d78e 40bd a9da 923c 3149 90bd
00000260: 677b 8dbd 2db5 92bd 977d 57bd 5f96 39bd
00000270: c96e 9ebd 7ba6 a8bd 7880 c23c 4880 883d
00000280: 3641 993c e2c0 7fbd de5e 363d d1b7 eeba
00000290: 373b 5b3c fde5 1cbd 922f debc 03fd 163d
000002a0: d6d1 58bd fffd 25bd 5e2c 0fba 5ade f23a
000002b0: 686e c83c fa18 263d ebb5 ca3d 45a5 283d
000002c0: e980 1bbd b52e 99bb 2bf0 80bb d9ca 32bd
000002d0: d1c0 093d 2118 1bbd 17ad 5a3d cf43 8a3c
000002e0: 1df0 9b3b f674 73bd 06e1 6a3c 9891 b8bd
000002f0: 0e88 8fbd 2598 99bd 459a d43c 9e50 1d3d
00000300: eea8 d93b d85d 1b3a 6c7d a9bc 46a9 68bd
00000310: 18ec c8bc b9e1 253d 7137 ffbc 1631 903d
00000320: 4c85 8dbc 7c73 353d ca87 283b b6d0 99bd
00000330: 2f38 5c3d f232 483d ccb7 e43c f11b 46bd
00000340: c549 9abd 9fb7 71bd 5414 773c 0206 063c
00000350: 617c c2bc cca4 1d3d ee4c 483d de17 f2bb
00000360: 021a 083d 3d07 08bd aaaf 1f3d a753 063e
00000370: fa21 49bd 692a 803d 9beb 45bd b8ef 9a3d
00000380: 775b 373d b22d e6bc 39e0 31bd ed1c 6cbd
00000390: 7851 d1bc 7f98 0cbd 4c10 9bbd 0716 c3bc
000003a0: 1a8b 93bd d3b6 28bd ebb5 923c bb9e d43c
000003b0: 9348 cf3c 632b 9d3c dd2d 71bb bad0 50bd
000003c0: 1f4e 5a3c 35d0 c23b e880 1ebc f300 99bb
000003d0: 1af1 9aba c25c 51bd c4fc 48bd 5a38 85bc
000003e0: e261 51bd 5bb6 3bbd a86f cabc f36f 05bd
000003f0: 68ba 293b 47b0 01bd d047 74bd ef3f c9bc
-0.029934995 -0.076661386 0.053654063 0.03174167 -0.051291764 0.059444364 0.02180818 -0.06807869
0.049620453 0.08316792 0.059723523 -0.016865449 0.010062481 0.055464644 -0.008112459 -0.03646511
0.010555786 0.034962054 0.091396995 0.03948761 0.069506824 -0.013274613 0.0007049486 0.020160144
-0.10577183 0.023431383 0.09510417 0.027727129 0.06372766 0.025966479 -0.03668298 -0.027898539
-0.020122668 0.008201227 0.01330481 -0.007084476 -0.037406646 7.1560426e-05 0.048781216 0.0039975494
-0.008057275 0.041800003 -0.05086472 -0.06691643 0.06965448 0.048741087 -0.003087302 0.031408146
-0.025106851 -0.017030613 -0.0034977773 0.0771662 0.059094805 -0.041058734 0.01836116 -0.050482567
-0.05985501 -0.03920617 0.070423424 0.023472168 -0.02205193 0.04499159 0.09258049 0.072895974
-0.06452364 -0.010177535 0.00827367 0.0054954016 -0.041986518 -0.041784655 0.027411724 0.01639825
0.03579329 -0.029541396 0.031717688 -0.035513252 -0.059058253 -0.009387559 -0.012167931 -0.0657031
0.022178788 -0.047809586 -0.017955434 -0.078663535 0.02247871 -0.006344699 -0.06076736 -0.09244638
-0.015751773 -0.03437672 0.024621913 -0.088752985 -0.029642796 -0.052567575 -0.050103746 -0.046709657
-0.045555517 -0.023791455 0.02464062 -0.010222801 -0.032869242 0.011858391 -0.04815129 -0.053071458
-0.060157377 0.042775594 0.07266321 -0.04089198 -0.003374936 -0.07246299 0.04769445 -0.015090101
-0.015527032 -0.02374465 -0.013131482 -0.03507227 -0.01670576 0.056127556 -0.05300697 0.067384824
0.04124845 0.015932484 -0.031595055 0.029603781 0.0078649195 0.030058898 -0.048734546 0.047633093
0.00678318 -0.00014581026 -0.06276718 0.027174044 0.03218316 -0.057985988 0.08148189 0.020780014
0.013961161 -0.042417943 -0.077982 -0.06991128 -0.025116462 0.04719771 -0.060162164 0.024790237
-0.040528093 0.021678627 0.054136362 0.055928234 0.004246856 -0.047011223 0.01792653 -0.0704521
-0.06908303 -0.07163463 -0.052610006 -0.04530942 -0.07735974 -0.08234879 0.0237429 0.06665093
0.018707853 -0.062439807 0.044524066 -0.001821274 0.013380817 -0.03830527 -0.027122293 0.036862385
-0.05293449 -0.040525433 -0.00054616283 0.0018529401 0.024466708 0.040551163 0.09897979 0.04117324
-0.037964735 -0.0046747574 -0.0039348803 -0.04365048 0.03363115 -0.037864808 0.053387728 0.016878037
0.0047588483 -0.059437715 0.014335876 -0.09012145 -0.07008372 -0.074997224 0.025952468 0.03840696
0.0066424524 0.00059267646 -0.020689689 -0.056802057 -0.02452664 0.04049847 -0.031154366 0.070406124
-0.017275475 0.044299588 0.0025715702 -0.075105116 0.05376452 0.04887671 0.027919672 -0.04836649
-0.07533602 -0.059013005 0.01508053 0.008180143 -0.02374095 0.03848724 0.04890149 -0.007388099
0.033227928 -0.033210028 0.038985886 0.13117848 -0.04910467 0.06258089 -0.048320394 0.07565254
0.044764962 -0.028097961 -0.043426726 -0.057644773 -0.025551543 -0.03432512 -0.07571468 -0.023814214
-0.07204266 -0.04118998 0.01790901 0.025954595 0.02530316 0.019185727 -0.0036801018 -0.050980307
0.01332429 0.0059452304 -0.009674288 -0.0046693026 -0.0011821121 -0.05111385 -0.04906918 -0.016262222
-0.05111874 -0.045828205 -0.024711445 -0.032577466 0.002589846 -0.03166225 -0.0596388 -0.024566619

conv4.0.bias f4 [16]
00000000: 70cb 813d 7e64 65bd f33d 953d 3ab4 59bd
00000010: 672a 353d 6aa7 50bd de61 883d 530a 073d
00000020: 301c 43bd 0879 83bb 12f2 09bb 997e 93bd
00000030: ff2f 59bc 5bf8 843d b62f 0fbd f699 c33c
0.06337631 -0.05600404 0.072872065 -0.053150393 0.04422989 -0.05094091 0.06659292 0.03296883
-0.047634304 -0.004012231 -0.0021048826 -0.07201881 -0.013256072 0.064926825 -0.03495761 0.023877125

conv4.1.weight f4 [16]
00000000: a2dd 943f 7949 9a3f 0b01 903f d8f4 9c3f
00000010: eff8 933f fdcb 993f d8c1 933f d78c a03f
00000020: 13ee 993f 5caf 963f c68e 943f 588f 9e3f
00000030: 1414 913f 629b 8f3f 892c a03f 6f13 9e3f
1.1630137 1.2053672 1.1250318 1.226222 1.1560344 1.2015377 1.1543531 1.2542981
1.202578 1.1772265 1.1606071 1.2387495 1.1334252 1.1219294 1.2513591 1.2349681

conv4.1.bias f4 [16]
00000000: 3639 aa3d f581 a93d 3bfc 803d 79f2 b23d
00000010: a4f4 a33d 3684 ac3d 31aa 903d f193 9c3d
00000020: 4e64 963d 5429 993d 8547 b03d 7cc8 bb3d
00000030: fb06 9a3d 8c3f 833d 2537 ca3d ad0b b93d
0.08311693 0.082767405 0.06298109 0.08737654 0.08005646 0.08423655 0.070637114 0.07645405
0.0734335 0.07478586 0.08607391 0.09169099 0.07520863 0.06408605 0.09873799 0.0903543

conv4.1.running_mean f4 [16]
00000000: 83bb b7bd 8e62 bcbe 144d 28bc 015a e83e
00000010: 0767 153e bab6 033e 2d7b ddbd baa5 a93e
00000020: 8bb4 9f3d 5c84 673e 58bf 493c ec03 11be
00000030: 6d92 c0be 8210 d63e 601f 703e 9e53 cb3e
-0.08971312 -0.3679394 -0.010272283 0.45381168 0.14590083 0.12862673 -0.108145095 0.33134252
0.07798108 0.22609085 0.012313686 -0.14161652 -0.37611714 0.4180947 0.23449469 0.39712232

conv4.1.running_var f4 [16]
00000000: f02f 223e 0881 f63d 3e4a 2e3e cc95 f53d
00000010: 7f1c 4f3e f226 293e 7e56 ee3d 6885 e73d
00000020: 87d7 343e fa2a b93e bfca 3d3e ff6d 533e
00000030: d5ce d53d e73c 6d3e 3e6d bc3d 3b76 053e
0.15838599 0.120363295 0.17020509 0.11991462 0.20225714 0.16518763 0.11637591 0.11304742
0.17660342 0.361656 0.18534373 0.20647429 0.10439841 0.23167764 0.09200524 0.13033383

fc1.0.weight f4 [120, 400]
00000000: a4d5 79ba 5479 97bb 19f5 603c bb19 fb3c
00000010: 4c41 2ebd b067 60bd 22db 26bd da1d 78bd
00000020: b138 213d d832 fc3a d9e2 f4bc 9930 e7bb
00000030: fb3f 82bd 6259 17bd 6869 a03c 5c98 31bc
00000040: 3a61 31bc 8a2a f2bc 08de 4ebd fd1a 89bc
00000050: d420 643d 58a6 cc3c c90b 193d 4ab8 393d
00000060: 45ec bfbb 067d ccbb 1574 9fbb fe01 fb3b
00000070: 805f e63c b297 1b3d a872 07bc f9c5 8dbd
00000080: 5f3f b7bc 1b6b 05bd 6049 27bd c83b 3e3d
00000090: 827f 743c 5c35 92bd f4da 64bd a351 783c
000000a0: e741 0f3d 0bab f2bb 7d73 7cbb 7b83 ea3c
000000b0: ea8f 313d 723b f0bc 5736 4c3d 1c8e 76bc
000000c0: 4300 f63c 449a 61bc 3dfe b13c 3fb2 19bc
000000d0: 592c f6bc e363 273d 7b0c 2a3c 79c5 e83c
000000e0: c0c9 b63c 8163 eebc 95e2 65bb 3fdf 153c
000000f0: ce64 1abd f23a 0c3d 0d11 1bbd 6cb9 03bd
00000100: f170 babc 2779 cabb 918e bcbc 470d 763a
00000110: 57cd 7c3d 5b79 95bc 29d9 d33c 4e5f 593d
00000120: 540b 20bd ee8e 303c b64d 083d 1295 d83c
00000130: 4325 073c d72b 033d 78b8 3b3d f06c 543d
00000140: 4806 203d f590 4cbc 2b30 1fbd 2fc6 293d
00000150: 0d53 2ebb f769 c03c 3f99 6b3c ec22 91bd
00000160: 8884 69bd 5a55 0ebd ee9c a63c 081f 373c
00000170: 1bcd 9f3c c9de b83c 028c af3c 852f c93c
00000180: cd8c 3e3d e9a5 333d 2e68 9ebc 5065 c2b9
00000190: 863f c4bc de37 d33c 5fb0 3fbc c5c2 2b3d
000001a0: 988f a0bc 27a0 1a3d 603b 6b3c 002b 233d
000001b0: 2f13 783d ae2e 373b 70b6 303d 52c2 3f3d
000001c0: d4a6 2f3d 5a19 be3d 2dd7 053b e7e5 1bbd
000001d0: 3ada 213c bdaf 04bd c284 273d 492a 373d
000001e0: a958 ad3c 2607 b23c 9ce8 16bd 2135 29bc
000001f0: 2c88 08bd 8012 e8ba 217c e13c 95e3 863c
00000200: e340 92bc 0e9a 853c 1a0f a43d 02a3 8d3c
00000210: aae8 9cba 74ef 3b3c cd5d 32bc 9b99 cbbc
00000220: 7e72 2ebd a30f 3abd 8b23 18bd dba0 9e3b
00000230: 1e8f 3b3d 9e68 c53b 45d2 813d 504d 1fb9
00000240: 9cfd f73c fccc c63c 6ec0 383d edcd 983d
00000250: 5dc8 0a3d aaf8 68bc 7e8b 14bd 094b d93c
00000260: 5415 9c3d 5a96 763d 0950 773d d4da 74bc
00000270: f15a 303d 7ede bbbb d2e5 933d 7be7 a8bc
00000280: 534e 833d d300 58bb 1fd4 87bb b413 a63c
00000290: c7d8 02bc 70e8 75bc c02a 0b3d 2d93 f83a
000002a0: fc71 0d3d 9e74 0dbd b7e1 f43c 6d9d cd3c
000002b0: d367 a53b 7901 4a3c ed0e 593c 2bf0 f0bb
000002c0: 4041 9a3b 0d02 5d3c 13e8 9fbc 86d1 8fbc
000002d0: 9176 c1bc 7dd3 85bc 324e abbd f53f 4cbd
000002e0: 39a9 3b3b f8fd 5cbd cae0 27bc 7b3f 05bd
000002f0: 04cb 843c db98 cebc 55e9 c53c e6b1 3f3d
00000300: f921 21bc 0454 54bd a62d 09bd 8dbe 1fbd
00000310: 6917 083d 9c61 ed3c d6dc d93c 44a6 803c
00000320: 5e10 e0bc a3af b9bc 191b 7fbc 2767 f8bc
00000330: 54e4 163d 24fc 1a3c 5225 c2ba 1b45 773c
00000340: 4505 2bbd 4e11 ad3c 4079 04bd 46ae c03c
00000350: 667f 74bd 2091 14bd 6b8d 31bd aad0 8c3d
00000360: 0f80 3d3c c569 143c 94d7 6f3d 0ad4 06bd
00000370: 4f36 873c 7722 803d b5fd a83d f964 1d3b
00000380: 6e5a 23bc e2c0 1b3d 3d10 1a3c 0458 003d
00000390: 4136 cbba 980f 203d 5f24 c4bc 0e18 90bd
000003a0: b9ee 97bd cd9e af3c 23dc fb3b cb25 5c3d
000003b0: b245 23bd 4203 e33c e511 9c3c 62ce 973b
000003c0: aec9 543d 60ea 4f3d d252 963d 0dbc 8f3d
000003d0: 289e 2a3d 6056 5d3d a137 673c e58b 563c
000003e0: 0986 603d fcc5 253d 1aaa 393c a30e 643d
000003f0: e8ac 86bb 0a8b 80bb 4950 1b3d 7bfd 173d
-0.0009530431 -0.0046226177 0.013730311 0.030651918 -0.04254274 -0.054786384 -0.040736325 -0.060575344
0.039360706 0.0019241227 -0.029893326 -0.007055354 -0.063598596 -0.036950476 0.019581512 -0.010839548
-0.010826403 -0.0295613 -0.050504714 -0.016736502 0.05569537 0.024981663 0.037364755 0.045341767
-0.005857023 -0.00624049 -0.004866133 0.0076601496 0.02812171 0.037986465 -0.008267082 -0.06922526
-0.022369085 -0.032572847 -0.04084146 0.04644373 0.014922978 -0.07139084 -0.055872872 0.015156182
0.03497496 -0.007405644 -0.0038520985 0.028627148 0.043350138 -0.02932522 0.04985651 -0.01504853
0.030029422 -0.01376969 0.021727676 -0.009380876 -0.030050443 0.040866744 0.010378952 0.028414475
0.022312999 -0.029100182 -0.003507768 0.009147464 -0.03769379 0.034235902 -0.037858058 -0.032159254
-0.022758933 -0.0061789933 -0.0230172 0.0009386134 0.061719265 -0.018246343 0.025860386 0.053069405
-0.039073303 0.010776265 0.033277236 0.02643827 0.00824863 0.03202423 0.04583022 0.051861703
0.03906849 -0.012485732 -0.038864296 0.04144877 -0.0026599795 0.023488028 0.014379798 -0.07086739
-0.057011157 -0.034749366 0.020338502 0.011176832 0.019506982 0.02256717 0.021429066 0.024558792
0.046520997 0.043859396 -0.019336786 -0.00037078047 -0.023956072 0.025783475 -0.011699765 0.041933794
-0.01959972 0.03775039 0.014357418 0.03983593 0.06056517 0.0027951407 0.043142736 0.046816178
0.04288371 0.09282179 0.0020422444 -0.03806105 0.009878689 -0.03239416 0.040898092 0.04471806
0.02116044 0.021731924 -0.036842927 -0.010327608 -0.03333299 -0.0017705709 0.02752501 0.016465941
-0.017853206 0.01630881 0.08010693 0.017289642 -0.0011971195 0.011470664 -0.010886622 -0.024853518
-0.042589657 -0.04542507 -0.03714327 0.004840953 0.045790784 0.006024434 0.06338934 -0.00015192223
0.030272298 0.024267666 0.04510539 0.07461152 0.033882488 -0.014219442 -0.036265843 0.026525037
0.076212555 0.06020198 0.06037906 -0.014944751 0.04305548 -0.0057333102 0.07221569 -0.020618191
0.064114235 -0.0032959476 -0.00414516 0.020273067 -0.007986254 -0.015009031 0.033976316 0.001896476
0.034532532 -0.034535043 0.029892785 0.02509948 0.005047777 0.012329453 0.0132481875 -0.007352849
0.0047074854 0.0134892585 -0.019519841 -0.017555963 -0.023616107 -0.016336197 -0.08364524 -0.04986568
0.00286348 -0.05395314 -0.010246465 -0.032531243 0.016210087 -0.025219372 0.024159113 0.046800517
-0.00983476 -0.051837936 -0.0334908 -0.039000083 0.03322545 0.028977208 0.02659456 0.015704282
-0.027351554 -0.022666758 -0.015570425 -0.030322624 0.036838844 0.009459529 -0.0014812148 0.01509216
-0.041753072 0.021126416 -0.032342196 0.0235206 -0.05969181 -0.036271214 -0.043347757 0.06875737
0.011566176 0.009058421 0.0585552 -0.03291706 0.016505389 0.06256574 0.08251516 0.0024016483
-0.009970291 0.038025744 0.009403286 0.03133394 -0.001550384 0.03907737 -0.023943124 -0.07035838
-0.074185796 0.021438027 0.0076861545 0.05374698 -0.03986139 0.027711514 0.019051502 0.004632757
0.05195015 0.050760627 0.073400155 0.0701829 0.041654736 0.05403745 0.014112384 0.013094877
0.054815326 0.040472016 0.011332059 0.05567802 -0.0041099675 -0.0039228247 0.037918363 0.037106972

fc1.0.bias f4 [120]
00000000: 20a7 313c 7bdb 6f3d 6287 3b3b 41c3 02bd
00000010: a390 383d 235e abba 5349 0d3d ba2f b5bc
00000020: f570 20bd 6ef1 193d c9f1 423c 5806 8a3c
00000030: ac32 83bb 8e57 123d 7c72 66bc acdd c13b
00000040: c2aa 92bc 6235 d9bc a97d ce3c 1957 183d
00000050: 6624 833c 4626 84bc e554 0b3d 9a47 a8bc
00000060: b77d 04bd 0852 373d e74d 3c3d 9e45 e5bc
00000070: f78f 393d a3be 24bd 64c9 3ebc e623 163d
00000080: 3b4e 5e3d a1c8 17bd 04db 1bbc 3d6c f83b
00000090: 5385 6b3c ca53 19bd 6726 ec3c e5df 8e3c
000000a0: 5ec5 423d f3df 0cbd 252e 38bd 6d8a 85b9
000000b0: 74f9 173d 757b 32bd 25c4 e7bb 6285 3ebd
000000c0: 491c 583d 4bd9 0abd 1d78 0d3d 54fc e53b
000000d0: ebf1 e23c e0a1 a93a 1bad e6bb add4 643d
000000e0: 83fa 0b3d e92e 3cbd 1653 b4bc 51dc 8fbc
000000f0: 0b77 99bc 0717 a9bb 1f83 5e3d b4e6 f83c
00000100: 80f9 063d fc75 00bd 28bd 3a3b 8ebf 0ebd
00000110: 9464 253b 3adf 80ba b292 03bd a660 953c
00000120: 960d 2bbd 5efd d63c 039a 173c 614e ffbc
00000130: 8c27 a5bc 0839 b0bc 4519 aebb 13fa 393d
00000140: 7a58 703b 2992 14bc ce03 1c3c 42f9 03bd
00000150: 815a 15bd 2330 2dbb 25bc 603c c783 213d
00000160: 3e5a 183c 6638 103d 8699 82bc 0458 a1bc
00000170: 9c66 4c3b 9826 1d3d b758 8c3c 6699 e03c
00000180: 6505 d3bc 31b2 693d 5967 43bc f75b c33c
00000190: 7806 f83c 30f5 fabb 8467 76bc 172f 10bb
000001a0: 356f 61bc 624b 1abc 98b7 a53b a7cf 41bd
000001b0: 8b37 04bb da58 4f3d fc5c 1b3d a252 2b3d
000001c0: 017a e9bc 10b8 47bd 0835 a8bc e6ae 91bc
000001d0: ce4f 84bc 6d90 2bbc c77b 97ba 5746 41bd
0.010843068 0.058558922 0.002861463 -0.03192449 0.04505981 -0.001307432 0.034493756 -0.022117484
-0.039170224 0.03758376 0.011898466 0.016848728 -0.0040038433 0.03572803 -0.014065381 0.005916318
-0.01790369 -0.026514713 0.025206404 0.037192438 0.016008567 -0.016131531 0.03401651 -0.020541955
-0.032346454 0.044755965 0.04597273 -0.027987298 0.04530331 -0.040220868 -0.011644695 0.03665533
0.054273825 -0.03705657 -0.009512667 0.0075812624 0.014375049 -0.037433423 0.028826905 0.017440746
0.047551505 -0.034393262 -0.04496588 -0.00025470872 0.03710313 -0.04357477 -0.007072943 -0.046513923
0.05276135 -0.033898633 0.034538377 0.0070186052 0.027703246 0.0012941919 -0.0070396787 0.055866886
0.034174453 -0.045943175 -0.022012275 -0.01756111 -0.018733522 -0.005160216 0.054324266 0.030383445
0.032952785 -0.03136252 0.0028494094 -0.03485065 0.0025236951 -0.0009832152 -0.03212232 0.018234562
-0.041761003 0.026243862 0.009253028 -0.031165304 -0.020160459 -0.02151157 -0.005313071 0.045404505
0.003667383 -0.00906805 0.0095223915 -0.032220133 -0.036463264 -0.0026426397 0.013716732 0.039432313
0.009298859 0.035210036 -0.015942346 -0.01969529 0.003118909 0.038366884 0.017132146 0.027416896
-0.025759408 0.057054702 -0.0119264955 0.023847563 0.030276522 -0.007658623 -0.0150393285 -0.0022000724
-0.013759424 -0.009417387 0.0050572865 -0.047317173 -0.0020174708 0.050621845 0.037930474 0.04182685
-0.028500559 -0.04875952 -0.0205331 -0.017783593 -0.016151335 -0.0104714455 -0.0011557274 -0.047186222

fc2.0.weight f4 [84, 120]
00000000: 38f3 20bd c13e 1d3d 26c8 f6bc a011 2d3d
00000010: 61b1 453d 7008 763c 3444 203d 7824 ffb9
00000020: 3950 efbc e0b1 c13c 25b5 503d 2c4f 073e
00000030: 7aa5 ab3d 09ec bebc ddd8 85bd d1a9 173d
00000040: 84b7 52bd 3640 a0bc fa72 763d 4c5d 69bd
00000050: 04b4 863d df41 a2bc 1745 c33c f3a8 c43d
00000060: 6960 dbbc 05cd 033d de33 153d ed95 d1bc
00000070: 174c 8c3d 65ff 8ebd 3e36 87bd 046e 80bd
00000080: 26ad 89bd 967f 3e3d 23d8 133d 0993 c4bd
00000090: a93a a5bd 4a9f 7c3d 1893 44bd 7359 0abb
000000a0: 34be 733d 5a9b 8bbd a4a4 213c 0daa 9a3c
000000b0: 0470 91bc 9fcd 96bd 4e55 fd3d bb84 7dbd
000000c0: 533a 9a3b 81f1 963d 3561 653d 200f f03c
000000d0: 4d8e 22bb 83bf 923d 9fd3 293d 2959 43bd
000000e0: e43f d13c 7bc2 623c 9ba6 3dbd 731a 79bd
000000f0: 3050 963d fecc aebb 0289 9bbd c8fa a03d
00000100: d5df a23b 16f1 28bd ada1 d2bd a327 d1bb
00000110: 5c83 b6ba 4337 1cbd 2f02 b43d 7d07 1c3c
00000120: 1aef c23d 64dc 853d b298 92bd 4c34 833d
00000130: 523c b1bd 2d0d ac3b 7f27 62bd fce6 4abd
00000140: d654 4d3d db9a dbbc 6d7b 8d3c b3f6 fb3d
00000150: 4164 c43d 84c6 61bd 99bc 22bd 5506 8d3d
00000160: d0a4 913d 6394 653d b399 633c bd48 763d
00000170: fe83 373d 54c4 9ebd 565c 973d 6d8b 4ebd
00000180: f01b 9bba 757b dcbd 7753 893d 9e23 5f3d
00000190: 3ea8 58bd 8a7d 413c ee5d cd3c 2ed0 42bd
000001a0: b9ee 0bbd 85ab 1d3d 8410 a6bd fd5b 7b3c
000001b0: 42ba ba3d 44bf f03c 665d b43d db28 f7bb
000001c0: 86c2 593d 63bd 853d 1d55 da3d f6b1 213d
000001d0: 3d04 d63d 4ce3 9b3d 8fa2 d43a d247 9c3d
000001e0: 457d 97bd 6b0e 78bd 3121 883c c25c ddbd
000001f0: 06b6 e73c d889 6ebc 2267 5d3d 3cef cbbd
00000200: 6066 2f3c 12a3 4abc 0b3f 50bc 1cba 6f3d
00000210: d8fc 6d3d c94d 1f3d 5dda 1f3e 1463 bf3d
00000220: 7869 85bd 23f9 bb3d c06a 47ba 95c1 723d
00000230: 45da 213d a010 a03d be4e b3bd fc0e 2f3c
00000240: f34a 913d 7b98 ff3c ee58 9a3d fe35 0b3c
00000250: 1bce a8bc c380 a03b ea54 fe3c fe5f 023e
00000260: b953 3fbd dd36 72bd 3dcd 20ba b866 c33d
00000270: 6e7e a9bd 334f 783d 43e8 adbd 3aa3 a2bd
00000280: ac09 09bd cdf2 8b3c 0bae 77bd 4b2d debd
00000290: f8be 163d 3c7e a23d 6747 173e 0507 42bd
000002a0: 760a adbb 8218 8d3d 5f89 df3d 8941 653d
000002b0: ee30 be3d 729c 09bc 750f 753c c856 9f3c
000002c0: bd60 3cbd bc92 183d 5db5 6f3a 2f1a 893c
000002d0: 153b af3d 36bb 97bc 66fc e6bd 96fe e7bc
000002e0: 7590 b53d 45be e93c ac32 3dbd dc58 7bbd
000002f0: 10ab 183d cdef 833d 7d26 d0bb 6758 ed3d
00000300: 150d e63d 95fc cf3d 0418 0cbc 63b6 83bd
00000310: 50dc 5b3d c3d8 96bd b795 88bd cff4 7cbd
00000320: 7eeb afbd 179d 963d 9600 05bb 3a43 713d
00000330: 80c4 6dbd 1bbc 173d 4a40 9abd a156 8abc
00000340: d49a dc3d 1079 8f3c 0c67 39bd bd0c acbd
00000350: 721e 14bc 5a8d 703c 9ba5 bdbc b7ea 733d
00000360: 8886 783d f7dc 80bb a189 b6bb 50bc 613c
00000370: cb19 eebd 3265 0c3e d014 3dbd 931c 73bd
00000380: 7452 1ebd 7d2c 81bd 4fd4 f5bd a5fc 2c3d
00000390: 864b cd3c a575 95bd 061d ac3c 1a6b 9ebd
000003a0: 31fc 63bd d02a fdbc db96 86bd 98e7 913d
000003b0: 3420 c53d 7ca2 19ba 8e6d 363c 9c04 003d
000003c0: 1098 d8bc 4500 dc3b d790 f3bc 26ef 0fbd
000003d0: 2cc8 21bd 25d1 aebd f968 233b 90b7 fe3b
000003e0: 20b3 203d be70 333d c36b 45bc 5331 99bd
000003f0: 3c3d 903d 92d0 dbbd 6c16 a6bd 193c 803d
-0.03929445 0.038389925 -0.030124735 0.042253137 0.048264865 0.01501666 0.039127544 -0.00048664561
-0.029213058 0.023644388 0.050954003 0.13213795 0.083811715 -0.02330591 -0.06535504 0.037027184
-0.051444545 -0.019561868 0.060168244 -0.05697374 0.06577304 -0.0198068 0.023836656 0.09602537
-0.02677937 0.032177944 0.036426418 -0.025584185 0.068504505 -0.069823064 -0.06602143 -0.06270984
-0.067224786 0.046508394 0.036094796 -0.09598357 -0.08067829 0.061675347 -0.047991842 -0.0021110445
0.059507564 -0.0681674 0.009865914 0.018879915 -0.017753609 -0.07363438 0.12369786 -0.06189416
0.00470666 0.07370282 0.056000907 0.029304087 -0.0024804056 0.07165434 0.041461583 -0.04769245
0.02554316 0.013840313 -0.046301465 -0.06081624 0.07339513 -0.0053344956 -0.075944915 0.07860333
0.0049705305 -0.041245542 -0.102847435 -0.006382899 -0.0013924646 -0.03813864 0.08789479 0.00952327
0.09518261 0.06536177 -0.071580306 0.06406459 -0.08654083 0.005250594 -0.055213448 -0.04953669
0.050129734 -0.02680724 0.017270768 0.123029135 0.095894344 -0.05512096 -0.039730642 0.06885973
0.071115136 0.056049716 0.013891625 0.060127962 0.044803612 -0.0775229 0.073906586 -0.050425936
-0.0011833888 -0.10765735 0.06705373 0.054477327 -0.052894823 0.011809716 0.025069203 -0.047561817
-0.03416321 0.038493652 -0.08108619 0.015341756 0.09117557 0.029388078 0.08806877 -0.007542712
0.053164028 0.06530263 0.10660765 0.039476357 0.10450027 0.07611713 0.0016222763 0.07630886
-0.0739694 -0.060560625 0.01661739 -0.10808708 0.028285038 -0.014559232 0.054053433 -0.0995774
0.01070556 -0.012367981 -0.012710343 0.058527097 0.05810246 0.03889254 0.15610643 0.093450695
-0.06514257 0.091783784 -0.00076071545 0.059266645 0.0395148 0.07815671 -0.08755253 0.010684725
0.070943736 0.031200638 0.07536493 0.008496759 -0.020606091 0.004898162 0.03104635 0.1273193
-0.046710704 -0.059134353 -0.00061340985 0.095410764 -0.08276068 0.060622405 -0.08491566 -0.07941289
-0.03345649 0.01708355 -0.060468715 -0.10848483 0.036803216 0.079342335 0.14773332 -0.047369976
-0.005280788 0.0688944 0.10914873 0.055970702 0.09286676 -0.008399116 0.0149572985 0.01945056
-0.045990694 0.03724931 0.00091441517 0.016736118 0.08556191 -0.018521886 -0.1127861 -0.028319638
0.088654436 0.02853311 -0.046190903 -0.06136404 0.037272513 0.06442223 -0.0063522444 0.11589127
0.11232964 0.10155598 -0.008550648 -0.06431272 0.053676903 -0.07365563 -0.06669181 -0.061756905
-0.085898384 0.07354181 -0.0020294539 0.058902003 -0.058048725 0.037044626 -0.075317934 -0.016887011
0.107717186 0.017513782 -0.04526429 -0.08400867 -0.009040462 0.014682138 -0.023150256 0.059550013
0.060675174 -0.003932591 -0.005570606 0.013777807 -0.11626013 0.13710478 -0.046162426 -0.059353422
-0.038652852 -0.063073136 -0.12003385 0.042233128 0.025060426 -0.072978295 0.021009933 -0.07735272
-0.05566043 -0.030904204 -0.06571742 0.07124251 0.09625283 -0.0005860699 0.011134518 0.031254396
-0.026439697 0.0067138993 -0.029732151 -0.03514018 -0.03949754 -0.08535985 0.0024934395 0.007773347
0.039233327 0.04380869 -0.012049618 -0.07480111 0.070429295 -0.10733141 -0.081097454 0.06261463

fc2.0.bias f4 [84]
00000000: 3207 b8bc c349 01bb a17d bf3b 60e6 b13a
00000010: c325 133c 3fb5 0a3d 5d29 7dbd 8b18 753d
00000020: 8212 28bd f4b9 33bd 22a2 99bc b0c0 8f3d
00000030: da1d 8abd efc5 d1bc 317c 1c3d d1a4 ff3c
00000040: 0a6b 9d3c 2c68 3e3c 2a90 adbd 99f3 6d3d
00000050: 5bc6 b63d dade 933b ff2a a43c 924b 843d
00000060: 138f 13bd 485c 16bd 6373 acbd ddb6 af3c
00000070: 74e3 8dbc 364d 45bd 227b d6bc b624 963b
00000080: 3b48 82bd a009 93bd 4f2b d33d 6711 d63d
00000090: 74c3 333d e643 143d 3b15 473d 9e3f 03bd
000000a0: 381f 2f3d f7f0 b6bd fa8d 393d 12bc 67bd
000000b0: 58d4 0dbd f5e3 9abc cc0b ccbc a7e7 ebbb
000000c0: 79a7 a03d 8fd9 9a3c 88e6 2ebc 203e 0d3c
000000d0: 0ed0 89bd 58fc 343d ddc7 c73d 146e 983c
000000e0: 305a 9bbc baa3 6abb 63f9 933d 82b5 e0bb
000000f0: b75d 74bd 45e8 ccbc 6d48 b63d d879 a8bb
00000100: dce3 ac3d 91b6 6cbd 0cf8 98bd 21f6 fdbc
00000110: ad50 87bd 07f4 dd3b 1655 53bd a38f cf3c
00000120: 99b3 273d 964a 20bd b21f 78bd bfcb 283b
00000130: 32ff 7dbd 4e68 7abb 7171 aeba 7d28 393d
00000140: 51bd 733d f590 77bc ece8 84bd af5f 833c
-0.022464368 -0.0019727803 0.0058438336 0.0013572685 0.008981171 0.033864256 -0.061807025 0.05983786
-0.041033275 -0.04387851 -0.018754069 0.07019174 -0.06743975 -0.025607077 0.038204376 0.03120652
0.01921608 0.011621516 -0.08474763 0.05809364 0.08924552 0.00451265 0.020040033 0.064597264
-0.036025118 -0.0367091 -0.08420446 0.0214495 -0.017320372 -0.048169337 -0.026181761 0.004582013
-0.06361433 -0.0717957 0.10310995 0.10452538 0.04388757 0.036197565 0.04860423 -0.032043092
0.042754382 -0.08932679 0.045301415 -0.056575842 -0.034626335 -0.018907527 -0.024907969 -0.007199246
0.07844443 0.018902568 -0.01067508 0.008620769 -0.067291364 0.044185966 0.09754918 0.018607177
-0.018963903 -0.0035803155 0.07225301 -0.006857575 -0.059659686 -0.025013098 0.08900533 -0.005141478
0.08441898 -0.057791296 -0.07469186 -0.031001152 -0.066071846 0.006773475 -0.051594816 0.025337046
0.040942762 -0.03913363 -0.060577102 0.0025756208 -0.06201095 -0.0038209143 -0.0013308955 0.04520463
0.059506718 -0.015110244 -0.06489739 0.016036836
