计算机视觉实践-练习2/checkpoint/lenet/Saturday_15_April_2023_09h_22m_32s/lenet-10-regular.pth (torch, 250355 bytes, 10 tensors)

conv1.0.weight f4 [6, 1, 5, 5]
0	0x3da4e3bf	0.080512516
1	0xbd303abc	-0.043024763
2	0x3e67ccce	0.2263672
3	0x3e2cdd2c	0.16881245
4	0x3e1c6126	0.15271434
5	0x3e813399	0.25234678
6	0x3dc007ac	0.09376463
7	0x3eba9c17	0.36447212
8	0x3da8ed3b	0.08248373
9	0xbc07ea93	-0.008295673
10	0x3d78efd4	0.060775593
11	0x3e33ef22	0.1757169
12	0x3ec011c5	0.37513557
13	0x3ea22139	0.31665972
14	0x3df1b19c	0.118014544
15	0x3e17f1c8	0.14838326
16	0x3e3a5c86	0.18199357
17	0x3ec9244a	0.392855
18	0x3e7868ec	0.24258775
19	0x3ec2e6df	0.38066766
20	0xbe09d3f2	-0.13459757
21	0xbdc129df	-0.094318144
22	0x3e760ef1	0.24029137
23	0x3ebf8506	0.37406176
24	0x3e471955	0.19443257
25	0xbdc3b60f	-0.09556209
26	0x3e293e30	0.16527629
27	0xbe1a83c4	-0.15089327
28	0xbcdd85dd	-0.02704137
29	0x3cdb3500	0.02675867
30	0x3d6c62f3	0.057711553
31	0x3d6b6563	0.057469737
32	0x3e61dabe	0.220561
33	0x3e72ab6f	0.23698209
34	0xbd5346ca	-0.05158118
35	0x3e88be19	0.26707533
36	0x3e817f6e	0.25292534
37	0x3c8b593d	0.017010326
38	0x3eaf7835	0.34271398
39	0x3ea1efc3	0.31628236
40	0x3e475735	0.1946686
41	0x3d7784e9	0.060429487
42	0x3e6148c7	0.22000419
43	0x3e06ba33	0.13156967
44	0x3eae7220	0.34071445
45	0xbe1b5098	-0.15167463
46	0xbc652ce9	-0.013987758
47	0x3d01221f	0.03152668
48	0xbd315245	-0.04329135
49	0x3e79a711	0.24380137
50	0xbe034e2f	-0.12822793
51	0xbdd69d6a	-0.10479243
52	0xbdbcc186	-0.09216599
53	0x3d05fde2	0.032712825
54	0xbda84b41	-0.082174785
55	0xbe0d3959	-0.13791408
56	0xbc88ea0a	-0.016713161
57	0xbd0a4ca1	-0.033764485
58	0x3c26abfe	0.010172842
59	0x3e1e6a0e	0.15470144
60	0xbde146f1	-0.10999859
61	0x3e04ab30	0.12955928
62	0xbe09e9b0	-0.13468051
63	0x3e6c9e86	0.23107347
64	0xbd8bbd70	-0.06823242
65	0xbe34643e	-0.17616364
66	0x3c654972	0.0139945615
67	0xbe351cd5	-0.1768678
68	0x3e0204f9	0.1269721
69	0x3e855e48	0.26048493
70	0x3e0c022c	0.13672704
71	0xbdbd53de	-0.09244512
72	0xbdf60c24	-0.120140344
73	0x3e707776	0.2348307
74	0x3e7af047	0.24505721
75	0x3cb30da3	0.021857088
76	0xbcc20f13	-0.023688829
77	0x3d12b4a8	0.03581682
78	0xbde3e5e4	-0.111278325
79	0x3c2d21c2	0.0105671305
80	0xbd06cac9	-0.032908235
81	0x3e263df1	0.16234566
82	0x3e4f47b9	0.20242204
83	0xbe3b3a5f	-0.18283986
84	0x3bad66fd	0.005291818
85	0xbd1656da	-0.03670392
86	0x3e5124a8	0.2042414
87	0xbd6c44fb	-0.057682972
88	0xbd91d69b	-0.07121011
89	0xbe4035af	-0.18770479
90	0x3d928a0c	0.071552366
91	0x3e4a074e	0.19729349
92	0x3e036b65	0.12833937
93	0xbe27781c	-0.16354412
94	0xbbeda850	-0.0072527304
95	0xbcb02792	-0.021503244
96	0x3d72ed17	0.059308138
97	0x3dc5df59	0.09661741
98	0xbdec688e	-0.1154338
99	0xbd489cc3	-0.048977625
100	0x3d835588	0.06412798
101	0xbe24d982	-0.16098598
102	0xbbaeeb1b	-0.0053380853
103	0xbdf6ec50	-0.12056792
104	0xbd6a7733	-0.057242583
105	0xbd9cbfe8	-0.07653791
106	0x3e242314	0.16029006
107	0x3d556d2a	0.05210606
108	0x3e570aaa	0.21000162
109	0x3e510b63	0.204145
110	0xbd10fabc	-0.03539537
111	0x3e4299f9	0.19004048
112	0x3e1e5fef	0.15466283
113	0x3e31e69d	0.17373128
114	0xbe1bf164	-0.15228802
115	0xbdf7bf08	-0.12096983
116	0xbe390786	-0.18069276
117	0xbdab72e8	-0.08371526
118	0xbc15828c	-0.009125363
119	0xbdb9e6d3	-0.09077229
120	0x3dabd375	0.083899416
121	0xbd14a151	-0.036286656
122	0x3e10f37e	0.14155385
123	0xbe3bf4f0	-0.18355155
124	0xbdeb125a	-0.1147811
125	0xbdc13a08	-0.09434897
126	0x3eb45c1f	0.35226533
127	0x3eaaf792	0.33392006
128	0x3e9ee7e5	0.31036296
129	0xbd085333	-0.03328247
130	0x3da8b660	0.0823791
131	0x3edf13f8	0.43569922
132	0x3e660555	0.22462972
133	0x3ec9cbae	0.39413208
134	0x3e93d0a1	0.2887011
135	0x3e35bc5a	0.17747632
136	0x3ed7a9ec	0.42121828
137	0x3e06fcbd	0.1318235
138	0x3e8f7ba9	0.28024033
139	0x3bce77f9	0.006300923
140	0x3ea99806	0.33123797
141	0x3ed155a9	0.40885666
142	0x3e10074d	0.14065285
143	0xbcf466f2	-0.029834244
144	0x3d509cc1	0.050930742
145	0x3ea32fe6	0.3187248
146	0x3dc5cc7f	0.09658145
147	0x3e9b537f	0.3033714
148	0x3d3bc2a1	0.04583991
149	0x3e787826	0.24264583

conv1.0.bias f4 [6]
0	0x3cd3e020	0.025863707
1	0xbd1a11c5	-0.037614603
2	0x3d91faf5	0.071279444
3	0x3e531860	0.20614767
4	0x3e4d9515	0.20076402
5	0x3dcaad77	0.09896367

conv2.0.weight f4 [16, 6, 5, 5]
0	0xbda6b7e6	-0.081405446
1	0xbd751d27	-0.059842255
2	0xbcbff3d0	-0.023431689
3	0xbd7849b9	-0.060617182
4	0xbd52af55	-0.05143674
5	0x3d743cc6	0.05962827
6	0xbd813510	-0.06308949
7	0xbd516744	-0.051123872
8	0x3b5126d3	0.003191401
9	0x3d6360cc	0.055512235
10	0xbcb643ca	-0.022249121
11	0xbd7d1759	-0.061789844
12	0x3d1df39c	0.038562402
13	0x3db5523c	0.088535756
14	0x3bce9f41	0.0063056056
15	0x3d3f9bce	0.046779446
16	0x3d71596e	0.058923177
17	0x3de50f20	0.111845255
18	0x3de33562	0.11094166
19	0x3d2b4229	0.041811142
20	0xbbe9c037	-0.0071335095
21	0xbaa3ede5	-0.0012506811
22	0x3cab0b21	0.02087933
23	0x3dc96b00	0.09834862
24	0x3dd9dcdc	0.10637829
25	0xbc4cf62b	-0.012509863
26	0xbca21c0a	-0.01978876
27	0x3b0a7b4a	0.0021130615
28	0xbd7b92a8	-0.06141916
29	0x3d9a0238	0.075199544
30	0xbcb08f09	-0.02155258
31	0xbdaf695a	-0.08565016
32	0xbd67970b	-0.05654053
33	0xbd6166c0	-0.05502963
34	0x3d607971	0.054803316
35	0xbd271aec	-0.04079716
36	0xbd301de3	-0.042997252
37	0xbc27abc1	-0.01023382
38	0xbc097e7c	-0.008391973
39	0xbd24fec3	-0.040282022
40	0x3cebac8f	0.028768806
41	0x3d68cbdd	0.056835044
42	0x3da5020c	0.08057031
43	0xbcddf57d	-0.027094597
44	0x3daddbb9	0.084891744
45	0xbc3c0555	-0.011475881
46	0xbd0f5626	-0.034994267
47	0x3dbad9f6	0.09123604
48	0x3dcdc8cd	0.10048065
49	0x3c1170e1	0.00887701
50	0x3d83abcd	0.06429253
51	0x3d4dbf94	0.05023153
52	0x3db351c9	0.08755834
53	0x3cc63295	0.024194041
54	0x3dc5e92c	0.09663615
55	0x3cc6d276	0.024270277
56	0xbcc890c6	-0.024483096
57	0x3db2d98f	0.08732902
58	0x3d18257a	0.037145115
59	0xbc676672	-0.014123546
60	0x3d90afa6	0.07064752
61	0x3d9a6da6	0.07540445
62	0xbbaa3dc0	-0.0051953495
63	0xbcab76c3	-0.020930653
64	0xbd8abac5	-0.06773905
65	0x3d924cca	0.071435526
66	0xbd50af0d	-0.05094819
67	0x3c555de1	0.013022871
68	0x3d039f08	0.032134086
69	0x3d98fe49	0.07470376
70	0x3d75eee6	0.060042284
71	0xbd20a03f	-0.039215323
72	0xbd82bf14	-0.063841015
73	0xbc76cb2c	-0.015063088
74	0xbc48319c	-0.012218859
75	0xbd6e6075	-0.058197457
76	0xbd8028e6	-0.06257801
77	0xbcaba877	-0.020954354
78	0x3d8a0372	0.067389384
79	0xbd16dacc	-0.036829755
80	0xbd8049e4	-0.062640935
81	0x3d557f40	0.05212331
82	0x3c1fe34e	0.0097587835
83	0x3d490940	0.049081087
84	0x3d9de9f7	0.07710641
85	0x3da31421	0.07962824
86	0xbd7761b0	-0.060395896
87	0xbc351276	-0.011051765
88	0x3daf50f8	0.085603654
89	0x3da47682	0.08030416
90	0xbd938bf4	-0.07204428
91	0xbd5810a0	-0.05275023
92	0xbd3f7062	-0.046738036
93	0xbd2216ef	-0.039572652
94	0x3cf8636c	0.030320846
95	0x3d506358	0.05087599
96	0x3d9b9106	0.075960204
97	0x3d03abf5	0.032146413
98	0xbc905275	-0.017617444
99	0x3dacf22f	0.0844463
100	0x3cf45a08	0.029828086
101	0x3cfdb290	0.030968934
102	0xbd0fae4a	-0.035078324
103	0xbc01be1e	-0.007918863
104	0x3cf53858	0.029934093
105	0xbd0ce869	-0.03440133
106	0xbd948f55	-0.07253901
107	0xbd777602	-0.060415275
108	0x3a27119a	0.0006373167
109	0x3cb0a002	0.021560673
110	0x3c882bb5	0.016622404
111	0xbd1232d6	-0.035693012
112	0xbb2b8f10	-0.0026177801
113	0x3d8effc2	0.06982376
114	0xbd7def8e	-0.061996035
115	0xbd448eeb	-0.04798786
116	0x3d421e7a	0.047392346
117	0xbc8bc2c9	-0.017060654
118	0xbcce5b43	-0.025190001
119	0x3d0cf13c	0.034409747
120	0x3d5b51b9	0.053544734
121	0x3dba7e68	0.09106141
122	0x3d2a0326	0.04150691
123	0x3d7b2465	0.061314005
124	0xbd273891	-0.04082543
125	0xbd8493f8	-0.06473535
126	0xbd8d24d2	-0.068917885
127	0xbc9d3335	-0.019189456
128	0x3c9a97be	0.018871184
129	0x3d66d957	0.056359615
130	0xbcbb3fff	-0.022857664
131	0xbdb72b8d	-0.089438535
132	0xbda9ff14	-0.083006054
133	0xbd3e4d10	-0.04646021
134	0x3dbbe810	0.09175122
135	0x3d9597c4	0.073043376
136	0xbb9fca37	-0.004876401
137	0xbd2545f1	-0.040349904
138	0x3deacb01	0.11464501
139	0x3d0e39f0	0.034723222
140	0x3d8e38ec	0.06944451
141	0x3cd1ddda	0.025618482
142	0x3ded9911	0.11601461
143	0x3a988a37	0.0011637871
144	0x3ddcdee2	0.10784699
145	0x3d9ae787	0.075636916
146	0xbca66931	-0.020313831
147	0x3dee06a4	0.1162236
148	0x3dfd34fc	0.123636216
149	0x3dfa6aee	0.122274265
150	0x3d68c534	0.056828693
151	0xbc1ee9ac	-0.009699266
152	0xbdab5e90	-0.08367646
153	0xbc4e7031	-0.012599991
154	0x3c93ddb0	0.018050045
155	0xbcc14fcc	-0.02359762
156	0xbd177f1f	-0.036986466
157	0x3d175621	0.036947373
158	0xbbde8dbb	-0.006791798
159	0x3cdd6f85	0.027030716
160	0xbd6992c4	-0.057024732
161	0x3daefa4a	0.085438326
162	0x3e060573	0.13088016
163	0x3d9b1c77	0.075737886
164	0x3dec124d	0.11526928
165	0xbc981330	-0.018563837
166	0x3d25fb22	0.040522702
167	0x3e359fd9	0.17736758
168	0x3e0c0759	0.13674678
169	0x3de48b39	0.11159367
170	0x3d25ca02	0.040475853
171	0xbd3bd49c	-0.045857057
172	0x3e1a2645	0.15053661
173	0x3e2b34a7	0.16719304
174	0x3ddd5b5b	0.1080844
175	0x3d2e1db1	0.042508785
176	0xbdc265e3	-0.094920896
177	0x3c130e3c	0.008975562
178	0xbc5f9f89	-0.013648876
179	0xbd303cba	-0.043026663
180	0xba824562	-0.000993889
181	0x3d022984	0.031777874
182	0x3db630a7	0.088959984
183	0x3db3b9ed	0.08775697
184	0xbd4cc369	-0.049991045
185	0x3cb3e57e	0.021960016
186	0x3dbf1779	0.09330649
187	0x3d4db52f	0.05022162
188	0xbc8c0894	-0.017093934
189	0x3d6f4b58	0.058421463
190	0x3dac9a34	0.084278494
191	0x3d8620c3	0.065492176
192	0x3e0d79d2	0.13816002
193	0x3d664704	0.05622007
194	0x3c81bb7c	0.01583647
195	0xbd89d85b	-0.0673072
196	0x3c98135c	0.018563919
197	0x3cda6155	0.02665774
198	0x3cf410f4	0.02979324
199	0x3d3a0c62	0.045421965
200	0xbd460842	-0.04834772
201	0x3d05ad65	0.032636065
202	0x3bc29666	0.005938339
203	0x3c5f461d	0.013627556
204	0x3d9c7fb8	0.07641548
205	0x3b8d23f0	0.0043072626
206	0x3d31031e	0.043215863
207	0x3d680109	0.056641612
208	0xbca3c79e	-0.019992646
209	0x3db83709	0.08994872
210	0x3d9180b2	0.07104625
211	0x3da46a60	0.08028102
212	0x3db4b782	0.08824064
213	0x3dd3e812	0.10346998
214	0xbd3fea5c	-0.046854362
215	0xbce36563	-0.027758306
216	0xb99d6b21	-0.0003002519
217	0xbd01f04b	-0.0317233
218	0x3d47e5e5	0.04880323
219	0xbcfd87b5	-0.0309485
220	0xbbe5bab2	-0.007010781
221	0x3d86a61b	0.06574651
222	0x3d8016d3	0.062543534
223	0xbc9f52ef	-0.019448726
224	0x3d55536c	0.05208151
225	0x3a6ca56d	0.0009027336
226	0x3d67163b	0.056417685
227	0x3d06e02d	0.032928634
228	0x3b92854a	0.0044714557
229	0x3d771f24	0.060332432
230	0x3d91e16e	0.071230754
231	0x3d4441f8	0.047914475
232	0x3da340bb	0.07971331
233	0xbcb4e791	-0.022083076
234	0x3b804872	0.003914886
235	0x3ce85e31	0.028365226
236	0x3cf0280a	0.029315967
237	0x3d7b2add	0.061320174
238	0xbd3888d0	-0.04505235
239	0x3daadd6b	0.083430134
240	0x3c92f663	0.017939752
241	0x3c793ece	0.015212728
242	0xbc739927	-0.014868057
243	0x3d33daae	0.04390972
244	0x3d9a9a20	0.07548928
245	0x3c9ed411	0.01938823
246	0x3d5467bb	0.051856738
247	0xbd0dbdcb	-0.03460483
248	0xbd130a72	-0.035898633
249	0xbd398b58	-0.045298904
250	0x3cd20791	0.025638374
251	0xbd096e10	-0.03355223
252	0x3d80ca59	0.06288595
253	0xbcf578a0	-0.029964745
254	0xbd4227a1	-0.047401074
255	0x3bb061ad	0.0053827376

conv2.0.bias f4 [16]
0	0xbd4b5d48	-0.049649507
1	0x3dc6e544	0.09711698
2	0xbd0eec3d	-0.034893263
3	0x3dbe6a5b	0.092976294
4	0x3c8ee189	0.017441528
5	0xbcf6b2b8	-0.030114517
6	0x3db4d29f	0.08829235
7	0x3d712790	0.05887562
8	0xbc7eb30f	-0.015545621
9	0x3d08e172	0.033418126
10	0xbca1ed8c	-0.019766591
11	0xbd68cbb9	-0.05683491
12	0xbc9d66db	-0.019214084
13	0xbca6729c	-0.020318322
14	0xbd6f840f	-0.05847555
15	0x3cc9a98b	0.024616977

fc1.0.weight f4 [120, 400]
0	0x3d07b1aa	0.033128418
1	0x3b3f7b79	0.0029217883
2	0xbbaffa2a	-0.005370398
3	0xbd0ff534	-0.035145953
4	0x3c4fb906	0.01267839
5	0x3ce0d503	0.027445322
6	0xbcae20b7	-0.021255834
7	0xbafe244b	-0.0019389478
8	0x3d1ef64f	0.038809117
9	0x3d282175	0.041047532
10	0xbd000f4a	-0.03126458
11	0xbd41e2a2	-0.047335275
12	0x3c0a220d	0.00843097
13	0x3ccf50d2	0.025307093
14	0x3c9b6bc6	0.018972289
15	0xbccfd25e	-0.025368866
16	0x3d246c48	0.040142328
17	0xbd20d87e	-0.039268963
18	0xbce60205	-0.028077135
19	0xbd0a6087	-0.033783462
20	0xbc0ed7c7	-0.0087184375
21	0xbd07fbb9	-0.033199046
22	0xbcac710c	-0.021049999
23	0x3c1dbf27	0.009628094
24	0x3ce30e57	0.027716799
25	0x3cd2568a	0.02567603
26	0xbcfe8c35	-0.031072715
27	0xbaf127b6	-0.0018398676
28	0x3c3ff07b	0.01171505
29	0x3c23072a	0.0099504385
30	0xbcbd4f6d	-0.023109162
31	0xbc35ae9b	-0.0110889925
32	0xbceee702	-0.029162887
33	0x3cd8ed68	0.026480392
34	0x3d115719	0.035483453
35	0x3d0cc8ca	0.034371175
36	0x3b6f1417	0.003648048
37	0x3d240b9b	0.04005013
38	0xbd0a9dcc	-0.033841893
39	0xbb72da79	-0.003705649
40	0xbc75b8fb	-0.014997716
41	0x3d43576f	0.047690805
42	0xbcff3375	-0.031152466
43	0xbd0b5153	-0.034013104
44	0x3c231b3a	0.009955222
45	0x3d2079b3	0.03917856
46	0x3d0a7977	0.033807244
47	0xbc91787f	-0.017757652
48	0x3d2de968	0.04245892
49	0xbd4eae54	-0.05045922
50	0x3c2674b4	0.01015966
51	0x3ba2fade	0.0049737534
52	0x3bbe0552	0.005798974
53	0xbcfc26dd	-0.03078025
54	0xbd0af332	-0.033923335
55	0xbcf48bf4	-0.029851891
56	0x3d35c22a	0.044374622
57	0x3c06268b	0.0081879
58	0x3c9420a1	0.018081965
59	0xbd3afa0a	-0.045648612
60	0xbd20a2af	-0.039217647
61	0xbba67f51	-0.0050810953
62	0x3d494f77	0.04914805
63	0xbd1fc562	-0.0390066
64	0x3bfbc6f7	0.0076836306
65	0xbcf989ad	-0.030461157
66	0xbca61216	-0.020272296
67	0xbd438f07	-0.047743823
68	0x3b5ea8a1	0.0033975022
69	0xbc64c78c	-0.013963591
70	0x3cfe58c6	0.03104819
71	0x3d2454d6	0.04011997
72	0x3d3e8762	0.04651583
73	0xbca51b47	-0.020154608
74	0x3d1319ab	0.03591315
75	0xbd47340b	-0.048633616
76	0x3d27ab08	0.040934592
77	0xbb98f90d	-0.004668361
78	0x3c6777f1	0.014127717
79	0x3d062e1d	0.03275882
80	0x3c9a8148	0.018860474
81	0xbc4fd54f	-0.012685134
82	0xbd08104a	-0.03321866
83	0x3c539c38	0.012915663
84	0xbd09ed2c	-0.03367345
85	0x3cc8fe77	0.0245354
86	0xbceb5b03	-0.028729921
87	0xbcf8e434	-0.030382253
88	0xbd13174c	-0.03591089
89	0x3c3324e9	0.010934093
90	0xbb532c07	-0.0032222287
91	0xbd280427	-0.041019585
92	0xbd139299	-0.03602848
93	0x3a927d8f	0.0011176335
94	0xbcc17b16	-0.023618262
95	0xbd23ea31	-0.040018264
96	0x3c7e0321	0.015503676
97	0xbbd656c5	-0.0065411055
98	0xbd3b5d68	-0.045743376
99	0x3d38108e	0.044937663
100	0xbb169d30	-0.0022981875
101	0x3bfeb162	0.0077726105
102	0xbcd54bac	-0.02603706
103	0xbd01a233	-0.031648826
104	0xbcd3809a	-0.025818158
105	0x3c27d5dc	0.010243859
106	0xbcb832dd	-0.022485191
107	0x3d45964d	0.04823904
108	0x3ba7b4c5	0.005117985
109	0x3d10ac38	0.03532049
110	0xbc39ddc4	-0.011344377
111	0x3cb357f1	0.02189252
112	0x3c1bdb75	0.009512772
113	0x3d28597f	0.041100975
114	0x3c22853f	0.009919464
115	0xbcfa44ee	-0.030550446
116	0x3d1fb492	0.038990565
117	0x3b3a93f6	0.002846954
118	0x3d095b7b	0.03353451
119	0x3c8d919b	0.017281344
120	0xbca5eb5b	-0.020253828
121	0x3d418253	0.047243427
122	0x3c0790f3	0.008274305
123	0xbc99929d	-0.018746668
124	0xbae9af7b	-0.0017828787
125	0x3c21f143	0.009884181
126	0x3d160056	0.036621414
127	0x3c2835e3	0.010266754
128	0xbc6276a8	-0.013822235
129	0xbc956751	-0.018237742
130	0xbc999f87	-0.018752826
131	0x3cdfab2a	0.027303297
132	0x3c60fd2f	0.013732239
133	0xbd3daaee	-0.04630559
134	0xbd02cfe3	-0.031936537
135	0xbc03d378	-0.008046024
136	0x3cacaa10	0.021077186
137	0xbcbd1b5a	-0.023084331
138	0x3bfcca7b	0.0077145672
139	0x3b24e5a1	0.0025161284
140	0x3ce8de17	0.028426213
141	0x3d136a13	0.035989832
142	0x3c2ecf5b	0.010669555
143	0xbce4d7e7	-0.027934982
144	0x3a4cfe5c	0.0007819885
145	0xbb1b740a	-0.0023720288
146	0x3ccfd944	0.025372155
147	0x3c9e51f8	0.019326195
148	0x3c889d58	0.01667659
149	0xbd2c706f	-0.042099413
150	0xbd46c3c6	-0.048526548
151	0x3cdfc899	0.027317332
152	0xbc14c4af	-0.009080096
153	0xbc186e10	-0.009303585
154	0xbcadfdba	-0.02123915
155	0xbbed0b9a	-0.007234049
156	0xbb2b30df	-0.0026121659
157	0x3d18817a	0.037232853
158	0xbcfae0fe	-0.030624863
159	0xbd036b76	-0.032084905
160	0xbc920edf	-0.017829357
161	0x3d350e2b	0.044202965
162	0xbd4509e2	-0.048105128
163	0xbc06151f	-0.008183747
164	0x3d1d4ff8	0.038406342
165	0x3cc85515	0.024454633
166	0x3d23643d	0.039890517
167	0x3d0a67ab	0.03379027
168	0xbbb79f0d	-0.005603677
169	0x3d161142	0.036637552
170	0x3cc9a818	0.024616286
171	0xbc97da6f	-0.018536774
172	0xbd2bb95b	-0.041924816
173	0x3b3e02ca	0.0028993362
174	0x3d3257fe	0.043540947
175	0xbd387397	-0.04503211
176	0xbd4b2dd2	-0.049604245
177	0xbcff1d65	-0.031141946
178	0xbc9ccc47	-0.019140376
179	0x3c8e284b	0.017353198
180	0xbbda9dbe	-0.0066716364
181	0xbd2d08e5	-0.04224481
182	0xbc8e4e98	-0.01737146
183	0xbd207938	-0.039178103
184	0xbd016a4f	-0.031595524
185	0xbccc9169	-0.02497168
186	0xbbdba453	-0.0067029386
187	0x3c82468f	0.015902786
188	0xbcb0e333	-0.021592712
189	0xbc981bd2	-0.018567953
190	0xbd4c1b4d	-0.049830724
191	0x3cd720c7	0.026260747
192	0x3c96ca2b	0.018406948
193	0x3bcbd2b5	0.0062201866
194	0xbcb2dfeb	-0.021835288
195	0x3d0cd649	0.034384046
196	0xbc89f847	-0.01684202
197	0xbd302661	-0.04300535
198	0x3d313eea	0.04327289
199	0xbbe38d8c	-0.006944364
200	0xbcbf5156	-0.023354214
201	0x3d3c2f88	0.045943767
202	0xbd482447	-0.04886272
203	0x3cefa9d2	0.029255781
204	0x3d030987	0.031991508
205	0xbd011040	-0.031509638
206	0x3b0773f4	0.0020668479
207	0xbcaa0df6	-0.02075861
208	0x3a80259a	0.0009776831
209	0xbcd18c3c	-0.025579564
210	0xbce93db5	-0.028471807
211	0x3b8a10b8	0.004213419
212	0x3c51e5fb	0.012811179
213	0xbd4c668f	-0.049902495
214	0xbd3e41f9	-0.046449635
215	0x3cd8528e	0.026406553
216	0x3c396e05	0.011317735
217	0xbd0e8340	-0.03479314
218	0x3c4e1b2b	0.01257972
219	0xbd177cf8	-0.036984414
220	0xbc47536f	-0.012165888
221	0xbcca667b	-0.02470707
222	0xbc8b49ec	-0.017003022
223	0x3bf684f6	0.0075231744
224	0x3d178f79	0.03700206
225	0x3d39a34e	0.045321755
226	0xbd27e8e8	-0.0409936
227	0x3cf37dc6	0.02972306
228	0xbd036193	-0.032075476
229	0xbd2d6f28	-0.042342335
230	0x3c7db8f0	0.015485987
231	0xbd442393	-0.04788549
232	0xb90bb7d3	-0.00013324553
233	0x3c06974e	0.008214785
234	0xbd07186f	-0.032982286
235	0xbd1e47e4	-0.03864278
236	0xbd0bb1be	-0.034105055
237	0xbc52741e	-0.012845067
238	0x3c8f6ac9	0.017506974
239	0x3c519864	0.01279268
240	0xbcd66ee1	-0.026175918
241	0x3d0b9326	0.03407588
242	0x3c6d2ed3	0.014476496
243	0x3c5f0a2f	0.013613268
244	0xbc9cb282	-0.019128088
245	0x3c0f0ce3	0.0087311
246	0x3cf31851	0.02967468
247	0xbc501a93	-0.012701648
248	0xbd1e098a	-0.038583316
249	0xbd31b157	-0.043382015
250	0x3bf0167f	0.0073269005
251	0xbc726454	-0.014794428
252	0xbab1db94	-0.0013569468
253	0xb85cbc3c	-5.2627394e-05
254	0xbae8e867	-0.0017769457
255	0x3ba0da0e	0.0049088066

fc1.0.bias f4 [120]
0	0x3d151f8a	0.03640703
1	0xbcfcad47	-0.030844344
2	0x3d092560	0.03348291
3	0xbc9e564a	-0.019328255
4	0x3cbb6008	0.02287294
5	0xbceed86b	-0.02915593
6	0x3cb82017	0.02247624
7	0x3c687d3d	0.014190015
8	0xbb93abcd	-0.0045065642
9	0xbd4e05f0	-0.05029863
10	0xbd27cf35	-0.040969092
11	0x3d3c2325	0.045931954
12	0xbd00ba78	-0.03142783
13	0x3cc0c4fd	0.023531431
14	0x3cf8ef95	0.03038768
15	0x3cfe9285	0.031075725
16	0xbb4b8e22	-0.003106006
17	0xbb4a5187	-0.0030871348
18	0xbbe30b0f	-0.0069288085
19	0xbce80a69	-0.028325276
20	0xbc4702e9	-0.01214669
21	0xbd2240e1	-0.039612655
22	0x3b774b40	0.0037734061
23	0x3ab3d433	0.0013719857
24	0x3d6ea34e	0.05826121
25	0x3cab84f1	0.020937415
26	0xbc842d30	-0.016134828
27	0xbd24bb2f	-0.040217575
28	0xbca11297	-0.019662185
29	0x3c9f4848	0.019443646
30	0x3cb7655f	0.022387205
31	0x3a68835c	0.0008869672
32	0xbd1d3ba3	-0.038386952
33	0xb917511c	-0.00014430698
34	0xbb03de80	-0.0020121634
35	0xbc8c5480	-0.017130136
36	0x3c87b90c	0.01656773
37	0x3c61aa5e	0.013773529
38	0x3c7fc022	0.015609773
39	0x3bacdf09	0.0052756113
40	0x3d03af9d	0.0321499
41	0x3d35279b	0.044227224
42	0x3d07c633	0.033148002
43	0xbd49c677	-0.049261536
44	0x3d37ee91	0.04490525
45	0xbc8c9dde	-0.01716512
46	0xbd302410	-0.043003142
47	0x3b4f7bd8	0.003165951
48	0xbc2631b6	-0.010143688
49	0xbd3707ea	-0.04468528
50	0xbd129cd5	-0.035794098
51	0xbd38e7e8	-0.045143038
52	0xbc49fcfc	-0.012328383
53	0x3c7abae6	0.015303349
54	0x3ae3d46c	0.0017382032
55	0x3c4636c0	0.012098014
56	0x3d05cfe3	0.03266896
57	0xbcbaafd3	-0.022788918
58	0xbc831e7b	-0.016005745
59	0x3d3080eb	0.043091696
60	0x3d2fb233	0.042894553
61	0xbcfa8eac	-0.03058561
62	0x3c510768	0.012758113
63	0x3c8a5357	0.016885443
64	0xbd17a1da	-0.037019588
65	0xbd1771cc	-0.03697376
66	0x3cd033f6	0.025415402
67	0xbb869cb7	-0.0041080373
68	0x3d2d029d	0.04223882
69	0x3d1076e4	0.035269633
70	0xbc323205	-0.010876183
71	0xbc948140	-0.018128037
72	0xbc7a2ec2	-0.015269937
73	0x3ccff230	0.025384039
74	0xb8fab333	-0.000119543074
75	0x3aa03176	0.0012221772
76	0xbd44e985	-0.048074264
77	0x3d23a0b7	0.03994819
78	0x3cf9f3fe	0.030511852
79	0x3d4649dc	0.04841028
80	0x3cd980e2	0.026550714
81	0xbc8be714	-0.01707796
82	0x3bbd8007	0.0057830843
83	0xbcc5b1eb	-0.02413269
84	0x3c87be9e	0.016570386
85	0xbb819bf8	-0.0039553605
86	0x3b0afb5f	0.0021206958
87	0xbd37d279	-0.044878457
88	0x3d4dd6f6	0.05025383
89	0xbd0fa371	-0.03506798
90	0xbc4bf0ee	-0.012447579
91	0x3d41c48f	0.047306594
92	0xbcd95ba7	-0.026532961
93	0xbc8263b5	-0.015916685
94	0x3d10dca9	0.035366688
95	0x3ce76b05	0.028249273
96	0xbd384351	-0.044986073
97	0x3d5d80d1	0.054077927
98	0x3ba1f7b0	0.0049428567
99	0x3ce87e6e	0.028380599
100	0x3d35d965	0.044396777
101	0x3cc197ef	0.023632018
102	0x3bd7e30d	0.006588346
103	0xbd2c0d67	-0.04200497
104	0xbc86861c	-0.01642137
105	0x3d372d76	0.04472109
106	0xbd17f5c1	-0.037099604
107	0xbb94a98d	-0.0045368136
108	0xbcc7c470	-0.02438566
109	0xbbbb6f6d	-0.00572007
110	0xbc198377	-0.009369723
111	0xbd22ee55	-0.039778072
112	0xbd11e82e	-0.035621814
113	0xbd3d6b65	-0.046244998
114	0xbc9731b3	-0.018456316
115	0x3c828416	0.015932124
116	0x3af98367	0.0019036353
117	0x3c8c21e4	0.017106004
118	0xbc07e6a0	-0.008294731
119	0x3afbe625	0.0019218369

fc2.0.weight f4 [84, 120]
0	0xbbbc3046	-0.0057430593
1	0xbcc12f95	-0.02358226
2	0xbdba8820	-0.09107995
3	0x3cc778d4	0.024349608
4	0x3da59cb7	0.080865316
5	0x3cff1cd1	0.03114167
6	0x3d2d4653	0.042303395
7	0x3d9d43a0	0.07678914
8	0x3c914868	0.017734721
9	0xbd1084c1	-0.035282854
10	0x3cae98f2	0.021313164
11	0x3b9b29be	0.0047352007
12	0xbd21679d	-0.039405454
13	0xbdb950a3	-0.09048583
14	0x3cbc662b	0.022997936
15	0xbd2af408	-0.041736633
16	0xbd05beca	-0.032652654
17	0x3cd407e4	0.025882669
18	0x3da244cd	0.07923279
19	0x3d375872	0.044762082
20	0xbd8a1a71	-0.067433245
21	0xbdaf0842	-0.08546497
22	0xbd8db8af	-0.06919991
23	0x3d520ce2	0.051281817
24	0x3c44f545	0.012021367
25	0x3cb1d3df	0.021707473
26	0x3c8e2389	0.017350929
27	0xbccf7c54	-0.025327839
28	0xba8f5967	-0.0010936678
29	0xbda5f6d9	-0.08103723
30	0x3b6c10af	0.0036020686
31	0xbd8dbb01	-0.06920434
32	0x3d8ebdc9	0.069697924
33	0xbd985ac8	-0.0743919
34	0xbcae1538	-0.021250352
35	0xbca79a30	-0.020459265
36	0x3c24b51c	0.010052945
37	0x3d96bb77	0.07359975
38	0x3db6f182	0.08932783
39	0x3c9882cb	0.018617054
40	0xbc8f7500	-0.017511845
41	0xbce7f3de	-0.028314527
42	0x3cfedff8	0.031112656
43	0xbd61599a	-0.05501709
44	0xbcdb3e2a	-0.02676304
45	0xbd681409	-0.056659732
46	0xbc8e3177	-0.017357571
47	0xbd8ed773	-0.069746874
48	0xbd0af2cf	-0.033922967
49	0xbb6e9643	-0.003640548
50	0x3c529ae5	0.012854313
51	0x3d5fb375	0.054614503
52	0x3cdef013	0.027214086
53	0xbb1557d3	-0.0022787943
54	0x3d904cf3	0.07045927
55	0xbd115ac2	-0.035486944
56	0x3baa8666	0.00520401
57	0xba526c26	-0.00080269796
58	0x3dad114f	0.08450567
59	0x3d75f8b3	0.06005163
60	0xbd9ba028	-0.07598907
61	0x3d2993c5	0.04140069
62	0xbd9ebee4	-0.07751253
63	0x3ca1dae2	0.019757692
64	0xbd8f115a	-0.069857314
65	0xbd999119	-0.07498378
66	0x3db30765	0.08741645
67	0x3d4f0e86	0.05055096
68	0x3d06c2d7	0.032900658
69	0xbd22ad18	-0.039715856
70	0x3d7451a3	0.059648167
71	0x3d351a5b	0.044214588
72	0xbd287b1c	-0.04113303
73	0xbd82d890	-0.06388962
74	0x3da4a23b	0.080387555
75	0x3c5a6a96	0.013331076
76	0x3cabab94	0.020955838
77	0x3d8122af	0.063054435
78	0x3bee652a	0.0072752433
79	0x3c91e807	0.017810835
80	0xbd844ae0	-0.06459594
81	0x3da5131e	0.08060287
82	0x3d930bd5	0.07179991
83	0x3d01ac33	0.031658363
84	0x3daacc97	0.08339804
85	0xbd4f58aa	-0.050621666
86	0x3c83f43a	0.016107667
87	0x3d0ed543	0.03487135
88	0xbd845de6	-0.06463222
89	0xbd8ce86b	-0.06880268
90	0xbcae18d0	-0.021252066
91	0x3ba74b4b	0.005105411
92	0xbce1d29f	-0.027566252
93	0x3d78fd9d	0.06078874
94	0xbd0892dd	-0.033343185
95	0x3d46d078	0.048538655
96	0xbd8f87e2	-0.070083395
97	0xbc5d182e	-0.013494534
98	0x3c8b52d5	0.01700727
99	0xbdb47251	-0.088108666
100	0x3dadb8a8	0.08482486
101	0xbd2b3444	-0.04179789
102	0xbd5342fd	-0.051577557
103	0x3ad5895b	0.0016291545
104	0xbcda019b	-0.026612094
105	0x3d12bb94	0.03582342
106	0x3d85634f	0.06513082
107	0x3d8bd7d1	0.06828273
108	0x3d8aafa7	0.06771784
109	0x3d982539	0.07428975
110	0xbd899499	-0.06717796
111	0x3d93345b	0.071877204
112	0x3d3e350b	0.046437304
113	0xbb9a03db	-0.0047001666
114	0x3bb4fc20	0.0055232197
115	0x3d096033	0.03353901
116	0xbda8f409	-0.08249671
117	0xbd9bb727	-0.07603293
118	0xbcc70cfb	-0.024298182
119	0x3d29bc0f	0.041439112
120	0x3d280c24	0.041027203
121	0x3ce204c7	0.027590169
122	0x39bc356c	0.00035897957
123	0x3d805af3	0.06267347
124	0x3b9e882d	0.0048380108
125	0x3d1106d1	0.03540689
126	0x3d312b23	0.04325403
127	0x3d80103e	0.06253098
128	0xbd76ec66	-0.06028404
129	0xbd95e49e	-0.07318996
130	0x3d0b18c2	0.033959158
131	0xbb4a5ea2	-0.003087916
132	0xbc143daf	-0.00904791
133	0xbc864adb	-0.016393116
134	0xbc942b84	-0.018087156
135	0xbda3abea	-0.079917744
136	0xbd168ec0	-0.03675723
137	0xbdb24ec5	-0.0870643
138	0x3d40b4f0	0.047047555
139	0x3c8cad9f	0.017172633
140	0x38f74fdf	0.00011792755
141	0x3cd5b0c8	0.026085272
142	0xbd9f0a0a	-0.07765587
143	0xbdbd41c3	-0.09241059
144	0x3d527f2e	0.05139082
145	0x3d075b53	0.033046078
146	0x3d312e33	0.04325695
147	0xbd77934f	-0.06044322
148	0x3bea18c3	0.007144065
149	0x3d09dec8	0.033659726
150	0x3d670e13	0.056409907
151	0x3d093825	0.03350081
152	0x3d4f56cd	0.05061989
153	0x3dbbae25	0.09164075
154	0x3c51a452	0.012795525
155	0x3db5be78	0.0887422
156	0xbb93ec92	-0.0045142854
157	0xbd958deb	-0.07302459
158	0x3db26624	0.08710888
159	0x3db4183b	0.08793684
160	0x3d608da9	0.054822598
161	0xbc3beee6	-0.011470532
162	0x3b8bc7dd	0.004265769
163	0xbbaa71d7	-0.005201559
164	0x3b819ea6	0.00395568
165	0x3d936a31	0.07197989
166	0x3db4478a	0.088027075
167	0xbd77b434	-0.06047459
168	0x3d99f84f	0.07518064
169	0xbccacfa5	-0.024757216
170	0x3d910676	0.070813105
171	0xbcaae843	-0.020862704
172	0x3cd1b4f5	0.025598982
173	0x3d323de5	0.04351606
174	0xbb339832	-0.0027403948
175	0x3c2956bc	0.0103356205
176	0x3c24cc60	0.010058492
177	0x3d9e11f4	0.07718268
178	0x3ce75c32	0.028242204
179	0xbd2456e8	-0.040121943
180	0xbcf78f1a	-0.030219603
181	0x3d90ba8b	0.0706683
182	0xbc16b709	-0.009198912
183	0xb9135c35	-0.00014053362
184	0xbb1a8e48	-0.0023583341
185	0x3d397936	0.04528161
186	0x3da06e23	0.07833507
187	0x3d7f3d39	0.062314246
188	0xbcc7a8f8	-0.024372563
189	0xbcc483ac	-0.023988567
190	0xbd3733bb	-0.04472707
191	0x3d50e0cb	0.05099563
192	0xbd5894b3	-0.052876186
193	0xbc0c0c01	-0.008547784
194	0x3d0f27ac	0.034949943
195	0x3d891a43	0.06694462
196	0xbd775977	-0.060388055
197	0x3d4ae5b4	0.04953547
198	0xbda04a6d	-0.078266956
199	0x3d7381ac	0.059449837
200	0xbd87fe69	-0.06640322
201	0xbd9f1be2	-0.0776899
202	0xbd1a8f0d	-0.03773408
203	0xbca6dbad	-0.020368421
204	0xbd2cb271	-0.042162362
205	0x3d30cd9d	0.043164838
206	0x3c9ca60f	0.019122152
207	0xbd79d32d	-0.06099241
208	0xbd2440ef	-0.040100988
209	0xbd85ac46	-0.06526999
210	0x3d9863f4	0.074409395
211	0x3d5b3ac1	0.05352283
212	0xbd31256f	-0.04324859
213	0xbcf79c5e	-0.030225929
214	0xbda091e5	-0.07840327
215	0xbdb031c9	-0.08603246
216	0x3db5ca9a	0.08876534
217	0x3d54972e	0.05190199
218	0xbd504c99	-0.0508543
219	0xbd3a6f80	-0.04551649
220	0xbd96a696	-0.073559925
221	0xbd92af1d	-0.071623065
222	0x3d372258	0.044710487
223	0xbc6b2f64	-0.0143545605
224	0x3c6029a6	0.013681805
225	0x3d980482	0.07422735
226	0x3d61ac29	0.055095825
227	0x3da0e313	0.07855811
228	0x3d93646a	0.07196887
229	0x3d58470b	0.052802127
230	0xbc94bd12	-0.018156562
231	0x3c35cec5	0.011096661
232	0x3d497760	0.04918611
233	0xbd9c5adc	-0.076345176
234	0x3d865e04	0.06560901
235	0x3da57750	0.08079398
236	0x3d964687	0.07337671
237	0x3bd7b93d	0.0065833614
238	0xbd6bc233	-0.05755825
239	0xbbae303a	-0.0053158076
240	0x3d9c4779	0.0763082
241	0xbd1a46c2	-0.037665136
242	0xbcc7c63f	-0.024386523
243	0x3d0c68fd	0.034279812
244	0xbcd52eca	-0.026023287
245	0x3d179c0a	0.037014045
246	0x3ddcb77f	0.107771866
247	0x3d49178c	0.04909472
248	0x3c8cb742	0.017177228
249	0x3c8e08f3	0.017338252
250	0xbdaba7a6	-0.08381586
251	0x3db39d70	0.08770263
252	0x3b072d1d	0.0020626255
253	0xbda2ab25	-0.079427995
254	0x3d97f233	0.07419243
255	0x3cd754ee	0.026285615

fc2.0.bias f4 [84]
0	0x3d2555cc	0.040365025
1	0xbd8940e9	-0.06701834
2	0x3ce0002a	0.027343828
3	0xbdb9e9dc	-0.09077808
4	0x3dda0f16	0.10647409
5	0x3ca57290	0.02019623
6	0xbd4100e1	-0.04711998
7	0x3ce9e2d0	0.028550535
8	0x3db527f1	0.08845509
9	0x3c81f61a	0.01586442
10	0x3deb0881	0.11476231
11	0xbda2c2fc	-0.079473466
12	0xbdce79c5	-0.100818194
13	0x3d363d60	0.044492126
14	0xbd96c032	-0.07360877
15	0xbd0a6b0d	-0.033793498
16	0xbdb93087	-0.09042459
17	0xbdae6d25	-0.085169114
18	0x3dd04d02	0.10170938
19	0x3db0339a	0.08603592
20	0xbd9025eb	-0.07038482
21	0xbd9f82e7	-0.077886395
22	0x3d728010	0.05920416
23	0x3bd4d90b	0.0064956
24	0xbdae0ac1	-0.08498145
25	0x3d0563ae	0.032565765
26	0xbdc823e0	-0.097724676
27	0xbd7eca4a	-0.062204637
28	0xbd5e356d	-0.05425017
29	0x3daca4db	0.08429881
30	0x3d90cfa4	0.07070854
31	0xbd1a13b2	-0.03761644
32	0xbd4a26be	-0.049353354
33	0xbd0c0435	-0.0341837
34	0x3db44099	0.088013835
35	0xbcb1f6bb	-0.021724096
36	0x3db4eea9	0.08834583
37	0x3bf57b43	0.0074915006
38	0xbd4df4e1	-0.050282363
39	0x3d42835f	0.047488566
40	0xbd766d52	-0.06016285
41	0xbdb1db3e	-0.08684395
42	0x3d123124	0.035691395
43	0xbd934eea	-0.07192786
44	0x3d364c15	0.04450615
45	0x3db65da8	0.08904582
46	0x3d47fc79	0.04882476
47	0xbd422f37	-0.04740831
48	0xbd2926cf	-0.041296776
49	0x3d2ed15b	0.042680126
50	0x3dbba492	0.09162249
51	0x3da0591e	0.07829498
52	0xbcdc8c58	-0.02692239
53	0xbd5258a7	-0.051354077
54	0xbd05dfe2	-0.032684214
55	0x3d96648d	0.07343397
56	0xbd9a3643	-0.07529881
57	0x3db9fdc5	0.09081606
58	0xbd7593c5	-0.059955377
59	0x3d8a63d0	0.06757319
60	0xbcbbfd9b	-0.022948077
61	0x3d17253e	0.03690075
62	0xbd2cdd94	-0.0422035
63	0xbc2b8fc9	-0.010471293
64	0x3d8e60d3	0.069520615
65	0xbd85b833	-0.06529274
66	0x3c85b312	0.016320739
67	0xbd9ed87c	-0.07756135
68	0x3d12eb7e	0.035869114
69	0x3da0d57a	0.078532174
70	0x3b4b5d5e	0.0031030993
71	0xbd5e4fb7	-0.05427524
72	0x3cb8756e	0.022516932
73	0x3d60d988	0.054894954
74	0xbcdc1854	-0.02686707
75	0xbd44e356	-0.048068367
76	0x3d315ecf	0.043303307
77	0xbd9e9e34	-0.077450186
78	0x3c4b5060	0.0124093
79	0xbd83fce0	-0.064447165
80	0xbd0973f2	-0.03355784
81	0x3d9cbe08	0.07653433
82	0x3d6482f0	0.055788934
83	0xbd453a4a	-0.048151292

fc3.weight f4 [10, 84]
0	0xbd34df34	-0.044158176
1	0x3c89e34b	0.016832015
2	0x3da9a81e	0.08284019
3	0x3d99858a	0.07496174
4	0xbe436a58	-0.19083536
5	0x3d1e221e	0.038606755
6	0xbd28fccc	-0.04125671
7	0x3d3225d1	0.043493096
8	0xbc34d226	-0.011036431
9	0x3d1e3b60	0.038630843
10	0xbd94a173	-0.072573565
11	0xbc156333	-0.009117889
12	0x3d6a187d	0.05715226
13	0xbcaa5656	-0.020793121
14	0xbcd9b5f1	-0.026576014
15	0x3dc33ae3	0.09532716
16	0xbd06d917	-0.032921877
17	0xbdd01d91	-0.10161889
18	0xbd4885ca	-0.048955716
19	0x3d5eb731	0.054373924
20	0x3da2a032	0.07940711
21	0xbcfb59d8	-0.03068249
22	0xbc26d164	-0.010181759
23	0x3df8799f	0.121325724
24	0x3d26f391	0.040759627
25	0x3c172e7b	0.00922739
26	0xbd3a1e06	-0.04543879
27	0xbd17cfcb	-0.0370634
28	0xbcab7bbb	-0.020933023
29	0x3deeda7e	0.11662768
30	0x3c7ad129	0.015308657
31	0x3df76b6e	0.120810375
32	0xbe0cde02	-0.13756564
33	0xbdde5e35	-0.10857812
34	0xbdd3d72a	-0.10343774
35	0x3d112b60	0.035441756
36	0xbc96f151	-0.018425616
37	0xbd84493a	-0.06459279
38	0x3d1f570e	0.03890138
39	0xbd4360ea	-0.047699846
40	0x3d06689f	0.03281462
41	0xbd305924	-0.04305376
42	0xbdc61941	-0.096727856
43	0x3c7fc90a	0.015611896
44	0xbd88c576	-0.06678288
45	0x3e599fc9	0.2125236
46	0x3df904cc	0.12159118
47	0x3b181f88	0.0023212153
48	0x3e0622fc	0.13099283
49	0x3df4b833	0.11949196
50	0xbdb03f8a	-0.08605869
51	0xbda25d0a	-0.07927902
52	0xbdda47e9	-0.10658247
53	0x3d1eabff	0.038738247
54	0xbe03e385	-0.1287976
55	0xbd01b639	-0.03166792
56	0xbdca0a6f	-0.09865271
57	0xbdbb9d42	-0.09160854
58	0x3d7d6f04	0.06187345
59	0x3e4226f1	0.18960167
60	0x3d3f7934	0.046746448
61	0x3db19c69	0.08672411
62	0xbe15e46a	-0.14637914
63	0x3db2897e	0.08717631
64	0xbc8cd6ea	-0.017192323
65	0xbd5ff634	-0.054678157
66	0x3df72f07	0.12069517
67	0x3da18a2e	0.07887684
68	0x3caa8192	0.020813737
69	0xbde1c470	-0.110237956
70	0x3e1929f2	0.14957407
71	0xbe0e4d62	-0.13896707
72	0x3dd09167	0.10183983
73	0xbd83512d	-0.064119674
74	0x3e18cd48	0.14922059
75	0xbdc608ad	-0.096696235
76	0xbd542d4b	-0.051801007
77	0x3ba1d6f5	0.004938955
78	0xbe377447	-0.1791545
79	0x3c6911bf	0.014225422
80	0x3daa5292	0.0831653
81	0xbe0550fa	-0.13019171
82	0x3dbba096	0.09161489
83	0x3df633ea	0.120216206
84	0x3c862570	0.016375273
85	0xbdb2badf	-0.08727049
86	0x3d1c3554	0.038136795
87	0xbdc144e8	-0.09436971
88	0x3e0cc8c8	0.13748467
89	0x3dd54663	0.10413816
90	0xbd9c3054	-0.07626405
91	0xbd642584	-0.05569984
92	0x3db386bf	0.08765935
93	0xbd1f831e	-0.038943402
94	0x3e79cc06	0.24394235
95	0xbd656b90	-0.056010783
96	0x3dc2aa3c	0.09505126
97	0x3deb915d	0.11502335
98	0xbdcc1eb7	-0.09966796
99	0x3d8cd387	0.06876283
100	0x3d985e4a	0.07439859
101	0x3da1d03e	0.07901047
102	0x3e1bf5d1	0.1523049
103	0x3cdfc083	0.027313476
104	0x3dd649c9	0.10463292
105	0x3dd9dff4	0.10638419
106	0xbe0eefcd	-0.13958664
107	0xbdf5fdd1	-0.12011302
108	0x3ca1c78d	0.019748474
109	0xbcd32e87	-0.025779022
110	0x3db7c54a	0.08973177
111	0xbdfcecfd	-0.123498894
112	0xbdde72bf	-0.1086173
113	0xbd136a4a	-0.035990037
114	0xbde03201	-0.109470375
115	0xbdfd73f1	-0.1237563
116	0xbd31122b	-0.043230217
117	0xbcb69983	-0.022289997
118	0x3b496cd4	0.0030735033
119	0x3c8bdf3e	0.017074224
120	0xbda0251a	-0.078195766
121	0xbdf81634	-0.1211361
122	0xbdc4f727	-0.09617453
123	0xbcc30609	-0.023806589
124	0x3dc253de	0.09488653
125	0x3da88949	0.0822931
126	0xbd0e9c53	-0.03481705
127	0x3c8529cd	0.016255284
128	0xbd2735f5	-0.04082294
129	0xbdaff484	-0.085915595
130	0xbdc71566	-0.09720878
131	0x3e4103d7	0.18849121
132	0xbdf10634	-0.11768761
133	0xbdefbb61	-0.117056616
134	0x3e22303c	0.15838712
135	0xbd3a8d06	-0.045544647
136	0xbdde3bea	-0.108512715
137	0xbd0b7f9e	-0.034057252
138	0xbca89989	-0.020581024
139	0xbdb06f3c	-0.08614966
140	0x3d2c14d2	0.042012043
141	0x3e0ca0e6	0.13733253
142	0xbdd020ab	-0.10162481
143	0xbe30152f	-0.17195581
144	0xbd2d2e3f	-0.04228043
145	0xbda5c30d	-0.080938436
146	0xbc95f886	-0.018306982
147	0xbcfe84aa	-0.031069119
148	0x3e41ff81	0.18945123
149	0x3db01ae3	0.08598878
150	0xbe2fe5fb	-0.17177574
151	0x3df03be8	0.11730176
152	0xbc316092	-0.010826247
153	0xbe114a15	-0.14188416
154	0xbe143e4f	-0.14476894
155	0x3daf1790	0.08549416
156	0xbdd0e953	-0.10200753
157	0xbdb47cf1	-0.08812893
158	0xbe0790f6	-0.13238892
159	0x3d020468	0.031742483
160	0xbdbf3c41	-0.093376644
161	0xbd3d917a	-0.046281315
162	0x3e1d1c4e	0.15342829
163	0x3b8a152f	0.004213951
164	0xbe4c1573	-0.19930057
165	0x3cd6772b	0.02617987
166	0x3ddfd2da	0.109288886
167	0xbd15ef9e	-0.03660547
168	0x3dcd3e1a	0.100216106
169	0x3dd914f4	0.105996996
170	0xbdd43b3f	-0.10362863
171	0xbe03eb30	-0.12882686
172	0xbd9147cf	-0.070937745
173	0xbd09d036	-0.03364583
174	0x3db5726f	0.08859717
175	0x3dc3c3eb	0.09558853
176	0x3e6b7809	0.22995009
177	0xbb8a4c6a	-0.004220535
178	0x3cfecc2c	0.031103216
179	0x3d9f6c83	0.07784369
180	0xbc84b9a0	-0.016201794
181	0x3e156bbd	0.1459188
182	0xbd5fe4e0	-0.05466163
183	0xbdd2f5f4	-0.10300818
184	0xbdaf3010	-0.08554089
185	0x3baa77fb	0.005202291
186	0xbdd094e6	-0.1018465
187	0x3d970809	0.073745795
188	0xbdac0ba8	-0.08400661
189	0x3dfe8b86	0.12428956
190	0x3dfde2c1	0.123967655
191	0xbd8853e7	-0.06656628
192	0x3d90fe2f	0.07079732
193	0x3df9c3a3	0.12195518
194	0xbd614178	-0.054994076
195	0xbdfe0b5b	-0.1240451
196	0xbd9069ef	-0.07051455
197	0x3e0c3970	0.13693786
198	0x3ca156f1	0.019694777
199	0x3c3164d1	0.010827259
200	0xbe09016c	-0.13379449
201	0x3c8dc6cd	0.01730671
202	0xbd41a0e9	-0.047272597
203	0xbbff78e9	-0.007796396
204	0xbddfd875	-0.10929958
205	0xbe16ffc2	-0.14746001
206	0xbd86bfe9	-0.06579573
207	0xbd8de414	-0.06928268
208	0x3daad0e1	0.08340622
209	0xbb71205b	-0.0036792967
210	0x3d1f41f8	0.038881272
211	0x3bbc2371	0.0057415296
212	0xbdec55e1	-0.115398176
213	0xbd1a8cd6	-0.037731968
214	0x3d425856	0.047447525
215	0x3df91e7d	0.12164018
216	0xbd840c6d	-0.064476825
217	0x3ddd452d	0.1080421
218	0xbe15d707	-0.14632808
219	0xbc82a9ed	-0.015950168
220	0x3ca648fc	0.020298474
221	0x3c4d59c4	0.012533609
222	0x3c3a2578	0.011361472
223	0xbbbf7496	-0.0058427555
224	0x3d467f72	0.048461385
225	0xbdda2351	-0.10651267
226	0x3cfc0b8a	0.030767221
227	0x3df75887	0.12077432
228	0xbe233944	-0.15939814
229	0xbdad0494	-0.08448139
230	0xbd8abc2f	-0.067741744
231	0xbc7c5c9b	-0.015402938
232	0x3df7068b	0.12061795
233	0x3d863147	0.06552368
234	0xbd8c9070	-0.06863487
235	0x3b4ef57b	0.0031579423
236	0x3cf4daed	0.029889548
237	0x3d8b7e5f	0.06811213
238	0x3e1ed8ad	0.15512343
239	0x3d8256e9	0.06364233
240	0x3dd20e3e	0.10256623
241	0x3c17d2ad	0.009266538
242	0xbd6c7f89	-0.057738815
243	0xbc5953b0	-0.013264582
244	0xbdf8c305	-0.12146572
245	0xbbdb06fb	-0.0066841817
246	0x3d5ee034	0.054413036
247	0xbd978394	-0.073981434
248	0xbdc49bf2	-0.09600057
249	0x3dbeefc7	0.09323078
250	0x3cb09a42	0.02155793
251	0x3d6c2fdf	0.05766284
252	0x3d591e3c	0.05300735
253	0xbce54782	-0.0279882
254	0x3d2dac52	0.042400666
255	0xbd341f72	-0.0439753

fc3.bias f4 [10]
0	0xbd972358	-0.07379788
1	0x3e33f5f3	0.17574291
2	0x3cec1dce	0.028822806
3	0x3da17a3a	0.07884641
4	0x3e015278	0.12629116
5	0xbc63eca3	-0.013911399
6	0xbc950e27	-0.018195225
7	0x3d886f57	0.066618614
8	0x3c853743	0.016261702
9	0x3d1429aa	0.036172546
