计算机视觉实践-练习2/checkpoint/lenet_p/Saturday_15_April_2023_09h_55m_18s/lenet_p-11-best.pth (torch, 260575 bytes, 30 tensors)

conv1.0.weight f4 [6, 1, 5, 5]
000000 a7 14 24 be 94 36 56 bc a2 35 b3 bd af e4 af bd
       -0.16023503 -0.013074536 -0.08750464 -0.0858854
000010 6a 12 02 3e 30 5e 8f 3c 05 c3 77 bd 20 c7 a5 bd
       0.12702337 0.017500967 -0.06048872 -0.08094621
000020 94 b6 ba bd e4 16 09 bd f5 e6 12 be 76 fc 00 be
       -0.09116855 -0.033469096 -0.14345916 -0.12596306
000030 2a da 6c bd 15 5b 57 be 79 ca 11 be 92 55 df bd
       -0.057825245 -0.21030839 -0.14237393 -0.10904993
000040 2c f0 04 3e eb 1b 06 bd e7 91 38 bb 61 2d b3 3c
       0.12982243 -0.03274147 -0.0028163136 0.021872224
000050 6c 50 30 3e 96 4b 9b 3d 02 91 03 3e 00 30 44 bd
       0.17218179 0.07582776 0.12848285 -0.04789734
000060 c4 dd 71 bb ba 2b d7 bd af 51 4e bc 9b 0c 98 3d
       -0.0036905864 -0.10506387 -0.012592717 0.07424279
000070 e3 f7 66 bd 11 cf 33 3d c4 fb 2d bc d0 65 21 3e
       -0.056388747 0.043898646 -0.010619108 0.15761495
000080 eb 59 fc 3d 94 76 39 3d 35 13 01 be f1 8c 8b 3d
       0.12321838 0.0452791 -0.12604983 0.06813992
000090 80 41 67 be 90 dc fa 3d 4e 8e 84 3e 25 23 33 3e
       -0.2258358 0.122491 0.2588982 0.17493875
0000a0 1c b1 47 bc 03 c9 88 3d 95 64 07 be 06 cf 47 3c
       -0.012188222 0.06678965 -0.13221963 0.012195354
0000b0 a4 8a 48 3e a1 33 11 be 9c e0 5c bc 00 53 9c 3d
       0.19584137 -0.14179851 -0.013481285 0.076330185
0000c0 76 63 10 3e 47 62 14 3e 13 3f a2 bd e1 cc 8d 3d
       0.14100441 0.14490615 -0.07922187 0.06923843
0000d0 e9 fa 95 3d 00 60 d4 bd f9 f4 c6 3d 10 7a 41 3e
       0.07323248 -0.10369873 0.097146936 0.1889422
0000e0 97 d5 1b bd 71 8e 6e bd 81 16 24 3d 31 11 28 bd
       -0.038045492 -0.05824131 0.040060524 -0.04103202
0000f0 0a 19 8e 3d fd 3e df 3d b2 fa 7a 3d ea b8 ef bd
       0.069383696 0.10900686 0.061274238 -0.117051914
000100 9d e1 13 be c3 48 3b 3e 7f a1 57 3e f5 79 3d be
       -0.14441533 0.18289475 0.210577 -0.18503554
000110 94 53 d8 3d 3e fd a9 3d 76 70 5e 3e ac b7 60 3e
       0.10562816 0.08300255 0.21722588 0.21945065
000120 a8 d8 9a bd 2b 4d 84 3c be b7 b9 bd 58 46 f0 bb
       -0.07560855 0.016150078 -0.09068249 -0.0073326044
000130 a2 c1 a0 bc 6e 0d 71 39 ba 1e 36 3e d4 a1 e8 3d
       -0.019623581 0.00022988554 0.17785159 0.11358991
000140 22 9d 90 bc fd 45 8e be 6b 2e 88 bd 3d ce 07 be
       -0.017653052 -0.27787772 -0.066494785 -0.13262267
000150 3f 84 cc 3d 92 fb 1a 3e ec b8 a4 bd 0a 92 45 be
       0.099861614 0.15135029 -0.080430835 -0.1929399
000160 0a e3 05 be 26 fb 0b be 37 85 18 3e 88 47 96 3e
       -0.1307489 -0.13670024 0.14894567 0.2935145
000170 4c 98 f3 3b 55 02 7a 3a d0 b6 a8 bd b6 11 fc bd
       0.0074339267 0.00095370907 -0.08237994 -0.123080656
000180 30 dc d0 bb 19 4b ba 3d 8d bc ba 3d bd bd 17 3d
       -0.0063739046 0.09096355 0.091179945 0.037046183
000190 9d 91 5d 3c dd 6f 06 3e 80 82 04 be 2c 15 d9 bd
       0.013523486 0.1312861 -0.12940407 -0.10599741
0001a0 8c e3 9f 3b 8c a2 7f 3d 46 9f fa bd 6e 60 1e be
       0.0048794206 0.062410876 -0.1223741 -0.15466473
0001b0 46 99 78 bd c4 e4 af bc 49 f1 8a 3d 27 90 16 be
       -0.060693048 -0.021471389 0.06784303 -0.14703427
0001c0 1c dc 00 be 15 83 cb bc 0e c4 43 3e a9 27 6d bc
       -0.12583965 -0.024842778 0.19117758 -0.014474788
0001d0 e7 f4 08 be 8f 75 04 3e 7c 31 82 3e 70 43 03 3e
       -0.13374673 0.1293547 0.2542838 0.12818694
0001e0 2b 37 0c 3d 40 95 f2 3d 4c 41 78 bd 0c ec fe 3d
       0.0342323 0.118448734 -0.060609147 0.12447366
0001f0 0e ea 3c be da 4b de 3c eb d4 a3 3c 23 f6 44 3d
       -0.1844866 0.027135778 0.019998988 0.048086297
000200 c5 71 40 bd 2d 55 b7 3a 3d a4 24 bd 91 ca f4 bb
       -0.0469835 0.0013987176 -0.040195692 -0.007470437
000210 00 34 99 bd 77 87 b1 3d 43 95 b5 bc c1 ac 33 3e
       -0.07480621 0.08668416 -0.0221659 0.17546369
000220 90 41 33 3e c0 5d 9d 3e 50 af 84 3d 9c e7 a0 bd
       0.17505479 0.30735588 0.06478751 -0.07856676
000230 9a 9c 55 3e c8 ac 8f bd 37 24 a2 bd d6 a8 77 3d
       0.2086052 -0.07015377 -0.07917064 0.06046375
000240 9a ee 83 bd 5f 73 85 be 24 60 3a be 7a 00 e0 bd
       -0.06441994 -0.26064584 -0.18200737 -0.10937591
000250 14 aa 1a 3d 5a 8a c0 3d
       0.037759855 0.094013885

conv1.0.bias f4 [6]
000000 ae 14 0f 3d 3e 09 39 be e2 c6 1c bd 26 e0 ea 3d
       0.03493183 -0.18069932 -0.038275607 0.11468534
000010 cc 2f ce 3d e0 45 9e 3d
       0.1006771 0.07728171

conv1.1.weight f4 [6]
000000 db b8 76 3f 99 88 6d 3f 2d 96 78 3f cf 47 6d 3f
       0.9637582 0.92786556 0.9710415 0.92687696
000010 d0 b3 74 3f 41 cc 73 3f
       0.9558687 0.9523354

conv1.1.bias f4 [6]
000000 69 83 98 bc 4e 6a c7 3c 28 6b fe 3b 48 6e 4c bd
       -0.018617349 0.024342682 0.007764239 -0.04990986
000010 7f c2 83 3c 34 72 4a bc
       0.016083954 -0.01235633

conv1.1.running_mean f4 [6]
000000 cf 37 96 3c c5 7f 20 be 86 97 21 3b 5d da 02 3e
       0.018337158 -0.1567374 0.0024656965 0.12778611
000010 bb a4 df 3d e8 a5 90 3d
       0.10920092 0.07062894

conv1.1.running_var f4 [6]
000000 91 12 14 3f a9 c1 25 3f 1a a7 29 3f 72 54 52 3e
       0.5784083 0.64748627 0.662706 0.20540026
000010 17 f8 a1 3e 2e 20 8e 3e
       0.3163459 0.27758926

conv2.0.weight f4 [6, 6, 3, 3]
000000 c2 9c 92 bd d5 18 09 be ad 26 8c 3c 14 21 38 bd
       -0.071588054 -0.13388379 0.017108286 -0.04495342
000010 1a a7 79 bd 07 0d 2b 3c 2b 93 46 bd 69 e3 60 bd
       -0.060950376 0.010440118 -0.048480194 -0.054904375
000020 68 d7 d9 bc f2 4e d4 3d cc a9 5f 3d 11 30 85 bc
       -0.026591972 0.1036662 0.05460529 -0.016258271
000030 db f8 40 bc b5 02 d8 bd 46 3f 9f bd cb 62 dc 3d
       -0.011778082 -0.10547391 -0.0777574 0.10761031
000040 30 89 06 be 93 db de bd 8c b6 16 3c 8c 68 b7 3d
       -0.1313827 -0.10881724 0.009198796 0.089554876
000050 90 c2 b6 3d a6 d2 63 3d 12 d6 ad bc 32 73 b8 bd
       0.089238286 0.055620812 -0.02122024 -0.09006347
000060 11 64 a7 3d 71 54 31 3e 11 77 0a be e9 9d d3 3d
       0.08173383 0.17317368 -0.13521983 0.10332853
000070 c7 40 dc bc 23 43 ac 3d e8 e0 f4 3d 0b 09 49 bd
       -0.026886357 0.08411243 0.1195696 -0.04908089
000080 59 c3 f4 3c b7 25 04 3d 6a c9 f9 3d a4 15 58 bd
       0.029878305 0.03226253 0.1219662 -0.052755013
000090 38 1a 6f bd f8 10 11 3e b7 54 3a 3e c2 ef af 3c
       -0.058374614 0.1416663 0.18196379 0.02147663
0000a0 50 e9 9b bd d7 32 ee 3c bb 25 24 bd 1e 57 a3 bd
       -0.0761286 0.029076977 -0.040075045 -0.07975601
0000b0 c7 26 36 bd 9d 93 1a bc 58 7c 12 bd 83 cf 0f 3e
       -0.044470575 -0.009434608 -0.035763115 0.14044003
0000c0 ad b0 bd 3c 1b 19 62 3b f2 47 3f 3d 36 d0 94 bd
       0.023155535 0.0034499827 0.04669947 -0.072662756
0000d0 b9 21 16 3d 0d af 86 bd ba 2d 54 3d cb 72 f2 bd
       0.036653254 -0.06576357 0.05180142 -0.11838301
0000e0 ab 94 7d 3d e6 cb e4 3c 25 5c e8 bd 83 98 b5 3c
       0.06190936 0.027929258 -0.113457 0.02216745
0000f0 ed 0f c3 bd b3 f2 ef bd 8e 35 52 bd 70 10 d6 3a
       -0.09524522 -0.11716213 -0.051320605 0.0016331803
000100 b4 c7 02 be fc fc 78 bd 74 f3 24 3e 41 d3 a4 3c
       -0.12771493 -0.06078814 0.16108495 0.020120265
000110 da 3c 0e 3e ac 48 b2 bd 63 31 57 3c 8c f0 84 bb
       0.138904 -0.08705267 0.013134333 -0.0040569957
000120 4e dd 64 3d fa bd ae 3d 54 ba 09 bd 38 1c 44 bd
       0.055875115 0.08532329 -0.033624962 -0.047878474
000130 d3 7a cb bc 96 28 33 bd 86 4f 1c 3d 28 4f 05 be
       -0.02483884 -0.043739878 0.038161777 -0.13018477
000140 0d 81 64 bc 0f 25 7f 3c 0f 6b 49 bd b8 03 8a 3d
       -0.013946784 0.0155728 -0.049174365 0.067389905
000150 21 8a 10 3d fa 92 3f 3c a9 cf 0c 3e 3b 45 27 3d
       0.03528798 0.011692757 0.13751091 0.040837508
000160 0f ff 7e bc 24 83 7a 3d d2 c8 0e 3d 60 88 1d 3e
       -0.01556374 0.06116022 0.034859486 0.15384054
000170 e9 09 12 3e 8f 89 ee bd 2a c4 d4 bd f1 8a 88 bd
       0.14261593 -0.11647331 -0.10388978 -0.06667126
000180 09 aa 88 3c 64 c9 92 bd 00 c1 71 bb 12 7b ab bc
       0.016682642 -0.071673185 -0.0036888719 -0.020932708
000190 95 b9 ac bd 5b b4 0c bd 1d 77 71 3d 30 49 2b 3e
       -0.084338345 -0.034351688 0.058951486 0.16727138
0001a0 72 e1 62 3e 4d 10 17 be b7 6f 91 bc 4b 46 0f 3d
       0.22156313 -0.14752312 -0.017753465 0.034979146
0001b0 a4 c9 d4 bd 48 ad 2a 3c ee c5 d0 bd e9 19 46 bd
       -0.103900224 0.01041729 -0.10194002 -0.048364554
0001c0 3b a0 ac bb f7 db d0 bd 26 24 bd 3c 20 d9 e3 3d
       -0.0052681244 -0.10198205 0.023088526 0.11125398
0001d0 9f eb b4 bc 71 9a f4 bd cd ee ff bc a2 a4 29 3d
       -0.02208501 -0.1194352 -0.031241799 0.04141677
0001e0 32 6a af bd ab 63 fa 3c 10 37 e9 bd 8c d2 34 bb
       -0.08565177 0.030565104 -0.113874555 -0.0027591316
0001f0 65 a0 25 3e 73 0e 5c 3c 02 f4 e9 bd 44 65 54 bc
       0.16174467 0.013431179 -0.11423494 -0.012963597
000200 12 37 53 bb 08 70 78 bc 59 2d 74 3d d5 a1 4f bc
       -0.003222887 -0.015163429 0.05961356 -0.012672861
000210 58 fa d3 3d 52 dc 00 3e ef c4 8a bc 3d 13 a4 3d
       0.10350484 0.12584046 -0.016939608 0.08011482
000220 91 a7 1e 3d 2a 91 5a bc 44 3d 59 bd 0c 48 a7 3c
       0.038734023 -0.013340274 -0.053036943 0.020420097
000230 bf db 16 bd b1 14 04 3d fe 87 af 3c 5f 2f 98 3d
       -0.03683066 0.032246295 0.02142715 0.0743091
000240 4d d2 06 bd ba 86 20 3e 3e 64 ec 3d 14 34 c7 3d
       -0.032915402 0.15676394 0.11542557 0.0972673
000250 ce 45 e7 3d 0f 97 46 3c c3 29 f3 3b d3 e1 93 bd
       0.11292611 0.012120976 0.00742075 -0.07220807
000260 a2 cf 09 3e 6d 80 a0 bb bb cb c2 bd e3 1b f8 3d
       0.13458112 -0.004898122 -0.09511515 0.12114694
000270 69 35 d8 bd fb 91 43 3d 0e 79 95 3d d8 5a 12 bd
       -0.10557062 0.04774664 0.0729848 -0.035731167
000280 af 12 ec 3d d2 b6 f9 3d d3 70 0e bc 54 8c 02 3e
       0.11527001 0.12193073 -0.008693892 0.12748843
000290 d1 0c ee 3c 40 3b f1 3d c0 ed a5 3d 24 f3 9b bc
       0.029058846 0.11778879 0.08101988 -0.019036837
0002a0 5e b4 33 3d cf 40 0b 3b fd 8b 9a bb 16 6c 99 3c
       0.043873183 0.0021248346 -0.004716395 0.018728297
0002b0 5b 2b ef 3a 85 ba 49 bd fc 94 d1 3c 5b f2 8b bc
       0.0018247174 -0.049250145 0.025583737 -0.017083338
0002c0 0a ed 3f 3d 04 0d 1e 3d 1d d2 ff bc e3 b3 37 3c
       0.046856917 0.03858663 -0.03122812 0.011212322
0002d0 57 8b 0d be a7 55 cf bd 5f a4 f2 bd f1 3b ba 3d
       -0.13822685 -0.10123759 -0.118477575 0.09093464
0002e0 34 e5 64 3d 53 09 39 3d 43 e4 a7 3d 14 7c 49 bb
       0.055882648 0.045174908 0.08197834 -0.0030744122
0002f0 e3 14 e0 3d 77 c3 84 3c 30 2e 04 3e 97 1c e2 3d
       0.10941484 0.016206486 0.12908244 0.11040609
000300 89 6e 7c bd 79 50 59 3d 6a 67 1a 3e 16 48 16 3c
       -0.061628852 0.05305526 0.15078512 0.00917246
000310 0e ce 50 3d 4c 87 79 bd f3 86 bf bd 14 75 44 be
       0.05097776 -0.060920045 -0.093519114 -0.19185287
000320 f7 53 54 be 3c 30 a6 3d 00 98 d0 3c 37 1f d1 bd
       -0.20735155 0.08114669 0.025463104 -0.10211032
000330 a0 43 4c 3e e5 19 11 3d 73 2a 9a bd 31 a7 a0 bc
       0.19947672 0.035425086 -0.07527628 -0.019610973
000340 29 a8 cf bb a0 e2 32 bd 4b e0 3d 3d e0 9a 86 bd
       -0.006337185 -0.043673158 0.04635648 -0.06572509
000350 f0 9e a2 bd f7 56 1a 3d dd 9c f0 3d 86 8e ce 3d
       -0.07940471 0.037680592 0.11748669 0.10085778
000360 55 41 86 3d 05 5a 12 3e e4 55 37 3d 9f 07 e0 3c
       0.0655543 0.14292152 0.044759646 0.027347384
000370 21 3c 75 bc bd b4 51 3d 25 a2 cf bd 04 39 5c 3c
       -0.014967949 0.051197756 -0.101383485 0.013441328
000380 de 67 cf 3d 78 b9 68 3d 98 2e 95 bc 68 17 ac bd
       0.10127233 0.0568175 -0.018210694 -0.08402902
000390 30 97 0c be 35 17 8b 3c ec 0e 08 be 07 ef a0 3c
       -0.13729548 0.01697884 -0.13286942 0.019645227
0003a0 3d f2 97 bd 8b 24 ea bc e4 ca b5 bb a5 12 5c bd
       -0.0741925 -0.028581878 -0.005547868 -0.05372872
0003b0 d6 4f 52 bd 20 e2 53 3d 06 d8 19 be 94 6a f9 bd
       -0.05134567 0.05172932 -0.15023813 -0.12178531
0003c0 89 d6 c3 bd 27 f4 15 3c f2 7d 1d be 0a 8b 21 3d
       -0.09562404 0.009152449 -0.15380076 0.03943924
0003d0 8b b4 af 3d 53 9c d4 3c 67 1e 5d bd 8e 66 b3 3d
       0.08579358 0.025953447 -0.053984072 0.08759795
0003e0 21 b1 20 3e 5b 75 19 be 63 a2 93 bc 1e b9 97 3c
       0.1569257 -0.14986174 -0.018021768 0.018520888
0003f0 12 33 20 3d 83 01 91 3c 86 53 51 bd 6b 8a 6e bc
       0.039111204 0.017700916 -0.051105045 -0.014559369

conv2.0.bias f4 [6]
000000 30 89 e3 3d 38 93 a4 3d cc cd 6f 3d 3e 5f c8 bc
       0.11110151 0.08035892 0.058545873 -0.024459478
000010 9d 34 a9 bd 0a 2e b8 3d
       -0.08261988 0.08993156

conv2.1.weight f4 [6]
000000 c1 2d 71 3f 82 eb 65 3f 38 6d 66 3f 7c 73 75 3f
       0.9421044 0.8981248 0.90010405 0.9587934
000010 79 2b 83 3f 53 e4 75 3f
       1.0247642 0.9605152

conv2.1.bias f4 [6]
000000 d7 bb 5b 3d fb ab ee bb df fe 54 bc 3c 83 02 3e
       0.053645935 -0.0072836853 -0.013000219 0.12745374
000010 ee 29 0e 3d d3 ca 19 bd
       0.034707956 -0.037546944

conv2.1.running_mean f4 [6]
000000 45 81 42 3e 1b d2 cf 3d f6 61 ce 3e 4b 96 43 3e
       0.18994625 0.10147496 0.40309113 0.19100301
000010 75 e1 95 be 6b 42 0f be
       -0.29273573 -0.1399018

conv2.1.running_var f4 [6]
000000 41 f7 df 3e 51 ce b1 3e 1b 42 cb 3e 62 6f e1 3e
       0.43743327 0.3472772 0.39698872 0.4403029
000010 0a 0f eb 3e f0 a4 e7 3e
       0.4590991 0.45243025

conv3.0.weight f4 [6, 6, 3, 3]
000000 67 4f 08 3d ec 07 2f 3d 95 99 9d bd 4b e3 21 be
       0.03327885 0.042732164 -0.07695309 -0.15809362
000010 78 52 cc bd 83 19 e4 3c 00 c2 e3 bc bb bd d1 bd
       -0.09976667 0.027844196 -0.027802467 -0.10241266
000020 fc 93 0b 3d 2d 3c 7e 3d 67 25 a7 bd 72 f6 aa 3d
       0.034076676 0.062069107 -0.08161431 0.08347787
000030 34 32 c6 bc 6d 20 9f 3b 11 85 87 bc 70 04 e9 3d
       -0.02419386 0.0048561604 -0.016542943 0.113777995
000040 ba d8 96 bb 38 d8 3b 3d bb df ac 3d 7f 8b bb 3d
       -0.0046034725 0.0458605 0.08441111 0.09157466
000050 a0 44 a7 3d f3 9a d2 3d 17 17 81 bd 87 e4 05 3d
       0.08167386 0.102834605 -0.06303232 0.032688644
000060 55 45 a6 bd 0c 78 63 bc db d2 08 be a8 cd 0f be
       -0.08118693 -0.013883602 -0.13361685 -0.14043295
000070 d6 ee 10 bd 64 7b 5d be 6f cd 3e bb 77 2d 8e 3d
       -0.03538402 -0.21629101 -0.0029114147 0.069422655
000080 25 fb 01 bd da dc b4 3d ea ec 1a 3e d9 18 2a 3e
       -0.03173365 0.088311866 0.15129438 0.16611041
000090 3b a0 fb bb 82 4e 25 bd 74 85 94 3d 95 a0 c3 3d
       -0.007679013 -0.040358074 0.07252017 0.09552113
0000a0 ef 90 4e bd 09 4f 86 bd 04 56 59 bd 73 dc ba 3d
       -0.05043119 -0.065580435 -0.053060547 0.091240786
0000b0 d9 64 5f bd 98 53 cb bd b6 28 40 3d 14 a2 84 3d
       -0.054539535 -0.099280536 0.046913825 0.064762264
0000c0 b5 67 17 be d5 63 35 be a4 a4 28 be 8a 62 29 bd
       -0.14785655 -0.17713864 -0.16469055 -0.04135374
0000d0 00 b3 81 3b c3 44 2d 3d dc 0c ab 3d f4 81 f3 3d
       0.003958106 0.042301904 0.08352062 0.11890021
0000e0 2b c6 18 3e 45 2e b5 3b c6 99 d9 bb 78 ad 1d 3e
       0.14919345 0.0055291974 -0.0066406457 0.15398204
0000f0 fc 1b 58 bd ae a9 fa bc 93 7d 95 3d bc 60 14 3d
       -0.052761063 -0.030598488 0.07299342 0.036225066
000100 04 0f 8a bc 42 08 32 3d 33 37 a0 3d 9b e6 85 3d
       -0.016852863 0.043464907 0.078230284 0.06538125
000110 a8 5e 73 3d bb e9 ed ba 85 c8 46 3d 7d b1 3a 3d
       0.059416443 -0.0018151322 0.048531074 0.045579422
000120 1c ec 8e 3d 75 c9 e8 3d dd 92 a8 3d 86 3b 38 3c
       0.06978628 0.1136655 0.08231137 0.01124466
000130 54 9b 08 3e 99 ec fc 3b 01 b2 fe bc 64 4e d1 bd
       0.13340503 0.0077186343 -0.031090738 -0.1022003
000140 d0 02 34 be 09 8a cb bc 2a d7 1f 3d 8c e9 a6 3c
       -0.17579198 -0.024846094 0.039023556 0.020375036
000150 de f4 a9 bd 41 87 40 bd 7d 76 98 3b 3f 03 f8 bd
       -0.08298658 -0.04700399 0.004652797 -0.12109994
000160 6b 79 c3 3d f1 52 1e 3e f3 84 ab bc b8 84 f0 3b
       0.09544643 0.15461327 -0.020937419 0.00734004
000170 a4 70 1e 3d 8a 4c 65 bd 03 08 d3 3d 70 89 ff 3c
       0.03868164 -0.055981196 0.103042625 0.031193465
000180 6d 3e 9e 3d 9c 9b cf 3d b5 3e 51 bd a7 ed cf bc
       0.077267505 0.10137102 -0.051085193 -0.025381876
000190 b8 86 85 bd 24 45 12 be ac ba 86 3d af f8 24 be
       -0.06519836 -0.14284188 0.065785736 -0.1611049
0001a0 77 d6 a8 bd f4 40 f0 3c f5 50 68 3c d9 80 97 bc
       -0.08244031 0.029327847 0.014179458 -0.018494057
0001b0 bd ee 67 3c ac 6d 36 bd 4b a5 ae bd e4 8f f4 3d
       0.014156041 -0.044538185 -0.08527621 0.119415075
0001c0 68 4c 36 3d 6e 8d 0f be a9 91 c3 bd c8 e2 2c 3d
       0.04450646 -0.14018795 -0.09549267 0.042208463
0001d0 88 1f 78 bd c1 a9 4c bb b1 6d b2 3d 9e a1 93 bb
       -0.060576946 -0.003122911 0.08712328 -0.0045053503
0001e0 e1 d1 89 bd ab 72 4d 3d e1 85 37 bd 13 5e 06 be
       -0.06729484 0.050158184 -0.04480541 -0.13121824
0001f0 a7 8c 08 3d b1 a4 d4 3c 05 09 ae 3d fe c2 18 3e
       0.03333726 0.025957437 0.08497814 0.14918134
000200 3c 33 73 bd 24 6a 83 bc a2 c1 d0 3d 9a a0 88 bd
       -0.059375033 -0.016041823 0.101931825 -0.06671257
000210 86 1c de bc 32 d8 c0 bd ac 16 d0 bc cb bd 30 bd
       -0.02711321 -0.09416236 -0.025401436 -0.04314975
000220 d2 f4 02 be 7e 30 d1 bd 02 de 1b bc 2e e5 9b bd
       -0.12788704 -0.10214327 -0.00951338 -0.07612072
000230 03 72 6d 3d fe 1e 43 3d 1e 5c 01 bd 97 e8 26 be
       0.05797006 0.04763698 -0.03158199 -0.16299663
000240 7b 9f 81 3d 09 09 21 3e 1c 4b a1 3d f9 e6 e2 bc
       0.063292466 0.15726103 0.07875654 -0.027698027
000250 71 21 83 bd b2 d5 e6 bd 88 ec dd bb ec 3f 9c bd
       -0.06402863 -0.11271228 -0.0067725815 -0.0762938
000260 bd 64 c4 bd 99 e0 ed bb 02 41 d5 3c 4c 48 1e bd
       -0.09589527 -0.00725944 0.026031975 -0.038643166
000270 a8 2a e0 bb e7 23 06 bc 46 3e a1 bd 4f 2d 9f bd
       -0.0068410225 -0.008187271 -0.07873206 -0.07772314
000280 4c 09 e7 bb d7 a7 a4 bd c2 16 c2 3d 4c cd 0a 3e
       -0.007050669 -0.080398254 0.09476997 0.13554877
000290 f6 ef ee bd 9b b3 aa bc b3 b5 49 3d 0d 37 0e 3e
       -0.11666863 -0.020837596 0.049245548 0.13888188
0002a0 1c f5 b6 bd 72 8c 54 3d fa a9 19 3e a8 5e 0c bc
       -0.0893347 0.05189175 0.15006247 -0.00856749
0002b0 18 76 2a 3e a0 71 04 3d 28 c1 94 bd f0 85 61 bd
       0.16646612 0.032334924 -0.07263404 -0.055059373
0002c0 3b b1 4a bd ce b1 1e 3d 20 90 11 be de 0c 11 3d
       -0.049485426 0.038743787 -0.14215136 0.03541266
0002d0 59 1a f4 bd f7 6f 07 3e 49 e5 3d 3c 59 56 e4 bd
       -0.11919088 0.13226305 0.01159031 -0.11149282
0002e0 ae 05 42 bc 46 5c a5 bd 65 22 51 bd d9 5c 09 bd
       -0.011842174 -0.080742404 -0.05105819 -0.033535812
0002f0 5d 30 d3 3d 36 b9 39 bd e5 aa 96 bd fd b6 ef bd
       0.10311959 -0.045342647 -0.07356814 -0.11704824
000300 04 24 10 bd 54 b9 74 bc 64 15 a0 ba dc 32 a1 bd
       -0.035190597 -0.014936764 -0.0012213406 -0.07871029
000310 37 5d 7e bd 66 e1 8e 3d 27 32 19 3d 6c c6 32 3e
       -0.062100615 0.06976585 0.037401345 0.17458504
000320 bb 8b 3d 3e 67 10 ee bd be 3f a4 bd b7 60 07 bd
       0.18510334 -0.11624222 -0.0801997 -0.03305122
000330 f7 eb c6 3c 4b 7c d5 bc d2 9d 92 3c 29 86 3e 3d
       0.024282439 -0.026060244 0.01789752 0.046514664
000340 75 19 c9 3d a4 9f 6c 3d 1d 29 04 3e db c8 72 3b
       0.09819309 0.057769433 0.12906308 0.0037045989
000350 e4 e9 70 3d 37 0d 1c bb 6c f9 b1 3d b6 96 79 bd
       0.058816805 -0.0023811588 0.086901516 -0.060934745
000360 e2 fb b2 bd ce 57 d7 bd 5d 11 44 3c 54 6b 91 bd
       -0.08739449 -0.10514794 0.01196703 -0.07100549
000370 49 cc 07 bd f0 b1 a8 bd 89 33 6e 3d 14 57 50 bd
       -0.033153806 -0.08237064 0.058154617 -0.050864294
000380 8d f8 c5 bb c9 62 c2 bc 3d bf 90 ba 9b 63 c7 bd
       -0.0060415925 -0.023728745 -0.0011043322 -0.09735795
000390 4e 8c d1 3a 33 1b 37 3d 1b 9d 4c 3e 7f 4e 75 3d
       0.0015987249 0.044703674 0.19981806 0.059889313
0003a0 d7 08 90 3d b7 3d 83 3d 25 32 20 bd e3 70 12 bd
       0.07032936 0.064082555 -0.03911032 -0.03575219
0003b0 88 e4 be 3d 52 e4 28 3d 47 78 e5 bd 5b 45 d7 3d
       0.093209326 0.04123337 -0.11204582 0.105112754
0003c0 58 34 87 3d 80 a6 84 bd 9e 8a 19 bd 19 24 e9 bd
       0.06601781 -0.0647707 -0.03748571 -0.11383838
0003d0 b1 ae ae bd 15 8f d7 bd 9e 23 d9 bd e2 0d 91 bd
       -0.085294135 -0.105253376 -0.106024966 -0.07082726
0003e0 3c f8 b3 bd dc fd 28 bd 78 7a 1d 3d e8 87 39 3d
       -0.08787581 -0.041257724 0.038446873 0.045295626
0003f0 1c 36 6b be 48 05 39 be 30 93 5e bd f3 98 eb bd
       -0.2296986 -0.18068421 -0.054339588 -0.11503782

conv3.0.bias f4 [6]
000000 b7 f6 c1 3d 56 14 3d 3d ce 3c 3a b9 e8 d0 f3 3d
       0.09470885 0.046161972 -0.00017760994 0.1190508
000010 c1 b7 de bd 40 52 38 bd
       -0.10874892 -0.045000315

conv3.1.weight f4 [6]
000000 50 b2 7a 3f 1f 3e 5f 3f d6 7a 7e 3f 48 a4 6f 3f
       0.97928333 0.87204164 0.9940618 0.9361005
000010 61 84 77 3f bc 00 72 3f
       0.9668637 0.9453237

conv3.1.bias f4 [6]
000000 26 19 ec 3c 29 83 93 bb a5 45 3f 3d 8b bc c3 3c
       0.028820585 -0.0045017195 0.046697278 0.023893615
000010 7b b8 17 bd 2c 36 da bc
       -0.03704117 -0.02663716

conv3.1.running_mean f4 [6]
000000 6d 12 7d bd 3d f0 b3 3e 27 b1 b1 be 02 ee 71 3e
       -0.06178515 0.35144225 -0.3470547 0.23625949
000010 99 b4 2f bf eb 6e c1 3d
       -0.68634945 0.09444984

conv3.1.running_var f4 [6]
000000 d9 27 74 3e 1b 41 59 3e 9a 84 29 3e f7 25 29 3e
       0.23843326 0.21216242 0.1655449 0.16518389
000010 4c 3b 16 3e 06 ea 8f 3e
       0.14671057 0.28108233

conv4.0.weight f4 [16, 6, 5, 5]
000000 eb 70 12 bd 3d a3 60 3d b9 50 c1 3c c3 3a 19 3c
       -0.03575222 0.054843176 0.023598062 0.009352389
000010 10 bd 54 bd 61 f2 a2 3d 19 90 97 3d 2a dd 25 bc
       -0.051938117 0.07956386 0.07400531 -0.01012353
000020 57 07 bb bd 7a 53 e9 bb d6 21 ff bc 33 f8 07 3c
       -0.09132259 -0.007120547 -0.031144064 0.008298921
000030 c3 3a a7 bd c4 b1 6d bb 31 fb 0c 3d 43 00 a7 bc
       -0.08165505 -0.0036269287 0.034419242 -0.020385867
000040 a3 62 55 3d 2b c1 8c 3d bd 73 2a 3d eb be 3f bd
       0.05209602 0.06872781 0.041614283 -0.046812933
000050 8b 19 80 bd 33 f0 b4 3c 32 f0 66 bd 89 bf 00 bb
       -0.06254872 0.022087192 -0.05638141 -0.0019645414
000060 5a 2f 4d bd 1a 93 68 3b d8 14 1d 3c 98 4c 11 bd
       -0.050093986 0.003548807 0.009587489 -0.035473436
000070 a9 33 f0 3c 8a 4d cf bc aa 4f 8c 3d 15 d4 b4 3c
       0.029321508 -0.025305528 0.06851132 0.022073785
000080 71 bb 31 bb a5 c4 7d bd 5a ab 5f bd b7 13 9d 3c
       -0.002711978 -0.061955113 -0.054606773 0.01917444
000090 b3 db 18 bd 32 18 e2 3b 59 5c 8e ba 2c eb 26 3d
       -0.037318897 0.006899857 -0.0010861262 0.04075162
0000a0 4a f6 3b bd e8 45 74 3c ca c4 3d 3c be b1 7f 3d
       -0.045889176 0.014909245 0.011582563 0.062425368
0000b0 ad c9 32 3d 2c 63 3e 3d 1d 8d c5 3d df 25 34 3d
       0.043649364 0.046481296 0.09646056 0.04398143
0000c0 c4 ac 30 3d 37 1d 2a bd 6e b1 76 3c a8 1a 43 3d
       0.043133512 -0.041531768 0.015056951 0.047632843
0000d0 e2 e9 06 3c cd 1f 60 3d 2a bd cc bc 15 b7 50 3d
       0.008234473 0.054717828 -0.024992544 0.05095585
0000e0 17 9a 9e 3d 32 50 bd bd 35 32 cb bd 10 f2 1f 3d
       0.07744234 -0.09243812 -0.099216856 0.03904921
0000f0 fd 4e 18 3c 8c ad 02 bd 06 05 4c 3d 1a 79 88 3d
       0.009296176 -0.03190379 0.04980948 0.06663723
000100 f1 54 18 3b e7 e5 43 3d 48 59 84 3d 74 ce 83 bd
       0.0023243988 0.047826674 0.064623415 -0.06435862
000110 5a f6 9e 3d e2 06 63 bc ec db a1 bd db 08 1f bd
       0.077618316 -0.013856621 -0.07903275 -0.038826805
000120 ac bf 7a 3d d9 a3 06 bd 5c c7 4c bc bc b3 ac bd
       0.06121795 -0.0328711 -0.012498703 -0.08432719
000130 50 e9 91 bc 54 06 1e 3d 93 77 70 3c cb 15 48 3d
       -0.017811447 0.038580254 0.014676946 0.04884891
000140 04 bd f3 3c d4 34 35 3c 95 08 ab bc f5 59 f9 bc
       0.029753216 0.0110599585 -0.020878116 -0.030438403
000150 1b 68 06 bd 3e e4 98 3d 5f e3 bd bc c6 8f d9 bc
       -0.032814126 0.07465409 -0.023179708 -0.026557814
000160 61 96 97 3c ca fd 54 bd 58 ac 0f bd a6 cf 21 bc
       0.018504323 -0.051999845 -0.03507647 -0.009876167
000170 b2 4d 23 bd 0a f7 3c bd 08 37 f8 bc 25 62 d8 bc
       -0.039869018 -0.046134032 -0.030299678 -0.026413986
000180 2a 0b f2 3a 76 6b d5 bc 2f ec 4a 3d 02 83 af bd
       0.0018466462 -0.026052218 0.04954165 -0.0856991
000190 94 4f 90 3d a0 be b1 ba b2 e4 a6 ba 98 f2 94 bd
       0.07046428 -0.0013560839 -0.0012732951 -0.072728336
0001a0 72 9a 4b bd 46 53 6c bd d3 d8 c1 bc ba 30 5e 3c
       -0.049707837 -0.057696603 -0.02366296 0.013561422
0001b0 ef f5 01 3d f8 ab b0 3c 10 b4 22 bd 12 76 f8 bb
       0.03172868 0.021566376 -0.039722502 -0.0075824345
0001c0 2b 60 6c bb 7c 6e 47 ba d1 35 d3 bd 02 52 b1 bc
       -0.0036068063 -0.0007607711 -0.10312999 -0.02164555
0001d0 de 99 24 3d 7c 52 84 bb e6 53 80 3c 8a 9e 70 bd
       0.0401858 -0.004038153 0.015665006 -0.058744945
0001e0 af 29 87 3c dd 12 8c 3d 72 dc 65 3d b6 08 09 bd
       0.016499368 0.068395354 0.056118436 -0.033455573
0001f0 96 c6 44 bd 2c d9 e1 bc ab ac 46 bd 09 e8 5d 3d
       -0.04804095 -0.027569376 -0.048504513 0.054176364
000200 ab 4a c5 3d 5f c2 84 3d a2 6a d5 bb 9f c4 bc 3b
       0.096333824 0.06482386 -0.0065129558 0.0057607437
000210 15 eb 26 3d 55 56 1e 3d 4b 74 79 3d 2a 86 07 3c
       0.040751535 0.03865655 0.06090192 0.008271733
000220 dc eb 70 3d f7 0e c3 3d 6c 8d ab bb 23 08 6b 3c
       0.058818683 0.09524339 -0.0052353647 0.014345202
000230 5a 94 c2 bc 6c 77 00 bd 86 79 0b be db f7 55 bd
       -0.02375238 -0.03136389 -0.13620576 -0.052238327
000240 dc 24 e2 bc 71 5d 0c bd d9 a4 62 bc 09 ba 15 bd
       -0.027605467 -0.0342688 -0.013833248 -0.03655437
000250 ca 4c 84 bd de f5 35 bb b3 5c 26 bd bd 40 9d bd
       -0.06459959 -0.0027764956 -0.04061575 -0.076783635
000260 22 cf b4 3c e8 e0 9b 3d 74 d4 5a 3c bf 9f c2 bc
       0.022071425 0.07611257 0.013356317 -0.023757813
000270 85 c5 37 bc 49 82 e4 3c e2 e6 36 3d dc e6 2b 3c
       -0.011216526 0.027894156 0.04465378 0.010492053
000280 4b b5 80 3d b2 0d 7a 3d 1d d8 96 3d 04 31 c9 3c
       0.06284579 0.061048217 0.07365439 0.024559505
000290 aa cf 01 bd 97 36 91 3d 3f 8f 5c 3d e0 2f 8b bd
       -0.031692185 0.0709049 0.053847548 -0.06796241
0002a0 b9 28 40 bd 76 b2 a8 3c 24 5f c8 bc fe 37 69 3d
       -0.046913836 0.02059291 -0.02445943 0.056938164
0002b0 9a e0 ff 3c 74 d1 6c bd 2d 19 7e 3c 8f 2b a3 bc
       0.031235028 -0.057816938 0.015508932 -0.019918231
0002c0 f1 9a 06 3c 19 d8 91 3b 94 d7 a7 3d cc c3 92 3d
       0.008215652 0.0044508097 0.08195415 0.071662515
0002d0 4e e6 d7 3c e1 97 64 3d 5e b2 22 3c 7b 06 df 3c
       0.026354935 0.055808906 0.009930221 0.02722477
0002e0 c3 5c 65 bd c4 7b 94 3c 48 28 bd 3d 8e e1 9f bc
       -0.055996668 0.018125422 0.09236199 -0.019516733
0002f0 6d 49 5c bc 45 3e 60 bc 43 ab 2f 3b 89 c7 85 3c
       -0.01344524 -0.013686721 0.002680496 0.016330497
000300 6c 8d 5d bc a6 fd cb 3c d8 9b 5d bc 1b 42 00 3d
       -0.013522487 0.024901222 -0.013525926 0.031313043
000310 fc d0 86 bc d6 67 8e bc a4 2a 82 bc f7 fc 47 bd
       -0.016457073 -0.017383497 -0.015889473 -0.04882523
000320 b0 4e 06 3d dc fa 8d bc 54 ef d1 bc 78 01 25 bc
       0.032789886 -0.017331533 -0.025626816 -0.010071151
000330 5c 55 7a 3a b4 bd 06 3e 37 6b 12 bd 90 cb 32 bd
       0.00095494627 0.13158303 -0.03574678 -0.043651164
000340 d1 02 ed 3c 85 5c 06 3d 8f 02 0a 3d e5 ec 0b 3a
       0.028932007 0.032803077 0.033693846 0.0005337729
000350 5d d9 db 3c e9 2e 9e 3d d3 3f e8 3d bf ea 71 bd
       0.026837045 0.07723791 0.113402985 -0.059061762
000360 cc 8d f3 bc 20 65 f9 bb 84 9f b4 3b 53 fd bc 3d
       -0.0297307 -0.007610932 0.00551218 0.09228005
000370 0d 10 32 3c 0c a5 39 3d 9f be 42 3d 8a fa 68 bd
       0.010868085 0.045323417 0.04754507 -0.056879558
000380 fd e1 30 3d ef 69 1b 3c 16 77 cb 3c 12 39 92 3d
       0.04318427 0.009485706 0.024837058 0.071397915
000390 26 1b e2 bc 76 70 9b 3c cd 10 7c 3c a7 6a 6c bd
       -0.027600836 0.018974524 0.015384865 -0.0577189
0003a0 f1 1b 8e 3d 7a 3b d5 3d 08 fd 09 bd 1b 25 05 3d
       0.06938923 0.10411735 -0.033688575 0.03250609
0003b0 87 85 18 bd eb a4 97 ba 11 b1 50 3d 7c 12 8b 3d
       -0.037236717 -0.0011569535 0.050950114 0.06790635
0003c0 25 06 7e 3c 8f 6a 87 bc 2e 35 b7 bc 9d e6 1c 3c
       0.015504395 -0.016530303 -0.022364225 0.009576467
0003d0 06 3e 93 3d 00 f6 50 bd 50 47 8d 3d 97 6f fa 3c
       0.071895644 -0.051015854 0.068983674 0.030570788
0003e0 43 49 0b bc 33 e6 10 bd 25 98 a4 bd e7 f7 d4 bc
       -0.008501354 -0.035375785 -0.08036832 -0.025997115
0003f0 d9 64 bd 3c b4 21 c7 bc ea e2 98 bc d1 5c 4f bd
       0.023119377 -0.024308063 -0.018662889 -0.050625626

conv4.0.bias f4 [16]
000000 57 f9 ae 3b 61 9d 85 3d f5 60 7c 3d 21 10 ed 3c
       0.005339782 0.06524158 0.061615903 0.028938355
000010 68 95 76 3d 36 9b 32 bd dd d5 ec 3c 9e fa 81 3d
       0.06020108 -0.043605052 0.028910572 0.063466296
000020 77 44 8c bd 44 9d 1e 3d dd 2d 35 3d 5f d9 74 3d
       -0.06848996 0.0387242 0.04423319 0.059777614
000030 eb 61 96 3d 85 82 8d 3d b3 32 22 3d b5 f8 02 3d
       0.07342895 0.0690966 0.03959913 0.031975467

conv4.1.weight f4 [16]
000000 06 16 9f 3f d1 9e 9e 3f 6e b1 9b 3f 52 58 9f 3f
       1.2428596 1.2392217 1.2163522 1.2448828
000010 d7 21 9b 3f 8a aa 95 3f 6e 3f a0 3f 97 f9 9e 3f
       1.2119702 1.1692669 1.2519357 1.2419919
000020 b8 ad 97 3f f9 a1 9f 3f f8 ad 99 3f 99 70 9f 3f
       1.184989 1.2471305 1.2006216 1.2456237
000030 89 01 9b 3f f7 67 97 3f df 2c 98 3f b8 5b 9c 3f
       1.2109843 1.1828603 1.1888694 1.221549

conv4.1.bias f4 [16]
000000 2b bc c3 3d a2 ae 5a 3d 6f 79 a8 3d a9 82 b7 3d
       0.095573746 0.0533892 0.082262866 0.08960468
000010 47 59 e6 3d 84 ee 87 3d d8 bc 8a 3d d7 a0 b2 3d
       0.11247497 0.0663729 0.067743 0.08722084
000020 a9 bd 5a 3d 71 e1 e0 3d a3 c7 ce 3d 1d 0b 8e 3d
       0.05340353 0.109804995 0.100966714 0.069357134
000030 36 57 b6 3d 48 e1 e2 3d 29 e4 a5 3d 09 ab 95 3d
       0.08903353 0.11078125 0.08100159 0.07308013

conv4.1.running_mean f4 [16]
000000 7e 19 2b 3c ee 15 0a 3f 06 7e 74 3d b9 2e bd 3d
       0.0104430895 0.5393971 0.059690498 0.09237427
000010 af 9d a6 3e 22 7c 81 3e 15 56 6a 3e 82 11 88 3e
       0.32542178 0.25290018 0.228844 0.26575857
000020 90 8b 44 3e b6 71 46 3e 6c cf a7 be 23 3a 3e bc
       0.19193864 0.19379315 -0.32775438 -0.011610541
000030 c6 d5 0b 3f 6b 05 a4 be b3 d0 4d 3d 96 92 28 be
       0.5462307 -0.32035384 0.05024786 -0.16462168

conv4.1.running_var f4 [16]
000000 56 fd 00 3e ed 60 d1 3d 82 82 0f 3e 05 79 4a 3e
       0.1259664 0.10223565 0.14014629 0.19772728
000010 64 a7 6e 3e 8b 81 36 3e 0d 9d 10 3e 3e 1c 07 3e
       0.23306042 0.17822854 0.1412241 0.13194367
000020 5d 78 01 3e cb da 3a 3e ad a4 99 3d f2 f8 14 3e
       0.12643571 0.18247525 0.075021125 0.1454809
000030 ff 07 97 3d b5 5d d7 3d 10 cf 1b 3e ad 70 b8 3d
       0.07374572 0.1051592 0.15215707 0.09005866

fc1.0.weight f4 [120, 400]
000000 a8 c8 33 3d 14 21 46 bd 84 20 2e bd 58 f9 85 3b
       0.043892533 -0.04837139 -0.042511478 0.004088562
000010 1b 80 26 3b 68 07 1b 3d 63 f9 a8 bb a5 b2 96 bc
       0.0025405947 0.03784886 -0.0051566823 -0.018395731
000020 58 47 e2 bb ee 12 a6 ba ac 8f 50 bd 0e c8 28 3d
       -0.0069054775 -0.0012670436 -0.050918266 0.041206412
000030 f4 64 ab 3c 16 52 4e bc 22 79 3e bd 2b a9 77 bc
       0.020922162 -0.012592813 -0.04650224 -0.015116016
000040 6b 99 19 bd 14 30 e3 bc 5d d5 0b 3d 96 28 42 bc
       -0.037499826 -0.027732886 0.034139026 -0.011850497
000050 48 b4 79 3c d7 ad 31 3d cd 4d 2f bd a3 b2 84 bb
       0.015240736 0.043378677 -0.042798806 -0.0040496155
000060 9a 08 dc bb 9b 83 2e bd 8f c7 96 bc df 2b a7 3c
       -0.0067148926 -0.042605978 -0.018405704 0.020406662
000070 35 f1 e1 bc 28 f5 37 bb 61 2d 2c bd e6 0a 61 bc
       -0.027580837 -0.0028069708 -0.042035464 -0.013735509
000080 90 bb b3 3c e0 cb d4 bc 5f 33 0c bd 53 ae f0 bc
       0.021940023 -0.025976121 -0.03422868 -0.02938
000090 47 20 9e bc ce eb 83 bc 8c 33 26 3d e1 d7 86 bc
       -0.0193025 -0.016103651 0.040576503 -0.016460361
0000a0 eb cc cd bb 1f d2 b0 ba 2f 29 48 bd f3 f1 33 3d
       -0.0062805316 -0.0013490355 -0.0488674 0.043931913
0000b0 a3 fc f2 3b eb 55 0c bd 8a 35 12 3d 98 de dc 3c
       0.0074153706 -0.034261625 0.03569559 0.02696161
0000c0 52 1c 51 bc 17 1f 09 3d a9 05 0d bd 82 01 0b 3d
       -0.0127631 0.033476915 -0.034429226 0.033936985
0000d0 63 64 68 bc 7b 1a c2 3b a0 26 2e bd f7 59 26 3d
       -0.01418409 0.005923567 -0.042517304 0.04061314
0000e0 48 a8 99 3c 18 f8 10 bd 92 20 d0 bc 10 17 eb 3c
       0.018757 -0.03539285 -0.025406156 0.02869752
0000f0 56 4a 89 bb 88 94 13 3d b1 cf 87 3c fe f8 43 3d
       -0.0041897697 0.036030322 0.016578527 0.04784488
000100 07 7f 11 bc 81 92 0a 3b 34 4c 40 bd 15 ae 43 3d
       -0.008880383 0.0021144452 -0.046947673 0.04777344
000110 83 ed 18 3d e2 90 49 3d 50 9e 11 3c be 44 c6 3c
       0.037335884 0.049210437 0.008887842 0.0242027
000120 de 51 b5 3c b5 73 04 3d 15 f5 61 bc b8 a6 a6 bc
       0.022133764 0.03233691 -0.013791342 -0.02034317
000130 fd 2c 41 3d 1b 20 04 bb 1a f3 06 3d be 29 23 3a
       0.047162045 -0.0020160738 0.032946683 0.00062241766
000140 b2 52 13 3d c0 1f 37 3d 81 1a b1 bc 07 48 04 bd
       0.035967536 0.044708014 -0.021619083 -0.032295253
000150 3a d6 13 3d 50 bc 8e bb a9 35 c5 bc d9 f4 e4 b8
       0.036092974 -0.0043559447 -0.024073439 -0.00010917494
000160 9f ba 05 3d f9 23 a5 bc 4d b5 b4 bb 30 ee 37 bb
       0.03264868 -0.020158755 -0.005514777 -0.0028065555
000170 4a fc 31 bd ad cf bd bc db 04 0a 3d f3 18 df b9
       -0.043453492 -0.023170317 0.033696037 -0.00042552463
000180 45 0b 94 bc 86 16 90 bc f4 e8 28 bc 3f 4d 2c bd
       -0.01807178 -0.017588865 -0.010309447 -0.042065855
000190 c3 57 35 bc 68 a1 b0 3c e5 9b 03 bd 5a 8d 89 3c
       -0.011068287 0.02156134 -0.032131094 0.016791034
0001a0 bc bb 3e bd 0e 3d bd 3b 41 e3 0d bd 13 bf 03 bd
       -0.046565756 0.0057751006 -0.034640554 -0.032164644
0001b0 31 96 3e 3c 36 68 30 3d ee ce 08 3d 37 9e d0 bc
       0.011632488 0.043068133 0.03340047 -0.025466068
0001c0 d3 bb 58 3b e3 67 30 3d d1 f4 af 3c d8 16 67 3c
       0.0033070936 0.043067824 0.021479042 0.0141045675
0001d0 1f 70 50 3d 10 ba 2b 3c d3 08 14 bd f5 25 08 bd
       0.050888177 0.0104813725 -0.036141228 -0.033239324
0001e0 56 66 27 bc 71 c9 f9 3c b3 c7 e6 bc b9 66 af 3c
       -0.01021727 0.030491563 -0.028171396 0.021411287
0001f0 5d d7 3c bd f5 33 1c bd c1 cd 0a 3d 7b 77 12 3d
       -0.046103824 -0.038135488 0.03388763 0.035758477
000200 2d f9 12 bd e6 19 13 bc 93 a2 ed 3c 96 83 cb 3b
       -0.035882164 -0.008978343 0.029008185 0.0062107546
000210 c2 e1 07 3d 81 4c 08 bd dc af 07 3c e7 62 bb bc
       0.033174284 -0.033276085 0.008281674 -0.022874309
000220 79 b7 2e bd 4c 4a 2d 3d 13 84 bd 3c 01 b4 e9 3c
       -0.042655442 0.042307183 0.023134267 0.028528215
000230 2b 05 3e bb 8d 84 52 3d e3 0c e7 3c 3e 88 24 3d
       -0.002899478 0.05139594 0.028204387 0.040168993
000240 8f 60 fb bc d3 3e a9 bb 75 09 83 ba 0d 6f 4a bb
       -0.030685691 -0.00516496 -0.0009997325 -0.0030888945
000250 82 6a c2 3c 9d 32 21 3d 98 02 1b 3d 07 c5 ab bc
       0.023732428 0.03935491 0.03784427 -0.020967973
000260 ef bd d9 bc f4 fb 22 3d 91 b9 fd 3b 5d a4 24 3d
       -0.026579825 0.039791062 0.0077430685 0.04019581
000270 9c 15 b1 bc 13 ec 16 bc 75 21 db 3c 2b 02 a7 bc
       -0.02161675 -0.009211558 0.026749352 -0.020386776
000280 59 f2 24 bd 5f bf 2d bd ef 42 35 bc cc be 2d 3c
       -0.040270183 -0.042418834 -0.0110633215 0.010604572
000290 a8 2f 2c bd 94 0f 6a bc db 63 cb bc 8b d5 55 3b
       -0.042037636 -0.014285941 -0.024827888 0.0032628502
0002a0 40 c4 02 3c be fb 49 3d 52 61 ea bc af 22 72 bd
       0.00798136 0.049312346 -0.028610859 -0.059115108
0002b0 b5 33 97 3c 8e 49 06 3c 8a 83 0e bd 25 b3 26 bd
       0.018457273 0.008196248 -0.034793414 -0.04069819
0002c0 88 74 16 3d ab c7 ce bc 95 86 40 3c bc 1c 31 bc
       0.036732227 -0.025241693 0.011750837 -0.010810073
0002d0 25 d4 f7 3c 21 c0 61 bd 89 26 13 3d 4b c5 37 3c
       0.030252526 -0.05511487 0.035925422 0.011216472
0002e0 b9 11 31 3d 73 d5 df ba ce 5b b4 3c 0b 7b b6 bb
       0.043229792 -0.0017077163 0.022016432 -0.005568867
0002f0 ab ce bf bc d6 18 8c bc 2b 96 34 bd c8 b5 0e bd
       -0.023413977 -0.017101686 -0.044088524 -0.03484133
000300 52 28 10 bd 1f b5 9d 3c 3f 7f 55 bc 49 eb 02 bd
       -0.035194702 0.019251404 -0.013030826 -0.031962667
000310 46 e2 43 3d c9 a2 f9 3c 77 93 19 3d 15 d5 04 3d
       0.047823213 0.03047313 0.03749415 0.032429773
000320 7b 13 2a bd a4 2d 2b 3d fb 95 1d bd a3 da 8b 3c
       -0.041522484 0.041791573 -0.03847311 0.017072028
000330 be c3 0c 3c bf e3 32 3c 3b 3d 3b 3c ce 33 8b 3c
       0.00859159 0.010918557 0.011428173 0.016992476
000340 6c f1 56 3d 45 7e a8 bb 91 94 13 3d a6 06 b3 3c
       0.05247633 -0.0051420056 0.036030356 0.021853756
000350 58 12 15 3d c9 8a d6 bc 76 f9 d2 3c 42 00 c5 3b
       0.036394447 -0.026189225 0.025753718 0.0060119936
000360 35 cf 02 3d da d0 7e 3c 6b bf 63 3b 5c 2e 12 bd
       0.03193589 0.015552724 0.0034751545 -0.035688743
000370 67 dd fe bb 3d ba 27 3c 49 d8 bc bc 70 7a 84 bc
       -0.007777858 0.010237274 -0.023052352 -0.016171664
000380 1a b3 60 3c 2e 9c 6c 3c 1c 95 ec 3b 52 1e 7e 3c
       0.013714576 0.014441533 0.0072199237 0.015510159
000390 1a af 09 3c a5 e8 f6 bc 28 aa d6 3c 7c 4d bd 3c
       0.008403564 -0.03014023 0.026204184 0.023108236
0003a0 29 bf 07 bd 70 13 4b bc ac 36 13 bd dd 0d 3f 3c
       -0.03314129 -0.012394771 -0.03594081 0.01166102
0003b0 f4 6a 60 3d 7c 78 9d bc 3f 4a c3 bc 95 6a 25 3d
       0.0547895 -0.01922249 -0.023839114 0.040384848
0003c0 cc 2c 7a 3c 36 8b 80 bb b5 ee 3e 3d 48 1c 6f 3c
       0.0152694695 -0.0039228452 0.046614368 0.014594145
0003d0 4c c4 e8 3a 88 57 a6 3c c3 92 77 3c 00 58 db b8
       0.0017758696 0.02030541 0.015110674 -0.00010459125
0003e0 6b e8 13 bd 08 4b f1 bc ca ba 00 bc b7 0c c8 bc
       -0.036110323 -0.029454723 -0.007857034 -0.024420125
0003f0 38 44 a5 3c dd b1 10 3a c7 fd 18 3d e2 29 cb bb
       0.02017413 0.0005519668 0.037351396 -0.006200061

fc1.0.bias f4 [120]
000000 c0 86 8b bc 45 89 ce 3c 17 fd ab bc cc 69 e6 3c
       -0.017032027 0.02521194 -0.020994706 0.02812662
000010 cf 37 09 bd f8 6a 2e 3d b9 70 19 3d ef 55 11 3d
       -0.03350049 0.042582482 0.037461016 0.035482343
000020 89 ce f9 b8 22 98 0d 3c a1 bd 99 bc 9d 78 01 3c
       -0.000119117154 0.008642228 -0.01876718 0.007902292
000030 b4 3c a0 3c 7e 0b 03 bd ec e4 ec 3a bb 80 c3 bb
       0.019560196 -0.03199338 0.0018073595 -0.0059662736
000040 8d ee 22 bb 65 56 d8 3c 3e dc 10 3c 54 6b e5 3c
       -0.0024861426 0.026408384 0.008841572 0.02800528
000050 94 64 3f 3d 1f 70 bd 3c 1b 3f a9 3c 6c 48 12 bb
       0.04672678 0.023124753 0.020659974 -0.0022320999
000060 03 0b 30 3d 48 b7 a9 bb d3 e4 08 bd 45 0b d7 bc
       0.04297925 -0.0051793195 -0.03342135 -0.02625049
000070 9f 61 df bb a1 81 6c bc 6c 41 00 3d c6 53 28 3c
       -0.0068170573 -0.014435203 0.03131239 0.010273879
000080 aa 59 56 3d c4 a4 90 bc fc 7b 20 3d 5a 9b 7d 3b
       0.052331604 -0.017656691 0.03918074 0.0038697333
000090 86 45 ba 3c bc d1 90 3c 27 b9 0f 3d db 57 0c 3d
       0.02273823 0.017678134 0.035088684 0.034263473
0000a0 0c 04 d7 bc 8a 43 00 bd eb 1f 81 bc 6f 63 9a bc
       -0.026247047 -0.03131441 -0.01576229 -0.018846242
0000b0 1e 7b 14 3d bc 20 74 3b 9e f0 49 3c 2e 98 d0 3c
       0.036250226 0.0037250957 0.012325434 0.02546319
0000c0 42 d0 ba bc a2 4f b0 3c 19 89 2d bd 7c 67 99 3b
       -0.022804383 0.021522347 -0.042367075 0.0046815258
0000d0 32 b9 2a 3d 45 c2 9c 3b 7b a4 90 3b b3 97 ac bc
       0.041680522 0.004783901 0.004414139 -0.02106843
0000e0 d5 5f 08 3c b0 c3 c5 bc 7d 2b ac 3c 33 53 33 3d
       0.008323629 -0.024141163 0.02101683 0.043780517
0000f0 a3 47 17 3c 99 4e 58 bb 1a ae f1 3b b1 f7 05 bd
       0.009233388 -0.0033005832 0.007375491 -0.03270692
000100 7d ce 77 bc 16 0d 85 3c 2c b4 02 bb 0f dc aa bc
       -0.015124914 0.016241591 -0.0019943817 -0.020856885
000110 44 91 19 bd fa e7 86 3d 82 88 38 3c c6 e2 9c 3c
       -0.03749205 0.06587215 0.011263015 0.019151103
000120 16 fa ea bc 85 12 79 bc d1 82 91 3c ab c3 11 3d
       -0.028683703 -0.015202169 0.017762573 0.035586994
000130 72 1c 9f bc 87 13 09 3d 90 bb 0a 3d 98 81 ba 3c
       -0.019422743 0.03346589 0.03387028 0.022766873
000140 cc a6 a0 bc 28 5f cd 3c d5 f7 cd 3a 59 46 97 bb
       -0.019610785 0.025069788 0.0015714118 -0.0046165404
000150 76 27 2c 3d 32 fc 2d bd 82 4a be 38 4a cd 98 3a
       0.04202982 -0.04247684 9.073784e-05 0.0011657861
000160 13 28 09 3d 06 36 c5 3b b9 8e 95 bc d5 0d 54 3b
       0.033485483 0.006018403 -0.018256532 0.0032356877
000170 70 cd 06 bc 04 ca da 3c cb 52 95 bb 67 df 24 3d
       -0.008227691 0.026707657 -0.004556989 0.040252116
000180 07 e3 3f 3d fe df 18 bc f2 08 8d bc e7 58 ba 3a
       0.04684737 -0.009330748 -0.01721618 0.0014217169
000190 b2 70 f2 bc 1e c8 67 3c da 4e 23 bc e0 86 b7 bb
       -0.029594753 0.014146833 -0.00996753 -0.005600795
0001a0 3d 8c 5d 3d df 4a 78 3d 6b 2a 27 3d 5e f6 f6 3c
       0.05408882 0.060618278 0.040811937 0.030146774
0001b0 dd 41 85 bc 50 20 ec 3b a6 05 81 bb 83 87 05 3d
       -0.016266758 0.0072060004 -0.003937441 0.032599937
0001c0 58 12 23 bc 39 ac 6a 3b fa da 53 bd 30 24 a7 bb
       -0.009953104 0.003580822 -0.051722504 -0.0051007494
0001d0 4b 9b c7 bc c3 1a c5 3c 08 0d 6e bc 63 e8 96 3c
       -0.024366042 0.024060613 -0.014529474 0.018421357

fc2.0.weight f4 [84, 120]
000000 1a 6e 4c 3b 09 fb 12 bd 48 65 84 3d b5 f8 2a 3d
       0.0031193555 -0.035883937 0.0646463 0.04174109
000010 6e b0 74 3d ed a3 28 bc 29 4a bf 3c 7a 82 87 3d
       0.05973857 -0.010292989 0.023350792 0.06616683
000020 8c 51 be 3c e6 b1 5f bd 00 9b 20 3d 04 e2 74 3d
       0.023232244 -0.054613017 0.03921032 0.059785858
000030 bb bd 91 bd 01 a1 51 39 db c7 95 bd 31 ff a2 bd
       -0.07116266 0.00019991772 -0.0731351 -0.0795883
000040 20 4a 9d bd f0 d7 24 bb f6 8e 9a 3d 83 ed 95 bd
       -0.07680154 -0.0025153123 0.07546799 -0.073206924
000050 8a 73 9c bd fa fd 9f bd fe 50 1c 3c 53 a4 3b 3d
       -0.07639225 -0.07812114 0.009540794 0.04581101
000060 ed 9f 08 bd 1b 64 05 3d 63 b0 b4 3d 0a 86 35 3d
       -0.033355642 0.03256617 0.088227056 0.044317283
000070 27 58 05 bc eb f2 91 bd 95 d8 7c 3d 83 d8 10 3c
       -0.008138693 -0.07126411 0.061729986 0.008840683
000080 d6 ae aa 3d f2 56 22 bd 2c c7 5e 3d 83 17 5f 39
       0.083341286 -0.0396337 0.054389164 0.00021275696
000090 63 c2 7c 3d b8 1d 37 bd d7 b9 68 bd 5e c2 b4 3d
       0.06170882 -0.044706076 -0.056817856 0.08826135
0000a0 90 8f 33 3d 10 55 9b bd f4 9b a7 bd fa 29 5e bd
       0.043838084 -0.07584584 -0.081840426 -0.05423925
0000b0 21 4b 13 3c c4 75 6f 3c ae 69 40 bd 5a a6 7a bc
       0.00899008 0.01461548 -0.046975784 -0.01529845
0000c0 ff 7b 86 3d 9e f1 ab 3d 97 1b 2f 3d 41 12 65 3c
       0.06566619 0.08395694 0.04275092 0.013981403
0000d0 1b 55 44 bd 2d 76 dc 3c 95 8c 7a 3c 58 ed 84 3d
       -0.047932725 0.02691182 0.015292306 0.06490582
0000e0 34 ae 1e bd 07 35 98 3c e1 b1 7a 3d c5 ce 6d 3d
       -0.03874035 0.018579973 0.061204795 0.05805852
0000f0 04 aa 8b 3d d2 9c 59 3d 6d 6a d9 3c 51 cb da 3c
       0.06819537 0.05312807 0.026540006 0.026708277
000100 b2 dc 52 3d b5 0f 51 bd 25 ba a8 3c e6 2d a9 3d
       0.051480003 -0.05104037 0.020596573 0.082607076
000110 ed a3 36 3d d1 78 eb bc 30 94 0b 3d 4f d2 87 3d
       0.044589926 -0.028744133 0.03407687 0.0663191
000120 ab ef 7a 3d 80 2c a6 3c 3a 02 a0 3d 20 a6 44 3b
       0.06126372 0.020284891 0.07812925 0.0030006245
000130 cb 7d 0c 3d ce a3 66 bc 86 57 a0 bd 94 f4 64 3c
       0.034299653 -0.01407714 -0.07829194 0.013974328
000140 b2 ae a9 bd 27 a1 03 3d c6 1c 0a bd bc b3 9f bd
       -0.082852736 0.03213611 -0.033718847 -0.077979535
000150 60 4a 9b 3d b7 c7 7b bc e7 6d 59 bd 04 40 a3 bd
       0.07582545 -0.01536744 -0.053083327 -0.079711944
000160 e5 12 ea bc 70 95 13 bd 0d 53 40 3d 97 00 80 3d
       -0.028573463 -0.036031187 0.046954203 0.062501125
000170 22 5c 70 3d 7a 7d 89 3d 40 c9 0c 3d 95 6b 9b ba
       0.058681615 0.06713386 0.034371614 -0.0011857623
000180 bc c0 46 bd 84 e3 3b 3d 01 76 98 bd 89 cd 56 3d
       -0.04852365 0.045871273 -0.074443825 0.052442107
000190 4f a9 46 3d 11 51 9f 3d d5 f8 c4 bb f6 80 ae bd
       0.04850131 0.07779134 -0.0060111084 -0.08520691
0001a0 e3 f4 12 bd 1f 1b 0b 3d ee 6c bc bc da af 3d bd
       -0.035878073 0.03396141 -0.02300116 -0.046310283
0001b0 ae 85 3d bd 37 50 97 3c 03 f8 89 bd 63 95 6e 3d
       -0.046270065 0.018470867 -0.067367576 0.058247935
0001c0 5c 15 32 bd d5 c8 56 bc 76 02 53 bd 2f 68 5a 3d
       -0.0434774 -0.0131094055 -0.05151602 0.053322013
0001d0 33 9b a5 3c 1f 4d 30 bd ab 60 2a 3d e9 53 00 3d
       0.020215606 -0.0430423 0.041596096 0.031330023
0001e0 19 70 52 bd c3 d2 a2 3d 10 1e 2a 3c 39 e4 94 3a
       -0.051376436 0.07950356 0.010383144 0.001135952
0001f0 61 18 65 bc aa dc a4 3d 96 6b 95 bc b1 92 91 bd
       -0.013982863 0.08049901 -0.018239778 -0.07108057
000200 ea e4 36 3d fb 76 0c bd 9d 5b 97 bd 24 1b 6c bc
       0.044651903 -0.034293156 -0.07390521 -0.014410768
000210 98 4f 9e 3d 60 a9 1d 3d 65 8e 33 bd 68 c9 86 bd
       0.07730025 0.038491607 -0.04383697 -0.06581384
000220 55 27 cb bc df d1 9a 3d 91 65 f6 bc ad b0 20 bc
       -0.024799028 0.07559561 -0.030077728 -0.009807748
000230 d8 48 99 bb 48 f5 74 bc 3f ee f5 3d ad cd 14 bd
       -0.004677873 -0.014951058 0.120083325 -0.03632896
000240 43 82 89 3c ca fe 93 bb b4 3f e1 bc 1f ba a2 3d
       0.016785746 -0.004516457 -0.027496196 0.07945656
000250 2c e3 1c 3d f9 15 99 3c 4e 81 67 3d 8b 3b 80 3c
       0.038302585 0.018687235 0.0565198 0.015653392
000260 b6 b5 ac 3d 69 3b 99 bc 3b 0a 8a bb 4c 56 3a 3c
       0.08433096 -0.018705087 -0.0042126453 0.011373114
000270 e9 5e a0 bd 5b 7e 38 3d 92 74 c7 3d 13 31 4f bd
       -0.07830603 0.045042377 0.09739031 -0.05058391
000280 d9 6c 85 bd fa 7c b5 3d 89 b6 00 3d fa b8 f0 bb
       -0.06514902 0.08861728 0.03142408 -0.0073462697
000290 2c 55 0f bc 0c d2 5a 3d 2b b0 13 bd e4 75 8e bc
       -0.008748334 0.053422973 -0.03605668 -0.017390199
0002a0 7d bc d1 3d 71 66 af bd df 51 92 bd 0d 5b 8e bd
       0.102410294 -0.08564461 -0.07144522 -0.0695096
0002b0 70 08 b8 38 2a 4e b5 3d f5 f5 ba bd f7 a0 e1 bc
       8.775375e-05 0.08852799 -0.09128944 -0.027542574
0002c0 1e 74 6c 3d 48 b7 91 bd 29 aa 99 3b 4e af 81 bd
       0.057727925 -0.07115036 0.004689474 -0.06332265
0002d0 11 6c bb bd 0a 6d 1d bd b3 d9 5f 3c 86 83 97 bc
       -0.091514714 -0.038434066 0.013662743 -0.018495332
0002e0 69 84 b7 bd b8 de 55 ba e4 77 9a 3d 01 bb a5 bd
       -0.08960802 -0.0008158493 0.075423986 -0.08092309
0002f0 a9 83 90 bd 02 ae 78 3d 6e 73 35 3d 00 c8 81 3d
       -0.07056362 0.06071282 0.044299535 0.06336975
000300 ba c7 c4 bc 52 6d 97 3d fc de 56 3d 95 76 e7 bc
       -0.024021018 0.07393898 0.05245875 -0.028254787
000310 6c e3 b2 3d b9 8d 95 bc 78 d0 6c bd 92 d4 74 bd
       0.087347835 -0.018256055 -0.057816 -0.059773035
000320 57 4e 56 3d 8c dd 37 bd 0e 0b cb 3c ed 2a 5f bd
       0.052320804 -0.044889018 0.024785545 -0.054484297
000330 b3 16 6a 3d 5a 97 4e bd ff c8 d5 3d dd 4a 7b bd
       0.057150554 -0.05043731 0.104387276 -0.061350692
000340 f3 eb 06 3d c1 9e ec bc b1 fd 9e 3a 77 34 b2 3d
       0.032939862 -0.028884294 0.0012130049 0.08701413
000350 ba 06 b7 bb 33 22 51 3b 25 7d b2 bc d2 80 ae 3c
       -0.0055855187 0.0031911253 -0.02178819 0.02130166
000360 e1 4c 16 3d f0 7e 6d bd fd 64 a9 bd e4 2f 10 bc
       0.03669441 -0.057982385 -0.08271215 -0.0088004805
000370 da b8 d7 3d d0 07 b0 3c 2d 9e 51 bd f6 ec 84 bd
       0.105333045 0.0214881 -0.05117624 -0.06490509
000380 2a 1c 83 3d 74 b1 67 3d 21 a4 a0 bd a2 5e 04 3e
       0.06401856 0.056565717 -0.07843805 0.12926725
000390 dc 90 0d 3e 10 9d 89 3b 63 97 9c 3c df 18 a6 3d
       0.1382479 0.0041996315 0.019115156 0.081102125
0003a0 c2 9e c1 bd 6f 70 38 bd 2d a0 87 bc 25 ca 2e bd
       -0.09454109 -0.0450291 -0.01655587 -0.04267325
0003b0 a8 82 00 bd 9f 06 a8 3c 58 26 c9 3d 08 e5 87 3d
       -0.031374604 0.02051097 0.098217666 0.06635481
0003c0 55 34 b8 bc 64 8d 81 3d 2a e7 82 bd 1a ba 85 3d
       -0.022485891 0.06325796 -0.06391747 0.06529637
0003d0 de 39 ae bd 15 c7 d6 bb 47 28 30 3d dd 1e 4d 3d
       -0.08507131 -0.006554494 0.04300716 0.05007826
0003e0 41 ea 2e 3d 02 12 35 3d ce be 46 bd c1 e0 12 3a
       0.04270387 0.044206627 -0.04852181 0.0005602949
0003f0 98 4b 81 bd 65 96 82 bc dd 67 a0 bd 25 81 ad 3c
       -0.063132465 -0.015940854 -0.0783231 0.021179745

fc2.0.bias f4 [84]
000000 88 8a a8 bc f9 19 7f 3c c6 f5 88 bd 6c 75 cc 3c
       -0.02057387 0.015570157 -0.066875026 0.024958335
000010 82 f3 e2 3b ba a4 8c 3d 30 7e 4f bc ed 10 8e 3d
       0.006926001 0.068673566 -0.012664363 0.06936822
000020 01 26 be 3d 1f b6 b5 bd 6a 40 11 bd db 71 f5 bc
       0.092845924 -0.088726275 -0.03546182 -0.029961517
000030 ea 02 91 3b 2d 54 ad bd 92 9c 9f bd 89 23 94 bd
       0.004425396 -0.08463321 -0.07793535 -0.0723334
000040 1b 29 40 bd 2e af 23 3d 08 0e 89 3d 3d 5d ab 3d
       -0.0469142 0.039961986 0.066921294 0.08367393
000050 34 d2 99 bd fe 2d 9b bd 20 a7 ce 3b a9 31 42 bd
       -0.07510796 -0.07577132 0.006306544 -0.04741064
000060 d8 73 18 3d a4 f1 a1 3d 11 a1 cb 3d 77 02 07 bd
       0.037219852 0.079074174 0.0994283 -0.032961335
000070 da 8a f5 bb 15 a6 25 3d ef 8e 50 3d 93 06 c1 bc
       -0.007493359 0.04044159 0.050917562 -0.023562705
000080 49 c0 df 3c 9d 55 63 3d e3 1c a0 3d a4 fb 45 bb
       0.027313368 0.05550157 0.0781801 -0.0030209804
000090 96 4e ab 3c b5 84 31 3c 7d d6 2a 3d 02 5e 07 bd
       0.020911496 0.0108348625 0.04170846 -0.033048637
0000a0 ce db c3 3d 17 6f f9 bc 86 51 93 bd 9d c8 4b bd
       0.09563409 -0.03044848 -0.07193284 -0.049751867
0000b0 b2 0d b5 3a 00 7e 7e 3d c8 9f 10 bd 16 28 34 3d
       0.0013813286 0.06213188 -0.03530863 0.04398354
0000c0 d3 e1 64 3d 63 93 84 bb c7 79 7f 3d 31 29 1c 3d
       0.055879425 -0.00404589 0.062371995 0.03812522
0000d0 59 ed 27 bd 0a da 1a bc ab 64 96 bd 0a 85 35 bd
       -0.040997837 -0.009451399 -0.0734342 -0.04431633
0000e0 4b 0a 8e 3d 5b 10 b0 bd a6 64 e3 3c a7 35 99 3c
       0.06935557 -0.085968696 0.027757954 0.018702341
0000f0 74 7c d0 3c 72 08 53 3c f8 73 43 bd 1e 2e 98 3d
       0.025449969 0.0128804315 -0.04771802 0.07430671
000100 02 1a 87 bd ea dd 45 3d 9a 9c 1d bd c8 8c af 3d
       -0.065967575 0.048307337 -0.038479425 0.08571774
000110 25 31 a9 bb 03 dd fa bc 43 7f d6 3c 01 ae db bc
       -0.005163329 -0.030622965 0.02618373 -0.02681637
000120 6c 00 ab bd d0 37 86 bd 13 fe b4 3d 55 f7 9b 3d
       -0.0834969 -0.06553614 0.08837523 0.07615534
000130 5e d9 d5 3c 54 b4 16 3d ad 32 eb bc 9d ca 1a 3d
       0.026104625 0.036793068 -0.028710688 0.037790883
000140 d6 5e e0 3c de 2f 97 3d 88 9c 44 3c f9 0b c6 bd
       0.027388971 0.07382177 0.012000211 -0.09670252
