计算机视觉实践-练习2/checkpoint/lenet_p/Saturday_15_April_2023_09h_55m_18s/lenet_p-17-best.pth (torch, 260575 bytes, 30 tensors)

conv1.0.weight f4 [6, 1, 5, 5]
-0.15905033 -0.010830855 -0.07316533 -0.062196907 0.13374947 0.018387415 -0.065766685 -0.08494878
-0.08988488 -0.016224071 -0.13563682 -0.109396964 -0.058661856 -0.21704693 -0.1416281 -0.10296558
0.13292043 -0.035879344 0.00097490463 0.019336099 0.17624436 0.075275406 0.12060532 -0.029077211
-0.006725536 -0.10020868 -0.01412436 0.06449559 -0.051019263 0.048392083 0.004326626 0.15991743
0.13165942 0.036760837 -0.11389008 0.067655034 -0.22588322 0.12691538 0.24996646 0.1701437
-0.028340137 0.06667101 -0.11811569 0.020960182 0.20483273 -0.1563695 -0.013582962 0.06072981
0.12324241 0.13149466 -0.07555807 0.05376661 0.06582662 -0.10672724 0.107672825 0.17800204
-0.032639835 -0.05346693 0.025169881 -0.04194481 0.06715262 0.11517349 0.04470816 -0.110046394
-0.13920946 0.1813964 0.2143498 -0.20430087 0.09635177 0.07488678 0.21377055 0.20510702
-0.08028794 0.012831407 -0.08846001 -0.016888708 -0.0024375573 0.022326872 0.17271218 0.101694904
-0.029367683 -0.27623093 -0.094115764 -0.11496921 0.11161183 0.16101214 -0.086400054 -0.2216726
-0.14138566 -0.13528022 0.13704485 0.30134824 0.032998852 0.004072098 -0.06116953 -0.11386075
0.0036671003 0.08896077 0.07977619 0.03092882 -0.0004059583 0.14156418 -0.11729707 -0.09252206
0.005211738 0.0733576 -0.110881954 -0.1584868 -0.07115607 -0.0064836494 0.067172825 -0.14551716
-0.1406588 -0.015382734 0.17600676 -0.0032408843 -0.12527208 0.13869427 0.28169024 0.12777828
0.028798748 0.1360484 -0.06787957 0.11137179 -0.18222119 0.011465389 0.013564523 0.042489313
-0.042477436 0.0044383826 -0.023251971 -0.0073392233 -0.06980559 0.08227923 -0.02705049 0.18029685
0.16713819 0.31282517 0.068743125 -0.08734312 0.20756148 -0.06919905 -0.06455164 0.056008577
-0.06780735 -0.26483425 -0.1870227 -0.11357529 0.04554424 0.08526179
00000000: 17de 22be e673 31bc b4d7 95bd 2fc2 7ebd
00000010: 9ff5 083e 34a1 963c afb0 86bd a0f9 adbd
00000020: 9015 b8bd 58e8 84bc 61e4 0abe 840b e0bd
00000030: 6a47 70bd 8d41 5ebe f506 11be 9edf d2bd
00000040: 4b1c 083e 38f6 12bd be90 7f3a bd66 9e3c
00000050: 6779 343e fe29 9a3d ecff f63d 5533 eebc
00000060: e361 dcbb 353a cdbd dc69 67bc 4416 843d
00000070: 93f9 50bd c736 463d 5fc6 8d3b 65c1 233e
00000080: bad1 063e 8892 163d 343f e9bd b98e 8a3d
00000090: ee4d 67be 1bf6 013e 35f7 7f3e 263a 2e3e
000000a0: 9329 e8bc cf8a 883d a4e6 f1bd b0b4 ab3c
000000b0: acbf 513e 541f 20be 128b 5ebc d2bf 783d
000000c0: 8466 fc3d 89a6 063e 30be 9abd 603a 5c3d
000000d0: 1bd0 863d d093 dabd 9283 dc3d 2b46 363e
000000e0: 59b1 05bd 2400 5bbd 1131 ce3c 52ce 2bbd
000000f0: 5087 893d 14e0 eb3d e71f 373d 0160 e1bd
00000100: ed8c 0ebe fabf 393e 847e 5b3e 3f34 51be
00000110: 1454 c53d 3d5e 993d abe6 5a3e 9307 523e
00000120: 016e a4bd d23a 523c 862a b5bd 305a 8abc
00000130: 6dbf 1fbb d8e6 b63c 76db 303e 6b45 d03d
00000140: 7f94 f0bc 246e 8dbe c4bf c0bd fa74 ebbd
00000150: be94 e43d 5ee0 243e 83f2 b0bd 24fe 62be
00000160: 67c7 10be e686 0abe 7c55 0c3e 514a 9a3e
00000170: ce29 073d 3c6f 853b e78c 7abd d32f e9bd
00000180: bc53 703b 1031 b63d b361 a33d 705e fd3c
00000190: cdd6 d4b9 33f6 103e 7239 f0bd 357c bdbd
000001a0: 3ac7 aa3b 823c 963d 1416 e3bd 5d4a 22be
000001b0: 46ba 91bd cb74 d4bb e891 893d 7302 15be
000001c0: dc08 10be dd07 7cbc 1e3b 343e 0465 54bb
000001d0: 5347 00be df05 0e3e b439 903e 4fd8 023e
000001e0: 5aeb eb3c 4650 0b3e 7204 8bbd e516 e43d
000001f0: 3198 3abe 54d9 3b3c bc3d 5e3c 4609 2e3d
00000200: d2fc 2dbd da6f 913b eb7a bebc de7d f0bb
00000210: 3cf6 8ebd 0382 a83d fd98 ddbc bd9f 383e
00000220: 4626 2b3e 9f2a a03e 32c9 8c3d f3e0 b2bd
00000230: ff8a 543e 3bb8 8dbd a633 84bd 4069 653d
00000240: 94de 8abd 5b98 87be e182 3fbe 299a e8bd
00000250: 998c 3a3d bc9d ae3d

conv1.0.bias f4 [6]
0.033961292 -0.17568836 -0.037214518 0.111502655 0.097884536 0.0751349
00000000: ff1a 0b3d a6e7 33be 406e 18bd 815b e43d
00000010: b077 c83d 54e0 993d

conv1.1.weight f4 [6]
0.94762474 0.8925371 0.9367995 0.9057481 0.9237317 0.9331029
00000000: 8997 723f 507d 643f 18d2 6f3f 1cdf 673f
00000010: ae79 6c3f d5df 6e3f

conv1.1.bias f4 [6]
-0.013731215 0.026869008 0.0055748154 -0.06334049 0.020469708 -0.00011886742
00000000: e4f8 60bc 651c dc3c f1ac b63b a9b8 81bd
00000010: 17b0 a73c 7648 f9b8

conv1.1.running_mean f4 [6]
0.01805898 -0.14919542 0.004551526 0.12616283 0.10952404 0.06753489
00000000: 6df0 933c afc6 18be f824 953b d430 013e
00000010: 244e e03d bb4f 8a3d

conv1.1.running_var f4 [6]
0.5077404 0.645175 0.6115437 0.21052091 0.29812083 0.27507836
00000000: 46fb 013f 302a 253f 218e 1c3f cb92 573e
00000010: 4ba3 983e 12d7 8c3e

conv2.0.weight f4 [6, 6, 3, 3]
-0.0775394 -0.13687442 0.013970739 -0.058320988 -0.0715268 0.008807096 -0.057753123 -0.043421455
-0.01921895 0.109702915 0.056729697 -0.036306486 -0.01072205 -0.11523113 -0.089929245 0.11002421
-0.13944829 -0.11891457 0.018995507 0.09233667 0.08652461 0.055607203 -0.0048415307 -0.096428834
0.081791796 0.16662782 -0.1437135 0.10202134 -0.026468283 0.08375521 0.11508711 -0.054754686
0.03708804 0.034029618 0.12845674 -0.04438982 -0.06404204 0.13377152 0.19350688 0.026546044
-0.073974185 0.031248443 -0.047082435 -0.082537 -0.035026133 -0.025994606 -0.031342916 0.122693256
0.028539322 -0.0028225272 0.05161085 -0.089346536 0.03245326 -0.0760711 0.039599005 -0.12239037
0.05799584 0.029073972 -0.103248574 0.013690721 -0.09317724 -0.11219403 -0.060279127 -0.0044838935
-0.12933907 -0.050757013 0.17022865 -0.0006552687 0.13352434 -0.07797459 0.019648273 -0.012822637
0.05643306 0.06578912 -0.04128453 -0.049476404 -0.03931316 -0.05701032 0.04277426 -0.10840461
0.0017187087 0.011321287 -0.042832408 0.057854727 0.04920107 0.039478604 0.13668032 0.040347844
-0.0029317387 0.055647198 0.05023597 0.14473832 0.13144466 -0.120729506 -0.114949755 -0.063265614
0.018197924 -0.066981256 0.0059152734 -0.0021913385 -0.09459466 -0.036390338 0.0637487 0.17598425
0.24924493 -0.1617662 -0.034010015 0.042607497 -0.10140965 0.005029273 -0.101300575 -0.04650123
0.001149538 -0.08500237 0.02224095 0.11308086 -0.02713721 -0.12760176 -0.03326503 0.044561688
-0.07479794 0.028667094 -0.118958734 -0.0010199455 0.17210582 0.016846389 -0.1099952 -0.023004085
-0.012118769 -0.018982664 0.059571788 -0.011628619 0.09537025 0.126509 -0.010971691 0.09262641
0.039451536 -0.018723547 -0.056330156 0.0003489846 -0.036814377 0.040588398 0.039461523 0.07786133
-0.008814316 0.16103737 0.11094114 0.08778586 0.10805708 0.005479189 0.002973999 -0.07461549
0.12783292 -0.011993547 -0.09115409 0.11627303 -0.13107291 0.047794044 0.07563621 -0.02559316
0.12470605 0.12758152 -0.015609426 0.14999183 0.019529797 0.12111802 0.0893851 -0.030936958
0.049519695 0.0028269652 -0.005049614 0.002846378 -0.0023468698 -0.03584189 0.013865396 -0.018112259
0.04720508 0.03188749 -0.03570812 0.016079405 -0.1159411 -0.112488374 -0.12066255 0.082460284
0.05913226 0.06303022 0.098800525 0.0031867307 0.09488969 0.02062675 0.15306458 0.10829208
-0.06133708 0.07163724 0.16038957 -0.0007771943 0.053442784 -0.053007517 -0.101021074 -0.19802779
-0.21425728 0.07472587 0.026013818 -0.107611984 0.19642144 0.020971425 -0.0674747 -0.01296234
-0.027628304 -0.047049947 0.025513789 -0.08119819 -0.08429013 0.03902052 0.11838077 0.10829099
0.06480626 0.13993964 0.045562077 0.032614477 -0.0069223135 0.06573984 -0.094841905 0.022362372
0.11000215 0.053130023 -0.018931592 -0.077625975 -0.13316417 0.0012340028 -0.12904625 0.018488152
-0.065358855 -0.019628849 -0.005611817 -0.050876517 -0.04245318 0.044870786 -0.16205324 -0.13247517
-0.090215296 0.0030596643 -0.1554408 0.05111315 0.090580724 0.028230395 -0.053506304 0.080592714
0.1556596 -0.14939304 -0.04348304 0.017248096 0.04777562 0.008907252 -0.05853681 -0.02691894
00000000: facc 9ebd cf28 0cbe 87e5 643c fde1 6ebd
00000010: a57c 92bd a34b 103c 8a8e 6cbd b2da 31bd
00000020: 0f71 9dbc ecab e03d 665d 683d 1cb6 14bd
00000030: 8aab 2fbc 4cfe ebbd d32c b8bd 5f54 e13d
00000040: 88cb 0ebe 7b89 f3bd 779c 9b3c 021b bd3d
00000050: d133 b13d 61c4 633d b4a5 9ebb 7b7c c5bd
00000060: 7582 a73d 7ca0 2a3e a229 13be 90f0 d03d
00000070: 03d4 d8bc da87 ab3d cab2 eb3d 7346 60bd
00000080: a1e9 173d a462 0b3d 2a8a 033e 1ad2 35bd
00000090: 7928 83bd 67fb 083e ab26 463e 1777 d93c
000000a0: c77f 97bd bcfc ff3c 83d9 40bd 2909 a9bd
000000b0: 9077 0fbd a4f2 d4bc 6e61 00bd 9a46 fb3d
000000c0: 4ccb e93c 26fa 38bb e665 533d 51fb b6bd
000000d0: b6ed 043d 2acb 9bbd 9132 223d cda7 fabd
000000e0: 0c8d 6d3d 8a2c ee3c fd73 d3bd 0c4f 603c
000000f0: b5d3 bebd fcc5 e5bd 3fe7 76bd a0ed 92bb
00000100: 7671 04be 96e6 4fbd 6b50 2e3e 57c6 2bba
00000110: 9bba 083e 24b1 9fbd 6af5 a03c 0a16 52bc
00000120: 5a26 673d 72bc 863d f819 29bd c5a7 4abd
00000130: d606 21bd a783 69bd 1034 2f3d 3c03 debd
00000140: 4b46 e13a eb7c 393c 0971 2fbd 14f9 6c3d
00000150: 1087 493d 51b4 213d edf5 0b3e c843 253d
00000160: 6a22 40bb 51ee 633d 3cc4 4d3d 4836 143e
00000170: 6e99 063e 0841 f7bd c76a ebbd 6791 81bd
00000180: d013 953c 782d 89bd e9d4 c13b 8f9c 0fbb
00000190: d8ba c1bd 090e 15bd ae8e 823d 3735 343e
000001a0: 103a 7f3e 0aa6 25be 164e 0bbd 3385 2e3d
000001b0: ddaf cfbd 9acc a43b ad76 cfbd 1378 3ebd
000001c0: 18ac 963a b915 aebd a732 b63c f096 e73d
000001d0: db4e debc 09aa 02be e940 08bd 5186 363d
000001e0: aa2f 99bd 41d7 ea3c a3a0 f3bd b1af 85ba
000001f0: 823c 303e 7001 8a3c 2a45 e1bd 1073 bcbc
00000200: cd8d 46bc 8881 9bbc 8c01 743d f785 3ebc
00000210: 7a51 c33d 938b 013e 9cc2 33bc eab2 bd3d
00000220: ef97 213d 2062 99bc 73ba 66bd ecf7 b639
00000230: acca 16bd 0540 263d 68a2 213d c375 9f3d
00000240: ec69 10bc fbe6 243e 1c35 e33d 13c9 b33d
00000250: 084d dd3d c58a b33b 6ce7 423b 02d0 98bd
00000260: a2e6 023e 9580 44bc ffae babd 8e20 ee3d
00000270: fa37 06be b0c3 433d 28e7 9a3d bfa8 d1bc
00000280: e365 ff3d bba4 023e aebe 7fbc 7597 193e
00000290: f4fc 9f3c b90c f83d 890f b73d 816f fdbc
000002a0: 2ad5 4a3d 9b44 393b 3b77 a5bb 4c8a 3a3b
000002b0: f1cd 19bb f2ce 12bd b02b 633c 2960 94bc
000002c0: 1d5a 413d 759c 023d ad42 12bd f5b8 833c
000002d0: 8772 edbd 4e60 e6bd ed1d f7bd f0e0 a83d
000002e0: ab34 723d fd15 813d ee57 ca3d 78d8 503b
000002f0: 8755 c23d 6ef9 a83c f6bc 1c3e 3dc8 dd3d
00000300: 973c 7bbd 8cb6 923d 2a3d 243e a0bc 4bba
00000310: d2e6 5a3d 691e 59bd 23e4 cebd ccc7 4abe
00000320: 4366 5bbe e009 993d ee1a d53c ac63 dcbd
00000330: b422 493e 44cc ab3c 2d30 8abd ff5f 54bc
00000340: c154 e2bc 72b7 40bd 4b02 d13c 3d4b a6bd
00000350: 4ea0 acbd fbd3 1f3d 9e71 f23d abc7 dd3d
00000360: 25b9 843d 564c 0f3e 4d9f 3a3d c296 053d
00000370: 93d4 e2bb 9ca2 863d 793c c2bd 4b31 b73c
00000380: cf48 e13d de9e 593d 6d16 9bbc 5efa 9ebd
00000390: 305c 08be 43be a13a b324 04be 7774 973c
000003a0: ddda 85bd aecc a0bc 55e3 b7bb e563 50bd
000003b0: 63e3 2dbd 6eca 373d 49f1 25be 92a7 07be
000003c0: ccc2 b8bd a684 483b e02b 1fbe 065c 513d
000003d0: 6382 b93d 6e43 e73c 6d29 5bbd cb0d a53d
000003e0: 3b65 1f3e 7dfa 18be 461b 32bd e14b 8d3c
000003f0: 5eb0 433d b9ef 113c 4bc4 6fbd 1c85 dcbc

conv2.0.bias f4 [6]
0.108017996 0.07812664 0.05692137 -0.023781009 -0.08033004 0.08743633
00000000: 8a38 dd3d dc00 a03d 6226 693d 64d0 c2bc
00000010: 1384 a4bd d211 b33d

conv2.1.weight f4 [6]
0.91354316 0.85724294 0.8705785 0.92428654 1.0135474 0.9411964
00000000: f7dd 693f 4674 5b3f 3cde 5e3f 0b9e 6c3f
00000010: ecbb 813f 3ff2 703f

conv2.1.bias f4 [6]
0.058810066 0.013369125 -0.0060585863 0.15304501 0.03568328 -0.042772625
00000000: d3e2 703d 2d0a 5b3c 1b87 c6bb d5b7 1c3e
00000010: a228 123d 5932 2fbd

conv2.1.running_mean f4 [6]
0.13470955 0.10899016 0.39835382 0.17672631 -0.25497788 -0.20646776
00000000: 4df1 093e 3c36 df3d 08f5 cb3e bef7 343e
00000010: 768c 82be 496c 53be

conv2.1.running_var f4 [6]
0.42303213 0.32719287 0.41812098 0.48464406 0.4519731 0.4409687
00000000: ab97 d83e d385 a73e f413 d63e 4423 f83e
00000010: 0569 e73e a6c6 e13e

conv3.0.weight f4 [6, 6, 3, 3]
0.013856357 0.04718711 -0.0753557 -0.17554198 -0.09452981 0.038659018 -0.03529425 -0.094953164
0.034732647 0.07014936 -0.08305295 0.08249037 -0.020968689 0.011805633 -0.0002699192 0.122654095
0.0010794572 0.04748178 0.08500943 0.08592011 0.087619305 0.1070199 -0.06919504 0.037422497
-0.07346537 -0.0027715964 -0.13743567 -0.119486965 -0.034722637 -0.22170511 -0.0059880787 0.072733745
-0.028238202 0.102150075 0.14013785 0.16211486 -0.0028791656 -0.04397294 0.076054074 0.095902145
-0.061600596 -0.054617606 -0.069889374 0.07539077 -0.04872363 -0.08262529 0.05289609 0.06488329
-0.148343 -0.17755182 -0.17600802 -0.0612204 0.0041043325 0.034602623 0.06708975 0.10748582
0.14477007 0.013646998 -0.00016353338 0.1622388 -0.060026757 -0.023504172 0.05821123 0.036491845
-0.015274666 0.037971098 0.07360807 0.0676948 0.056187842 -1.717585e-05 0.050690033 0.036324613
0.060930602 0.11276759 0.076760225 0.024415962 0.13857271 -0.000802503 -0.009440962 -0.10093917
-0.20175758 -0.03352602 0.026155815 0.004054184 -0.07592993 -0.05108328 -0.0037915257 -0.12718046
0.08453046 0.14676061 -0.022714587 0.012653378 0.039798558 -0.06879071 0.095516324 0.03407072
0.07125447 0.09054008 -0.06660781 -0.035888728 -0.07675459 -0.16066931 0.07712929 -0.15700954
-0.09350833 0.036131866 0.0152855255 -0.023409769 0.009841497 -0.041653737 -0.10288579 0.11664797
0.052601937 -0.13243128 -0.100562654 0.03141448 -0.052504074 -0.012293206 0.08261038 -0.009140696
-0.065718405 0.050635178 -0.031051414 -0.13129741 0.02701058 0.026357343 0.096265495 0.1451456
-0.053464685 -0.031342413 0.088533476 -0.06701192 -0.021817535 -0.11062356 -0.02251342 -0.034111254
-0.13064878 -0.104354866 -0.02180053 -0.06842772 0.058825366 0.0677965 -0.02603131 -0.17237322
0.06987547 0.14766394 0.06457236 -0.026887424 -0.06585748 -0.11739448 -0.016692273 -0.08186311
-0.10709401 0.0041063004 0.023603396 -0.030517701 -0.0035024441 -0.01797913 -0.07882704 -0.06472826
-0.002672014 -0.0901948 0.074184716 0.1251841 -0.1343564 -0.021156726 0.06657854 0.14665778
-0.10168764 0.043141592 0.12930444 -0.0025540239 0.17084898 0.034049083 -0.06267667 -0.04478228
-0.050534904 0.030604554 -0.151419 0.035182964 -0.11193343 0.13378698 -0.0036459304 -0.115376085
-0.017144673 -0.10046 -0.046464078 -0.028939035 0.10000899 -0.039382808 -0.05696893 -0.121892765
-0.046864267 -0.013594308 -0.02023956 -0.07730177 -0.058153298 0.08465407 0.068523094 0.18196832
0.19404246 -0.124342166 -0.11181237 -0.018820098 -0.002963861 -0.04767485 0.019773662 0.01990336
0.11078835 0.075913 0.1318639 -0.018181873 0.06191464 0.0044861464 0.077535205 -0.06262843
-0.09172215 -0.111737646 0.024455296 -0.082818985 -0.04322377 -0.07903108 0.06369635 -0.04899053
-0.01956629 -0.031623513 0.0006695069 -0.10283168 -0.0016424828 0.03925403 0.19775875 0.053532463
0.08170596 0.06174718 -0.04872432 -0.024158098 0.10480055 0.035226867 -0.12591979 0.10492847
0.06426321 -0.07333735 -0.04877909 -0.11442418 -0.07274836 -0.115164705 -0.10635955 -0.07307216
-0.07990908 -0.026763057 0.036003444 0.050306328 -0.23369005 -0.19223382 -0.056681946 -0.10927295
00000000: c605 633c 4547 413d 1754 9abd 47c1 33be
00000010: d898 c1bd eb58 1e3d b490 10bd ce76 c2bd
00000020: d243 0e3d 78aa 8f3d aa17 aabd b6f0 a83d
00000030: 87c6 abbc 6a6c 413c f183 8db9 1232 fb3d
00000040: 937c 8d3a 417c 423d 6d19 ae3d e2f6 af3d
00000050: c071 b33d 402d db3d 21b6 8dbd 5548 193d
00000060: 0375 96bd aca3 35bb f0bb 0cbe 95b5 f4bd
00000070: 5339 0ebd aa06 63be a537 c4bb 6ef5 943d
00000080: cd53 e7bc 0f34 d13d 4c80 0f3e 7001 263e
00000090: 62b0 3cbb f81c 34bd 3dc2 9b3d 5868 c43d
000000a0: e850 7cbd b6b6 5fbd 2922 8fbd 7a66 9a3d
000000b0: 6e92 47bd 7337 a9bd 92a9 583d 88e1 843d
000000c0: 3ae7 17be 25d0 35be 723b 34be 3ec2 7abd
000000d0: a37d 863b 7bbb 0d3d 5a66 893d 8721 dc3d
000000e0: 9b3e 143e a997 5f3c 287a 2bb9 ee21 263e
000000f0: 9ede 75bd d28b c0bc e66e 6e3d 7978 153d
00000100: 9842 7abc 9587 1b3d d4bf 963d 92a3 8a3d
00000110: 3925 663d db14 90b7 5aa0 4f3d 1ec9 143d
00000120: 5e92 793d b2f2 e63d 7734 9d3d fc03 c83c
00000130: 01e6 0d3e 115f 52ba 44ae 1abc 32b9 cebd
00000140: 8a99 4ebe 9452 09bd b844 d63c f6d8 843b
00000150: 2781 9bbd b43c 51bd 3f7b 78bb 983b 02be
00000160: 4e1e ad3d 6a48 163e f113 babc 1d50 4f3c
00000170: d003 233d 25e2 8cbd 109e c33d bd8d 0b3d
00000180: dded 913d 146d b93d ad69 88bd 0f00 13bd
00000190: 8331 9dbd 7f86 24be f6f5 9d3d 1cc7 20be
000001a0: 4c81 bfbd 02ff 133d 2470 7a3c d8c5 bfbc
000001b0: 3b3e 213c 1c9d 2abd c9b5 d2bd 22e5 ee3d
000001c0: 2175 573d 119c 07be cbf3 cdbd 78ac 003d
000001d0: 830e 57bd 7169 49bc a22f a93d dcc2 15bc
000001e0: 5f97 86bd d566 4f3d 895f febc d472 06be
000001f0: 4b45 dd3c 5beb d73c d826 c53d 0ca1 143e
00000200: c9fd 5abd e760 00bd 0a51 b53d 8c3d 89bd
00000210: b0ba b2bc 9b8e e2bd 106e b8bc 3eb8 0bbd
00000220: cbc8 05be 01b8 d5bd 0697 b2bc d523 8cbd
00000230: def2 703d e4d8 8a3d 9d3f d5bc 9b82 30be
00000240: df1a 8f3d 3735 173e 833e 843d 0443 dcbc
00000250: 49e0 86bd 846c f0bd 3cbe 88bc d9a7 a7bd
00000260: 1b54 dbbd 258e 863b e95b c13c 4200 fabc
00000270: 4389 65bb f848 93bc 1270 a1bd 4090 84bd
00000280: f51c 2fbb 0db8 b8bd 28ee 973d 4330 003e
00000290: b994 09be df50 adbc 545a 883d 752d 163e
000002a0: 9c41 d0bd 3db5 303d 6268 043e 6961 27bb
000002b0: 09f3 2e3e 0d77 0b3d a05c 80bd a06d 37bd
000002c0: b0fd 4ebd 67b6 fa3c 950d 1bbe 031c 103d
000002d0: 5b3d e5bd 74ff 083e 90f0 6ebb 4c4a ecbd
000002e0: fc72 8cbc f9bd cdbd 1e51 3ebd 8e11 edbc
000002f0: 83d1 cc3d de4f 21bd 4158 69bd eaa2 f9bd
00000300: bff4 3fbd a9ba 5ebc 6fcd a5bc 6450 9ebd
00000310: 2732 6ebd 1d5f ad3d d655 8c3d e755 3a3e
00000320: 11b3 463e 1ba7 febd e2fd e4bd 9b2c 9abc
00000330: 563d 42bb b446 43bd 60fc a13c 5f0c a33c
00000340: 01e5 e23d 4678 9b3d 5507 073e 27f2 94bc
00000350: 359a 7d3d 8600 933b c7ca 9e3d 5643 80bd
00000360: d3d8 bbbd b5d6 e4bd 7956 c83c 009d a9bd
00000370: 680b 31bd 0cdb a1bd 3b73 823d 4baa 48bd
00000380: 7c49 a0bc a887 01bd d981 2f3a 6a99 d2bd
00000390: 9448 d7ba d5c8 203d 4581 4a3e db44 5b3d
000003a0: 7455 a73d 9cea 7c3d 2793 47bd 34e7 c5bc
000003b0: aca1 d63d 0c4a 103d 1ef1 00be bde4 d63d
000003c0: 6e9c 833d e431 96bd 95cc 47bd 3957 eabd
000003d0: 18fd 94bd 79db ebbd 09d3 d9bd dba6 95bd
000003e0: 5fa7 a3bd 333e dbbc 5978 133d 020e 4e3d
000003f0: 724c 6fbe f1d8 44be 542b 68bd 7fca dfbd

conv3.0.bias f4 [6]
0.09208261 0.044880662 -0.00017267872 0.11574643 -0.10573135 -0.043752134
00000000: cf95 bc3d c9d4 373d 1711 35b9 770c ed3d
00000010: ae89 d8bd 7035 33bd

conv3.1.weight f4 [6]
0.9609537 0.82441294 0.977685 0.9128281 0.9378999 0.91820586
00000000: 1001 763f ba0c 533f 9049 7a3f 1aaf 693f
00000010: 351a 703f 8a0f 6b3f

conv3.1.bias f4 [6]
0.028975286 -0.0148160495 0.0593618 0.0039445134 -0.04573732 -0.05226106
00000000: 945d ed3c 04bf 72bc 5c25 733d fa40 813b
00000010: 0e57 3bbd b10f 56bd

conv3.1.running_mean f4 [6]
-0.052534685 0.27164423 -0.36599398 0.18126969 -0.703351 0.07959655
00000000: 9c2e 57bd f414 8b3e 9063 bbbe c39e 393e
00000010: d00e 34bf 8403 a33d

conv3.1.running_var f4 [6]
0.1946663 0.20702465 0.14393926 0.15634638 0.15612906 0.27569038
00000000: 9a56 473e 45fe 533e d064 133e 4419 203e
00000010: 4ce0 1f3e 4a27 8d3e

conv4.0.weight f4 [16, 6, 5, 5]
-0.03293468 0.055319514 0.02270609 0.011705571 -0.054633647 0.07791995 0.061526615 -0.009494318
-0.10090052 -0.00811134 -0.026597707 -0.0017522539 -0.06874353 0.0040063146 0.037357427 -0.02464405
0.050165895 0.07137098 0.04606337 -0.048410777 -0.060139183 0.0234179 -0.05890904 -0.002567403
-0.04539689 0.003884171 0.014549917 -0.033199597 0.034117103 -0.02398753 0.058563866 0.027528837
-0.0064256685 -0.051719952 -0.050998937 0.02271217 -0.043238837 -0.0021285461 0.014427242 0.044534683
-0.052174766 0.004615198 0.012646707 0.06645878 0.03952739 0.04427579 0.097162865 0.050019164
0.041092705 -0.046954937 0.020465182 0.06931841 0.029129578 0.047376025 -0.032081235 0.048767976
0.0719149 -0.09998559 -0.09886924 0.03945173 0.0060552186 -0.035029355 0.047293637 0.069517866
0.0060232785 0.044449184 0.06844219 -0.053242363 0.0813964 -0.0077345385 -0.06829901 -0.034681216
0.06252728 -0.020342378 -0.010810091 -0.06816486 0.0010069185 0.031279024 0.019498087 0.040546197
0.034392793 0.012225115 -0.019517168 -0.03671634 -0.039977465 0.0760637 -0.014113176 -0.024291333
0.010593112 -0.042261917 -0.028635638 -0.012074589 -0.044255584 -0.05066158 -0.036055066 -0.031890735
0.0027897265 -0.0209127 0.03723964 -0.08070696 0.06806152 -0.0008620546 -0.01940808 -0.07322083
-0.039657228 -0.06915004 -0.031695586 0.0039006728 0.03224712 0.021701714 -0.038282104 -0.004659346
0.009541651 0.004631119 -0.105986536 -0.021042692 0.043174833 0.000556264 0.017917726 -0.055505216
0.015420791 0.054048028 0.05899233 -0.042018075 -0.0508953 -0.022800796 -0.058225423 0.055331204
0.095001966 0.06583154 -0.0088582635 0.0009920989 0.05215301 0.041518394 0.05735645 0.02432884
0.06156764 0.09186629 -0.0026042082 0.008524185 -0.025226349 -0.031663824 -0.14134118 -0.056865517
-0.02696413 -0.030210955 -0.009222397 -0.023048738 -0.060874432 -0.007991318 -0.031774763 -0.08466492
0.019006504 0.081205785 0.018627571 -0.022042422 -0.0062711844 0.024258915 0.04455032 0.016931156
0.0632602 0.0605628 0.085348204 0.023665316 -0.024014927 0.078065656 0.05122997 -0.06298819
-0.043695316 0.028470695 -0.026917618 0.046951786 0.025559163 -0.050377112 0.01769457 -0.0069382945
0.008810563 -1.269235e-05 0.08106653 0.06613192 0.031818178 0.05537545 0.009009951 0.03294284
-0.05852411 0.010179515 0.094561525 -0.015701793 -0.01609636 -0.0107732015 -0.0016885409 0.024704358
0.008427626 0.033038206 -0.012508012 0.03512222 -0.017727457 -0.011284921 -0.014000625 -0.045860156
0.027696922 -0.020112786 -0.028739072 0.002402396 -0.0011497458 0.1390889 -0.045030877 -0.028923381
0.031961028 0.03285279 0.030428428 -0.0046371766 0.015421883 0.07302314 0.113552324 -0.05449344
-0.029761732 -0.009751253 -0.0034736842 0.088636555 0.012302493 0.025584374 0.0356782 -0.050689813
0.051294718 0.01065304 0.016618207 0.08233249 -0.023980571 0.01795609 0.014269991 -0.047730647
0.07695612 0.11175156 -0.038121942 0.042972326 -0.04273158 0.0053097787 0.066267274 0.06940325
0.012344678 -0.024367543 -0.025327377 0.01843998 0.0771709 -0.037544787 0.07634465 0.03583163
-0.017403176 -0.033528734 -0.077378646 -0.026545241 0.020465054 -0.014863924 -0.019135032 -0.053154692
00000000: 84e6 06bd b796 623d 1f02 ba3c b9c8 3f3c
00000010: 88c7 5fbd 7f94 9f3d 5503 7c3d 0e8e 1bbc
00000020: efa4 cebd 6de5 04bc 6fe3 d9bc e2ab e5ba
00000030: 68c9 8cbd 6747 833b 1a04 193d 52e2 c9bc
00000040: c17a 4d3d f32a 923d f2ac 3c3d 614a 46bd
00000050: 8154 76bd e5d6 bf3c 9b4a 71bd e041 28bb
00000060: 17f2 39bd 938d 7e3b c662 6e3c 4dfc 07bd
00000070: 60be 0b3d 7f81 c4bc aae0 6f3d 2884 e13c
00000080: 6a8e d2bb 4dd8 53bd 43e4 50bd df0e ba3c
00000090: 351b 31bd 147f 0bbb 3d60 6c3c 006a 363d
000000a0: 35b5 55bd 163b 973b 2234 4f3c 8a1b 883d
000000b0: 79e7 213d 885a 353d 53fd c63d e5e0 4c3d
000000c0: d350 283d d253 40bd 99a6 a73c cff6 8d3d
000000d0: 27a1 ee3c 5d0d 423d 9d67 03bd eec0 473d
000000e0: 1e48 933d 3fc5 ccbd f57b cabd 2398 213d
000000f0: db6a c63b f17a 0fbd f9b6 413d 625f 8e3d
00000100: ec5e c53b 5910 363d 6b2b 8c3d aa14 5abd
00000110: 28b3 a63d 0372 fdbb 5ae0 8bbd e40d 0ebd
00000120: 4d0e 803d 0fa5 a6bc cf1c 31bc 059a 8bbd
00000130: 94fa 833a 6f1e 003d 74ba 9f3c c513 263d
00000140: 75df 0c3d d94b 483c 78e2 9fbc df63 16bd
00000150: 69bf 23bd 49c7 9b3d f33a 67bc 9efe c6bc
00000160: bb8e 2d3c d51a 2dbd 4995 eabc 7fd4 45bc
00000170: 5845 35bd 8482 4fbd 7aae 13bd dc9f 02bd
00000180: d8d3 363b 1c51 abbc 9888 183d b149 a5bd
00000190: d763 8b3d 81fb 61ba b2fd 9ebc cdf4 95bd
000001a0: 9e6f 22bd 899e 8dbd 3bd3 01bd 6ea2 7f3b
000001b0: 8e15 043d cbc7 b13c b2cd 1cbd 6dad 98bb
000001c0: 9654 1c3c a4c0 973b 780f d9bd b961 acbc
000001d0: 18d8 303d 3fd2 113a 32c8 923c 7059 63bd
000001e0: 7ca7 7c3c 7761 5d3d f1a1 713d 251b 2cbd
000001f0: 9777 50bd bcc8 babc c87d 6ebd f9a2 623d
00000200: 6490 c23d b0d2 863d 4022 11bc 5109 823a
00000210: 659e 553d 310f 2a3d 99ee 6a3d 474d c73c
00000220: 5a2e 7c3d 6524 bc3d 5dab 2abb 06a9 0b3c
00000230: 7da7 cebc edb1 01bd bebb 10be d1eb 68bd
00000240: e1e3 dcbc f77c f7bc 8919 17bc b5d0 bcbc
00000250: 7857 79bd 04ee 02bc 4126 02bd cd64 adbd
00000260: 87b3 9b3c 384f a63d d998 983c 4f92 b4bc
00000270: 827e cdbb a2ba c63c 657a 363d 35b3 8a3c
00000280: 908e 813d b310 783d 0acb ae3d c4dd c13c
00000290: f4ba c4bc e3e0 9f3d 84d6 513d f4ff 80bd
000002a0: dcf9 32bd 603b e93c 5682 dcbc 8450 403d
000002b0: 7361 d13c 3b58 4ebd 34f4 903c a25a e3bb
000002c0: 2e5a 103c 3af1 54b7 3506 a63d 2c70 873d
000002d0: c753 023d 5ed1 623d 799e 133c 12ef 063d
000002e0: fab6 6fbd fbc7 263c 79a9 c13d 0ca1 80bc
000002f0: 83dc 83bc 1582 30bc 0852 ddba cb60 ca3c
00000300: 0714 0a3c 1253 073d 68ee 4cbc 51dc 0f3d
00000310: 2c39 91bc 64e4 38bc e162 65bc dcd7 3bbd
00000320: a8e4 e23c 92c3 a4bc 346e ebbc 8471 1d3b
00000330: 11b3 96ba 526d 0e3e 4c72 38bd baf0 ecbc
00000340: 91e9 023d a690 063d 0a45 f93c 75f3 97bb
00000350: 11ac 7c3c 288d 953d 1f8e e83d 8334 5fbd
00000360: e0ce f3bc b8c3 1fbc c0a6 63bb 1587 b53d
00000370: 6590 493c 5296 d13c 4e23 123d 1fa0 4fbd
00000380: 691a 523d 178a 2e3c e822 883c f09d a83d
00000390: e772 c4bc a618 933c aecc 693c 3681 43bd
000003a0: 2c9b 9d3d 00de e43d c125 1cbd c003 303d
000003b0: 4f07 2fbd a7fd ad3b 23b7 873d 4b23 8e3d
000003c0: 5541 4a3c 719e c7bc 5c7b cfbc 710f 973c
000003d0: c70b 9e3d 90c8 19bd 955a 9c3d 30c4 123d
000003e0: 1b91 8ebc 6d55 09bd b278 9ebd 6875 d9bc
000003f0: 54a6 a73c d187 73bc 12c1 9cbc bcb8 59bd

conv4.0.bias f4 [16]
0.005191653 0.063428834 0.059905786 0.02813503 0.05852986 -0.042396456 0.028108181 0.06170798
-0.06658793 0.0376481 0.043006144 0.058119155 0.07139245 0.06718135 0.03849974 0.031087842
00000000: be1e aa3b fae6 813d c55f 753d 6f7b e63c
00000010: 02bd 6f3d e8a7 2dbd 2143 e63c 82c1 7c3d
00000020: 415f 88bd e534 1a3d 3627 303d 5a0e 6e3d
00000030: 3436 923d 6096 893d e7b1 1d3d eeab fe3c

conv4.1.weight f4 [16]
1.2513891 1.2369446 1.2246429 1.2576761 1.2088343 1.1577634 1.2679373 1.2513084
1.1937544 1.2391326 1.214577 1.2595826 1.2211099 1.1904033 1.2007483 1.2342379
00000000: 852d a03f 3354 9e3f 19c1 9c3f 88fb a03f
00000010: 15bb 9a3f 9731 943f c54b a23f e02a a03f
00000020: f2cc 983f e69b 9e3f 4277 9b3f 013a a13f
00000030: 544d 9c3f 235f 983f 1fb2 993f 82fb 9d3f

conv4.1.bias f4 [16]
0.09186153 0.052122373 0.08110731 0.09283602 0.11811959 0.069255404 0.066715375 0.081620306
0.04803507 0.117229246 0.106217705 0.066897735 0.08955997 0.11569965 0.08488527 0.07646909
00000000: e621 bc3d 457e 553d 971b a63d d020 be3d
00000010: afe8 f13d c7d5 8d3d 12a2 883d 8c28 a73d
00000020: 6cc0 443d e315 f03d ab88 d93d ae01 893d
00000030: 386b b73d f0f3 ec3d 54d8 ad3d d49b 9c3d

conv4.1.running_mean f4 [16]
0.044594433 0.5443938 0.10727428 0.120263636 0.27713323 0.22903284 0.19902067 0.26883316
0.12792316 0.21114379 -0.3507563 0.014986487 0.5288279 -0.25169313 -0.007609152 -0.244517
00000000: a7a8 363d 645d 0b3f 9eb2 db3d c84c f63d
00000010: 68e4 8d3e 9687 6a3e 13cc 4b3e 80a4 893e
00000020: 4afe 023e 1436 583e 5496 b3be e289 753c
00000030: 4461 073f ecdd 80be 3156 f9bb aa62 7abe

conv4.1.running_var f4 [16]
0.123092584 0.10731987 0.10736899 0.19486733 0.2204952 0.15279873 0.12289858 0.11882256
0.11885772 0.16325809 0.07153793 0.1376865 0.062720925 0.099658385 0.14512108 0.08611317
00000000: f717 fc3d 85ca db3d 46e4 db3d 4d8b 473e
00000010: 7ec9 613e 4577 1c3e 40b2 fb3d 3e59 f33d
00000020: ad6b f33d 212d 273e 7a82 923d b1fd 0c3e
00000030: d473 803d b219 cc3d 9f9a 143e 1a5c b03d

fc1.0.weight f4 [120, 400]
0.04198625 -0.04831365 -0.04253535 0.0036647161 0.0037347733 0.03441557 -0.0047834734 -0.019694064
-0.0069079543 -0.0004145435 -0.051623076 0.04007847 0.02100457 -0.013134026 -0.04673882 -0.014932879
-0.037588052 -0.02878516 0.031201538 -0.011820177 0.016476667 0.04128712 -0.04290673 -0.005543436
-0.006811906 -0.04154639 -0.01849713 0.019853014 -0.026686141 -0.0011571682 -0.040794224 -0.0129429
0.02106563 -0.025404556 -0.0340094 -0.027453335 -0.018096562 -0.01622333 0.03936034 -0.016215276
-0.006586753 -0.0024871128 -0.047005836 0.04093582 0.0065536047 -0.033039585 0.03427415 0.027158521
-0.011989291 0.03175797 -0.03233298 0.032418273 -0.013379861 0.0055179675 -0.040852 0.039418705
0.018552518 -0.033723988 -0.022666046 0.028701352 -0.0042718127 0.03624781 0.015567168 0.046039395
-0.007103155 0.00045159162 -0.046535756 0.047919553 0.0363094 0.049112722 0.0098269135 0.025428671
0.023759948 0.034770362 -0.011943331 -0.018584672 0.04652777 -0.0010965714 0.033886425 0.0014575383
0.035510726 0.04556236 -0.021079 -0.030579787 0.034677647 -0.0047256746 -0.024322664 0.00024100569
0.031811945 -0.020116055 -0.0061050584 -0.0016610422 -0.042307064 -0.022532782 0.032846816 -0.001652199
-0.018618928 -0.017716479 -0.0104548 -0.04140362 -0.008869817 0.02208977 -0.02914813 0.01711986
-0.044994216 0.0064746756 -0.03441231 -0.030490885 0.012274091 0.040535007 0.032855652 -0.022880405
0.0033081886 0.041916516 0.020901453 0.013967191 0.050642308 0.010567095 -0.035979025 -0.033046655
-0.009273869 0.030652674 -0.027969707 0.020574642 -0.044691637 -0.038640726 0.03199629 0.034764815
-0.034770813 -0.008371034 0.026940439 0.005836228 0.03416946 -0.034504004 0.007709026 -0.02139601
-0.0423296 0.04073411 0.023645326 0.0265626 -0.0005988703 0.05206908 0.026449539 0.037832826
-0.029686967 -0.0037688822 -0.00020563448 -0.0031750624 0.023192843 0.03850479 0.03737527 -0.019269308
-0.025676543 0.039770603 0.008749473 0.039460864 -0.019237334 -0.007234617 0.026867054 -0.020408668
-0.038600065 -0.04117134 -0.011020702 0.008973591 -0.040882226 -0.014443149 -0.023850359 0.0030431384
0.007939853 0.047508013 -0.027794512 -0.05821584 0.017338723 0.006686566 -0.0337284 -0.039364036
0.03563126 -0.026171224 0.009996731 -0.011221825 0.02963044 -0.055979732 0.033840027 0.011685217
0.04184514 -0.000964093 0.019987827 -0.005806803 -0.020859284 -0.015622645 -0.042854793 -0.032312445
-0.03318394 0.019630808 -0.013018298 -0.030208044 0.048701096 0.032398313 0.03861883 0.031077128
-0.03985928 0.040533002 -0.03529198 0.018302992 0.007936649 0.010549359 0.010726367 0.020429885
0.053347815 -0.0042977855 0.035865612 0.021105168 0.036603764 -0.02523359 0.02527827 0.008857612
0.033975113 0.017193947 0.005723292 -0.03362444 -0.0068218126 0.011548121 -0.02101246 -0.015721476
0.014363955 0.014081963 0.008390005 0.017097946 0.008719026 -0.028653964 0.02619024 0.02306642
-0.03178687 -0.009779975 -0.033849295 0.012512202 0.054859642 -0.017803766 -0.023073142 0.038422164
0.015103217 -0.003140633 0.046217144 0.015560081 0.0018547353 0.019641353 0.015008771 -0.00010124365
-0.03589654 -0.029424315 -0.0069471896 -0.024293613 0.021881478 0.0024670372 0.037179694 -0.004435128
00000000: c6f9 2b3d 89e4 45bd 8c39 2ebd bc2b 703b
00000010: 19c3 743b 57f7 0c3d afbe 9cbb 7255 a1bc
00000020: 1f5c e2bb 1657 d9b9 b872 53bd 5229 243d
00000030: c711 ac3c 1930 57bc 3471 3fbd 09a9 74bc
00000040: eef5 19bd dbce ebbc 5e9a ff3c 6aa9 41bc
00000050: 13fa 863c af1c 293d f8be 2fbd b6a5 b5bb
00000060: 6936 dfbb 8c2c 2abd 4b87 97bc caa2 a23c
00000070: e59c dabc 1fac 97ba d817 27bd 750e 54bc
00000080: d491 ac3c 371d d0bc 714d 0bbd d1e5 e0bc
00000090: 3e3f 94bc cae6 84bc 4f38 213d e6d5 84bc
000000a0: b0d5 d7bb d4fe 22bb 3189 40bd 52ac 273d
000000b0: 9fbf d63b 8454 07bd 0d63 0c3d 8c7b de3c
000000c0: bb6e 44bc a514 023d 966f 04bd 06c9 043d
000000d0: 3437 5bbc 11d0 b43b 6d54 27bd 8275 213d
000000e0: 73fb 973c 2a22 0abd 25ae b9bc 191f eb3c
000000f0: 90fa 8bbb 9578 143d 6f0d 7f3c ce93 3c3d
00000100: 95c1 e8bb 9ac3 ec39 479c 3ebd 4b47 443d
00000110: 2ab9 143d 6c2a 493d 1001 213c ca4f d03c
00000120: 39a4 c23c 5e6b 0e3d f6ad 43bc e23e 98bc
00000130: e793 3e3d d5ba 8fba 7ecc 0a3d df0a bf3a
00000140: b273 113d 999f 3a3d dead acbc 7682 fabc
00000150: 260a 0e3d d5d9 9abb 5340 c7bc 79b6 7c39
00000160: 3e4d 023d 6dca a4bc f10c c8bb 54b7 d9ba
00000170: 2c4a 2dbd ab96 b8bc 628a 063d 998e d8ba
00000180: b986 98bc 2622 91bc 9c4a 2bbc d896 29bd
00000190: b552 11bc 9bf5 b43c 0fc8 eebc f33e 8c3c
000001a0: db4b 38bd 8429 d43b ecf3 0cbd 05c8 f9bc
000001b0: 4519 493c 0908 263d a693 063d b06f bbbc
000001c0: 32ce 583b a7b0 2b3d 8639 ab3c a5d6 643c
000001d0: 4f6e 4f3d 9c21 2d3c be5e 13bd ee5b 07bd
000001e0: 6df1 17bc 511b fb3c ba20 e5bc 278c a83c
000001f0: 940e 37bd bd45 1ebd 8b0e 033d 8d65 0e3d
00000200: d76b 0ebd a926 09bc 32b2 dc3c d43d bf3b
00000210: 47f5 0b3d 1254 0dbd ff9b fc3b af46 afbc
00000220: cd61 2dbd cfd8 263d d8b3 c13c cf99 d93c
00000230: 81fd 1cba 6346 553d b4ac d83c 98f6 1a3d
00000240: 1532 f3bc 5aff 76bb 969f 57b9 b514 50bb
00000250: ebfe bd3c 33b7 1d3d d016 193d abda 9dbc
00000260: 9d57 d2bc 80e6 223d f359 0f3c b7a1 213d
00000270: 9d97 9dbc 5e10 edbb 4c18 dc3c 1430 a7bc
00000280: 1a1b 1ebd 47a3 28bd 2d90 34bc f805 133c
00000290: 1f74 27bd f5a2 6cbc d461 c3bc 646f 473b
000002a0: 2816 023c c397 423d 51b1 e3bc bc73 6ebd
000002b0: f009 8e3c fb1a db3b ca26 0abd 2f3c 21bd
000002c0: 16f2 113d 0965 d6bc 54c9 233c bfdb 37bc
000002d0: 89bb f23c 014b 65bd d79b 0a3d 5a73 3f3c
000002e0: cf65 2b3d 30bb 7cba 83bd a33c fe46 bebb
000002f0: 17e1 aabc 1ff6 7fbc 8288 2fbd 0e5a 04bd
00000300: e2eb 07bd cad0 a03c b34a 55bc dc76 f7bc
00000310: cd7a 473d 18b4 043d c72e 1e3d 7695 fe3c
00000320: 7c43 23bd ef05 263d 538e 10bd 28f0 953c
00000330: b808 023c 38d7 2c3c a5bd 2f3c 935c a73c
00000340: 3d83 5a3d 70d4 8cbb d2e7 123d bfe4 ac3c
00000350: d4ed 153d acb6 cebc 6014 cf3c 841f 113c
00000360: 7d29 0b3d 52da 8c3c 748a bb3b c8b9 09bd
00000370: 8389 dfbb 5534 3d3c 5322 acbc 53ca 80bc
00000380: cb56 6b3c 09b8 663c 3b76 093c fe10 8c3c
00000390: 3fda 0e3c b8bb eabc ea8c d63c caf5 bc3c
000003a0: f332 02bd 303c 20bc 8fa5 0abd fbff 4c3c
000003b0: 81b4 603d 34d9 91bc e303 bdbc 8f60 1d3d
000003c0: 7c73 773c 14d3 4dbb 304e 3d3d b6ef 7e3c
000003d0: 971a f33a e7e6 a03c 59e7 753c c552 d4b8
000003e0: 4008 13bd 430b f1bc 40a5 e3bb 6603 c7bc
000003f0: c940 b33c 04ae 213b bc49 183d 8d54 91bb

fc1.0.bias f4 [120]
-0.016301269 0.024940995 -0.020398017 0.026590453 -0.03320627 0.04206651 0.03632078 0.03571659
0.00026642357 0.007838173 -0.018640565 0.007749381 0.018868802 -0.030488322 0.0014774275 -0.006182234
-0.0023855048 0.025534404 0.0086367745 0.028142719 0.04544043 0.022805985 0.019433824 -0.0020390719
0.041555006 -0.004541592 -0.032583904 -0.025365356 -0.006652242 -0.014063054 0.030317513 0.009563457
0.051591292 -0.017064199 0.0380996 0.0040984624 0.02196249 0.017300624 0.03401033 0.03348174
-0.025414474 -0.029886402 -0.015227527 -0.017500792 0.03582943 0.0036769805 0.011915545 0.025275422
-0.022150943 0.021018025 -0.040868886 0.0049034543 0.03985031 0.0038747543 0.0055033956 -0.0207216
0.00850122 -0.023119746 0.02103849 0.042169265 0.009219227 -0.0033660487 0.0073963706 -0.031453878
-0.0143478 0.016422087 -0.002318414 -0.019919869 -0.03657487 0.065542616 0.011222551 0.018601784
-0.02837992 -0.01502949 0.01740458 0.035137992 -0.01934429 0.03306228 0.03336136 0.02211771
-0.02018793 0.024441741 0.0017852868 -0.003990108 0.040753085 -0.040932763 -4.3328397e-05 0.0011596326
0.032669324 0.0060678273 -0.018094392 0.0031693913 -0.008062546 0.027224233 -0.0046007526 0.039262027
0.046269774 -0.007680209 -0.016568081 0.0017857092 -0.029237254 0.013778816 -0.009829798 -0.0051511745
0.053366963 0.05960421 0.040640887 0.028954975 -0.016965492 0.0067822747 -0.0041455193 0.031662226
-0.009710203 0.0035206438 -0.05121956 -0.0045049554 -0.023929639 0.023608398 -0.014297857 0.018042658
00000000: 3d8a 85bc 0f51 cc3c be19 a7bc 39d4 d93c
00000010: 4c03 08bd ef4d 2c3d 19c5 143d 8f4b 123d
00000020: c4ae 8b39 ae6b 003c 19b4 98bc 85ee fd3b
00000030: bf92 9a3c a5c2 f9bc 3ea6 c13a 5694 cabb
00000040: 2156 1cbb 872d d13c 4281 0d3c 8f8b e63c
00000050: bf1f 3a3d 9ed3 ba3c af33 9f3c f3a1 05bb
00000060: 9535 2a3d a3d1 94bb b376 05bd 02cb cfbc
00000070: 0dfb d9bb b968 66bc 6f5c f83c 0cb0 1c3c
00000080: 6451 533d 38ca 8bbc 530e 1c3d 654c 863b
00000090: aeea b33c 0aba 8d3c 6a4e 0b3d 2624 093d
000000a0: 0432 d0bc 54d4 f4bc e17c 79bc d25d 8fbc
000000b0: e1c1 123d 7ff9 703b 6b39 433c 670e cf3c
000000c0: e575 b5bc fe2d ac3c 2266 27bd 28ad a03b
000000d0: 143a 233d 97ef 7d3b d455 b43b 58c0 a9bc
000000e0: b348 0b3c 9f65 bdbc e958 ac3c aeb9 2c3d
000000f0: 3e0c 173c ed98 5cbb 415d f23b c8d5 00bd
00000100: 0913 6bbc 9d87 863c 88f0 17bb fe2e a3bc
00000110: 88cf 15bd 353b 863d cade 373c c562 983c
00000120: 027d e8bc 403e 76bc 0d94 8e3c dbec 0f3d
00000130: eb77 9ebc 506c 073d eca5 083d 3330 b53c
00000140: 2861 a5bc 0c3a c83c 4900 ea3a 74bf 82bb
00000150: b5ec 263d 1da9 27bd 83bb 35b8 d0fe 973a
00000160: 45d0 053d a0d4 c63b b13a 94bc 90b5 4f3b
00000170: c518 04bc 5b05 df3c e9c1 96bb 38d1 203d
00000180: 6085 3d3d 43aa fbbb c9b9 87bc 750e ea3a
00000190: f782 efbc 8bc0 613c 290d 21bc 2fcb a8bb
000001a0: 5197 5a3d 8b23 743d 0f77 263d fc32 ed3c
000001b0: 37fb 8abc d83d de3b 23d7 87bb 40b0 013d
000001c0: 8b17 1fbc 9aba 663b 9acb 51bd 4e9e 93bb
000001d0: 1708 c4bc 6666 c13c 8f41 6abc 32ce 933c

fc2.0.weight f4 [84, 120]
0.004097296 -0.034852903 0.06312009 0.039515037 0.057975825 -0.008641108 0.022749618 0.06759474
0.023155298 -0.054312043 0.038205743 0.060872696 -0.06933667 0.00053618656 -0.069928035 -0.076677166
-0.074524604 -0.0015923029 0.07555219 -0.072107315 -0.074272215 -0.07682906 0.0077201338 0.044631124
-0.032637965 0.033652864 0.08655068 0.042555504 -0.007915491 -0.07103456 0.061430264 0.009556773
0.08232383 -0.039829485 0.053286213 -0.00024922588 0.059271775 -0.0418722 -0.05660349 0.08700523
0.04142714 -0.07128317 -0.07987895 -0.051668357 0.0064316695 0.015067197 -0.045664027 -0.012860243
0.063376464 0.083367646 0.042721964 0.014223035 -0.045060966 0.027286503 0.016739173 0.06436715
-0.039218456 0.018392984 0.060702294 0.056621246 0.06352524 0.05173642 0.026616437 0.027646458
0.051319 -0.04961021 0.020567425 0.07922692 0.043401707 -0.026312081 0.034646433 0.06635443
0.061672788 0.021221006 0.075535744 0.0030623493 0.033039916 -0.011731956 -0.07538964 0.013584416
-0.08209161 0.029761678 -0.034325548 -0.075243525 0.07303763 -0.014931523 -0.050456855 -0.078213446
-0.02764991 -0.034813818 0.045214754 0.062340066 0.055989053 0.06614254 0.033395056 -0.0011785189
-0.04652372 0.047721118 -0.07160542 0.0525511 0.049421255 0.07497733 -0.00605198 -0.084815964
-0.034500614 0.034937106 -0.02204198 -0.04440975 -0.04484542 0.017666452 -0.06568099 0.056653105
-0.040558346 -0.012745419 -0.053253904 0.051346835 0.019581284 -0.040744748 0.039480846 0.030540032
-0.051426716 0.0778035 0.009732741 0.0011928558 -0.013797613 0.08081283 -0.016912065 -0.07283831
0.04328446 -0.031604916 -0.072807625 -0.015274167 0.08146696 0.036683872 -0.041630615 -0.06748928
-0.023843164 0.07619581 -0.027833562 -0.007638454 -0.004541085 -0.01451178 0.12247368 -0.035357025
0.015389284 0.0009105801 -0.028548976 0.08053036 0.03717899 0.01634914 0.05833472 0.011550997
0.08750886 -0.018297153 -0.005536558 0.011706271 -0.07631812 0.04374158 0.098807976 -0.04933746
-0.06427952 0.08868273 0.029840363 -0.008885451 -0.008899636 0.052287713 -0.035157245 -0.020754313
0.10466033 -0.088393375 -0.07361503 -0.07069723 -0.0011147145 0.085652515 -0.09412249 -0.028700847
0.057394475 -0.067514494 0.0047449674 -0.05684028 -0.08998074 -0.034278095 0.011036803 -0.021869764
-0.08921342 0.001602813 0.07817817 -0.07794611 -0.06875898 0.060504433 0.047360264 0.05870171
-0.025435686 0.073830575 0.05160329 -0.025516951 0.08901986 -0.020820687 -0.055550586 -0.058070414
0.055588726 -0.044718586 0.026328258 -0.0538592 0.055827107 -0.049101256 0.10282183 -0.057603944
0.030956484 -0.02739148 -0.0003082703 0.08725911 -0.0054171425 0.005871129 -0.019579373 0.021214217
0.03566639 -0.062167063 -0.08201038 -0.010035065 0.10363939 0.019200971 -0.05078463 -0.060736187
0.063140415 0.055848993 -0.076120935 0.12975584 0.14056398 -0.0014950454 0.016606173 0.078827605
-0.09649096 -0.043780524 -0.014983553 -0.041033722 -0.030338995 0.019015515 0.0999147 0.06381615
-0.023152381 0.061382946 -0.060884155 0.06356752 -0.08438351 -0.0030514891 0.041624527 0.050814427
0.042741958 0.04383214 -0.051752444 0.000981285 -0.06245085 -0.014010814 -0.07703891 0.02037629
00000000: 9c42 863b ebc1 0ebd 1b45 813d 85da 213d
00000010: 0f78 6d3d 6f93 0dbc 685d ba3c 1c6f 8a3d
00000020: 2eb0 bd3c 4e76 5ebd a07d 1c3d a655 793d
00000030: 6200 8ebd df8e 0c3a 6e36 8fbd eb08 9dbd
00000040: 5ba0 98bd d2b4 d0ba 1bbb 9a3d 00ad 93bd
00000050: 081c 98bd 8e58 9dbd 2df9 fc3b 20cf 363d
00000060: 63af 05bd 96d7 093d 7c41 b13d ae4e 2e3d
00000070: faaf 01bc 917a 91bd 4d9e 7b3d 0394 1c3c
00000080: 6599 a83d 3e24 23bd a542 5a3d 88aa 82b9
00000090: f6c6 723d 2f82 2bbd 10d9 67bd cc2f b23d
000000a0: 81af 293d e9fc 91bd 9397 a3bd 33a2 53bd
000000b0: c1c0 d23b 68dc 763c 340a 3bbd c5b3 52bc
000000c0: 85cb 813d a8bc aa3d 3afd 2e3d bc07 693c
000000d0: d991 38bd f287 df3c 9720 893c edd2 833d
000000e0: 88a3 20bd e2ac 963c f8a2 783d aeeb 673d
000000f0: 8519 823d 91e9 533d b70a da3c d37a e23c
00000100: df33 523d 1334 4bbd 047d a83c b941 a23d
00000110: fdc5 313d 6f8c d7bc 6be9 0d3d d5e4 873d
00000120: 9b9c 7c3d add7 ad3c 7cb2 9a3d b2b1 483b
00000130: dd54 073d 6437 40bc e265 9abd 2c91 5e3c
00000140: a51f a8bd c3ce f33c f298 0cbd 4719 9abd
00000150: c194 953d 59a3 74bc d9ab 4ebd 5f2e a0bd
00000160: 1082 e2bc ef98 0ebd 1b33 393d 4c58 7f3d
00000170: c754 653d bd75 873d 41c9 083d 8878 9aba
00000180: a88f 3ebd 3877 433d dda5 92bd d23f 573d
00000190: f16d 4a3d b78d 993d b04f c6bb feb3 adbd
000001a0: 8450 0dbd 361a 0f3d 6291 b4bc ffe6 35bd
000001b0: d5af 37bd 3cb9 903c c183 86bd 160d 683d
000001c0: 8220 26bd 29d2 50bc c420 5abd 0f51 523d
000001d0: ee68 a03c f7e3 26bd abb6 213d 172f fa3c
000001e0: d2a4 52bd 7157 9f3d 1376 1f3c 9959 9c3a
000001f0: 620f 62bc 3281 a53d 2c8b 8abc 402c 95bd
00000200: 0c4b 313d 2874 01bd 2a1c 95bd 8040 7abc
00000210: 26d8 a63d d441 163d dd84 2abd d237 8abd
00000220: bd52 c3bc 8d0c 9c3d 3603 e4bc ff4b fabb
00000230: 62cd 94bb d1c2 6dbc 7bd3 fa3d 87d2 10bd
00000240: 5623 7c3c ffb3 6e3a 8bdf e9bc 1aed a43d
00000250: ff48 183d a2ee 853c 63f0 6e3d 6540 3d3c
00000260: d837 b33d e9e3 95bc 046c b5bb a9cb 3f3c
00000270: ad4c 9cbd 5f2a 333d d65b ca3d 1416 4abd
00000280: fba4 83bd 4b9f b53d c773 f43c 4894 11bc
00000290: c7cf 11bc a42b 563d 0b01 10bd f304 aabc
000002a0: 2858 d63d 9607 b5bd 7ac3 96bd b6c9 90bd
000002b0: 9d1b 92ba 966a af3d 4bc3 c0bd 0a1e ebbc
000002c0: 7816 6b3d 0a45 8abd ac7b 9b3b 5ad1 68bd
000002d0: d247 b8bd 3067 0cbd b5d3 343c 3828 b3bc
000002e0: 87b5 b6bd 7b15 d23a e01b a03d 36a2 9fbd
000002f0: 82d1 8cbd 7fd3 773d d6fc 413d 3471 703d
00000300: 805e d0bc 7c34 973d f95d 533d ed08 d1bc
00000310: 0b50 b63d 2590 aabc 0389 63bd 3edb 6dbd
00000320: 01b1 633d d62a 37bd 5cae d73c 779b 5cbd
00000330: f7aa 643d 661e 49bd 4094 d23d 1df2 6bbd
00000340: 7498 fd3c 1964 e0bc 579f a1b9 e7b4 b23d
00000350: 4982 b1bb 9a62 c03b ec64 a0bc 70c9 ad3c
00000360: ec16 123d e4a2 7ebd 0ff5 a7bd 1d6a 24bc
00000370: e340 d43d 5b4b 9d3c 8b03 50bd 82c6 78bd
00000380: c34f 813d eac1 643d 4be5 9bbd b7de 043e
00000390: 01f0 0f3e 66f5 c3ba ab09 883c 5e70 a13d
000003a0: 0d9d c5bd 3553 33bd 947d 75bc fa12 28bd
000003b0: 7c89 f8bc 6dc6 9b3c 14a0 cc3d 0bb2 823d
000003c0: 10aa bdbc af6c 7b3d aa61 79bd b02f 823d
000003d0: 43d1 acbd 7efb 47bb 7b7e 2a3d ca22 503d
000003e0: 3112 2f3d 5489 333d 5ffa 53bd 769e 803a
000003f0: 76cc 7fbd 9d8d 65bc 93c6 9dbd 2dec a63c

fc2.0.bias f4 [84]
-0.019607201 0.0147324195 -0.06398335 0.024386916 0.0077443183 0.06714999 -0.0122582195 0.06757633
0.090744086 -0.08625571 -0.034576993 -0.029405832 0.004931068 -0.08232642 -0.07606305 -0.07070362
-0.04567023 0.039144244 0.06534667 0.082447484 -0.07305868 -0.07450998 0.0062348633 -0.04590564
0.036185697 0.07724438 0.09715438 -0.031817682 -0.008487581 0.039584 0.049970094 -0.022908323
0.027244538 0.05470646 0.076630354 -0.0033387227 0.020788673 0.0105599845 0.040485688 -0.031859845
0.0940807 -0.029338788 -0.07064651 -0.04771658 0.0017691136 0.061098743 -0.034331445 0.042747512
0.05432866 -0.0039337734 0.061609346 0.03634886 -0.03985629 -0.009243102 -0.07147742 -0.042809673
0.06765619 -0.08357483 0.026987774 0.018424688 0.024530565 0.012554949 -0.0463265 0.073258616
-0.06413415 0.048305072 -0.036729556 0.08447462 -0.0050202115 -0.029000187 0.025457084 -0.026458206
-0.08145864 -0.06363962 0.085765645 0.074258186 0.025517035 0.036417816 -0.028322121 0.03779366
0.026942767 0.07325891 0.012085281 -0.09389395
00000000: 489f a0bc 3f60 713c b409 83bd 12c7 c73c
00000010: 0dc4 fd3b ef85 893d b3d6 48bc 7565 8a3d
00000020: 09d8 b93d d5a6 b0bd 9ba0 0dbd 80e4 f0bc
00000030: cc94 a13b c19a a8bd f2c6 9bbd 0fcd 90bd
00000040: b510 3bbd b755 203d 7ad4 853d 3ada a83d
00000050: ca9f 95bd b098 98bd d34d cc3b 8d07 3cbd
00000060: 7437 143d 4d32 9e3d e0f8 c63d 4253 02bd
00000070: 7f0f 0bbc d522 223d 71ad 4c3d 3caa bbbc
00000080: f02f df3c e213 603d 60f0 9c3d 79ce 5abb
00000090: 024d aa3c c903 2d3c 52d4 253d 787f 02bd
000000a0: 62ad c03d e657 f0bc 1eaf 90bd 7672 43bd
000000b0: 9ae1 e73a ad42 7a3d 219f 0cbd 0418 2f3d
000000c0: bb87 5e3d e2e6 80bb 155a 7c3d 8be2 143d
000000d0: 5940 23bd 6170 17bc c162 92bd 3259 2fbd
000000e0: 548f 8a3d 4829 abbd 7715 dd3c 5fef 963c
000000f0: 53f4 c83c 46b3 4d3c dbc0 3dbd 9d08 963d
00000100: c458 83bd 8adb 453d bb71 16bd 0801 ad3d
00000110: 9680 a4bb cd91 edbc 608b d03c e1be d8bc
00000120: cad3 a6bd 7d55 82bd e6a5 af3d ad14 983d
00000130: 1a09 d13c d92a 153d cb03 e8bc 86cd 1a3d
00000140: 14b7 dc3c c408 963d 5801 463c 794b c0bd
