计算机视觉实践-练习2/checkpoint/lenet_p/Saturday_15_April_2023_09h_55m_18s/lenet_p-10-regular.pth (torch, 260683 bytes, 30 tensors)

conv1.0.weight f4 [6, 1, 5, 5]
000000 4d 95 21 be 84 04 27 bc 7f d1 ba bd 0c 56 be bd
       -0.1577961 -0.010193948 -0.091219895 -0.09293756
000010 de 5b ff 3d b0 27 9d 3c 59 9a 71 bd cc 35 a8 bd
       0.12468694 0.019183964 -0.058985088 -0.08213386
000020 cc c8 bc bd 89 59 15 bd 01 d7 12 be 9c 86 04 be
       -0.092179865 -0.03646234 -0.1433983 -0.12941974
000030 f6 52 71 bd 19 d4 55 be 73 be 0f be 76 d0 db bd
       -0.05891701 -0.2088169 -0.14037494 -0.1073312
000040 f3 47 04 3e 2a f9 0a bd f0 19 74 bb f5 aa ab 3c
       0.12918071 -0.033929028 -0.0037246905 0.020955542
000050 3e 01 33 3e 4f 83 9a 3d 8e cb 04 3e 22 b3 50 bd
       0.17480943 0.075445764 0.12968275 -0.050952084
000060 5b 15 8f bb 16 18 d4 bd 3c f3 db bb 34 ca a7 3d
       -0.0043665594 -0.103561565 -0.0067123454 0.08192864
000070 39 16 55 bd c4 5f 3f 3d 56 da 3f bc 65 d9 26 3e
       -0.052023146 0.04672219 -0.01170977 0.16293867
000080 00 ab 00 3e 0e e8 45 3d e5 3b 06 be 45 46 8d 3d
       0.12565231 0.048317008 -0.13108785 0.068981685
000090 ac 1e 66 be 91 e2 fb 3d 8e 4e 84 3e eb 61 2f 3e
       -0.22472638 0.122990735 0.25841182 0.17127196
0000a0 46 45 01 bc 54 98 88 3d 77 77 0d be 37 2f 0a 3c
       -0.007890051 0.06669679 -0.13815103 0.008434108
0000b0 69 b8 45 3e 1c ad 0a be 2a 5b 58 bc 9c 48 9d 3d
       0.19308628 -0.13542598 -0.013205329 0.07679865
0000c0 78 8d 12 3e 2b 7c 15 3e 50 76 a2 bd a5 0f 98 3d
       0.14311779 0.14598148 -0.079327226 0.07424859
0000d0 5f fa 98 3d d2 e6 d9 bd 1d df c5 3d 59 4e 44 3e
       0.074696295 -0.106397286 0.09661696 0.19170512
0000e0 d4 1b 23 bd ba 70 76 bd 25 b4 31 3d d4 28 1a bd
       -0.03982146 -0.0601661 0.04338469 -0.037636593
0000f0 8c 69 91 3d 87 67 dc 3d 4f 5d 81 3d b1 18 ef bd
       0.071002096 0.10761934 0.06316625 -0.116746314
000100 f6 75 14 be d4 3d 3d 3e 43 1c 55 3e 31 9f 3a be
       -0.14498124 0.18480617 0.20811562 -0.18224789
000110 72 2c de 3d bf 88 ab 3d de a4 5e 3e b1 63 5f 3e
       0.10848321 0.083756916 0.2174258 0.21815373
000120 fc 55 97 bd 58 21 a0 3c 13 71 bb bd d9 aa 72 bb
       -0.07389447 0.01954715 -0.091524266 -0.0037028103
000130 03 a9 af bc ed 79 e1 bb 97 2b 32 3e 73 ec e9 3d
       -0.021442896 -0.0068809898 0.1739944 0.11422052
000140 dc bd 21 bc 88 ae 8b be 40 7d 6b bd 0e e7 0c be
       -0.009871926 -0.27281594 -0.057492495 -0.13760015
000150 41 06 c7 3d eb b6 1c 3e f3 d9 9f bd e4 ae 41 be
       0.0971799 0.15304153 -0.078052424 -0.18914372
000160 64 9a 06 be 13 97 0e be 95 3e 1e 3e 5a 70 96 3e
       -0.13144833 -0.13924818 0.1545356 0.29382592
000170 bd 60 7f ba 52 f2 77 bb e0 9a b8 bd 6f 17 fa bd
       -0.0009741893 -0.0037833643 -0.09013915 -0.12211501
000180 56 b0 2e bc 81 96 b5 3d 08 c4 bb 3d 3e a0 0a 3d
       -0.010662159 0.08866597 0.09168249 0.033844225
000190 93 c9 b9 3c 39 ae 0a 3e 4d c0 02 be 03 2d d8 bd
       0.022679126 0.13543023 -0.1276867 -0.1055546
0001a0 54 d5 f4 3b 3b b4 82 3d 41 a4 f3 bd 41 dd 16 be
       0.0074717198 0.063820325 -0.11896563 -0.14732839
0001b0 bf 7c 60 bd 8f 0c 92 bc 0d 9a 8a 3d 41 08 10 be
       -0.054806467 -0.017828254 0.06767664 -0.14065649
0001c0 bf ab ea bd 0f e7 c8 bc c1 66 46 3e 68 40 9a bc
       -0.11458539 -0.02452424 0.19375135 -0.01882954
0001d0 e3 b8 04 be 8d b5 0a 3e ea 7d 83 3e 01 40 00 3e
       -0.12961154 0.13545819 0.25682002 0.12524416
0001e0 bb 39 1e 3d 7b 16 f2 3d 32 7c 63 bd ce af 05 3e
       0.038629275 0.11820694 -0.055538364 0.13055345
0001f0 00 1f 3f be dc ab 05 3d b4 2e ce 3c 72 cc 4b 3d
       -0.1866417 0.0326346 0.025168754 0.04975552
000200 85 0c 3e bd 60 9c 5a 3b 33 b4 27 bd 15 ad d1 bb
       -0.04639866 0.0033357367 -0.040943336 -0.006398807
000210 29 81 9d bd 7c 17 a9 3d 48 db c0 bc 6f 3f 37 3e
       -0.07690651 0.082564324 -0.023542061 0.17895292
000220 06 cb 35 3e ab d2 9d 3e 80 e4 80 3d f1 02 98 bd
       0.17753229 0.3082479 0.06293583 -0.07422436
000230 c3 83 5a 3e 10 02 87 bd 54 3e 9f bd ab e6 80 3d
       0.21339326 -0.0659219 -0.0777556 0.062939964
000240 ed d5 83 bd 19 b5 84 be 51 ff 33 be c2 90 d8 bd
       -0.064372875 -0.25919417 -0.17577864 -0.10574485
000250 c1 a3 10 3d 08 eb b9 3d
       0.035312418 0.09078032

conv1.0.bias f4 [6]
000000 e4 c0 0f 3d c0 e8 39 be 88 83 1d bd 48 fa eb 3d
       0.035096064 -0.18155193 -0.038455516 0.11522347
000010 f4 28 cf 3d 68 04 9f 3d
       0.10115233 0.07764512

conv1.1.weight f4 [6]
000000 5c 30 77 3f 4d f2 6f 3f 3f 05 7a 3f 84 7b 6e 3f
       0.96558166 0.93729097 0.97664255 0.9315722
000010 a2 0b 75 3f 58 cf 74 3f
       0.95720875 0.9562888

conv1.1.bias f4 [6]
000000 da e1 9a bc 86 fa bf 3c 8b 1a f8 3b bd 00 43 bd
       -0.018906523 0.023434889 0.0075715235 -0.047608126
000010 2d 6f 98 3c 12 03 62 bc
       0.0186077 -0.013794677

conv1.1.running_mean f4 [6]
000000 5b 95 a7 3c 06 4e 22 be f1 49 10 3a 36 70 04 3e
       0.02045696 -0.15850076 0.0005504182 0.1293343
000010 77 48 e4 3d be 93 93 3d
       0.11146634 0.07205914

conv1.1.running_var f4 [6]
000000 82 c5 14 3f ef e3 27 3f 15 f4 2b 3f 66 0d 43 3e
       0.58113873 0.65582174 0.67169315 0.1904808
000010 a0 18 9b 3e cd a9 92 3e
       0.30292225 0.28645173

conv2.0.weight f4 [6, 6, 3, 3]
000000 77 be 8c bd 57 d5 08 be 05 49 93 3c c3 ba 29 bd
       -0.06872266 -0.13362633 0.017979154 -0.041437875
000010 58 3b 74 bd bd a6 17 3c 35 3f 39 bd 8f 21 6b bd
       -0.059626907 0.009256062 -0.045226295 -0.05740505
000020 8a 97 e5 bc 17 8f d2 3d 8f d8 55 3d cf 62 ab bc
       -0.028026361 0.102811985 0.05220848 -0.020921139
000030 9c 2d 53 bc a8 ff d7 bd 44 f7 a0 bd 44 1d d9 3d
       -0.012889292 -0.105468094 -0.07859662 0.10601285
000040 f4 7e 05 be eb 30 e1 bd 9d a7 11 3b 82 8f b1 3d
       -0.1303671 -0.109956585 0.002222515 0.0866995
000050 2a e2 bb 3d 50 50 5d 3d d0 2c de bc ee 5a b1 bd
       0.09173997 0.05403167 -0.027120978 -0.086599216
000060 e3 48 a7 3d 8b 7a 30 3e 61 d3 07 be c0 3a d3 3d
       0.08168199 0.17234246 -0.13264228 0.1031394
000070 fd c1 d0 bc 7f e3 b0 3d 7c a7 f9 3d 58 65 3f bd
       -0.025483126 0.086371414 0.12190148 -0.04672751
000080 ec b2 e2 3c bd cf 0e 3d f5 d4 fe 3d dd 2a 5b bd
       0.027673207 0.034866083 0.12442962 -0.053507674
000090 c4 e2 63 bd 8d 24 11 3e ca c6 32 3e 58 55 9d 3c
       -0.055636182 0.141741 0.17458645 0.019205734
0000a0 42 a4 9f bd 9f d1 ef 3c 32 5e 1d bd 97 37 9f bd
       -0.077950016 0.02927476 -0.03841991 -0.07774275
0000b0 e4 ad 3b bd 7d b0 26 bc 45 67 19 bd 1a 41 11 3e
       -0.045820132 -0.010173914 -0.037452 0.1418499
0000c0 07 23 85 3c 7e c1 70 3b f8 10 35 3d d7 f2 8f bd
       0.016252054 0.0036736424 0.044205636 -0.0702874
0000d0 06 ce 08 3d ac e3 86 bd 44 04 63 3d 38 07 ed bd
       0.033399604 -0.06586394 0.05542399 -0.115736425
0000e0 b5 b5 87 3d 73 95 f0 3c 0e 99 e6 bd 19 aa e0 3c
       0.06626455 0.029368138 -0.112596616 0.027424859
0000f0 4b fe c3 bd 21 36 f2 bd d5 1d 4c bd d2 6c 15 3b
       -0.09569987 -0.118267305 -0.049833138 0.0022800458
000100 0e 73 03 be c0 99 85 bd 7f de 24 3e 93 cb d5 3c
       -0.12836859 -0.06523466 0.161005 0.026098048
000110 13 2a 0d 3e 70 86 b2 bd 4f be 31 3c 8f 80 c2 bb
       0.13785581 -0.08717048 0.010848596 -0.0059357355
000120 3f da 61 3d e4 00 b6 3d 55 b0 03 bd c5 48 44 bd
       0.055139776 0.088868886 -0.032150585 -0.04792096
000130 9d 84 bb bc 22 3d 1c bd 63 f8 1c 3d 40 cf 09 be
       -0.022890383 -0.03814424 0.038322818 -0.13457966
000140 f4 74 8d bc 6a 90 8a 3c f6 ec 44 bd d7 5c 96 3d
       -0.017267682 0.016914565 -0.048077546 0.073419265
000150 af 61 06 3d 0b 8f 8c 3b 46 05 0f 3e 3f 67 18 3d
       0.032808002 0.004289513 0.13966855 0.03720784
000160 e4 bb b8 bc bf ba 65 3d 36 5a fd 3c 98 93 18 3e
       -0.02255053 0.056086298 0.030926805 0.14900053
000170 46 ad 11 3e 61 26 ea bd 52 59 c9 bd 0c 73 8f bd
       0.14226255 -0.114331014 -0.098314896 -0.07004365
000180 0f 46 9b 3c 1e 4f 96 bd 79 a4 0e bc 9d fe d6 bc
       0.018954305 -0.07339309 -0.0087062055 -0.026244456
000190 a8 a6 a6 bd e7 e0 17 bd d9 a2 74 3d 1c 44 2a 3e
       -0.08137256 -0.037079718 0.059725616 0.16627544
0001a0 b0 36 5d 3e a8 49 14 be 78 50 53 bc b9 34 14 3d
       0.21602893 -0.14481223 -0.012897603 0.036183093
0001b0 e5 c8 d4 bd 69 6f 4f 3c a0 6d cc bd 21 d5 4a bd
       -0.1038988 0.01266084 -0.09981847 -0.04951966
0001c0 b3 e9 e0 bb 2c bc d1 bd 07 ce cb 3c f6 77 e2 3d
       -0.0068637966 -0.10240969 0.024878515 0.11058037
0001d0 88 6a ac bc 27 e9 ef bd 11 ba 0c bd 97 5d 21 3d
       -0.021046892 -0.11714392 -0.034357134 0.039395895
0001e0 88 76 ad bd ec de 08 3d 5c f5 e7 bd 69 53 fb 3a
       -0.08469874 0.03341572 -0.113260955 0.0019174638
0001f0 92 a9 27 3e 02 11 5d 3c f5 f0 ee bd 97 63 32 bc
       0.1637328 0.0134928245 -0.11667053 -0.010888002
000200 0e fd 32 bb ad 5a 8a bc df b8 71 3d 50 13 3d bc
       -0.0027311477 -0.01688894 0.059014197 -0.011540249
000210 53 85 d2 3d c9 9e 03 3e 56 f0 5d bc 17 2a 9b 3d
       0.10279336 0.1285354 -0.01354607 0.075763874
000220 52 36 18 3d 28 26 3e bc 2e 30 59 bd 64 63 9e 3c
       0.03716118 -0.011605777 -0.053024463 0.019334503
000230 8e 49 17 bd ed ab 03 3d 75 a9 8c 3c 66 fb 91 3d
       -0.03693538 0.032146383 0.017170647 0.071280286
000240 ad 09 0d bd d5 88 1d 3e bf 52 f2 3d 4b 40 d3 3d
       -0.034433056 0.15384229 0.11832189 0.10314997
000250 79 53 ed 3d 1c f5 76 3c ed 2c 57 3c 6b 27 8a bd
       0.11588187 0.015073087 0.01313327 -0.067458
000260 f4 a7 0b 3e 62 92 a0 bb 22 b7 c0 bd a8 a0 f4 3d
       0.13638288 -0.0049002627 -0.0940993 0.11944705
000270 5b e5 c9 bd 66 9f 56 3d f3 03 95 3d 27 5f 21 bd
       -0.09858199 0.052398108 0.07276144 -0.039397385
000280 81 30 e7 3d b9 26 f4 3d 4c 15 cb bb 07 f3 00 3e
       0.11288548 0.11921448 -0.006197607 0.12592708
000290 05 78 fc 3c b2 52 ee 3d 92 c6 a0 3d 63 a3 93 bc
       0.030818949 0.11636867 0.07850374 -0.018022245
0002a0 51 55 2c 3d ae 60 8f 3a b8 2e ae bb 65 ce 93 3c
       0.04207355 0.0010938847 -0.005315628 0.018042753
0002b0 b4 c5 7d bb fb 1d 5b bd dc 4f c4 3c 64 26 a9 bc
       -0.0038722577 -0.05349539 0.023963861 -0.020648189
0002c0 a2 9e 3d 3d a4 f3 05 3d b2 14 06 bd 9d 57 57 3c
       0.046293862 0.032703057 -0.03273458 0.013143447
0002d0 a2 75 0c be 5c 34 c4 bd 54 85 f9 bd 3c 52 cd 3d
       -0.13716748 -0.09580299 -0.121836334 0.100254506
0002e0 c1 f1 6a 3d 38 4c 0e 3d cf 19 af 3d 7d 6f 16 bc
       0.05735946 0.034740657 0.085498445 -0.009181854
0002f0 97 0c d3 3d 1f 2d a6 3c a5 db 06 3e 07 c8 e2 3d
       0.10305136 0.020285187 0.13169725 0.110733084
000300 1a 57 68 bd c6 b5 68 3d 84 bf 19 3e 9e 2b 57 3c
       -0.05672369 0.056813978 0.15014464 0.013132958
000310 ac 85 55 3d 8d f7 7b bd e9 1d bb bd cd 56 43 be
       0.052129433 -0.06151538 -0.09136564 -0.1907608
000320 93 3a 54 be 3b ba 9c 3d 14 27 9e 3c 75 22 d0 bd
       -0.2072547 0.07652708 0.019305743 -0.10162822
000330 27 2a 44 3e 51 8f 10 3d ca 2a 9b bd 51 0a b2 bc
       0.19156705 0.035292927 -0.07576521 -0.021733435
000340 3a 6f a4 bb 46 73 26 bd a9 73 54 3d 26 09 79 bd
       -0.005018142 -0.040637277 0.051868115 -0.06079974
000350 af 74 a2 bd 49 1e 3b 3d 1a 06 f1 3d bb d6 be 3d
       -0.07932412 0.04568318 0.11768742 0.093183
000360 61 2b 84 3d 30 49 11 3e ae 9b 3d 3d 03 3b dc 3c
       0.06453586 0.14188075 0.046291046 0.026883608
000370 09 52 8f bc 44 3f 46 3d 3a cb d0 bd f7 58 2d 3c
       -0.017495172 0.04840018 -0.101950124 0.010580293
000380 17 3f c4 3d 75 eb 70 3d 4f b5 85 bc 28 c6 bc bd
       0.09582346 0.0588183 -0.016321806 -0.09217483
000390 4c 17 0e be b1 b4 af 3c bc 9e 0a be 32 33 96 3c
       -0.13876075 0.021448465 -0.13537115 0.018334959
0003a0 73 80 9b bd 84 cc e8 bc ee 72 56 bb d1 13 5e bd
       -0.07592859 -0.028417833 -0.0032722312 -0.054218117
0003b0 77 ab 50 bd 85 88 53 3d 45 4b 19 be 26 fa f2 bd
       -0.05094477 0.051643867 -0.1497012 -0.11864118
0003c0 14 97 ca bd e4 c3 17 3c a8 d2 1b be b5 54 1d 3d
       -0.09892097 0.009263013 -0.15217078 0.03841086
0003d0 e4 29 b0 3d 16 d9 c7 3c 36 c1 5b bd 73 a7 a8 3d
       0.0860174 0.024395507 -0.053651057 0.082350634
0003e0 bb 27 19 3e 36 f3 19 be d1 93 52 bc b0 78 15 3c
       0.14956562 -0.15034184 -0.012852625 0.009123012
0003f0 d0 64 05 3d b9 56 9e 3c 83 15 6b bd df 5b 51 bc
       0.032566845 0.019328462 -0.057393562 -0.012778251

conv2.0.bias f4 [6]
000000 fe 9b e4 3d 14 59 a5 3d 42 ef 70 3d 12 51 c9 bc
       0.11162566 0.08073631 0.058821924 -0.02457479
000010 16 01 aa bd af 0b b9 3d
       -0.083009884 0.090354316

conv2.1.weight f4 [6]
000000 9f 9f 73 3f 87 04 67 3f 13 5d 67 3f ec 8e 76 3f
       0.9516544 0.90241283 0.90376395 0.9631183
000010 01 a2 83 3f 52 5e 76 3f
       1.0283815 0.9623767

conv2.1.bias f4 [6]
000000 14 b8 56 3d 05 79 3b bc ca 0a 81 bc 48 b1 fa 3d
       0.052421644 -0.0114424275 -0.015752215 0.12240845
000010 6d 6a 10 3d a5 3e 18 bd
       0.035257746 -0.037169117

conv2.1.running_mean f4 [6]
000000 6d 81 37 3e bb b3 e6 3d 55 59 dc 3e 40 76 4b 3e
       0.17920466 0.112647496 0.43036905 0.19869328
000010 07 95 97 be e6 f7 23 be
       -0.29605886 -0.16012534

conv2.1.running_var f4 [6]
000000 8e e6 df 3e 52 d7 b5 3e c9 ad ed 3e 31 27 e5 3e
       0.43730587 0.3551584 0.4642165 0.44756463
000010 0b ef e1 3e f6 3c e2 3e
       0.44127688 0.44187135

conv3.0.weight f4 [6, 6, 3, 3]
000000 9f 06 2e 3d 84 87 3c 3d 22 96 9d bd 3f a8 1e be
       0.042486783 0.046027675 -0.07694651 -0.15493868
000010 b9 cf cc bd b3 c4 dc 3c d5 80 da bc 8d 99 dc bd
       -0.100005575 0.026949262 -0.02667276 -0.10771475
000020 62 46 fb 3c a2 78 81 3d ef f5 a1 bd 90 8f b9 3d
       0.03067321 0.06321837 -0.07908236 0.090605855
000030 8f 18 9a bc 18 f7 b7 3b 37 64 95 bc d6 cf ef 3d
       -0.018810539 0.0056141727 -0.018236263 0.117095634
000040 0b 34 d2 bb 49 7e 2c 3d 69 bc ab 3d 53 1e b7 3d
       -0.0064148954 0.042112622 0.08385546 0.08941331
000050 9a 60 a2 3d 18 82 c6 3d b3 00 81 bd 43 55 f3 3c
       0.079285815 0.09692782 -0.062989615 0.029703742
000060 a6 74 ac bd a4 7d 85 bc f7 17 0a be 6f 23 14 be
       -0.084206864 -0.016295262 -0.13485704 -0.14466642
000070 19 2a 11 bd 82 55 59 be fa 78 b2 bb f1 4f 8d 3d
       -0.035440538 -0.21224025 -0.0054465504 0.06900013
000080 fe 5f f0 bc 4e 8e b4 3d d2 fc 1f 3e 95 20 2b 3e
       -0.029342648 0.08816205 0.15623787 0.16711648
000090 1c 17 10 bc de b1 22 bd 22 b2 8f 3d de a2 c2 3d
       -0.008794572 -0.03972041 0.07016398 0.09503721
0000a0 3a b5 44 bd 5a e6 86 bd 3d f6 45 bd 0e 03 c6 3d
       -0.048024394 -0.06586905 -0.048330534 0.096685514
0000b0 1a e4 4b bd 35 ff ca bd a0 a0 2f 3d 56 e0 88 3d
       -0.04977808 -0.09911958 0.042877793 0.06683414
0000c0 a9 5c 15 be 86 4c 34 be b3 e3 25 be 61 53 0f bd
       -0.14586128 -0.17607316 -0.16200142 -0.034991626
0000d0 c3 84 92 3b 32 27 2c 3d 0c 0c b3 3d c6 7f fd 3d
       0.004471393 0.042029567 0.08742532 0.123778865
0000e0 39 97 1f 3e af b3 3b 3b c0 46 f2 bb 0f 74 1d 3e
       0.1558503 0.0028641035 -0.007393688 0.15376304
0000f0 9e 63 5c bd b6 55 04 bd ba f6 9a 3d 15 80 24 3d
       -0.05380594 -0.032308303 0.075665906 0.04016121
000100 89 02 69 bc 41 61 35 3d de 69 a2 3d fa f6 8c 3d
       -0.014221796 0.0442822 0.07930349 0.068830445
000110 33 ab 76 3d 40 21 9c bb 9a d3 36 3d 9f f4 48 3d
       0.060221862 -0.004764706 0.044635393 0.049061414
000120 9b a4 8c 3d a6 43 e7 3d 1f fe ac 3d 95 f7 04 3c
       0.068673335 0.112922 0.08446907 0.008115669
000130 8e 28 07 3e f0 a7 d3 3b 57 74 f9 bc b8 a9 d0 bd
       0.13199064 0.0064592287 -0.030450983 -0.10188621
000140 c9 77 2e be f3 b8 cc bc d2 4d 29 3d 7b a2 a0 3c
       -0.17037882 -0.024990534 0.04133398 0.019608727
000150 9c 23 ad bd dc ec 40 bd 2e b4 c7 3b 5f 2a ed bd
       -0.084540576 -0.047100887 0.006094477 -0.11580347
000160 2f 4a c9 3d 21 16 1f 3e 0d 3b b4 bc 8a f8 3f 3b
       0.098286025 0.15535785 -0.022000814 0.0029292428
000170 f8 3a 10 3d 28 67 58 bd e5 88 d0 3d b3 0d d6 3c
       0.035212487 -0.052832752 0.101823606 0.02612958
000180 74 d3 a1 3d 8e 01 d4 3d 81 d1 44 bd 3d d6 d2 bc
       0.079016596 0.10351859 -0.04805136 -0.025736922
000190 ee 0e 76 bd 18 b0 0d be 36 ff 73 3d 38 fb 22 be
       -0.06007283 -0.13836706 0.05956956 -0.15916145
0001a0 9e 33 a2 bd d8 53 e0 3c 8b b4 63 3c 85 3a 83 bc
       -0.079200014 0.02738373 0.013898025 -0.016019115
0001b0 36 55 3d 3c 51 f2 5b bd a2 55 b2 bd 80 c5 e7 3d
       0.01155596 -0.053697888 -0.087077394 0.11316967
0001c0 a0 38 21 3d 9a 15 12 be 23 8e c6 bd 74 e0 25 3d
       0.039360642 -0.14266053 -0.09695079 0.04049726
0001d0 57 f8 7b bd c1 7c bb ba 3e d7 af 3d b5 02 46 bb
       -0.061516132 -0.0014304147 0.08585976 -0.0030214016
0001e0 0a 0d 8f bd 8e 70 4b 3d 47 d8 23 bd 5e 54 06 be
       -0.06984909 0.049667887 -0.04000118 -0.13118121
0001f0 c7 91 11 3d 5b e4 d9 3c 67 07 aa 3d 27 b1 14 3e
       0.035539415 0.026598146 0.08302193 0.14520703
000200 a7 b5 67 bd b8 d6 80 bc 05 89 d6 3d 97 56 81 bd
       -0.05656972 -0.015727386 0.10475353 -0.06315344
000210 78 b4 d9 bc d0 9a bc bd ed 2e cd bc 0f 63 36 bd
       -0.026575312 -0.09209216 -0.02504679 -0.044528063
000220 69 d1 ff bd eb 5b c8 bd d0 47 14 bc 19 88 a3 bd
       -0.12491114 -0.09783157 -0.009050325 -0.07984943
000230 3a 8f 6f 3d cc 6a 27 3d f6 00 17 bd 74 d5 28 be
       0.0584862 0.040873334 -0.03686615 -0.16487676
000240 b6 d6 7c 3d a6 a2 22 3e 87 cb 9f 3d cf 30 f3 bc
       0.0617282 0.15882358 0.07802492 -0.02968636
000250 3f 78 89 bd 4a 6c f2 bd 4e ca 38 bb 3e 8c 9c bd
       -0.06712388 -0.11837061 -0.0028196755 -0.076439366
000260 3a 2b c8 bd e6 61 6c bc 73 32 b0 3c ce d1 2b bd
       -0.0977387 -0.014427638 0.021508431 -0.041948132
000270 f5 59 08 bc 45 25 e2 bb 06 97 9e bd 65 a8 a2 bd
       -0.008322229 -0.0069014155 -0.07743649 -0.07942275
000280 1a 81 49 bc 5a c2 9c bd a6 95 bf 3d 33 e3 07 3e
       -0.012298847 -0.07654257 0.09354715 0.13270263
000290 78 4c ef bd 0e 9f bd bc 4e 83 3b 3d fb 19 0c 3e
       -0.11684507 -0.023147132 0.04577952 0.13681786
0002a0 ec f9 b0 bd a1 23 62 3d c6 09 1b 3e 3b 00 58 bc
       -0.08641419 0.05520976 0.15140447 -0.013183649
0002b0 37 c3 24 3e 6a 78 dd 3c 73 45 a0 bd 46 3c 64 bd
       0.16090094 0.027034957 -0.078257464 -0.055721544
0002c0 a9 76 54 bd 15 18 2a 3d 28 cc 0f be a8 5a 05 3d
       -0.051870976 0.041526873 -0.14042723 0.03255716
0002d0 2b ce fd bd b9 45 00 3e a1 3a 4e 3c 95 ea ed bd
       -0.12392839 0.12526597 0.01258722 -0.116170086
0002e0 97 2f d6 bb d9 03 98 bd 12 b9 4a bd 7e 53 f2 bc
       -0.006536435 -0.07422609 -0.049492903 -0.029580828
0002f0 9f dc d4 3d 88 f8 4e bd d1 3a 99 bd 64 9e da bd
       0.10393643 -0.050529987 -0.074819215 -0.10674742
000300 01 e3 ee bc ec a9 82 bc 67 9d a3 3b ed ac 9f bd
       -0.029160978 -0.015950166 0.004993129 -0.07796655
000310 5c cb 85 bd 81 87 8c 3d 48 00 06 3d 33 b1 33 3e
       -0.06532928 0.06861783 0.032715112 0.17548065
000320 bb 07 3c 3e 2e e8 f3 bd ea 87 a0 bd e4 66 15 bd
       0.18362324 -0.11909519 -0.078384236 -0.036475077
000330 7e 60 d3 3c 13 1b d1 bc 1a 8a 89 3c 62 c6 5a 3d
       0.025802847 -0.025525605 0.016789485 0.05341185
000340 25 44 c4 3d f2 05 64 3d fa 35 05 3e 65 3f 70 3c
       0.0958331 0.055669732 0.13008872 0.014663552
000350 0d bc 7a 3d e5 7d db b9 3b 5f bb 3d 52 b7 7b bd
       0.061214495 -0.00041864734 0.09149023 -0.061454125
000360 f6 47 b5 bd b4 98 d9 bd 37 bb 58 3c 03 f8 8f bd
       -0.08851616 -0.10624829 0.013228229 -0.07029726
000370 3d 1e fb bc 42 23 a6 bd 09 8a 77 3d c0 f9 4c bd
       -0.030654067 -0.08112194 0.060434375 -0.050042868
000380 f9 a7 14 bb 85 2c 88 bc 2b c2 72 3b 9c b5 c1 bd
       -0.0022683127 -0.016622791 0.0037042003 -0.09458467
000390 05 eb ec 3a 6f ff 40 3d 5a 00 4f 3e 5a b2 6f 3d
       0.0018075412 0.0471186 0.20214978 0.0585197
0003a0 e0 7b 8f 3d 7d e6 86 3d 74 83 0f bd cf 46 05 bd
       0.07006049 0.06586931 -0.035037473 -0.03253823
0003b0 08 9d b4 3d 53 69 3d 3d 3b a0 d6 bd 3d d1 ca 3d
       0.08819014 0.046243023 -0.1047978 0.0990319
0003c0 ff 48 8a 3d d3 aa 84 bd 92 e4 31 bd 1a d6 ef bd
       0.06752204 -0.06477895 -0.043430872 -0.117107585
0003d0 75 eb b4 bd 9b d5 cd bd 33 a0 d8 bd 8d dc 92 bd
       -0.08833972 -0.10050508 -0.105774306 -0.07170973
0003e0 53 8b b1 bd 30 77 43 bd 2a df 0f 3d ce 31 2f 3d
       -0.08669152 -0.047721088 0.035124935 0.042772107
0003f0 a4 93 6a be c7 3a 38 be f6 40 68 bd 7c 33 eb bd
       -0.22907883 -0.17991172 -0.056702577 -0.11484429

conv3.0.bias f4 [6]
000000 37 e1 c2 3d 82 f7 3d 3d 27 1c 3b b9 08 f6 f4 3d
       0.095156126 0.04637862 -0.00017844197 0.11960989
000010 3b c3 df bd 73 30 39 bd
       -0.10925909 -0.04521222

conv3.1.weight f4 [6]
000000 49 40 7b 3f 1a a1 61 3f 14 d7 7e 3f dc 40 71 3f
       0.98144966 0.88136446 0.99546933 0.9423959
000010 c8 ca 78 3f a0 e0 72 3f
       0.9718442 0.94874

conv3.1.bias f4 [6]
000000 21 4d e2 3c b5 7d e2 ba 3b 63 2b 3d b0 68 bd 3c
       0.027624669 -0.0017279895 0.04184268 0.023121208
000010 0a 4a 12 bd 17 19 b4 bc
       -0.03571514 -0.02198462

conv3.1.running_mean f4 [6]
000000 a1 e4 62 bd 5c 03 b7 3e e4 bd bc be e9 33 6e 3e
       -0.05539382 0.3574475 -0.36863625 0.2326199
000010 97 a9 2e bf 69 29 b1 3d
       -0.68227524 0.086504765

conv3.1.running_var f4 [6]
000000 8a 36 6b 3e 69 ca 66 3e 0c e4 2c 3e ac ba 28 3e
       0.22970024 0.22538151 0.16883868 0.1647746
000010 8f 14 17 3e f6 e9 8e 3e
       0.14753936 0.27912873

conv4.0.weight f4 [16, 6, 5, 5]
000000 51 1b 17 bd 0c 0b 62 3d 64 62 ca 3c 96 f1 27 3c
       -0.036891285 0.055186316 0.02470512 0.01025047
000010 f6 d3 54 bd 22 c0 a2 3d ff 95 9b 3d ad 80 34 bc
       -0.051959954 0.07946803 0.07596969 -0.011017007
000020 d7 d7 b4 bd dc f1 d2 bb e9 bf f6 bc 52 80 18 3c
       -0.08830231 -0.0064375233 -0.030120807 0.009307938
000030 9a 39 aa bd e4 40 b5 bb cb fe 11 3d bc 65 a3 bc
       -0.08311768 -0.005531417 0.03564338 -0.019945972
000040 a9 f4 59 3d e2 a2 8c 3d 7d f6 26 3d 24 e4 47 bd
       0.05321184 0.06867005 0.040762413 -0.048801556
000050 8c 1d 80 bd 07 de b6 3c a0 e7 65 bd 4f 32 5a ba
       -0.062556356 0.022322668 -0.056129098 -0.00083235366
000060 1f 39 5a bd 94 40 e4 3b e3 d7 4d 3c 45 4b 09 bd
       -0.05327713 0.006965706 0.012563678 -0.03351905
000070 74 4e f6 3c 9b 6d c7 bc 4e 3f 90 3d 16 c8 bd 3c
       0.030066706 -0.024344256 0.070433244 0.023166697
000080 54 61 37 3a 9f f2 7e bd 17 cc 68 bd 14 4c a6 3c
       0.0006995399 -0.0622431 -0.05683526 0.020299949
000090 e1 3c 08 bd e2 a2 2a 3c 6d b0 9f bb 8f d7 1b 3d
       -0.033261184 0.010414811 -0.0048733265 0.03804737
0000a0 1f 9b 26 bd 23 8d a2 3c a9 32 40 3c 1d 61 72 3d
       -0.04067528 0.01984269 0.011730828 0.059174646
0000b0 b3 5d 2b 3d 8b 00 48 3d 30 a1 c7 3d 77 dd 34 3d
       0.041837405 0.048828643 0.09747541 0.044156518
0000c0 ee cd 39 3d e6 5c 26 bd 57 0a 50 3c 29 67 2b 3d
       0.045362405 -0.04061594 0.012697778 0.041846428
0000d0 ce da 96 3b 83 90 66 3d 5b c6 bc bc 37 0d 46 3d
       0.0046037203 0.05629016 -0.023043802 0.048352446
0000e0 c4 fd 9a 3d 2c 64 b9 bd c5 4e c8 bd 29 30 26 3d
       0.07567933 -0.090523094 -0.09780649 0.040573273
0000f0 7b 54 10 3c 04 81 fb bc 22 d9 50 3d 2e 3c 87 3d
       0.008809204 -0.030701168 0.050988324 0.06603275
000100 51 bf 0a ba fb 9a 43 3d 78 4a 82 3d 04 7b 89 bd
       -0.00052927906 0.047755223 0.0636186 -0.067129165
000110 14 68 9e 3d f5 b4 52 bc 24 31 a8 bd 2a 28 2b bd
       0.07734695 -0.012860526 -0.08212498 -0.04178635
000120 3c 0a 6e 3d 86 2d 0f bd 4b cd 55 bc 44 f2 af bd
       0.05811523 -0.034955524 -0.013049434 -0.085911304
000130 38 47 aa bc d0 1c 1f 3d 6e 31 5c 3c 98 4b 4c 3d
       -0.020785913 0.038845837 0.013439519 0.04987678
000140 e6 3f 01 3d d9 81 3b 3c 04 70 ae bc 53 9a ec bc
       0.03155508 0.011444532 -0.021293648 -0.028882181
000150 e7 16 06 bd 14 0a 99 3d 75 86 d0 bc 64 d4 d7 bc
       -0.032736685 0.074726254 -0.02545474 -0.026346393
000160 35 15 a2 3c ea c3 69 bd 18 ef 1f bd 4c f6 5a bc
       0.019785503 -0.057071604 -0.039046377 -0.013364386
000170 be ec 29 bd eb 27 39 bd e7 61 ef bc e9 c5 d3 bc
       -0.04148554 -0.045204084 -0.029221488 -0.025851207
000180 e7 18 56 b9 b0 bd e9 bc b1 9b 59 3d 16 37 af bd
       -0.00020417907 -0.028532833 0.053126995 -0.08555429
000190 9f ff 91 3d 80 26 32 bb 80 6c d4 b8 f3 21 98 bd
       0.07128834 -0.0027183592 -0.000101291575 -0.0742835
0001a0 31 83 51 bd 34 be 6d bd b6 8f c4 bc 27 4e 74 3c
       -0.051150504 -0.05804272 -0.023994308 0.014911211
0001b0 f9 8e f6 3c 4e 0e 9b 3c db 47 29 bd 01 02 18 bc
       0.030097472 0.01892772 -0.041328292 -0.0092778215
0001c0 d4 5b cb bb a6 2f 9e 39 84 ff d2 bd 40 2c 9f bc
       -0.006206015 0.0003017161 -0.10302642 -0.01943028
0001d0 f5 9e 28 3d 5a f9 91 bb cd 9e 80 3c ec ab 6f bd
       0.04116722 -0.004454774 0.015700722 -0.058513567
0001e0 44 68 98 3c 7f 9a 97 3d 48 ca 6b 3d d4 8d 05 bd
       0.018604405 0.07402515 0.057565957 -0.03260596
0001f0 94 b0 3d bd 42 fb e7 bc 3f 1a 40 bd 6e a7 52 3d
       -0.046310976 -0.028318051 -0.04690003 0.051429205
000200 ef 3d c2 3d d5 ac 83 3d 25 98 c5 bb d3 d9 cc 3b
       0.09484469 0.064294495 -0.0060301 0.0062515526
000210 a0 a0 1b 3d 26 a8 16 3d dc ea 73 3d a0 f2 dd 3b
       0.03799498 0.036781453 0.05955015 0.006773308
000220 a9 87 6c 3d 08 6a c0 3d 93 d2 cd bb cb d4 69 3c
       0.057746563 0.09395224 -0.006281206 0.014271925
000230 c8 8e a2 bc a7 39 f4 bc 46 01 09 be 6e 5d 4b bd
       -0.019843474 -0.029812647 -0.13379392 -0.04964965
000240 95 e9 e0 bc f5 fe 01 bd cd 15 4c bc d4 3f 1c bd
       -0.02745513 -0.031737287 -0.01245637 -0.03814681
000250 fc c4 86 bd a9 21 25 bb 29 86 24 bd d3 2c 96 bd
       -0.065805405 -0.0025197065 -0.040167008 -0.07332768
000260 44 be ba 3c 6b e8 97 3d 98 11 6d 3c 23 40 c0 bc
       0.022795804 0.07417377 0.014469527 -0.023468083
000270 28 04 3c bc d7 3e ed 3c 30 0d 36 3d 60 10 0b 3c
       -0.0114756 0.028960628 0.04444617 0.008487791
000280 79 f1 82 3d 65 60 84 3d 95 43 96 3d bc b2 d4 3c
       0.063937135 0.06463698 0.07337109 0.025964133
000290 91 99 08 bd ea 0e 86 3d 31 8a 5a 3d ae 72 90 bd
       -0.033349577 0.065458134 0.053354446 -0.070531234
0002a0 51 9f 45 bd 27 48 9b 3c 51 ec bd bc 30 fe 7a 3d
       -0.04824764 0.018955303 -0.023183974 0.06127757
0002b0 7d 62 03 3d c9 aa 78 bd d1 f3 82 3c 38 bb 9e bc
       0.032076348 -0.06070975 0.015985401 -0.019376382
0002c0 c2 98 10 3c 8a 38 d6 3b be 66 ad 3d 0e bc 9a 3d
       0.008825483 0.0065375017 0.08466862 0.075554
0002d0 8a a4 e5 3c 36 e7 65 3d bb df 1a 3c dc c2 c5 3c
       0.02803256 0.056128703 0.009452756 0.024140768
0002e0 c2 a4 5d bd 27 75 b2 3c 18 0f be 3d a4 34 9b bc
       -0.054112203 0.021784378 0.09280223 -0.018946
0002f0 01 c9 25 bc b9 89 4e bc f0 17 a7 3b 2f 25 92 3c
       -0.010118724 -0.012606078 0.005099289 0.017839996
000300 ef 80 6a bc c2 a6 e3 3c 42 f0 2d bc 2d 26 09 3d
       -0.014312967 0.027789477 -0.010616364 0.033483673
000310 03 6d 53 bc a4 25 7e bc cb 10 3f bc 62 a4 3e bd
       -0.012904408 -0.015511904 -0.011661719 -0.046543486
000320 3b 43 06 3d 1e e5 71 bc 04 17 c1 bc 61 fd 4e bc
       0.03277896 -0.014764098 -0.023570545 -0.012633652
000330 14 b1 33 ba 82 de 06 3e 3b e3 0b bd fc f1 3a bd
       -0.0006854695 0.13170817 -0.03415225 -0.04564093
000340 d9 ef dd 3c c3 87 f3 3c a9 53 f3 3c 5d 5d a8 bb
       0.027091907 0.029727822 0.029702978 -0.005138083
000350 c1 20 ce 3c 54 28 9a 3d 2c 99 e6 3d 9b 68 77 bd
       0.025162103 0.07527223 0.11259684 -0.060402494
000360 8c 55 02 bd 70 f3 0a bc 74 36 bf 3b f3 94 bb 3d
       -0.031819865 -0.008480892 0.0058353487 0.09159269
000370 87 2d 22 3c 22 6a 38 3d d7 05 3b 3d 39 7a 73 bd
       0.00989855 0.04502309 0.045659866 -0.059442732
000380 9e 72 1f 3d 9c 53 29 3c 21 60 c7 3c 58 22 8a 3d
       0.038927667 0.010334875 0.02433783 0.06744832
000390 03 6d d8 bc e9 55 8f 3c 8b 3c 87 3c 52 20 77 bd
       -0.026419168 0.01749702 0.016508361 -0.060333557
0003a0 cd 69 88 3d 48 89 d1 3d ea f6 07 bd 66 b6 f5 3c
       0.06660805 0.102312624 -0.03319446 0.0299942
0003b0 57 53 1c bd d2 4b 72 bb 17 58 47 3d 9a 03 8b 3d
       -0.038165417 -0.0036971462 0.048667993 0.06787796
0003c0 6d b0 77 3c ea 6a 94 bc f8 2c ac bc 94 bc 25 3c
       0.015117747 -0.018117387 -0.021017537 0.010115761
0003d0 a3 c2 95 3d 57 38 58 bd 2c a8 8e 3d 6e 7c 0b 3d
       0.07312515 -0.052788105 0.0696567 0.034054212
0003e0 43 2f 91 bb 97 46 10 bd 2b 3c a1 bd 93 ad cb bc
       -0.004430683 -0.03522357 -0.07872804 -0.02486304
0003f0 fc 03 d0 3c 91 a2 c3 bc 9a 6a a4 bc e5 cc 4f bd
       0.025392525 -0.023881229 -0.020070363 -0.050732512

conv4.0.bias f4 [16]
000000 c0 cb af 3b 99 3e 86 3d 13 91 7d 3d ed 2d ee 3c
       0.005364865 0.06554908 0.06190593 0.029074633
000010 32 be 77 3d 64 73 33 bd a9 f3 ed 3c 2c 98 82 3d
       0.06048412 -0.043811217 0.02904685 0.06376681
000020 03 ed 8c bd cc 5b 1f 3d f7 07 36 3d 91 ff 75 3d
       -0.06881144 0.038905904 0.04444119 0.06005818
000030 95 15 97 3d 92 2c 8e 3d e5 f4 22 3d 43 96 03 3d
       0.07377163 0.06942095 0.03978433 0.032125723

conv4.1.weight f4 [16]
000000 f8 c6 9e 3f 0c 95 9e 3f 0e 80 9b 3f 73 11 9f 3f
       1.240447 1.2389235 1.2148454 1.24272
000010 bc 23 9b 3f ab e7 95 3f de ce 9f 3f 66 be 9e 3f
       1.212028 1.1711324 1.2485006 1.2401855
000020 c3 6a 97 3f fb c5 9f 3f f2 3e 99 3f 0d 22 9f 3f
       1.1829456 1.2482294 1.1972334 1.2432266
000030 77 d4 9a 3f 16 2a 97 3f c3 a1 97 3f d1 09 9c 3f
       1.2096089 1.1809719 1.1846241 1.2190496

conv4.1.bias f4 [16]
000000 8d a0 c4 3d 27 d2 5b 3d 46 08 a7 3d f9 87 b7 3d
       0.09600935 0.053667214 0.08155875 0.089614816
000010 9f 70 e3 3d 7b ce 86 3d cf 23 8c 3d 18 69 b3 3d
       0.11105465 0.06582352 0.068427674 0.087602794
000020 e5 6e 5e 3d 7c 3d de 3d 02 2b cd 3d 73 63 8f 3d
       0.054304976 0.10851571 0.10017969 0.0700139
000030 ee e9 b5 3d 03 e8 e0 3d 49 6b a3 3d 02 70 94 3d
       0.08882509 0.10981753 0.079794474 0.07247926

conv4.1.running_mean f4 [16]
000000 fa 37 cc 3c 2a 76 0d 3f 7d 4c 70 3d e0 9f e7 3d
       0.024929035 0.5525843 0.058666695 0.113097906
000010 7c e2 97 3e c7 e2 81 3e 16 3c 3f 3e e8 bb 70 3e
       0.2966498 0.2536833 0.18675265 0.2350918
000020 3c 6b 36 3e ca a6 4d 3e fb 77 a3 be a4 8f 0b bd
       0.17814344 0.20083156 -0.31927475 -0.034072533
000030 fe d5 11 3f 5b 8d a8 be 73 83 05 3c a8 47 40 be
       0.5696715 -0.32920346 0.008149016 -0.18777335

conv4.1.running_var f4 [16]
000000 f1 0b 0a 3e 67 ac d4 3d 71 7c 09 3e 68 f4 4b 3e
       0.13481118 0.10384446 0.13426377 0.19917452
000010 b5 0b 70 3e 42 c9 3f 3e 3e f1 0f 3e 01 6f 12 3e
       0.23441966 0.18729118 0.1405687 0.14300157
000020 e4 c3 03 3e b0 e9 45 3e 76 8e 98 3d 90 de 23 3e
       0.12867695 0.19327426 0.07449047 0.1600287
000030 da e5 9a 3d bc a8 e1 3d 19 ae 22 3e 9c 82 c4 3d
       0.07563372 0.11018512 0.15886725 0.09595224

fc1.0.weight f4 [120, 400]
000000 77 ec 34 3d f9 7e 46 bd b7 36 2e bd e8 c0 8a 3b
       0.044170823 -0.048460934 -0.04253265 0.004234422
000010 ec b8 13 3b 91 b5 1c 3d 40 e2 ab bb 47 46 95 bc
       0.0022540642 0.038259093 -0.005245477 -0.018221987
000020 fd 5a df bb 1f 71 a9 ba 06 63 4f bd 93 cc 2a 3d
       -0.0068162666 -0.001292739 -0.050631545 0.041699003
000030 b0 a3 ab 3c 22 6a 4a bc 4a 30 3e bd 26 0f 74 bc
       0.020952076 -0.012354406 -0.04643277 -0.01489619
000040 a3 6d 19 bd d8 f3 e1 bc d4 3f 0d 3d 96 5d 40 bc
       -0.037458073 -0.027582094 0.0344847 -0.011741063
000050 4a b9 75 3c 59 5b 32 3d 4b a2 2f bd 23 b4 7c bb
       0.01499779 0.043544147 -0.042879384 -0.0038559518
000060 7d 4f da bb 18 42 2f bd c8 e3 95 bc 74 04 a9 3c
       -0.006662308 -0.04278764 -0.018297091 0.020632006
000070 bb 64 e2 bc b9 28 49 bb d3 2a 2d bd a1 6c 63 bc
       -0.027635923 -0.0030694439 -0.04227717 -0.01388088
000080 35 5b b5 3c 83 2b d5 bc d1 b9 0c bd c5 8a f3 bc
       0.022138217 -0.026021725 -0.034356896 -0.029729256
000090 90 25 9f bc d1 ba 84 bc 69 48 27 3d b5 b5 86 bc
       -0.01942709 -0.016202362 0.04084054 -0.016444067
0000a0 e0 1a cb bb 3b 3c ac ba ee 0b 49 bd d5 13 37 3d
       -0.006198272 -0.0013140509 -0.049083643 0.044696648
0000b0 66 eb f9 3b f2 90 0d bd 0f 08 14 3d 39 3b dd 3c
       0.0076269386 -0.03456206 0.036140498 0.027005779
0000c0 61 56 55 bc c4 5a 0a 3d c1 b6 0e bd 71 f0 0b 3d
       -0.013021083 0.033777967 -0.034842256 0.03416485
0000d0 0e e1 69 bc e1 73 c2 3b b0 4f 2f bd 8e f1 27 3d
       -0.014274849 0.005934224 -0.042800605 0.04100185
0000e0 ac 56 9a 3c 5d f6 11 bd 26 74 d4 bc b5 78 ea 3c
       0.018840156 -0.03563534 -0.02593429 0.02862201
0000f0 89 dd 8d bb 30 9c 12 3d f3 3d 89 3c 83 d3 45 3d
       -0.0043293876 0.035793483 0.016753173 0.048297416
000100 15 9f 12 bc 63 e6 20 3b e5 04 40 bd 4f 5c 44 3d
       -0.008949061 0.0024551384 -0.046879668 0.047939595
000110 23 d3 1a 3d 4e 3a 4a 3d ea bc 10 3c 0b 4d c5 3c
       0.037799012 0.04937201 0.008834103 0.024084589
000120 62 85 b2 3c c2 0d 03 3d 21 c6 67 bc c2 e5 a7 bc
       0.021792118 0.031995542 -0.014146359 -0.0204953
000130 93 50 42 3d 41 58 08 bb 67 19 06 3d f7 66 e2 39
       0.047440123 -0.0020804557 0.03273907 0.00043182794
000140 f4 9a 13 3d 1b af 36 3d b5 8f b1 bc 2d cc 05 bd
       0.036036447 0.044600587 -0.02167497 -0.03266542
000150 68 73 14 3d 20 72 88 bb 70 46 c3 bc 09 ee 0e b7
       0.036242872 -0.0041639954 -0.023837298 -8.519281e-06
000160 15 a1 06 3d 35 e4 a5 bc 99 9d aa bb d9 a6 3f bb
       0.032868464 -0.02025042 -0.0052067754 -0.0029243736
000170 7e e7 32 bd b4 b4 be bc 18 bb 0a 3d 71 1a 87 b9
       -0.0436778 -0.023279525 0.033869833 -0.00025768907
000180 db 25 93 bc b9 e5 90 bc 64 81 27 bc 69 93 2c bd
       -0.017962387 -0.017687665 -0.01022372 -0.04213277
000190 ec e6 3e bc b8 8c ad 3c 0c a7 06 bd 09 79 87 3c
       -0.011651736 0.021185264 -0.032874152 0.016537206
0001a0 2e c1 3f bd 32 79 be 3b a8 2e 0d bd b8 76 04 bd
       -0.04681509 0.0058127875 -0.034468323 -0.03233978
0001b0 16 5f 3b 3c 8e 1b 32 3d cc 9f 09 3d e2 43 d5 bc
       0.0114362445 0.04348331 0.03359966 -0.026033346
0001c0 6e ea 4c 3b 69 46 30 3d d8 b8 b0 3c e1 14 67 3c
       0.003126766 0.0430359 0.021572515 0.014104099
0001d0 78 d5 50 3d 0c 66 2b 3c b3 d4 13 bd 12 c4 07 bd
       0.05098483 0.010461342 -0.036091518 -0.03314597
0001e0 ff 48 29 bc 88 9e f9 3c a8 9d e7 bc bc 12 b1 3c
       -0.010332345 0.030471101 -0.028273419 0.021615379
0001f0 55 86 3d bd 6e 18 1c bd dc 03 0c 3d f4 08 13 3d
       -0.046270687 -0.038109235 0.034183368 0.03589721
000200 d7 ec 13 bd 8d 92 14 bc 98 a0 f0 3c 1e 88 ce 3b
       -0.03611454 -0.009068144 0.029373452 0.0063028475
000210 33 5a 07 3d 6c 14 07 bd 3e b2 08 3c f9 61 bc bc
       0.033045005 -0.03297846 0.0083432775 -0.022995936
000220 b8 47 2e bd f6 27 2e 3d db a9 bb 3c c7 37 ed 3c
       -0.042548865 0.04251858 0.022908142 0.02895726
000230 41 4d 54 bb fb 49 51 3d 4d 12 e9 3c c2 37 26 3d
       -0.003239468 0.051095944 0.02845111 0.04058052
000240 57 cf fb bc e3 c6 b0 bb 3d dc 98 ba b8 8b 46 bb
       -0.030738516 -0.005394803 -0.0011662316 -0.0030295681
000250 16 d3 c2 3c c8 a7 21 3d 45 5f 1b 3d a5 8f ae bc
       0.023782294 0.03946665 0.037932653 -0.02130873
000260 58 d0 da bc 0c 62 23 3d ff 1f f6 3b e2 f1 24 3d
       -0.026710674 0.039888427 0.0075111385 0.04026974
000270 72 db b5 bc 90 eb 20 bc 87 6b da 3c 15 86 a7 bc
       -0.022199366 -0.0098217875 0.026662601 -0.020449677
000280 c7 21 26 bd b9 c8 2f bd 01 f1 35 bc b9 7c 36 3c
       -0.040559556 -0.042916033 -0.011104823 0.011138135
000290 59 d3 2c bd d2 1e 6b bc a9 52 cc bc 8b 31 59 3b
       -0.042193744 -0.01435061 -0.02494176 0.0033141102
0002a0 53 8d 04 3c 78 00 4b 3d 0b 83 ea bc e7 16 72 bd
       0.008090335 0.049560994 -0.02862694 -0.059103873
0002b0 a8 16 9b 3c 87 c9 0b 3c 18 23 0f bd ad db 27 bd
       0.018931702 0.008531935 -0.034945577 -0.040980984
0002c0 79 35 17 3d de 4c cd bc 5c 23 45 3c 3f e2 2f bc
       0.03691623 -0.025061067 0.012032356 -0.010735094
0002d0 91 ed f8 3c d9 99 60 bd 07 53 15 3d 7d 19 37 3c
       0.030386718 -0.05483422 0.036456134 0.0111755105
0002e0 a1 0d 32 3d 60 74 ee ba 0c 28 b8 3c 50 30 b4 bb
       0.04347003 -0.0018192641 0.022480033 -0.0054989234
0002f0 d9 05 c4 bc e8 06 8e bc 10 e5 34 bd ca da 0f bd
       -0.02392857 -0.017337278 -0.044163764 -0.035120763
000300 e6 ca 11 bd b5 85 9c 3c 33 cc 55 bc 57 ab 03 bd
       -0.03559389 0.019106725 -0.013049173 -0.032145824
000310 e8 9a 42 3d 65 2b f5 3c f4 9d 18 3d 99 d0 05 3d
       0.04751101 0.029927919 0.03726001 0.032669637
000320 33 af 2b bd 09 11 2c 3d f8 4f 20 bd e2 6e 88 3c
       -0.04191513 0.042008433 -0.039138764 0.016654436
000330 60 3f 0e 3c 93 4b 34 3c 5f bf 3c 3c 2b f3 84 3c
       0.008682102 0.011004346 0.011520236 0.016229233
000340 ed aa 55 3d 23 e6 ab bb fa 51 14 3d fa 2a b4 3c
       0.05216496 -0.0052459403 0.03621099 0.02199315
000350 fa 85 14 3d 68 f0 d9 bc 0b 29 d3 3c 0a c5 b7 3b
       0.036260583 -0.026603892 0.025776407 0.0056082057
000360 98 f0 00 3d 95 a9 76 3c 71 6f 49 3b 74 4c 13 bd
       0.031479448 0.01505508 0.003073659 -0.035961583
000370 25 a8 01 bc 2c 14 27 3c 55 99 bf bc 03 22 84 bc
       -0.007913624 0.01019768 -0.023388544 -0.0161295
000380 76 c7 5d 3c 42 d0 6d 3c ad 62 e4 3b 1f a0 79 3c
       0.013536325 0.014514985 0.006969771 0.01523593
000390 89 8c 06 3c 8d d2 f9 bc b8 fc d7 3c a1 75 be 3c
       0.008212217 -0.030495906 0.026365623 0.02324945
0003a0 3d 85 08 bd a1 70 52 bc c8 62 14 bd 03 7b 40 3c
       -0.03333019 -0.012844236 -0.036227018 0.011748078
0003b0 25 99 60 3d 52 78 9e bc 85 13 c5 bc 83 c3 26 3d
       0.05483355 -0.019344483 -0.02405716 0.0407138
0003c0 41 8e 7d 3c ef af 82 bb 22 fa 3e 3d ec 36 6c 3c
       0.0154758105 -0.003988258 0.046625264 0.014417391
0003d0 cf 12 ed 3a 46 7c a6 3c ca fe 75 3c b0 85 13 b9
       0.001808727 0.02032293 0.01501436 -0.00014068815
0003e0 77 05 14 bd ec 58 f1 bc 57 ce 01 bc be 2f c7 bc
       -0.036138024 -0.029461347 -0.00792273 -0.024314757
0003f0 51 3e a3 3c ec 20 97 39 d7 57 19 3d 67 a6 d4 bb
       0.019927176 0.00028825493 0.037437286 -0.0064895633

fc1.0.bias f4 [120]
000000 01 6e 8c bc 7d e4 ce 3c ab df ac bc 76 f6 e8 3c
       -0.017142298 0.025255436 -0.021102747 0.028437834
000010 01 21 09 bd 2b 7d 2f 3d 1c 45 1a 3d d5 06 11 3d
       -0.03347874 0.04284398 0.037663564 0.035406906
000020 38 cd 1c b9 20 da 0f 3c 5f 0a 9a bc 51 e5 00 3c
       -0.0001495377 0.008780032 -0.018803773 0.007867173
000030 23 59 9f 3c b6 de 03 bd 5c 70 f2 3a c5 92 c2 bb
       0.019451683 -0.032194816 0.001849662 -0.0059379064
000040 36 95 29 bb ac 1b da 3c 3f eb 10 3c 46 b4 e4 3c
       -0.002587629 0.026624523 0.00884515 0.027917992
000050 0c 4b 40 3d 8f d5 bd 3c 45 f3 ab 3c 1f d4 16 bb
       0.04694657 0.023173122 0.020990023 -0.0023014618
000060 fe 0c 31 3d 2b 38 b2 bb 8e 5e 09 bd df 81 d8 bc
       0.04322528 -0.0054388246 -0.03353744 -0.026429115
000070 9a ec de bb c8 49 6f bc 28 5a 00 3d f6 6e 27 3c
       -0.0068031074 -0.014604993 0.03133598 0.010219326
000080 44 cc 56 3d 8e 48 91 bc 4c 59 21 3d e7 96 80 3b
       0.052440897 -0.017734792 0.0393918 0.003924239
000090 92 65 bb 3c 4d 96 90 3c 7d 72 10 3d 1c d5 0c 3d
       0.022875581 0.017649794 0.035265435 0.034382924
0000a0 57 47 d7 bc f9 58 01 bd ca f1 82 bc cc 4f 9d bc
       -0.026279135 -0.03157899 -0.015984435 -0.01920309
0000b0 bc 71 14 3d 4d 4c 6f 3b 46 25 4b 3c 57 e8 d0 3c
       0.036241278 0.0036513985 0.012399023 0.025501413
0000c0 ba d4 bb bc 5a e7 b0 3c c4 b0 2e bd 95 da 96 3b
       -0.022928584 0.021594692 -0.042649046 0.0046036937
0000d0 ef f2 2b 3d 44 2f a1 3b 02 38 88 3b 25 fd ad bc
       0.041979726 0.0049189646 0.0041570673 -0.021238873
0000e0 af c1 09 3c 49 42 c7 bc b0 e2 ac 3c 11 d4 34 3d
       0.008407994 -0.0243236 0.021104187 0.044147555
0000f0 d2 f4 17 3c a6 7e 54 bb 4a c8 f1 3b af 2c 07 bd
       0.009274678 -0.003242412 0.0073786126 -0.033001598
000100 13 e3 77 bc 59 ec 85 3c 5b 86 04 bb 98 80 ac bc
       -0.015129822 0.01634805 -0.0020221684 -0.021057412
000110 aa 38 1a bd e3 ee 86 3d 09 9d 37 3c 2f dc 9d 3c
       -0.037651695 0.06588533 0.011206874 0.01927003
000120 05 25 eb bc cc 90 78 bc c0 7e 91 3c 05 84 11 3d
       -0.028704176 -0.015171241 0.017760634 0.035526294
000130 f5 f3 9e bc 9e dc 08 3d 5d e7 0a 3d 57 60 bb 3c
       -0.019403437 0.033413522 0.03391205 0.022873087
000140 55 d4 9f bc e3 cd cc 3c 54 7d d2 3a ef c1 95 bb
       -0.019510427 0.025000518 0.0016059079 -0.004570238
000150 fe 2e 2d 3d 7e 1c 2f bd 78 ea 2d 39 86 8c a3 3a
       0.042281143 -0.04275178 0.00016585912 0.0012477792
000160 7c 7a 09 3d 6f 62 c4 3b d7 a2 96 bc 52 0e 4a 3b
       0.033564076 0.0059931795 -0.018388195 0.003083129
000170 95 cf 05 bc f2 b4 d9 3c 50 e3 96 bb 60 4a 25 3d
       -0.008167167 0.02657554 -0.0046047345 0.040354133
000180 a2 a1 40 3d de 15 1e bc b4 2b 8e bc 1b a6 ac 3a
       0.047029145 -0.009648768 -0.017354824 0.0013172062
000190 7c a1 f3 bc 7f 66 68 3c c3 fa 1d bc ad d1 ba bb
       -0.029740088 0.014184593 -0.009642306 -0.005701265
0001a0 14 2a 5e 3d 5b 0b 79 3d 9c 75 27 3d 43 fd f8 3c
       0.054239348 0.060801845 0.040883645 0.030394202
0001b0 33 a0 82 bc 99 f2 ea 3b fa ef 7d bb 76 47 06 3d
       -0.01594553 0.007170033 -0.0038747774 0.032782994
0001c0 5f 72 23 bc 5b c6 6b 3b 0f f2 53 bd e5 59 a5 bb
       -0.009975999 0.0035976383 -0.051744517 -0.0050461167
0001d0 7a 1b c8 bc 4c 8d c5 3c 65 d0 6e bc 8c 88 97 3c
       -0.024427164 0.024115227 -0.014576052 0.018497728

fc2.0.weight f4 [84, 120]
000000 66 e2 36 3b 93 c0 13 bd 5e e4 84 3d 78 ff 2c 3d
       0.002790594 -0.036072325 0.0648887 0.04223582
000010 d4 86 75 3d e5 21 2f bc c0 9d bf 3c ff 95 86 3d
       0.059943035 -0.010689233 0.02339065 0.06571578
000020 aa be be 3c 81 81 60 bd 70 75 20 3d 9a fb 73 3d
       0.023284275 -0.054811005 0.039174497 0.059566118
000030 53 7e 92 bd 81 3c 0c 39 ff 47 97 bd 0e 3d a4 bd
       -0.07153001 0.0001337398 -0.07386779 -0.08019458
000040 a2 32 9e bd 02 91 2d bb 15 07 9a 3d 89 6b 96 bd
       -0.07724501 -0.0026484136 0.07520882 -0.073447295
000050 b9 2e 9d bd 24 48 a0 bd a2 3a 20 3c 25 71 3c 3d
       -0.07674927 -0.0782626 0.009779604 0.04600634
000060 3d a4 08 bd b2 6c 04 3d 90 33 b5 3d 6c 04 37 3d
       -0.033359755 0.032330222 0.088477254 0.04468195
000070 08 e5 05 bc 75 eb 91 bd d1 73 7c 3d fa c3 0d 3c
       -0.008172281 -0.07124988 0.06163389 0.0086526815
000080 21 bc aa 3d 99 70 21 bd c3 5d 5f 3d d4 79 64 39
       0.08336664 -0.039414022 0.054532778 0.00021789159
000090 d2 c9 7e 3d 24 8e 39 bd d8 a0 68 bd 95 0e b5 3d
       0.06220419 -0.04530157 -0.056794018 0.08840672
0000a0 28 07 36 3d 3f 62 9d bd ed f5 a7 bd c8 10 60 bd
       0.04444042 -0.076847546 -0.082012035 -0.054703504
0000b0 c4 24 1d 3c bc f6 6d 3c 02 55 41 bd b0 a2 81 bc
       0.009591285 0.014524158 -0.04720021 -0.015824646
0000c0 e5 30 87 3d e6 df ab 3d e2 c7 2e 3d cc d7 63 3c
       0.06601123 0.083923146 0.04267109 0.01390643
0000d0 10 b7 46 bd 54 d5 d9 3c 99 17 6f 3c 25 d7 84 3d
       -0.048514426 0.02659098 0.014593028 0.06486348
0000e0 70 43 1e bd 91 3c 98 3c 88 35 7a 3d 5e 85 6e 3d
       -0.038638532 0.018583568 0.061086208 0.058232658
0000f0 86 2c 8d 3d 34 31 5a 3d c2 8e d8 3c 2f 63 d8 3c
       0.06893258 0.05326958 0.02643526 0.026414482
000100 10 05 52 3d 68 79 52 bd ef c6 a7 3c e6 5e aa 3d
       0.05127436 -0.051385313 0.020480601 0.08318882
000110 ee 71 37 3d b3 1c f1 bc 70 fa 0a 3d ef 4e 87 3d
       0.044786386 -0.02943263 0.033930242 0.06606852
000120 93 94 79 3d 54 e6 a2 3c 36 eb a0 3d 92 2b 3b 3b
       0.060932707 0.01988522 0.07857363 0.0028559905
000130 20 2d 0d 3d aa 07 6b bc f4 d6 a1 bd 95 0d 66 3c
       0.034466863 -0.014345089 -0.07902327 0.014041324
000140 e9 1f aa bd 7b 16 05 3d 36 94 09 bd 54 c1 a0 bd
       -0.08306868 0.032492142 -0.03358861 -0.078493744
000150 e6 52 9c 3d 42 db 7d bc c5 72 5b bd 81 26 a4 bd
       0.07632999 -0.01549417 -0.05357625 -0.080151565
000160 03 e3 eb bc a8 49 14 bd cd ae 41 3d ab 2f 7f 3d
       -0.028794771 -0.036203057 0.047285844 0.06230132
000170 1e 0c 73 3d 5e 1c 89 3d f2 ea 0c 3d 5a 68 99 ba
       0.059337728 0.06694864 0.03440375 -0.0011704073
000180 90 9e 48 bd 75 4f 3a 3d 15 72 99 bd 6a 4f 55 3d
       -0.048979342 0.045485932 -0.074924625 0.05207769
000190 a6 6b 45 3d 47 0e a0 3d e8 22 c6 bb 4c a3 ae bd
       0.048198365 0.07815223 -0.0060466416 -0.0852724
0001a0 be 09 14 bd 4b ff 09 3d 7e c5 bd bc 5a 6f 3f bd
       -0.036142103 0.033690732 -0.02316546 -0.046737053
0001b0 a6 5f 40 bd e5 1f 99 3c d8 d2 8a bd 28 b0 6f 3d
       -0.046966217 0.018691966 -0.067784965 0.058517605
0001c0 f2 98 34 bd af cb 57 bc 29 c5 51 bd 8f 72 5c 3d
       -0.044091173 -0.013171121 -0.051213417 0.05382019
0001d0 9b a7 a6 3c 5f e8 31 bd bb c2 2b 3d 41 cc 00 3d
       0.020343592 -0.043434497 0.041933756 0.03144479
0001e0 78 9d 52 bd ee 7b a3 3d 13 38 2c 3c ee 6a 2e 3a
       -0.051419705 0.07982622 0.010511416 0.0006653507
0001f0 18 27 65 bc 92 71 a4 3d 2d 66 96 bc c7 5d 91 bd
       -0.013986371 0.08029474 -0.018359268 -0.07097965
000200 03 39 38 3d 4a c0 0c bd 54 fd 97 bd d7 a1 70 bc
       0.044976246 -0.03436307 -0.074213654 -0.014687023
000210 84 bd 9c 3d dc 96 1e 3d 73 e8 34 bd 2b e6 85 bd
       0.07653335 0.03871809 -0.044166993 -0.06538042
000220 43 a6 cb bc 53 72 9a 3d 84 6c f7 bc 19 9b 26 bc
       -0.024859553 0.07541337 -0.030203111 -0.010168814
000230 5c 03 9a bb b6 d7 77 bc 76 bc f3 3d 46 6d 15 bd
       -0.0047001075 -0.015127113 0.119011804 -0.036481164
000240 92 49 88 3c 5c 1f b6 bb 73 e3 df bc 30 cc a1 3d
       0.016636644 -0.0055579375 -0.027330136 0.07900274
000250 28 b5 1d 3d a6 1b 9a 3c 35 83 64 3d 4e e6 88 3c
       0.038502842 0.018812012 0.05578919 0.01671138
000260 e0 4b ab 3d d2 05 9d bc f4 54 7a bb d4 f7 39 3c
       0.083640814 -0.019167814 -0.0038197609 0.011350591
000270 59 3f a1 bd 3c ee 37 3d 86 ae c5 3d 1e 37 50 bd
       -0.07873411 0.044904932 0.09652428 -0.050833814
000280 84 31 86 bd c0 69 b5 3d e3 e3 00 3d a6 5e e9 bb
       -0.06552413 0.08858061 0.03146733 -0.0071218787
000290 01 fd 10 bc b3 24 5b 3d 0b 49 14 bd 58 ca 8a bc
       -0.008849383 0.053501796 -0.03620247 -0.016942188
0002a0 23 98 d1 3d 9a c9 ad bd b4 04 91 bd e0 e5 8e bd
       0.10234096 -0.08485718 -0.07080975 -0.06977439
0002b0 50 fa fa b7 dd 57 b6 3d 75 45 b9 bd 66 26 df bc
       -2.9918883e-05 0.08903477 -0.09046451 -0.02723999
0002c0 73 29 6c 3d d0 f2 92 bd 1c 97 a1 3b 49 62 83 bd
       0.057656717 -0.07175219 0.0049313437 -0.06415231
0002d0 a9 49 bc bd 1b 7e 22 bd 30 31 69 3c 81 b2 91 bc
       -0.09193737 -0.039671045 0.014232919 -0.017785313
0002e0 60 f9 b6 bd 5c c9 c0 ba c3 cf 99 3d f5 0f a7 bd
       -0.08934283 -0.0014708447 0.075103305 -0.081573404
0002f0 e5 1d 91 bd be 5e 79 3d e4 d6 31 3d 64 ae 83 3d
       -0.0708578 0.06088137 0.043417826 0.06429747
000300 35 5a c2 bc 98 91 97 3d 52 66 57 3d cc 1a ec bc
       -0.023724655 0.07400817 0.052587815 -0.028821371
000310 85 31 b1 3d f8 50 94 bc f3 47 70 bd a0 03 76 bd
       0.08652023 -0.018105015 -0.058662366 -0.06006205
000320 5c 8f 53 3d b7 7a 36 bd f4 87 c2 3c ba 59 5f bd
       0.05165039 -0.044550624 0.023746468 -0.05452893
000330 29 20 6b 3d 21 c8 4f bd bf 88 d6 3d d3 57 7f bd
       0.057403717 -0.050727967 0.10475301 -0.062339615
000340 8c 94 08 3d 78 7a ed bc 9a 89 c3 3a 45 d3 b1 3d
       0.03334479 -0.028989062 0.0014918328 0.086828746
000350 7f f9 c9 bb 31 cf 42 3b 9a 3b b4 bc e5 a8 ae 3c
       -0.0061637755 0.0029725546 -0.022001076 0.02132077
000360 13 28 17 3d 74 60 6d bd 95 5c aa bd f3 80 0a bc
       0.036903452 -0.057953313 -0.0831844 -0.008453595
000370 0c 4e d8 3d 56 d3 b5 3c 22 50 51 bd 26 ec 85 bd
       0.10561761 0.0221955 -0.05110181 -0.06539182
000380 8e 5d 83 3d b5 a1 64 3d 6a 73 a1 bd 32 90 04 3e
       0.064143285 0.05581828 -0.078833416 0.12945631
000390 79 25 0e 3e 8f 61 a7 3b 82 27 a2 3c 8d e2 a6 3d
       0.13881482 0.0051080654 0.01979423 0.0814868
0003a0 8e 27 c0 bd 29 4f 39 bd 05 83 8d bc 5c c8 30 bd
       -0.093825445 -0.04524151 -0.017274389 -0.043159828
0003b0 ab 51 01 bd 7f 15 a9 3c fd 3e c8 3d 9e c4 88 3d
       -0.031572025 0.020640133 0.09777639 0.06678127
0003c0 66 67 b6 bc 83 35 82 3d e6 e0 83 bd 0b 20 87 3d
       -0.022266101 0.06357863 -0.0643938 0.065979086
0003d0 cf 6d ae bd 33 17 f2 bb 00 82 31 3d e2 02 4c 3d
       -0.08517038 -0.0073880195 0.04333687 0.049807437
0003e0 73 71 2e 3d 11 f2 34 3d 99 b0 43 bd 06 b1 46 3a
       0.042588662 0.044176165 -0.04777584 0.0007579479
0003f0 61 7b 82 bd 08 40 85 bc bc a3 a0 bd b8 4d af 3c
       -0.06371189 -0.016265884 -0.0784373 0.021399364

fc2.0.bias f4 [84]
000000 b8 1e aa bc cc 00 80 3c ae 0b 8a bd 32 d2 cc 3c
       -0.020766601 0.01562538 -0.06740509 0.025002573
000010 4f e7 dd 3b d0 24 8d 3d ba ea 50 bc a8 ac 8e 3d
       0.006771959 0.06891787 -0.012751276 0.06966525
000020 16 d5 be 3d 73 9b b6 bd 76 da 11 bd 64 f9 f5 bc
       0.09317987 -0.08916368 -0.03560873 -0.030026145
000030 7c b0 89 3b 97 20 ae bd 04 57 a0 bd 26 7b 94 bd
       0.004201947 -0.0850231 -0.07829097 -0.07250051
000040 ce 95 41 bd cd 02 24 3d 25 9a 89 3d f9 aa ab 3d
       -0.047262006 0.040041734 0.06718854 0.0838222
000050 f2 88 9a bd 69 88 9b bd cb d2 d0 3b 2e 7e 43 bd
       -0.075456515 -0.075943775 0.0063727847 -0.047727756
000060 0c 2b 19 3d 97 89 a2 3d 2a 69 cc 3d 6a b7 07 bd
       0.03739457 0.079363994 0.09980996 -0.0331339
000070 c6 10 f1 bb 4f 58 26 3d c2 d9 50 3d 05 ee c1 bc
       -0.007356736 0.04061156 0.05098892 -0.023673067
000080 9b 89 df 3c 15 51 64 3d 7b 1c a0 3d 08 0d 3b bb
       0.027287295 0.05574139 0.07817932 -0.0028541703
000090 5c c6 aa 3c ce 27 30 3c ee c5 2b 3d ff 73 08 bd
       0.020846538 0.010751678 0.041936807 -0.033313747
0000a0 7e 90 c4 3d 05 46 fb bc 88 9c 93 bd 33 68 4d bd
       0.09597872 -0.030673036 -0.0720759 -0.0501482
0000b0 6f ce ae 3a 03 10 7f 3d df 4d 11 bd 3b 59 35 3d
       0.0013336668 0.06227113 -0.035474654 0.04427455
0000c0 a1 f4 65 3d 99 33 85 bb 0f 2d 80 3d 93 90 1d 3d
       0.0561415 -0.004064989 0.06258594 0.038467955
0000d0 00 13 29 bd 29 35 1b bc 6f f8 96 bd d1 d6 36 bd
       -0.041277885 -0.009473124 -0.07371604 -0.04463846
0000e0 81 8f 8e 3d a0 ee b0 bd 74 77 e4 3c 36 c0 99 3c
       0.06960965 -0.08639264 0.027888991 0.018768411
0000f0 84 ed d1 3c 2b db 52 3c de 6d 44 bd f8 48 98 3d
       0.025625952 0.0128696365 -0.04795634 0.07435793
000100 ab bb 87 bd 90 88 45 3d 7e 56 1e bd 0e 01 b0 3d
       -0.06627592 0.04822594 -0.038656704 0.08593951
000110 87 fd a9 bb 7f 4d fd bc 10 81 d7 3c 90 b2 dc bc
       -0.0051876935 -0.030920742 0.026306659 -0.026940614
000120 8e ae ab bd 7a d7 86 bd 83 66 b5 3d 7f 3f 9c 3d
       -0.08382903 -0.06584068 0.08857443 0.076292984
000130 bd ce d6 3c 74 2f 16 3d e6 34 eb bc af c8 1a 3d
       0.026221627 0.03666635 -0.028711747 0.037789043
000140 d3 89 e0 3c f4 95 97 3d 02 01 45 3c 7a da c6 bd
       0.02740947 0.07401648 0.012024166 -0.0970964
