计算机视觉实践-练习2/checkpoint/lenet_p/Saturday_15_April_2023_09h_55m_18s/lenet_p-20-regular.pth (torch, 260683 bytes, 30 tensors)

conv1.0.weight f4 [6, 1, 5, 5]
0	0xbe21d23c	-0.15802854
1	0xbc667ed5	-0.014068325
2	0xbd8e2856	-0.06941287
3	0xbd5c4f0b	-0.05378632
4	0x3e09f3f0	0.13471961
5	0x3c7af24d	0.015316558
6	0xbd928771	-0.0715474
7	0xbdb7de18	-0.08977908
8	0xbdbb1900	-0.09135628
9	0xbc4b5c3f	-0.01241213
10	0xbe0a36af	-0.13497423
11	0xbdd848a2	-0.105607286
12	0xbd734e6e	-0.05940097
13	0xbe600849	-0.2187816
14	0xbe1290fc	-0.1431312
15	0xbdd76251	-0.10516799
16	0x3e047272	0.12934282
17	0xbd27dd15	-0.040982325
18	0x3b6a42ac	0.0035745306
19	0x3c8f63ca	0.017503638
20	0x3e2dc53f	0.16969775
21	0x3d8cc460	0.06873393
22	0x3de73526	0.11289434
23	0xbce3d073	-0.027809357
24	0xbc149e3d	-0.00907093
25	0xbdd27bb7	-0.10277503
26	0xbc7ad593	-0.015309709
27	0x3d70784c	0.058708474
28	0xbd5a958c	-0.053365275
29	0x3d3da094	0.046295717
30	0x3c06925d	0.008213607
31	0x3e23a035	0.15979083
32	0x3e059ba2	0.1304765
33	0x3cdab7a7	0.0266989
34	0xbde6957b	-0.1125898
35	0x3d904f81	0.07046414
36	0xbe62553b	-0.22102825
37	0x3e02cc38	0.12773216
38	0x3e7a86ac	0.24465436
39	0x3e2cb846	0.1686717
40	0xbd0516e1	-0.032492522
41	0x3d9046e6	0.07044773
42	0xbddab313	-0.10678687
43	0x3cee3254	0.029076733
44	0x3e54b216	0.2077106
45	0xbe26ea27	-0.1630026
46	0xbc833aef	-0.016019313
47	0x3d5b6bc4	0.05356957
48	0x3df9d419	0.121986575
49	0x3e00f602	0.12593845
50	0xbd968a02	-0.07350542
51	0x3d48205a	0.048858978
52	0x3d69ba9f	0.05706274
53	0xbdea596c	-0.11442837
54	0x3ddb1b4b	0.10698565
55	0x3e3087ef	0.17239355
56	0xbcfdeca0	-0.03099662
57	0xbd5d2fb0	-0.054000556
58	0x3c999dc5	0.018751988
59	0xbd2af5fc	-0.041738495
60	0x3d888d2b	0.06667551
61	0x3de7e8a7	0.11323672
62	0x3d21250b	0.039341968
63	0xbddaf16a	-0.10690577
64	0xbe061e93	-0.130976
65	0x3e3d4cbb	0.18486302
66	0x3e5c15fb	0.2149276
67	0xbe566511	-0.20936991
68	0x3dbc6c8f	0.092003934
69	0x3d985f4c	0.074400514
70	0x3e5c6163	0.21521525
71	0x3e4f4676	0.20241722
72	0xbd9834a8	-0.074319184
73	0x3c8b9658	0.017039463
74	0xbda98b18	-0.08278483
75	0xbc4b2b4a	-0.012400458
76	0x3c4bfb42	0.012450041
77	0x3d0d9e39	0.03457472
78	0x3e31d5d7	0.1736673
79	0x3dcc9a64	0.09990385
80	0xbcffbad1	-0.03121701
81	0xbe8d0197	-0.27540275
82	0xbdd1a739	-0.10236973
83	0xbde829c2	-0.1133609
84	0x3de7794d	0.11302433
85	0x3e28c239	0.1648034
86	0xbda438c9	-0.080186434
87	0xbe675183	-0.22589688
88	0xbe14bde7	-0.14525567
89	0xbe0afc7c	-0.13572878
90	0x3e0ae989	0.13565649
91	0x3e9c6c14	0.30551207
92	0x3d1dcb45	0.03852393
93	0x3ae74d12	0.001764687
94	0xbd84f131	-0.06491316
95	0xbde8b272	-0.11362161
96	0x3b5422cd	0.0032369376
97	0x3db30dc7	0.08742862
98	0x3d935564	0.07194021
99	0x3ce7425a	0.028229881
100	0xba4dd6b9	-0.00078521256
101	0x3e123bb6	0.1428059
102	0xbde41015	-0.1113588
103	0xbdb5821c	-0.08862707
104	0x3c1eedde	0.009700267
105	0x3d9dca06	0.077045485
106	0xbdd9a5e6	-0.10627346
107	0xbe20e37e	-0.15711781
108	0xbd90665c	-0.070507735
109	0x3ade63e8	0.001696703
110	0x3d8ac79d	0.067763545
111	0xbe177484	-0.14790541
112	0xbe1645ba	-0.14675036
113	0xbbf61413	-0.0075097173
114	0x3e2fcf3d	0.17168899
115	0xbbb525c7	-0.005528185
116	0xbe0714a7	-0.13191472
117	0x3e0c0f15	0.13677628
118	0x3e93f67e	0.28898996
119	0x3dfe9f09	0.12432677
120	0x3cd68777	0.026187642
121	0x3e0e062e	0.13869545
122	0xbd9c181e	-0.076217875
123	0x3de55927	0.11198645
124	0xbe39649c	-0.18104786
125	0x3c7bb0dc	0.015361991
126	0x3c53c226	0.012924707
127	0x3d336c0a	0.043804206
128	0xbd2fdbe6	-0.04293432
129	0x3c2b8735	0.010469248
130	0xbc8beffc	-0.017082207
131	0xbbdec760	-0.0067986697
132	0xbd8d9411	-0.06913007
133	0x3dae66c8	0.08515698
134	0xbcc69864	-0.024242587
135	0x3e35fcbb	0.1777219
136	0x3e2afdf2	0.16698435
137	0x3e9f435a	0.31106073
138	0x3d912a37	0.0708813
139	0xbdae9a72	-0.08525552
140	0x3e54dffc	0.20788568
141	0xbd89239a	-0.066962436
142	0xbd86379c	-0.065535754
143	0x3d6b6983	0.05747367
144	0xbd815844	-0.063156635
145	0xbe8a1f5d	-0.26977053
146	0xbe3dc17b	-0.18530838
147	0xbdeaa1ed	-0.11456666
148	0x3d596cac	0.053082153
149	0x3dadd0fd	0.08487127

conv1.0.bias f4 [6]
0	0x3d092ae7	0.03348818
1	0xbe316414	-0.17323333
2	0xbd164ca0	-0.03669417
3	0x3de12a9b	0.109944545
4	0x3dc5aaeb	0.09651741
5	0x3d97bab8	0.07408661

conv1.1.weight f4 [6]
0	0x3f7089da	0.93960345
1	0x3f5f56f3	0.8724205
2	0x3f6be488	0.92145586
3	0x3f65ebdf	0.89813036
4	0x3f6983c4	0.91216683
5	0x3f6b1471	0.91828066

conv1.1.bias f4 [6]
0	0xbc34a13a	-0.0110247675
1	0x3cd577ea	0.026058156
2	0x3bf01b6c	0.0073274877
3	0xbd83df00	-0.06439018
4	0x3ce9bd9f	0.028532801
5	0x3b93864c	0.0045020934

conv1.1.running_mean f4 [6]
0	0x3ce524a7	0.027971579
1	0xbe245a87	-0.16050158
2	0xbbbe5a3b	-0.005809096
3	0x3e0185ee	0.12648746
4	0x3ddec60d	0.10877619
5	0x3d845eca	0.06463392

conv1.1.running_var f4 [6]
0	0x3ef90a18	0.48640513
1	0x3f1b88c7	0.6075558
2	0x3f14244e	0.57867897
3	0x3e471242	0.19440559
4	0x3e972497	0.29520103
5	0x3e90daed	0.28292027

conv2.0.weight f4 [6, 6, 3, 3]
0	0xbd98c006	-0.074585006
1	0xbe0b1826	-0.1358343
2	0x3c735cd1	0.014853672
3	0xbd7ab3e1	-0.061206702
4	0xbd97cf29	-0.074125595
5	0x3c263c85	0.010146265
6	0xbd796ca7	-0.060894635
7	0xbd22a79a	-0.03971062
8	0xbc8985df	-0.016787468
9	0x3df5761f	0.119854204
10	0x3d80c018	0.06286639
11	0xbd1de58a	-0.038548984
12	0xbbad90ac	-0.0052967872
13	0xbde7c5c3	-0.11317017
14	0xbdba8da3	-0.09109046
15	0x3de11b44	0.10991529
16	0xbe102be8	-0.14079249
17	0xbdf09f89	-0.11749179
18	0x3c800566	0.015627574
19	0x3dbcd044	0.09219411
20	0x3db2a181	0.08722211
21	0x3d6c6ea1	0.05772269
22	0xb912e3e4	-0.00014008541
23	0xbdca31ba	-0.09872766
24	0x3db18d74	0.08669558
25	0x3e29a632	0.16567305
26	0xbe16f957	-0.14743553
27	0x3dc9e49a	0.098580554
28	0xbcd15508	-0.025553241
29	0x3dada8e4	0.08479479
30	0x3df2d8de	0.118577704
31	0xbd6ad851	-0.0573352
32	0x3d3a83d0	0.045535862
33	0x3d0e10ed	0.03468411
34	0x3e074136	0.1320847
35	0xbd28b9a5	-0.04119267
36	0xbd94a64d	-0.07258282
37	0x3dfea1f9	0.124332376
38	0x3e484681	0.19558145
39	0x3caf8ba2	0.021428887
40	0xbd96c6e0	-0.07362151
41	0x3ceda963	0.029011434
42	0xbd42914a	-0.04750184
43	0xbdad347b	-0.084572755
44	0xbd04859e	-0.03235399
45	0xbcebc180	-0.028778791
46	0xbcaed951	-0.021343859
47	0x3df8a4b4	0.1214079
48	0x3d0858d0	0.033287823
49	0xbb355407	-0.0027668492
50	0x3d6f7d5f	0.058469173
51	0xbdbe24ab	-0.092843376
52	0x3d0a9762	0.033835776
53	0xbda0e0c4	-0.07855371
54	0x3d0b54f2	0.034016557
55	0xbe019062	-0.12652734
56	0x3d687185	0.056748886
57	0x3cf5685b	0.029956987
58	0xbdc58d1b	-0.09646054
59	0x3c377094	0.011196274
60	0xbdc4bc9d	-0.09606288
61	0xbde28001	-0.11059571
62	0xbd878144	-0.06616452
63	0xbc050866	-0.008119678
64	0xbe071370	-0.13191009
65	0xbd36ab6d	-0.044597078
66	0x3e2d9dff	0.16954802
67	0xbc4e8b2e	-0.012606425
68	0x3dff08d0	0.12452853
69	0xbd99b832	-0.075058356
70	0x3cbd51fb	0.02311038
71	0xbca76aed	-0.020436728
72	0x3d630d20	0.05543244
73	0x3d7bd222	0.061479695
74	0xbd4200cd	-0.047364045
75	0xbd537b3c	-0.051631197
76	0xbd3769de	-0.044778697
77	0xbd8477d0	-0.06468165
78	0x3d360618	0.044439405
79	0xbdcf05e4	-0.101085454
80	0x3b4790a6	0.0030451207
81	0x3bab8294	0.005234072
82	0xbd258aa0	-0.040415406
83	0x3d4452a4	0.047930375
84	0x3d5421bc	0.051789984
85	0x3d5c990a	0.053856887
86	0x3e0adbdf	0.13560437
87	0x3d1b4be8	0.037914187
88	0xb9fec233	-0.00048591345
89	0x3d557bdf	0.052120086
90	0x3d56be9e	0.05242788
91	0x3e14eb3a	0.14542857
92	0x3e032bf7	0.1280974
93	0xbdf2ea98	-0.118611515
94	0xbdeedc3f	-0.11663102
95	0xbd79ee12	-0.061018057
96	0x3c8471da	0.01616757
97	0xbd981e6f	-0.0742768
98	0x3b026bfb	0.0019900787
99	0x3a813bbb	0.000985972
100	0xbdc96afc	-0.09834859
101	0xbd0404b1	-0.032231037
102	0x3d8ce537	0.06879657
103	0x3e3aff64	0.18261486
104	0x3e807bd2	0.25094467
105	0xbe295d60	-0.16539526
106	0xbd2bdcb5	-0.04195853
107	0x3d474ae5	0.04865541
108	0xbdd02b5e	-0.10164522
109	0x3b051b8a	0.0020310604
110	0xbdcf8feb	-0.10134872
111	0xbd3de1e7	-0.046358015
112	0x3b2707d9	0.0025486855
113	0xbda76033	-0.081726454
114	0x3c88bdcc	0.016692065
115	0x3dde85b5	0.10865346
116	0xbcf5fda8	-0.03002818
117	0xbe068cc0	-0.1313963
118	0xbd026e26	-0.031843327
119	0x3d5fdb81	0.054652695
120	0xbd999416	-0.07498948
121	0x3cc55898	0.024090096
122	0xbdf19dc1	-0.11797667
123	0xbbd2787f	-0.0064230557
124	0x3e33c982	0.17557338
125	0x3c69fef1	0.014281974
126	0xbddded81	-0.10836316
127	0xbcd5e284	-0.026108988
128	0xbc837523	-0.016047066
129	0xbca9b247	-0.020714892
130	0x3d7211ba	0.059098937
131	0xbc88d3fb	-0.016702643
132	0x3db2c695	0.08729283
133	0x3df92705	0.121656455
134	0xbc3dfb6d	-0.011595589
135	0x3dc2aca1	0.095055826
136	0x3d4c1ed0	0.049834073
137	0xbccb4301	-0.024812223
138	0xbd6b34c0	-0.057423353
139	0xbb74dfa7	-0.0037364752
140	0xbd1119ed	-0.035425115
141	0x3d1d8dc7	0.038465288
142	0x3d404349	0.046939168
143	0x3da3c553	0.07996621
144	0x3897b9f3	7.234877e-05
145	0x3e2d1e0f	0.16905998
146	0x3dde3862	0.10850598
147	0x3da79fa0	0.08184743
148	0x3ddded27	0.10836249
149	0x3b6d91f4	0.0036250325
150	0xbb062561	-0.0020469057
151	0xbd97511e	-0.07388519
152	0x3e071cee	0.1319463
153	0xbc0afb19	-0.008482718
154	0xbdae4e29	-0.085110016
155	0x3df6e8f6	0.120561525
156	0xbe1076b0	-0.14107776
157	0x3d42b32c	0.047534153
158	0x3d91efdb	0.07125827
159	0xbcdcb438	-0.026941404
160	0x3df442a7	0.119267754
161	0x3dfdd887	0.12394815
162	0xbcb59087	-0.022163643
163	0x3e1f161f	0.15535782
164	0x3c518099	0.012787008
165	0x3df8c31f	0.121465914
166	0x3dbe3491	0.0928737
167	0xbd109bd6	-0.035304867
168	0x3d5398a3	0.051659238
169	0x3bb17685	0.00541574
170	0xbb7335f5	-0.0037111018
171	0xbab78349	-0.0014000918
172	0xba9a9576	-0.001179381
173	0xbd0b1808	-0.033958465
174	0x3bc9103c	0.0061359685
175	0xbc872fa6	-0.016502213
176	0x3d39f24e	0.045397095
177	0x3ce2de6f	0.027693955
178	0xbd1ce8e6	-0.038308047
179	0x3c82e14d	0.015976572
180	0xbde5d662	-0.11222531
181	0xbdf7f3e2	-0.12107064
182	0xbdf1d148	-0.11807495
183	0x3d975edf	0.07391142
184	0x3d5f517f	0.05452108
185	0x3d88b0e1	0.06674362
186	0x3dcd0139	0.10009999
187	0x3beee2cb	0.0072902194
188	0x3db837a5	0.08994988
189	0x3cae79e1	0.02129835
190	0x3e287889	0.1645223
191	0x3dea00a9	0.11425907
192	0xbd7f8c78	-0.06238982
193	0x3d96edd6	0.07369582
194	0x3e228e3a	0.15874568
195	0xbc319cd8	-0.010840617
196	0x3d782d0a	0.060589828
197	0xbd4c76e1	-0.04991806
198	0xbdc7d283	-0.09756949
199	0xbe51df87	-0.20495425
200	0xbe609f1d	-0.21935697
201	0x3d8c2738	0.06843418
202	0x3cb7bd4b	0.02242913
203	0xbde47bcf	-0.11156427
204	0x3e47bd4c	0.19505805
205	0x3ca2ab19	0.019856976
206	0xbd94fda3	-0.0727494
207	0xbbd28470	-0.006424479
208	0xbcd2b216	-0.025719684
209	0xbd22f63d	-0.039785612
210	0x3c8cd31c	0.017190509
211	0xbdab8bef	-0.083762996
212	0xbda466da	-0.0802743
213	0x3d1e26ce	0.038611226
214	0x3df565f5	0.119823374
215	0x3de76e33	0.11300316
216	0x3d86ec3e	0.06588028
217	0x3e0f77a1	0.14010479
218	0x3d420f62	0.04737795
219	0x3d136d50	0.03599292
220	0xbb5ca390	-0.0033666827
221	0x3d93be64	0.072140485
222	0xbdc1a88e	-0.094559774
223	0x3cc859ea	0.024456937
224	0x3de79b25	0.11308888
225	0x3d51df3b	0.05123828
226	0xbc92b391	-0.01790789
227	0xbd893270	-0.06699073
228	0xbe05d933	-0.13071136
229	0xbb96cefb	-0.0046023107
230	0xbdfb59b4	-0.12272969
231	0x3c7369a5	0.014856731
232	0xbd8f3121	-0.069917925
233	0xbccad43f	-0.02475941
234	0xbc142106	-0.0090410765
235	0xbd4c8cde	-0.04993903
236	0xbd281e75	-0.04104467
237	0x3d303f4b	0.04302911
238	0xbe27d094	-0.1638816
239	0xbe0dbbc0	-0.13841152
240	0xbdb04772	-0.08607377
241	0x3b2b7e0c	0.002616766
242	0xbe25b4d9	-0.16182269
243	0x3d566a21	0.052347306
244	0x3db81359	0.08988065
245	0x3cedbb69	0.029020028
246	0xbd737d2c	-0.059445545
247	0x3d96dd9e	0.07366489
248	0x3e1f9df0	0.15587592
249	0xbe1d4153	-0.1535695
250	0xbd672e00	-0.056440353
251	0x3c0d42e5	0.008621906
252	0x3d40a35c	0.04703079
253	0x3bac16cd	0.0052517415
254	0xbd61474e	-0.054999642
255	0xbcf7392b	-0.030178627

conv2.0.bias f4 [6]
0	0x3dda214a	0.10650881
1	0x3d9dc544	0.07703641
2	0x3d65e4b0	0.056126297
3	0xbcc017cc	-0.023448847
4	0xbda23793	-0.07920756
5	0x3db091dd	0.08621571

conv2.1.weight f4 [6]
0	0x3f671fa8	0.9028268
1	0x3f5545c8	0.833096
2	0x3f5accac	0.85468554
3	0x3f686c73	0.9079048
4	0x3f810e07	1.0082406
5	0x3f6f154e	0.93391883

conv2.1.bias f4 [6]
0	0x3d7f6fc8	0.062362462
1	0x3cb28a6a	0.021794517
2	0xbb5ea1d6	-0.0033970973
3	0x3e1daea7	0.15398656
4	0x3d1ef69c	0.038809404
5	0xbd3847b9	-0.044990275

conv2.1.running_mean f4 [6]
0	0x3e251070	0.16119552
1	0x3db79a9a	0.08965035
2	0x3ec67d65	0.38767543
3	0x3e2d64c2	0.16932967
4	0xbe888505	-0.26663986
5	0xbe672a98	-0.22574842

conv2.1.running_var f4 [6]
0	0x3ee8281e	0.45343107
1	0x3e9c733e	0.30556673
2	0x3ed321e8	0.41236806
3	0x3ef1b50c	0.4720844
4	0x3ef1c7ca	0.4722274
5	0x3eed3352	0.46328217

conv3.0.weight f4 [6, 6, 3, 3]
0	0x3b9c0c7d	0.004762231
1	0x3d352405	0.044223804
2	0xbda03218	-0.078220546
3	0xbe3e1f18	-0.18566549
4	0xbdca6b3f	-0.09883737
5	0x3d1b4520	0.03790772
6	0xbd2cb54a	-0.04216508
7	0xbdc5119a	-0.09622498
8	0x3d017250	0.031603158
9	0x3d8cf571	0.06882752
10	0xbdb46dc6	-0.0881
11	0x3d9a2c80	0.07528019
12	0xbcd2d44c	-0.025735997
13	0x3c1cf4ab	0.009579818
14	0x3bd9df28	0.0066489168
15	0x3df99d9d	0.121882655
16	0xbaf7d289	-0.0018907349
17	0x3d3efea3	0.04662956
18	0x3dab77ef	0.08372485
19	0x3da62587	0.081126265
20	0x3db29f21	0.08721758
21	0x3dce798d	0.10081778
22	0xbd9c2364	-0.07623938
23	0x3d142ecb	0.036177438
24	0xbd92726b	-0.0715073
25	0xbac23816	-0.001481774
26	0xbe0c873f	-0.13723467
27	0xbdf841ef	-0.12121951
28	0xbd23e859	-0.040016506
29	0xbe6a1ee5	-0.22863348
30	0xbc4796d3	-0.012181955
31	0x3d941f95	0.07232586
32	0xbcdf9afc	-0.027295582
33	0x3dc5306a	0.09628375
34	0x3e026dba	0.1273717
35	0x3e214333	0.1574829
36	0x3b125f47	0.0022334622
37	0xbd2cbb55	-0.04217084
38	0x3daaee04	0.08346179
39	0x3dccbc7f	0.0999689
40	0xbd8093ca	-0.062781885
41	0xbd49b139	-0.04924128
42	0xbd9736f9	-0.07383532
43	0x3d8fe0da	0.07025309
44	0xbd41dd97	-0.047330465
45	0xbda15daf	-0.07879197
46	0x3d51937e	0.05116605
47	0x3d852d98	0.06502837
48	0xbe19f5fc	-0.15035242
49	0xbe39aad2	-0.18131569
50	0xbe331c19	-0.17491187
51	0xbd88ef50	-0.0668627
52	0x3b4add3b	0.0030954618
53	0x3d21c1f0	0.039491594
54	0x3d853e4e	0.06506024
55	0x3dce8de9	0.10085661
56	0x3e0c978b	0.13729684
57	0x3c6331cb	0.013866852
58	0xbbb761cb	-0.0055963746
59	0x3e257417	0.16157566
60	0xbd860261	-0.065434225
61	0xbca1d8d5	-0.019756714
62	0x3d403226	0.046922825
63	0x3d1f421b	0.038881402
64	0xbc0817f6	-0.008306494
65	0x3d3738f4	0.04473205
66	0x3d8a12c1	0.06741858
67	0x3d91822a	0.07104905
68	0x3d724c89	0.05915502
69	0x3b559e17	0.003259545
70	0x3d60a134	0.054841235
71	0x3d0ceac5	0.03440358
72	0x3d70af4a	0.05876092
73	0x3de10fda	0.109893516
74	0x3d8c9f45	0.06866316
75	0x3cb9c326	0.022676062
76	0x3e10e15d	0.1414847
77	0xbaa57158	-0.001262228
78	0xbbaa2a1f	-0.0051930095
79	0xbdc840a7	-0.097779565
80	0xbe537e44	-0.20653635
81	0xbd0f72bc	-0.03502153
82	0x3cb6c49a	0.022310544
83	0x3b1e204f	0.0024128144
84	0xbd88a8d1	-0.06672824
85	0xbd4d5e53	-0.050138783
86	0xbc03e882	-0.00805104
87	0xbe00df2d	-0.12585135
88	0x3dae7bee	0.085197315
89	0x3e1b4694	0.15163642
90	0xbcaf5be7	-0.021406127
91	0x3c973329	0.018457012
92	0x3d2ab004	0.041671768
93	0xbd94bc01	-0.072624214
94	0x3dc4c954	0.09608713
95	0x3d256c2b	0.04038636
96	0x3d8cb3ca	0.068702295
97	0x3dafe3a8	0.08588344
98	0xbd95b704	-0.07310298
99	0xbd17ce76	-0.03706213
100	0xbda7c5ca	-0.08192022
101	0xbe2ce52e	-0.168843
102	0x3da9d0e4	0.08291796
103	0xbe233e6f	-0.15941785
104	0xbdc73688	-0.09727198
105	0x3d166e2d	0.036726166
106	0x3c1d0367	0.009583331
107	0xbcdfab61	-0.0273034
108	0x3b87561a	0.004130137
109	0xbd4298d3	-0.047509026
110	0xbddaa2a8	-0.106755555
111	0x3dedeafe	0.11617087
112	0x3d57ecb5	0.052715976
113	0xbe02ac3e	-0.12761018
114	0xbdd185cf	-0.102306
115	0x3ce50e25	0.027960846
116	0xbd3a48dd	-0.045479644
117	0xbc7918e6	-0.01520369
118	0x3da3d320	0.07999253
119	0xbc39806a	-0.01132212
120	0xbd6fa830	-0.058510005
121	0x3d5d2f38	0.05400011
122	0xbcd97fb6	-0.026550155
123	0xbe04c5e2	-0.12966111
124	0x3cc9fd2e	0.024656858
125	0x3d01d064	0.031692877
126	0x3dcee13f	0.10101556
127	0x3e196239	0.14978875
128	0xbd68b061	-0.056808833
129	0xbd0d0a02	-0.034433372
130	0x3dad705b	0.08468696
131	0xbd87ffea	-0.066406086
132	0xbca76dab	-0.020438036
133	0xbdf41626	-0.11918287
134	0xbc5be4c1	-0.013421238
135	0xbce7cb0d	-0.028295064
136	0xbe05f696	-0.13082346
137	0xbddd6a75	-0.10811321
138	0xbcebc8d5	-0.028782288
139	0xbd8c862d	-0.068615295
140	0x3d75a851	0.059974972
141	0x3d978e27	0.0740016
142	0xbc884e25	-0.016638825
143	0xbe30fa93	-0.17283086
144	0x3d8d9595	0.06913296
145	0x3e10ed57	0.14153038
146	0x3d6e6e0d	0.05821042
147	0xbca54018	-0.020172164
148	0xbd83f433	-0.06443062
149	0xbdf27ef5	-0.118406214
150	0xbc416673	-0.011804211
151	0xbdb2ee5c	-0.0873687
152	0xbde96b4b	-0.11397418
153	0x3c343af1	0.011000381
154	0x3ccfa7c3	0.02534855
155	0xbcda474d	-0.026645327
156	0x3a1c67ae	0.0005966377
157	0xbc9ceab9	-0.019154893
158	0xbda5f464	-0.081032544
159	0xbd76ee25	-0.060285706
160	0xba7b2d27	-0.00095816184
161	0xbdbb99e0	-0.09160209
162	0x3d81173e	0.06303261
163	0x3dfa334f	0.122168176
164	0xbe0a0d5b	-0.13481657
165	0xbcdfda5a	-0.027325798
166	0x3d9e3067	0.07724076
167	0x3e1f719b	0.15570681
168	0xbddb6906	-0.10713391
169	0x3d4b10a2	0.04957641
170	0x3e0781d8	0.13233125
171	0xbba51db8	-0.005038943
172	0x3e29853b	0.1655473
173	0x3cf97907	0.030453218
174	0xbd6538e0	-0.055962443
175	0xbd2736ce	-0.04082375
176	0xbd5d1b2d	-0.053980995
177	0x3ce8de27	0.028426243
178	0xbe1acb3c	-0.1511659
179	0x3d089839	0.033348296
180	0xbde14469	-0.10999376
181	0x3e0e4104	0.13891989
182	0x3963ac92	0.00021712694
183	0xbdee557a	-0.11637397
184	0xbc83fa48	-0.016110554
185	0xbdd627fe	-0.10456847
186	0xbd39e8e4	-0.045388117
187	0xbcde13d5	-0.027109066
188	0x3dc81662	0.09769894
189	0xbd02ace6	-0.03190317
190	0xbd2f8f19	-0.042861078
191	0xbdfe38fe	-0.12413214
192	0xbd4c88bf	-0.0499351
193	0xbc22b4e8	-0.009930827
194	0xbceb78f4	-0.028744198
195	0xbd99e74d	-0.0751482
196	0xbd6b6af1	-0.057475034
197	0x3db0e03a	0.08636518
198	0x3d96a0aa	0.07354863
199	0x3e367243	0.17817025
200	0x3e48bb1f	0.19602631
201	0xbe01eca6	-0.1268793
202	0xbdfee39e	-0.12445758
203	0xbc6c3544	-0.014416996
204	0xbbf45d9f	-0.0074574496
205	0xbd5e4c01	-0.0542717
206	0x3ca7915f	0.02045506
207	0x3c8bc995	0.017063895
208	0x3df99d12	0.12188162
209	0x3da90ee9	0.08254797
210	0x3e0b3027	0.13592587
211	0xbcd51a24	-0.026013441
212	0x3d79639e	0.060886018
213	0x3c2ea0d4	0.010658462
214	0x3da183e4	0.07886484
215	0xbd7333af	-0.05937546
216	0xbdbbcdc8	-0.09170109
217	0xbdf050cc	-0.11734161
218	0x3cd13ee0	0.025542676
219	0xbdacfa68	-0.08446199
220	0xbd351eed	-0.044218946
221	0xbd9db70a	-0.077009276
222	0x3d888d24	0.066675454
223	0xbd3e8438	-0.046512812
224	0xbcb1e751	-0.021716746
225	0xbd167164	-0.03672923
226	0xba659750	-0.0008758204
227	0xbde3a084	-0.111146
228	0xbc1a2069	-0.009407141
229	0x3d03e862	0.03220404
230	0x3e393db6	0.18089947
231	0x3d6e5e44	0.058195367
232	0x3dbd853e	0.092539296
233	0x3d7f0c09	0.062267337
234	0xbd4d0af8	-0.05005929
235	0xbcb12a68	-0.021626666
236	0x3ddf4bc0	0.1090312
237	0x3d035daa	0.032071747
238	0xbe048aa2	-0.12943509
239	0x3de80c87	0.113305144
240	0x3d889a46	0.0667005
241	0xbd985bf5	-0.074394144
242	0xbd4786fc	-0.048712716
243	0xbdea2520	-0.11432862
244	0xbd87dfbd	-0.066344716
245	0xbdefadf8	-0.11703104
246	0xbdd198d2	-0.10234226
247	0xbd8fdcc3	-0.07024529
248	0xbda3b721	-0.079939134
249	0xbcbf4b2b	-0.023351273
250	0x3d06839b	0.032840353
251	0x3d464eef	0.04841512
252	0xbe741fde	-0.23840281
253	0xbe4ad116	-0.19806322
254	0xbd6890c2	-0.056778677
255	0xbddf95e7	-0.109172635

conv3.0.bias f4 [6]
0	0x3db9f38a	0.090796545
1	0x3d354299	0.044252966
2	0xb9328854	-0.00017026189
3	0x3de9bc41	0.1141286
4	0xbdd5833c	-0.104254216
5	0xbd30b4df	-0.043141242

conv3.1.weight f4 [6]
0	0x3f726b19	0.9469467
1	0x3f4d4aed	0.8019245
2	0x3f78846c	0.9707706
3	0x3f676998	0.903955
4	0x3f6cfd59	0.9257408
5	0x3f6742e9	0.9033647

conv3.1.bias f4 [6]
0	0x3cc92174	0.024552085
1	0xbcaf3c3c	-0.021391027
2	0x3d8637e3	0.06553628
3	0x3b7cf103	0.0038595803
4	0xbd406a0b	-0.04697613
5	0xbd796991	-0.06089169

conv3.1.running_mean f4 [6]
0	0xbdb13de2	-0.08654381
1	0x3e839b25	0.25704303
2	0xbeb7d214	-0.35902464
3	0x3e3cde21	0.1844411
4	0xbf376758	-0.71642065
5	0x3d6b283d	0.05741142

conv3.1.running_var f4 [6]
0	0x3e49076f	0.19631742
1	0x3e48a645	0.19594677
2	0x3e07692e	0.13223717
3	0x3e0fc639	0.1404046
4	0x3e1a3abc	0.15061468
5	0x3e83bb2d	0.2572874

conv4.0.weight f4 [16, 6, 5, 5]
0	0xbd074a01	-0.03302956
1	0x3d6a281c	0.057167158
2	0x3cda9097	0.026680274
3	0x3c81ad67	0.015829755
4	0xbd60c5b7	-0.054876056
5	0x3daac0c7	0.083375506
6	0x3d84fd39	0.06493611
7	0x3ac8aad5	0.0015309701
8	0xbdc2182e	-0.09477268
9	0xbb93ead8	-0.0045140795
10	0xbc9a0a43	-0.018803721
11	0xba822297	-0.0009928521
12	0xbd6af909	-0.057366405
13	0x3c03b9c5	0.008039896
14	0x3d1ba759	0.038001392
15	0xbce97461	-0.028497877
16	0x3d422ced	0.047406126
17	0x3d89e4ab	0.06733068
18	0x3d42406f	0.04742473
19	0xbd4561c7	-0.04818895
20	0xbd765b33	-0.060145568
21	0x3caf63d8	0.021409914
22	0xbd7673f1	-0.060169164
23	0x3a91f5c3	0.0011135865
24	0xbd258c2b	-0.040416878
25	0xba0e7e33	-0.0005435675
26	0x3c726308	0.014794119
27	0xbcfd268e	-0.030902173
28	0x3d2282ff	0.03967571
29	0xbc8defab	-0.017326197
30	0x3d5e735c	0.054309234
31	0x3cfe6b1f	0.031056939
32	0xbbb6b2f9	-0.0055755344
33	0xbd3d960b	-0.04628567
34	0xbd46e09e	-0.048554055
35	0x3cb8ad8b	0.02254369
36	0xbd379fe9	-0.044830237
37	0xbb855a3d	-0.004069595
38	0x3c99eb79	0.01878904
39	0x3d2c4dc4	0.04206635
40	0xbd5502a9	-0.05200449
41	0x3b0ad252	0.002118249
42	0x3c78e1ae	0.015190525
43	0x3d8fa325	0.07013539
44	0x3d28ddd5	0.04122718
45	0x3d3c2ca9	0.04594103
46	0x3dd0ebea	0.10201247
47	0x3d5e7f71	0.054320756
48	0x3d2746d5	0.040839035
49	0xbd4acdc7	-0.04951265
50	0x3ca69ce1	0.020338478
51	0x3d97b151	0.07406867
52	0x3d126ebe	0.035750143
53	0x3d2bc8d4	0.04193957
54	0xbd1a5229	-0.03767601
55	0x3d3dac72	0.046307035
56	0x3d81bf66	0.063353345
57	0xbdd73825	-0.105087556
58	0xbdc8ced5	-0.09805075
59	0x3d24e8b1	0.040260974
60	0x3b00a1ce	0.0019627693
61	0xbd17fc76	-0.037106
62	0x3d3da674	0.04630132
63	0x3d8e46c3	0.069470905
64	0x3ba4bb8a	0.005027239
65	0x3d2fe50b	0.04294304
66	0x3d8e7bde	0.069572195
67	0xbd4d066b	-0.05005495
68	0x3da64252	0.08118118
69	0xbbef4fb9	-0.007303205
70	0xbd8805ce	-0.06641732
71	0xbd2231d0	-0.039598286
72	0x3d6a87a1	0.057258252
73	0xbc8bd128	-0.017067507
74	0xbc26d400	-0.010182381
75	0xbd84d703	-0.06486323
76	0x3b51e4f5	0.0032027338
77	0x3cc061c1	0.023484113
78	0x3cd02328	0.025407389
79	0x3d20643d	0.039158095
80	0x3cdddc2a	0.027082521
81	0x3c393905	0.011305098
82	0xbc9c41cb	-0.019074341
83	0xbd17f080	-0.037094593
84	0xbd22a3db	-0.039707046
85	0x3d9490ec	0.07254204
86	0xbc5193cf	-0.012791588
87	0xbcc0913f	-0.023506759
88	0x3b921b38	0.004458811
89	0xbd1e2d3f	-0.03861737
90	0xbcde9234	-0.027169324
91	0xbc93683b	-0.017994037
92	0xbd401565	-0.046895403
93	0xbd603297	-0.054735746
94	0xbd1dd22d	-0.038530517
95	0xbd0c6b05	-0.03428175
96	0x3bc4ba6b	0.006003668
97	0xbc5223e4	-0.01282594
98	0x3d0810e9	0.03321925
99	0xbda1b644	-0.078960925
100	0x3d8d59a2	0.06901862
101	0x3b5f6853	0.0034089282
102	0xbcb37e02	-0.021910671
103	0xbd8eecbe	-0.06978749
104	0xbd023dd7	-0.031797256
105	0xbd99c326	-0.07507925
106	0xbd066ee0	-0.032820582
107	0x3b12b7bf	0.0022387353
108	0x3d114ffd	0.035476673
109	0x3cb77d1e	0.022398528
110	0xbd17e9aa	-0.037088074
111	0xbb6aaa1e	-0.0035806964
112	0x3c71390e	0.014723076
113	0x3be7e4b8	0.007076826
114	0xbdd7e2e1	-0.105413206
115	0xbc9f9822	-0.019481722
116	0x3d36da5f	0.04464185
117	0x3a71fc77	0.00092310406
118	0x3c9c8ed4	0.019111075
119	0xbd5ba204	-0.053621307
120	0x3c7a4327	0.015274799
121	0x3d52fdc6	0.05151155
122	0x3d6db56e	0.058034353
123	0xbd3a798a	-0.045526065
124	0xbd506d0b	-0.05088524
125	0xbcb15141	-0.02164519
126	0xbd80c0a9	-0.06286747
127	0x3d5552c6	0.052080892
128	0x3dc15876	0.09440701
129	0x3d874c52	0.06606354
130	0xbc30e957	-0.01079782
131	0x3a4c08b3	0.00077832787
132	0x3d5e37cd	0.054252435
133	0x3d1ed914	0.03878124
134	0x3d695cfd	0.056973446
135	0x3d166562	0.03671778
136	0x3d8da981	0.06917096
137	0x3dc3e7d1	0.095657
138	0x3a5fcf1b	0.0008537636
139	0x3be97dba	0.0071255835
140	0xbca7e797	-0.020496173
141	0xbcf0b4b5	-0.029383043
142	0xbe0f114f	-0.13971446
143	0xbd741726	-0.05959239
144	0xbcdfc92e	-0.02731761
145	0xbcdf5343	-0.027261382
146	0xbbe3eef8	-0.0069559775
147	0xbc961ed6	-0.01832525
148	0xbd7fe619	-0.062475298
149	0xbc1a0b5c	-0.009402122
150	0xbcc0c882	-0.02353311
151	0xbdad4a3f	-0.08461427
152	0x3cb94e6f	0.022620408
153	0x3db17084	0.08664039
154	0x3cb8df4c	0.022567414
155	0xbcc272de	-0.023736414
156	0xbbbdc566	-0.005791354
157	0x3cc38118	0.023865268
158	0x3d40f98c	0.047112986
159	0x3ca929fa	0.020649899
160	0x3d79ceb3	0.06098814
161	0x3d6e0ab3	0.058115672
162	0x3db456d3	0.08805623
163	0x3ccc3911	0.024929555
164	0xbc8e622c	-0.017380796
165	0x3da7c9dc	0.081927985
166	0x3d539639	0.051656935
167	0xbd81431a	-0.06311627
168	0xbd2f55cc	-0.04280643
169	0x3cebe918	0.028797671
170	0xbca87008	-0.020561233
171	0x3d458221	0.048219804
172	0x3ce4bae6	0.027921151
173	0xbd3cd8f5	-0.046105344
174	0x3c93fadd	0.018063957
175	0xbbd791ac	-0.0065786447
176	0x3b5b569c	0.0033468371
177	0xbb4c2b5b	-0.0031153772
178	0x3da65974	0.081225306
179	0x3d876c19	0.06612415
180	0x3ced77e5	0.028987834
181	0x3d559a49	0.05214909
182	0x3c38e802	0.011285784
183	0x3d1ca0d5	0.03823932
184	0xbd5c2a7f	-0.053751465
185	0x3c807a9d	0.015683467
186	0x3dc606e2	0.096692815
187	0xbc677771	-0.014127598
188	0xbcab3a86	-0.02090193
189	0xbbfac98f	-0.007653422
190	0xbb86a766	-0.004109311
191	0x3cbf1548	0.023325577
192	0x3c495add	0.01228973
193	0x3ced7b55	0.028989473
194	0xbc674b5a	-0.014117086
195	0x3cfb7c51	0.030698927
196	0xbcb27bba	-0.021787513
197	0xbc33a337	-0.010964206
198	0xbc5b957a	-0.013402337
199	0xbd2fae1b	-0.04289065
200	0x3cde2fad	0.027122343
201	0xbc9e3c4b	-0.01931586
202	0xbcfc8cdb	-0.030828884
203	0x3c0473e2	0.008084269
204	0xbb3b226f	-0.002855446
205	0x3e11e692	0.14248112
206	0xbd4e96a0	-0.050436616
207	0xbcd21b63	-0.025647825
208	0x3cef7c35	0.029234031
209	0x3cf55467	0.029947473
210	0x3cd54f36	0.026038747
211	0xbba06224	-0.004894512
212	0x3c0d496e	0.008623464
213	0x3d8c9f82	0.06866361
214	0x3de40e59	0.11135549
215	0xbd51df9e	-0.05123865
216	0xbcd1bee0	-0.025603712
217	0xbc2d12b0	-0.0105635375
218	0xbbe8df83	-0.007106723
219	0x3da885a3	0.08228614
220	0x3c7bc637	0.015367082
221	0x3c93f65e	0.018061813
222	0x3d051a7b	0.032495957
223	0xbd4b96aa	-0.04970423
224	0x3d574213	0.052553248
225	0x3c4a3aa2	0.012343081
226	0x3c2ba500	0.010476351
227	0x3dae4bba	0.085105374
228	0xbcb60a5d	-0.022221738
229	0x3c98f6e9	0.018672423
230	0x3c18e634	0.009332228
231	0xbd448384	-0.047976986
232	0x3da8e339	0.08246464
233	0x3de45831	0.11149634
234	0xbd15614d	-0.036469746
235	0x3d22c630	0.039739788
236	0xbd4768d8	-0.04868397
237	0x3b8c4f67	0.0042819264
238	0x3d91ccad	0.07119117
239	0x3d92f9d2	0.07176556
240	0x3c125d43	0.008933368
241	0xbce9b4bc	-0.028528564
242	0xbcd4ab1c	-0.025960498
243	0x3cbfc562	0.02340955
244	0x3d9f2cfe	0.077722535
245	0xbd0e0847	-0.034675863
246	0x3d9d81e9	0.07690794
247	0x3d164ab3	0.036692332
248	0xbcaebec2	-0.021331195
249	0xbcf89ae1	-0.03034729
250	0xbd99a23b	-0.07501646
251	0xbcbf32a1	-0.023339571
252	0x3ccfc34a	0.025361676
253	0xbc2e21e9	-0.010628202
254	0xbca23d56	-0.019804638
255	0xbd5e4a88	-0.054270297

conv4.0.bias f4 [16]
0	0x3ba7beac	0.0051191654
1	0x3d80181e	0.062546
2	0x3d71f281	0.05906916
3	0x3ce34302	0.027741913
4	0x3d6c635f	0.057711955
5	0xbd2b3ace	-0.041804127
6	0x3ce30bbc	0.027715556
7	0x3d793911	0.06084544
8	0xbd867854	-0.065659195
9	0x3d180ec3	0.037123453
10	0x3d2db1ad	0.042405773
11	0x3d6abada	0.0573071
12	0x3d902ae4	0.07039431
13	0x3d87a882	0.06623937
14	0x3d1b7ea8	0.037962586
15	0x3cfb1d94	0.030653752

conv4.1.weight f4 [16]
0	0x3fa071e2	1.2534754
1	0x3f9e2221	1.2354165
2	0x3f9d0084	1.2265782
3	0x3fa1ab6a	1.2630436
4	0x3f9abcb1	1.2088834
5	0x3f938ed7	1.1527966
6	0x3fa2bd89	1.2714092
7	0x3fa09ef8	1.2548513
8	0x3f9903af	1.1954249
9	0x3f9e1042	1.2348711
10	0x3f9c1b4f	1.2195834
11	0x3fa1b17f	1.2632293
12	0x3f9c7c4a	1.222543
13	0x3f98c5cb	1.1935362
14	0x3f9a4bfd	1.205444
15	0x3f9e53d1	1.2369329

conv4.1.bias f4 [16]
0	0x3db91469	0.09037096
1	0x3d4fc3d8	0.05072388
2	0x3da3cdf7	0.07998269
3	0x3dc1f99e	0.09471439
4	0x3df2907b	0.11843964
5	0x3d8d1018	0.06887835
6	0x3d8478f3	0.06468382
7	0x3da1d6a5	0.07902268
8	0x3d3a1b5e	0.045436256
9	0x3df6c8ec	0.120500416
10	0x3ddc4734	0.107557684
11	0x3d8886ed	0.0666636
12	0x3db3febc	0.08788821
13	0x3df2577c	0.118330926
14	0x3db17dd4	0.08666578
15	0x3d9d93ab	0.07694181

conv4.1.running_mean f4 [16]
0	0x3d88d859	0.0668189
1	0x3f104295	0.56351596
2	0x3df38434	0.1189045
3	0x3e02aba4	0.12760788
4	0x3e8972bf	0.26845357
5	0x3e82bd86	0.2553522
6	0x3e1f435f	0.15553044
7	0x3e7d3aa6	0.24729404
8	0x3d8d0b37	0.06886905
9	0x3e4e4b57	0.20145927
10	0xbeb6c9ac	-0.35700738
11	0x3d366909	0.044533763
12	0x3ef10e20	0.4708109
13	0xbe53dc32	-0.20689467
14	0xbc4f304f	-0.012645795
15	0xbe67baa7	-0.22629796

conv4.1.running_var f4 [16]
0	0x3dec5be0	0.11540961
1	0x3dcd9418	0.10038012
2	0x3ddb1720	0.1069777
3	0x3e230e48	0.15923417
4	0x3e390fe8	0.18072474
5	0x3e04b987	0.12961398
6	0x3de6c7bf	0.11268567
7	0x3de85359	0.11344022
8	0x3dd1806c	0.10229573
9	0x3e0e44ac	0.13893384
10	0x3d8a3105	0.06747631
11	0x3dfde9de	0.12398122
12	0x3d8c514e	0.06851445
13	0x3dbc27fc	0.09187314
14	0x3e068c3a	0.1313943
15	0x3d9db9e7	0.07701474

fc1.0.weight f4 [120, 400]
0	0x3d29122a	0.04127709
1	0xbd454baf	-0.04816788
2	0xbd2ddc81	-0.042446617
3	0x3b671f8c	0.0035266606
4	0x3b7eca08	0.0038877744
5	0x3d05b5d5	0.03264411
6	0xbb9f4102	-0.0048600445
7	0xbca47029	-0.020073013
8	0xbbe6f4ea	-0.007048239
9	0xb82a9eaf	-4.0678944e-05
10	0xbd5417df	-0.051780578
11	0x3d21a147	0.039460447
12	0x3cab9ba5	0.02094824
13	0xbc5853c5	-0.013203566
14	0xbd3ed46e	-0.046589307
15	0xbc72720d	-0.0147977
16	0xbd188148	-0.037232667
17	0xbcf0007f	-0.029297112
18	0x3cf3d7c8	0.029765978
19	0xbc4221e3	-0.0118489
20	0x3c89877e	0.01678824
21	0x3d2568c1	0.040383104
22	0xbd2f5fdb	-0.042816024
23	0xbbcd86c4	-0.006272169
24	0xbbe3ecbc	-0.006955711
25	0xbd28047c	-0.0410199
26	0xbc97f606	-0.01854993
27	0x3c9f7176	0.019463282
28	0xbcd61b54	-0.026136078
29	0xba23b6bf	-0.0006245188
30	0xbd2438af	-0.04009312
31	0xbc4fa957	-0.012674651
32	0x3cabe086	0.020981085
33	0xbccba931	-0.02486095
34	0xbd0a9a61	-0.033838633
35	0xbcdbbae5	-0.026822517
36	0xbc8f6580	-0.017504454
37	0xbc832f81	-0.016013863
38	0x3d1f73c4	0.038928762
39	0xbc832e5b	-0.016013315
40	0xbbe01fa1	-0.006839708
41	0xbb528a55	-0.003212591
42	0xbd3e457b	-0.04645298
43	0x3d22ea05	0.03977396
44	0x3bc688a6	0.00605877
45	0xbd05c9fd	-0.032663334
46	0x3d09488e	0.03351646
47	0x3cdb2fa0	0.026756108
48	0xbc48247f	-0.012215733
49	0x3cfd2130	0.030899614
50	0xbd00a6ea	-0.03140918
51	0x3d0110d7	0.0315102
52	0xbc572baf	-0.013132974
53	0x3bb61021	0.005556122
54	0xbd23e12f	-0.040009674
55	0x3d1ea6ff	0.03873348
56	0x3c940d47	0.018072737
57	0xbd075d5b	-0.033048015
58	0xbcae899c	-0.021305852
59	0x3ce8aeed	0.028403724
60	0xbb9142fd	-0.0044330345
61	0x3d126a4d	0.035745908
62	0x3c75d22e	0.015003724
63	0x3d38c528	0.045109898
64	0xbbdbc199	-0.0067064282
65	0xb9772d90	-0.00023572729
66	0xbd3d9345	-0.046283025
67	0x3d441142	0.04786802
68	0x3d12e7f8	0.035865754
69	0x3d480a46	0.048837923
70	0x3c26e074	0.01018535
71	0x3cd451f4	0.025917985
72	0x3cc9ad1c	0.024618678
73	0x3d12351f	0.03569519
74	0xbc37e9d0	-0.011225179
75	0xbc90a8c9	-0.017658608
76	0x3d3c5859	0.045982692
77	0xba98cd67	-0.0011657894
78	0x3d0a16cf	0.03371316
79	0x3ace0909	0.0015719245
80	0x3d0fa939	0.035073493
81	0x3d3bac5f	0.045818683
82	0xbca95d41	-0.02067435
83	0xbcf79fa9	-0.0302275
84	0x3d0a36c0	0.03374362
85	0xbbaa356b	-0.005194356
86	0xbcc908b3	-0.02454028
87	0x39dd312b	0.00042189038
88	0x3d014c6b	0.03156702
89	0xbca431dd	-0.020043308
90	0xbbd84067	-0.006599474
91	0xbabc9ea2	-0.0014390538
92	0xbd2c9293	-0.04213197
93	0xbcb838a9	-0.022487955
94	0x3d046799	0.03232536
95	0xbb0c58ba	-0.002141519
96	0xbc987c32	-0.018613908
97	0xbc92c9c8	-0.017918482
98	0xbc2f3e22	-0.010695966
99	0xbd2852d3	-0.041094612
100	0xbc05a5c8	-0.008157201
101	0x3cb3e4af	0.02195963
102	0xbce84107	-0.02835132
103	0x3c8a8ddd	0.016913349
104	0xbd363b1d	-0.04448997
105	0x3be6a6f9	0.0070389477
106	0xbd0d4b22	-0.03449548
107	0xbcf7f429	-0.030267792
108	0x3c49a297	0.012306831
109	0x3d217692	0.039419718
110	0x3d042652	0.032263108
111	0xbcb2e14c	-0.021835946
112	0x3b5579a1	0.0032573717
113	0x3d28a0ef	0.041169103
114	0x3ca7720f	0.02044013
115	0x3c5f0a3b	0.013613279
116	0x3d4e03c7	0.05029657
117	0x3c2bda4a	0.010489056
118	0xbd14c2e4	-0.036318675
119	0xbd07c2db	-0.033144813
120	0xbc1689d0	-0.0091881305
121	0x3cf74d89	0.030188339
122	0xbce3e7f9	-0.027820574
123	0x3ca48916	0.020084899
124	0xbd346060	-0.044037223
125	0xbd1f21d0	-0.038850605
126	0x3d001859	0.03127322
127	0x3d0b83c7	0.03406122
128	0xbd0c4aed	-0.034251142
129	0xbc0490c1	-0.008091153
130	0x3cd4dee2	0.025985185
131	0x3ba649ff	0.005074739
132	0x3d0ba4dc	0.03409277
133	0xbd0f158d	-0.03493266
134	0x3bf1aeaa	0.007375558
135	0xbca8896c	-0.02057334
136	0xbd2d2db0	-0.0422799
137	0x3d2271dd	0.03965937
138	0x3cc1362a	0.023585398
139	0x3cd2218a	0.025650758
140	0x38b9fdc0	8.868752e-05
141	0x3d56726f	0.052355226
142	0x3cd3a3eb	0.025834998
143	0x3d159c49	0.036526
144	0xbcf0cddd	-0.029395038
145	0xbb61cdc1	-0.0034454914
146	0xb9732139	-0.00023186662
147	0xbb56f8b1	-0.003280204
148	0x3cbc867f	0.023013351
149	0x3d1adbfb	0.037807446
150	0x3d189c77	0.03725859
151	0xbc992a4d	-0.018696928
152	0xbccee0f5	-0.025253752
153	0x3d21f11e	0.039536588
154	0x3c13f339	0.009030157
155	0x3d210c0f	0.03931814
156	0xbc9392d7	-0.018014355
157	0xbbc925ac	-0.006138524
158	0x3cdddfa6	0.027084183
159	0xbca820dd	-0.020523483
160	0xbd1b7d10	-0.037961066
161	0xbd262634	-0.040563777
162	0xbc33b6f4	-0.010968912
163	0x3c0ec0e6	0.008712983
164	0xbd251653	-0.040304493
165	0xbc71544c	-0.014729571
166	0xbcc113b9	-0.023568975
167	0x3b1e730a	0.0024177455
168	0x3c03d3d3	0.008046108
169	0x3d3ec2e4	0.04657258
170	0xbce43926	-0.027859282
171	0xbd6c67d9	-0.057716224
172	0x3c8b6460	0.017015636
173	0x3bbea7df	0.0058183516
174	0xbd08a50f	-0.033360537
175	0xbd1ec777	-0.038764443
176	0x3d1044cb	0.035221856
177	0xbcd8e11a	-0.026474524
178	0x3c17664d	0.009240699
179	0xbc3ae224	-0.011406455
180	0x3ced078d	0.028934265
181	0xbd675293	-0.056475233
182	0x3d06fe1a	0.032957174
183	0x3c3ea5ec	0.011636239
184	0x3d289bf9	0.041164372
185	0xba5db1cd	-0.00084569753
186	0x3c9b66b1	0.018969866
187	0xbbaece09	-0.00533462
188	0xbca47520	-0.02007538
189	0xbc7535d6	-0.014966449
190	0xbd2ecff2	-0.04267878
191	0xbd01dea4	-0.031706467
192	0xbd053897	-0.03252467
193	0x3ca097f5	0.019603709
194	0xbc5609fb	-0.013063903
195	0xbcf20cbe	-0.029547092
196	0x3d46c591	0.048528258
197	0x3d045f56	0.032317482
198	0x3d1ff1d9	0.039049003
199	0x3cf7de16	0.030257266
200	0xbd206485	-0.039158363
201	0x3d2293aa	0.039691605
202	0xbd0b7db8	-0.03405544
203	0x3c999659	0.01874845
204	0x3bfbe3a7	0.0076870504
205	0x3c2a24bc	0.010384735
206	0x3c2b93a1	0.010472209
207	0x3cae95d1	0.021311672
208	0x3d5aab66	0.053386115
209	0xbb838d6b	-0.004014661
210	0x3d11495a	0.035470344
211	0x3caabbb6	0.02084146
212	0x3d14215f	0.036164638
213	0xbccac58a	-0.024752397
214	0x3ccc1c6d	0.024915898
215	0x3c2187df	0.009859054
216	0x3d0de5f5	0.034643132
217	0x3c909a3b	0.017651668
218	0x3bd7b0c6	0.0065823523
219	0xbd0599ed	-0.0326175
220	0xbbd700ed	-0.0065613897
221	0x3c428569	0.011872628
222	0xbca3e693	-0.020007407
223	0xbc7cf318	-0.015438817
224	0x3c6c90d0	0.014438823
225	0x3c643426	0.013928449
226	0x3c0d0d5c	0.008609142
227	0x3c8cf066	0.017204475
228	0x3c0bcf60	0.008533329
229	0xbce817e4	-0.028331704
230	0x3cd7ac93	0.026327407
231	0x3cbb3d0a	0.022856254
232	0xbd0259a9	-0.031823788
233	0xbc0fd886	-0.008779651
234	0xbd089b67	-0.03335133
235	0x3c50843a	0.012726838
236	0x3d5f2e7e	0.054487698
237	0xbc8c3369	-0.017114358
238	0xbcb93229	-0.022606926
239	0x3d194f5c	0.0374292
240	0x3c70ad1b	0.014689709
241	0xbb32b5e1	-0.0027269053
242	0x3d3b830b	0.04577927
243	0x3c7ffe2f	0.015624567
244	0x3aeab10f	0.0017905551
245	0x3c9bc30a	0.0190139
246	0x3c712c14	0.014719982
247	0xba000a1f	-0.00048843207
248	0xbd139612	-0.03603179
249	0xbcf0b5fe	-0.029383656
250	0xbbdab850	-0.006674804
251	0xbcc7d819	-0.024395036
252	0x3cb803ca	0.022462744
253	0x3b49a73a	0.003076984
254	0x3d176eda	0.03697095
255	0xbb87a617	-0.0041396725

fc1.0.bias f4 [120]
0	0xbc82fef6	-0.015990715
1	0x3ccc3100	0.024925709
2	0xbca4e482	-0.020128492
3	0x3cd809b2	0.02637181
4	0xbd06e3ab	-0.032931965
5	0x3d2aa58a	0.041661777
6	0x3d127b32	0.03576202
7	0x3d132395	0.035922606
8	0x39587dae	0.00020646185
9	0x3bf3c987	0.0074397954
10	0xbc977bcc	-0.018491648
11	0x3c00fa1b	0.00787213
12	0x3c96a54f	0.018389372
13	0xbcf3ede8	-0.029776528
14	0x3a9d3a90	0.0011995602
15	0xbbc9b19b	-0.0061552054
16	0xbb198089	-0.002342256
17	0x3ccf40ad	0.025299395
18	0x3c0f46dc	0.008744922
19	0x3ce5e354	0.0280625
20	0x3d3790fa	0.044815995
21	0x3cb94fb4	0.022621013
22	0x3c98cd5e	0.018652614
23	0xbb002c94	-0.001955782
24	0x3d27b22e	0.04094141
25	0xbb91c026	-0.0044479547
26	0xbd03575b	-0.03206573
27	0xbccd5e99	-0.025069522
28	0xbbd87239	-0.0066054133
29	0xbc6286f9	-0.013826125
30	0x3cf4821b	0.029847195
31	0x3c1a545f	0.00941953
32	0x3d5222a9	0.051302586
33	0xbc8b4149	-0.016998904
34	0x3d19737d	0.037463654
35	0x3b85bef7	0.0040816027
36	0x3cb20b89	0.021734016
37	0x3c8b9041	0.017036559
38	0x3d097a94	0.033564165
39	0x3d0786c3	0.033087503
40	0xbccda0a8	-0.025101021
41	0xbceeff87	-0.02917458
42	0xbc795894	-0.015218873
43	0xbc8ad40b	-0.016946813
44	0x3d116054	0.035492256
45	0x3b6a99d4	0.0035797255
46	0x3c3fc0d6	0.0117036905
47	0x3cd00583	0.025393253
48	0xbcb5f5de	-0.022211965
49	0x3cac03cc	0.020997904
50	0xbd24b4d2	-0.040211506
51	0x3bab7f46	0.005233678
52	0x3d206ad9	0.039164398
53	0x3b5b80be	0.0033493484
54	0x3bbeb65d	0.0058200792
55	0xbca7c447	-0.020479335
56	0x3c08226c	0.008308988
57	0xbcba9a6d	-0.022778714
58	0x3ca8d50a	0.020609397
59	0x3d299813	0.041404795
60	0x3c12e36c	0.008965354
61	0xbb717e59	-0.003684899
62	0x3becd128	0.007227082
63	0xbcfc2d1d	-0.03078323
64	0xbc642fa9	-0.013927379
65	0x3c834f68	0.016029075
66	0xbb21e124	-0.0024700845
67	0xbca0e34c	-0.019639634
68	0xbd139ec2	-0.036040075
69	0x3d8591c3	0.065219425
70	0x3c38a188	0.011268981
71	0x3c96fd4d	0.01843133
72	0xbce575df	-0.028010307
73	0xbc73e6e6	-0.014886593
74	0x3c8df67e	0.01732945
75	0x3d0e68e4	0.034768
76	0xbc9fa045	-0.019485602
77	0x3d06f2e7	0.032946493
78	0x3d07f793	0.03319509
79	0x3cb2896c	0.021794043
80	0xbca60396	-0.020265382
81	0x3cc49ab7	0.023999555
82	0x3ae87aa7	0.0017736749
83	0xbb5daf72	-0.0033826497
84	0x3d243cca	0.040097035
85	0xbd24d977	-0.040246453
86	0xb9295518	-0.00016148796
87	0x3a49b2a6	0.0007694162
88	0x3d03f045	0.03221156
89	0x3bc5ba98	0.0060342066
90	0xbc94a90d	-0.018147016
91	0x3b38e601	0.0028213265
92	0xbc01a36c	-0.007912498
93	0x3ce065d1	0.0273923
94	0xbb99476b	-0.004677703
95	0x3d1e5434	0.03865452
96	0x3d3b83f2	0.04578013
97	0xbbe343cf	-0.0069355736
98	0xbc8330c8	-0.016014472
99	0x3af6dfb6	0.0018834982
100	0xbced8da6	-0.028998207
101	0x3c5dcd85	0.013537769
102	0xbc1d5ca2	-0.009604605
103	0xbbaa229a	-0.005192113
104	0x3d59bcb7	0.053158488
105	0x3d71f02f	0.059066948
106	0x3d255b38	0.040370196
107	0x3ce9f4e4	0.028559156
108	0xbc8b74da	-0.017023493
109	0x3bdbfda2	0.006713585
110	0xbb8add84	-0.0042378325
111	0x3cff98ab	0.031200727
112	0xbc1ae3f0	-0.009453759
113	0x3b65ee2b	0.0035084586
114	0xbd513960	-0.051080108
115	0xbb91d23a	-0.00445011
116	0xbcc1bcd9	-0.02364962
117	0x3cbeb58b	0.023279926
118	0xbc6a3385	-0.01429451
119	0x3c92f58c	0.017939351

fc2.0.weight f4 [84, 120]
0	0x3b94445a	0.0045247497
1	0xbd0c82e6	-0.034304522
2	0x3d7fc8a8	0.06244722
3	0x3d1e60f9	0.0386667
4	0x3d6a8352	0.057254143
5	0xbc04b3e8	-0.008099534
6	0x3cb7fc37	0.022459133
7	0x3d8bd872	0.06828393
8	0x3cbce6e4	0.023059316
9	0xbd5e0553	-0.054204296
10	0x3d1ad7a5	0.03780331
11	0x3d7b627b	0.061373215
12	0xbd8c6f67	-0.06857186
13	0x3a41797f	0.000738047
14	0xbd8c3045	-0.06845144
15	0xbd9a1f58	-0.075255096
16	0xbd967eb4	-0.073483855
17	0xbaad4f9c	-0.0013222578
18	0x3d9b3e1e	0.07580207
19	0xbd9226aa	-0.07136281
20	0xbd95fbbb	-0.073234044
21	0xbd9c02fd	-0.076177575
22	0x3be236fc	0.0069035273
23	0x3d346df7	0.044050183
24	0xbd03e841	-0.032203916
25	0x3d0b7ad9	0.034052704
26	0x3daf955b	0.08573409
27	0x3d2ac36f	0.041690286
28	0xbbffda2f	-0.007807992
29	0xbd90e4ae	-0.07074867
30	0x3d7a126c	0.061052725
31	0x3c22e1c2	0.00994152
32	0x3da6f3ed	0.08151994
33	0xbd227c9d	-0.03966962
34	0x3d584b0b	0.05280594
35	0xb9b1bfe5	-0.00033903043
36	0x3d6f0b45	0.058360357
37	0xbd26b823	-0.04070295
38	0xbd670881	-0.056404594
39	0x3db07e6a	0.086178616
40	0x3d2576b8	0.040396422
41	0xbd8db2a7	-0.06918841
42	0xbda1810f	-0.07885944
43	0xbd4e0331	-0.050296012
44	0x3bb5ada4	0.005544381
45	0x3c7b14fd	0.015324828
46	0xbd38680b	-0.045021098
47	0xbc3fa3aa	-0.011696735
48	0x3d7f4ffd	0.062332142
49	0x3da9c6f2	0.08289899
50	0x3d2ee891	0.04270226
51	0x3c6d1060	0.014469236
52	0xbd334530	-0.043767154
53	0x3ce01b10	0.027356654
54	0x3c8ce9cf	0.017201332
55	0x3d831ca6	0.06401949
56	0xbd20196a	-0.039086737
57	0x3c9639a0	0.018338025
58	0x3d77980a	0.06044773
59	0x3d64a080	0.055817127
60	0x3d7bb99f	0.06145632
61	0x3d50ff80	0.051024914
62	0x3cdae379	0.026719796
63	0x3ce47a10	0.027890235
64	0x3d516b69	0.051127825
65	0xbd48ba49	-0.04900578
66	0x3ca65d14	0.020308055
67	0x3d9f3b91	0.07775033
68	0x3d2f4a23	0.04279531
69	0xbcce441e	-0.025178965
70	0x3d0eb967	0.034844782
71	0x3d87eefe	0.06637381
72	0x3d7ccbaf	0.061717685
73	0x3cb06006	0.021530163
74	0x3d983c0d	0.07433329
75	0x3b3dc5b5	0.0028956954
76	0x3d040032	0.03222675
77	0xbc2c49af	-0.010515614
78	0xbd971a98	-0.07378119
79	0x3c5b6bfe	0.013392447
80	0xbda73b73	-0.08165636
81	0x3ceaa286	0.02864195
82	0xbd0cca73	-0.034372758
83	0xbd978302	-0.07398035
84	0x3d9300bf	0.07177877
85	0xbc712a13	-0.014719504
86	0xbd497f80	-0.04919386
87	0xbd9e9311	-0.077428944
88	0xbcde6502	-0.027147774
89	0xbd0c1955	-0.034203846
90	0x3d36ebb4	0.044658378
91	0x3d7ed832	0.0622179
92	0x3d619813	0.05507667
93	0x3d861c4b	0.06548365
94	0x3d063361	0.032763842
95	0xba9548c6	-0.0011389486
96	0xbd39eebd	-0.045393694
97	0x3d46764c	0.04845266
98	0xbd8f840e	-0.07007609
99	0x3d56c811	0.052436892
100	0x3d4bc3c1	0.049747232
101	0x3d96c3ea	0.073615864
102	0xbbc66815	-0.006054888
103	0xbdad0018	-0.084472835
104	0xbd0b2b05	-0.033976573
105	0x3d116ed1	0.035506073
106	0xbcb0fc04	-0.021604545
107	0xbd31761e	-0.043325536
108	0xbd355706	-0.044272445
109	0x3c8fe8a7	0.017566992
110	0xbd84a9c6	-0.06477694
111	0x3d64d891	0.055870596
112	0xbd1fdb69	-0.039027605
113	0xbc4de5ef	-0.0125670275
114	0xbd5c0fba	-0.053725936
115	0x3d4e523f	0.050371405
116	0x3c9e0b70	0.019292563
117	0xbd22f796	-0.039786898
118	0x3d1d683a	0.038429476
119	0x3cf6ef6e	0.030143466
120	0xbd52aa39	-0.05143187
121	0x3d9d6271	0.07684792
122	0x3c19c952	0.009386377
123	0x3a8becbf	0.0010675414
124	0xbc658968	-0.014009811
125	0x3da50bbe	0.0805888
126	0xbc86e9d8	-0.016468927
127	0xbd96c48e	-0.073617086
128	0x3d2db45c	0.042408332
129	0xbd03a3aa	-0.032138504
130	0xbd93b824	-0.072128564
131	0xbc825f61	-0.01591462
132	0x3da7da3a	0.0819592
133	0x3d11980a	0.035545386
134	0xbd2770c4	-0.040879026
135	0xbd8b7704	-0.0680981
136	0xbcc320ac	-0.02381929
137	0x3d9c156c	0.076212734
138	0xbce51c73	-0.027967667
139	0xbbf5a806	-0.0074968366
140	0xbb92a670	-0.0044754073
141	0xbc691b69	-0.0142277265
142	0x3dfc8648	0.123302996
143	0xbd0ecfdf	-0.03486621
144	0x3c76c072	0.015060531
145	0x3af41ad9	0.0018623724
146	0xbcee128d	-0.02906158
147	0x3da52bd5	0.08065001
148	0x3d1614af	0.03664082
149	0x3c732e4b	0.01484258
150	0x3d71e191	0.059053008
151	0x3c176afa	0.009241814
152	0x3db49725	0.08817891
153	0xbc98d574	-0.01865647
154	0xbbc49693	-0.005999395
155	0x3c39e6ea	0.011346558
156	0xbd9b2a74	-0.07576457
157	0x3d303c9f	0.043026563
158	0x3dcb8192	0.09936823
159	0xbd47564c	-0.048666283
160	0xbd82eb40	-0.063925266
161	0x3db39048	0.08767754
162	0x3cee576e	0.029094424
163	0xbc1ed668	-0.009694673
164	0xbc1b88df	-0.009493082
165	0x3d51d0aa	0.05122439
166	0xbd0e1fb7	-0.034698214
167	0xbcb81845	-0.02247251
168	0x3dd64e7a	0.10464187
169	0xbdb8260d	-0.089916326
170	0xbd98a019	-0.07452411
171	0xbd92435d	-0.07141755
172	0xbace3490	-0.0015732218
173	0x3dad1077	0.08450406
174	0xbdc61cbf	-0.09673452
175	0xbcef906a	-0.029243667
176	0x3d6a3550	0.05717975
177	0xbd86c560	-0.06580615
178	0x3b8b75de	0.004255994
179	0xbd5daa4a	-0.05411748
180	0xbdb82dc4	-0.08993104
181	0xbd04542f	-0.032306846
182	0x3c1e4952	0.009661036
183	0xbcbf0d33	-0.023321724
184	0xbdb71b3a	-0.0894074
185	0x3b1563da	0.0022795112
186	0x3da1f155	0.079073586
187	0xbd9d1bbd	-0.07671306
188	0xbd8af4fe	-0.0678501
189	0x3d723cb3	0.05913992
190	0x3d441cc9	0.047879014
191	0x3d6568c8	0.05600813
192	0xbcd1cf8c	-0.025611661
193	0x3d971799	0.07377548
194	0x3d4f6d65	0.050641436
195	0xbcc9e004	-0.024642952
196	0x3db7d145	0.08975462
197	0xbcb8c442	-0.02255452
198	0xbd620e5d	-0.05518948
199	0xbd6a8026	-0.057251118
200	0x3d69b27a	0.057054974
201	0xbd39254c	-0.045201585
202	0x3cdb1711	0.026744397
203	0xbd5e07d0	-0.05420667
204	0x3d61dc28	0.055141598
205	0xbd479be0	-0.04873264
206	0x3dd0e9b4	0.10200825
207	0xbd6681ad	-0.056276012
208	0x3cf70b17	0.030156655
209	0xbcde11b8	-0.027108058
210	0xbaa3d223	-0.0012498539
211	0x3db1e00c	0.08685312
212	0xbbb4f29d	-0.005522086
213	0x3bba48c4	0.005684944
214	0xbca0cfa2	-0.019630257
215	0x3cad48a5	0.021152804
216	0x3d0e74ed	0.034779478
217	0xbd8338ff	-0.064073555
218	0xbda69e69	-0.08135683
219	0xbc3097dd	-0.0107783945
220	0x3dd20274	0.10254374
221	0x3c92e42e	0.01793107
222	0xbd4f175d	-0.05055939
223	0xbd73aa9f	-0.05948889
224	0x3d800c0b	0.06252297
225	0x3d643484	0.055714145
226	0xbd99a1a1	-0.075015314
227	0x3e03d32d	0.12873526
228	0x3e101e3a	0.1407403
229	0xbb974777	-0.0046166736
230	0x3c791e8e	0.015205039
231	0x3d9f2c55	0.077721275
232	0xbdc8598a	-0.09782703
233	0xbd30d276	-0.04316946
234	0xbc67300d	-0.014110577
235	0xbd23dab6	-0.0400035
236	0xbcf4c2e7	-0.029878093
237	0x3c97b545	0.018519053
238	0x3dcd3dc5	0.10021547
239	0x3d80481c	0.06263754
240	0xbcbeac4d	-0.023275519
241	0x3d780255	0.0605491
242	0xbd7474ba	-0.05968163
243	0x3d8192a6	0.06326799
244	0xbdabb198	-0.08383483
245	0xbada8a19	-0.0016673236
246	0x3d27f279	0.041002724
247	0x3d5379f8	0.05162999
248	0x3d2f09a4	0.042733803
249	0x3d34939e	0.04408609
250	0xbd555357	-0.052081432
251	0x3aeec432	0.001821643
252	0xbd7d07c7	-0.061774995
253	0xbc550970	-0.013002738
254	0xbd9c59ed	-0.076343395
255	0x3ca6510b	0.020302316

fc2.0.bias f4 [84]
0	0xbc9c7b0b	-0.01910164
1	0x3c674afa	0.014116997
2	0xbd802a59	-0.06258077
3	0x3cc68c83	0.024236923
4	0x3c01cf7d	0.007923004
5	0x3d880784	0.066420585
6	0xbc46e611	-0.012139813
7	0x3d890e3a	0.066921666
8	0x3db8622d	0.090031005
9	0xbdae52fd	-0.085119225
10	0xbd0c981c	-0.03432475
11	0xbcee8eb0	-0.029120773
12	0x3ba03997	0.0048896777
13	0xbda644d4	-0.08118597
14	0xbd99eb0a	-0.07515533
15	0xbd8f023f	-0.0698285
16	0xbd38e146	-0.045136712
17	0x3d1f6be8	0.038921267
18	0x3d844877	0.06459134
19	0x3da74a47	0.08168464
20	0xbd938b72	-0.072043315
21	0xbd970262	-0.07373501
22	0x3bcf89cc	0.0063335653
23	0xbd388345	-0.045047063
24	0x3d1226b7	0.035681453
25	0x3d9c59d9	0.076343246
26	0x3dc46fd3	0.09591641
27	0xbd0040f1	-0.031311933
28	0xbc0cf81e	-0.008604078
29	0x3d209f71	0.039214555
30	0x3d4acda9	0.04951254
31	0xbcb90bb6	-0.022588592
32	0x3cde4160	0.027130783
33	0x3d5e1c26	0.054226063
34	0x3d9b11b7	0.07571738
35	0xbb611681	-0.0034345689
36	0x3cab215c	0.02088993
37	0x3c2b073f	0.010438739
38	0x3d22eba0	0.03977549
39	0xbcfddc0a	-0.030988712
40	0x3dbf0572	0.093272105
41	0xbceb9aa9	-0.028760271
42	0xbd8f25e8	-0.06989652
43	0xbd3ed9e9	-0.046594534
44	0x3b081ba3	0.0020768426
45	0x3d78a023	0.060699593
46	0xbd0aa81e	-0.033851735
47	0x3d2c012f	0.041993316
48	0x3d5b6bc1	0.05356956
49	0xbb7e344a	-0.003878849
50	0x3d7a2c91	0.061077658
51	0x3d10f8a2	0.035393365
52	0xbd20d3bd	-0.03926443
53	0xbc165c3f	-0.009177267
54	0xbd8ff8e6	-0.070298955
55	0xbd2bdd4c	-0.041959092
56	0x3d88db5b	0.06682464
57	0xbda8b097	-0.08236807
58	0x3cd9febb	0.026610723
59	0x3c9553f9	0.018228518
60	0x3cc42431	0.023943039
61	0x3c4c0533	0.012452411
62	0xbd3afa31	-0.045648757
63	0x3d951c8b	0.07280835
64	0xbd81805f	-0.06323313
65	0x3d461943	0.048363935
66	0xbd12ea36	-0.035867892
67	0x3dab8f9b	0.08377
68	0xbba2341e	-0.0049500605
69	0xbce8c525	-0.028414318
70	0x3ccda142	0.025101308
71	0xbcd699ab	-0.026196321
72	0xbda4ade8	-0.080409825
73	0xbd8078a3	-0.0627301
74	0x3dad0f1c	0.084501475
75	0x3d95f07c	0.073212594
76	0x3ccd1650	0.025035053
77	0x3d141e39	0.036161635
78	0xbce5e68f	-0.02806404
79	0x3d1aa3dc	0.037753925
80	0x3cda7f3f	0.026672004
81	0x3d9580b9	0.072999425
82	0x3c43ecc0	0.011958301
83	0xbdbdae7e	-0.09261797
