计算机视觉实践-练习2/checkpoint/lenet_p/Saturday_15_April_2023_09h_55m_18s/lenet_p-14-best.pth (torch, 260575 bytes, 30 tensors)

conv1.0.weight f4 [6, 1, 5, 5]
-0.16195795 -0.013486755 -0.07994652 -0.07333995 0.13204202 0.016225781 -0.06425484 -0.08324372
-0.09121345 -0.024328979 -0.14091238 -0.11629718 -0.056865968 -0.21335796 -0.13992417 -0.10624009
0.13148369 -0.03465819 -0.0027022725 0.022324054 0.17441282 0.07528477 0.12289606 -0.038534682
-0.0029444098 -0.09989985 -0.013021269 0.0673665 -0.05677223 0.04148058 -0.0015400783 0.15710196
0.12509587 0.035710365 -0.12365818 0.0692286 -0.22745138 0.12491114 0.2528844 0.17152584
-0.019899419 0.066311166 -0.12283382 0.018453157 0.20438239 -0.14999633 -0.011822833 0.07257312
0.13263863 0.13991906 -0.078707315 0.06113151 0.06958594 -0.10053383 0.101364315 0.18306202
-0.033920765 -0.05532674 0.033100728 -0.04257307 0.06909697 0.1155203 0.052691817 -0.11242948
-0.14580122 0.18142653 0.21555956 -0.19201124 0.10205834 0.074404515 0.21463913 0.21332934
-0.07517853 0.015658965 -0.09400879 -0.009665904 -0.0062582036 0.010976378 0.17570046 0.10901768
-0.023018103 -0.27573523 -0.085815944 -0.124655716 0.10574 0.15923028 -0.08182849 -0.21057938
-0.13865097 -0.1405722 0.14109674 0.2992677 0.022879062 0.002571954 -0.069974236 -0.116367005
0.0036026714 0.08872909 0.08239773 0.03213296 0.008040547 0.13718243 -0.121367 -0.09681665
0.004073228 0.07182284 -0.118408665 -0.15482958 -0.06556477 -0.019818887 0.06767742 -0.14952116
-0.13398978 -0.01781509 0.17989874 -0.0129287755 -0.13048165 0.1354029 0.26893377 0.12987728
0.028189555 0.1263422 -0.06851623 0.114850245 -0.18580724 0.017752457 0.020244392 0.04909227
-0.03904449 0.0053336998 -0.034676943 -0.0044427332 -0.074051335 0.08037983 -0.024647007 0.1795502
0.17435996 0.31265727 0.06968427 -0.08369819 0.20573194 -0.06857007 -0.07027337 0.061445344
-0.062366087 -0.26153842 -0.18118495 -0.108185686 0.04692161 0.09355522
00000000: 4ed8 25be 8df7 5cbc 00bb a3bd 4133 96bd
00000010: 0636 073e eeeb 843c 0b98 83bd af7b aabd
00000020: 1ece babd 914d c7bc 564b 10be 372d eebd
00000030: 4aec 68bd 827a 5abe 4848 0fbe 6894 d9bd
00000040: a9a3 063e bff5 0dbd 9c18 31bb efe0 b63c
00000050: 4699 323e e72e 9a3d eeb0 fb3d 8bd6 1dbd
00000060: 00f7 40bb 4b98 ccbd 2957 55bc 73f7 893d
00000070: ff89 68bd 8ae7 293d 74dc c9ba 56df 203e
00000080: 2219 003e 0845 123d 8040 fdbd b9c7 8d3d
00000090: 04e9 68be 69d1 ff3d 107a 813e 78a4 2f3e
000000a0: 1b04 a3bc 26ce 873d 4c90 fbbd 132b 973c
000000b0: 9e49 513e a398 19be 8eb4 41bc 37a1 943d
000000c0: 6cd2 073e f146 0f3e 4d31 a1bd 0965 7a3d
000000d0: 1383 8e3d aee4 cdbd 1898 cf3d 9c74 3b3e
000000e0: 80f0 0abd 4b9e 62bd a194 073d 1961 2ebd
000000f0: b682 8d3d e895 ec3d 60d3 573d 6d41 e6bd
00000100: ea4c 15be e0c7 393e a5bb 5c3e 989e 44be
00000110: f703 d13d 6561 983d 5cca 5b3e 0273 5a3e
00000120: 33f7 99bd 3b47 803c ae87 c0bd bd5d 1ebc
00000130: 9e11 cdbb 44d6 333c d2ea 333e a944 df3d
00000140: 7690 bcbc 2b2d 8dbe 45c0 afbd 7f4b ffbd
00000150: 378e d83d 430d 233e b295 a7bd 1fa2 57be
00000160: 85fa 0dbe 29f2 0fbe aa7b 103e 9e39 993e
00000170: df6c bb3c 3a8e 283b a74e 8fbd d351 eebd
00000180: cc1a 6c3b 99b7 b53d 24c0 a83d da9d 033d
00000190: 80bc 033c 8d79 0c3e 438f f8bd cf47 c6bd
000001a0: b778 853b da17 933d 3e80 f2bd a58b 1ebe
000001b0: d246 86bd 385b a2bc 769a 8a3d 131c 19be
000001c0: 9e34 09be f4f0 91bc 6037 383e 37d3 53bc
000001d0: fb9c 05be 0fa7 0a3e b0b1 893e 8dfe 043e
000001e0: c8ed e63c da5f 013e 3d52 8cbd 9b36 eb3d
000001f0: 4144 3ebe 9a6d 913c 91d7 a53c fa14 493d
00000200: 1ded 1fbd 51c6 ae3b 6909 0ebd 5994 91bb
00000210: 3aa8 97bd 2e9e a43d 85e8 c9bc 02dc 373e
00000220: 6b8b 323e 9d14 a03e a0b6 8e3d f569 abbd
00000230: 65ab 523e 776e 8cbd 7ceb 8fbd 1dae 7b3d
00000240: 9573 7fbd 5de8 85be 8c88 39be 7590 ddbd
00000250: e030 403d e199 bf3d

conv1.0.bias f4 [6]
0.03444351 -0.1781767 -0.037740976 0.11308276 0.09927096 0.07620193
00000000: a314 0d3d f473 36be 4896 1abd ef97 e73d
00000010: 934e cb3d c20f 9c3d

conv1.1.weight f4 [6]
0.95584273 0.9070784 0.95125115 0.9202821 0.94252294 0.940997
00000000: 1cb2 743f 4a36 683f 3285 733f 9c97 6b3f
00000010: 2f49 713f 2ee5 703f

conv1.1.bias f4 [6]
-0.015442127 0.025923736 0.00703802 -0.06073638 0.019953324 -0.006280775
00000000: fa00 7dbc 045e d43c 319f e63b b6c6 78bd
00000010: 2775 a33c f6ce cdbb

conv1.1.running_mean f4 [6]
0.019570908 -0.15429927 0.0023824468 0.12738971 0.108192384 0.07034307
00000000: 2b53 a03c a100 1ebe d322 1c3b 7372 023e
00000010: f893 dd3d 0710 903d

conv1.1.running_var f4 [6]
0.52905566 0.63449156 0.6473779 0.20745921 0.3013958 0.2860402
00000000: 3170 073f 0a6e 223f 8fba 253f 3070 543e
00000010: 8d50 9a3e dc73 923e

conv2.0.weight f4 [6, 6, 3, 3]
-0.0752675 -0.13525313 0.017676486 -0.053816352 -0.06686727 0.008997664 -0.052117195 -0.045643512
-0.021076893 0.10194503 0.054035675 -0.032143533 -0.013818068 -0.1099238 -0.0865586 0.10491866
-0.14104885 -0.11362237 0.013388584 0.08824658 0.089066215 0.0510404 -0.016109105 -0.09596661
0.07978996 0.16818647 -0.14372627 0.10121666 -0.028129667 0.08478204 0.117544964 -0.05374961
0.03147173 0.035339624 0.13106422 -0.05182 -0.057259995 0.14163521 0.18429926 0.028080272
-0.07519714 0.026183663 -0.042193037 -0.084993064 -0.042908046 -0.017314278 -0.033480167 0.13181563
0.02287243 -0.003243814 0.050976764 -0.085987695 0.03223985 -0.06890179 0.04272806 -0.121908374
0.06016384 0.027312117 -0.109348 0.017012209 -0.09371943 -0.11616697 -0.057076573 0.0034585348
-0.12612438 -0.059940424 0.1706632 0.010397832 0.13097154 -0.07829349 0.017842693 -0.013942118
0.057576332 0.07902151 -0.03537122 -0.042466678 -0.027354922 -0.044361677 0.048029352 -0.11246337
-0.0028997927 0.007653731 -0.049437467 0.0627343 0.042514283 0.030203719 0.14592235 0.04549562
-0.0094768675 0.0606824 0.042356458 0.14841056 0.13593653 -0.119711846 -0.11214892 -0.063012734
0.013218188 -0.07370281 -0.0043599103 -0.010022019 -0.08915183 -0.035646178 0.059549958 0.16959043
0.23707817 -0.15503022 -0.019711092 0.04153641 -0.10299879 0.007306462 -0.09977762 -0.0476375
-0.0028657124 -0.095401436 0.022968084 0.11207064 -0.025199646 -0.12101012 -0.032987267 0.04580314
-0.07721565 0.033717595 -0.11316293 0.00038514775 0.17405608 0.019897463 -0.11303192 -0.015238337
-0.008434543 -0.020814553 0.05627175 -0.011463523 0.09660667 0.1239623 -0.012465309 0.08681278
0.0464821 -0.011047739 -0.059727736 0.0071537937 -0.037293896 0.03697142 0.032388933 0.07822046
-0.024472382 0.15971461 0.114981435 0.09034465 0.1136105 0.007109521 0.0036780369 -0.07318753
0.13020942 -0.0059592808 -0.0948779 0.11417093 -0.11943248 0.048326734 0.075120986 -0.032770973
0.119872175 0.123387985 -0.0126946345 0.13981049 0.024899129 0.11934396 0.08549658 -0.02472164
0.049399573 0.0032677038 -0.0031656325 0.009775127 -0.0020460335 -0.043382954 0.02214614 -0.018347941
0.042956464 0.034768406 -0.03343776 0.012017412 -0.12511478 -0.10633924 -0.12240814 0.086483225
0.055507734 0.055652272 0.088965066 -0.0060356995 0.09893475 0.02639778 0.14765109 0.11182259
-0.061391257 0.06339932 0.15980858 0.004585396 0.05264718 -0.05391117 -0.09891321 -0.19698252
-0.20883904 0.07699709 0.027865576 -0.10681167 0.19366716 0.023744693 -0.07672661 -0.012085601
-0.018293299 -0.049591273 0.035143882 -0.074059166 -0.07946008 0.03827145 0.11953817 0.106824614
0.06606121 0.14300318 0.046297267 0.028830552 -0.010881529 0.05832485 -0.09572949 0.02060904
0.108162224 0.053313322 -0.01865872 -0.07703026 -0.1367447 0.008765488 -0.123740695 0.021462929
-0.06615151 -0.017855262 -0.0010152113 -0.051716246 -0.04834448 0.05125711 -0.15692754 -0.12829444
-0.08802615 0.0071905055 -0.15452887 0.046470072 0.08601598 0.026548961 -0.057118703 0.08090861
0.15351339 -0.15327682 -0.03457506 0.019044977 0.047149584 0.011285792 -0.054651514 -0.023853866
00000000: d925 9abd cc7f 0abe 47ce 903c 896e 5cbd
00000010: b5f1 88bd f06a 133c d778 55bd b1f4 3abd
00000020: 73a9 acbc 8ec8 d03d 8354 5d3d f0a8 03bd
00000030: 2e65 62bc bb1f e1bd a345 b1bd 98df d63d
00000040: 1c6f 10be d8b2 e8bd cb5b 5b3c 9fba b43d
00000050: 5968 b63d bd0f 513d 3ef7 83bc 248a c4bd
00000060: eb68 a33d 1339 2c3e fb2c 13be ae4a cf3d
00000070: 3070 e6bc 35a2 ad3d 6abb f03d 8d28 5cbd
00000080: 80e8 003d 48c0 103d b335 063e 3541 54bd
00000090: 7589 6abd d208 113e f2b8 3c3e 9908 e63c
000000a0: f500 9abd 1f7f d63c 9bd2 2cbd d810 aebd
000000b0: 59c0 2fbd acd6 8dbc 8022 09bd adfa 063e
000000c0: f65e bb3c 2b96 54bb 03cd 503d 511a b0bd
000000d0: ef0d 043d 621c 8dbd 9e03 2f3d 19ab f9bd
000000e0: 5c6e 763d a9bd df3c d8f1 dfbd 305d 8b3c
000000f0: f9ef bfbd f3e8 edbd 20c9 69bd 96a8 623b
00000100: c026 01be 1784 75bd 55c2 2e3e ab5b 2a3c
00000110: 671d 063e 5658 a0bd d72a 923c 7b6d 64bc
00000120: 29d5 6b3d 08d6 a13d 6ae1 10bd 8af1 2dbd
00000130: 6e17 e0bc 97b4 35bd 6dba 443d 3253 e6bd
00000140: 730a 3ebb 26cc fa3b f17e 4abd d77a 803d
00000150: 7523 2e3d ca6d f73c ab6c 153e 9e59 3a3d
00000160: dd44 1bbc 1c8e 783d f77d 2d3d f0f8 173e
00000170: f232 0b3e 7c2b f5bd 55ae e5bd d20c 81bd
00000180: 1991 583c 80f1 96bd 94dd 8ebb 6533 24bc
00000190: 3c95 b6bd ba01 12bd a8ea 733d 1da9 2d3e
000001a0: 9fc4 723e 3ec0 1ebe 2879 a1bc 1522 2a3d
000001b0: 08f1 d2bd 0c6b ef3b 3558 ccbd 8a1f 43bd
000001c0: adce 3bbb d461 c3bd 9027 bc3c 4b85 e53d
000001d0: 7d6f cebc 27d4 f7bd a81d 07bd 139c 3b3d
000001e0: 3d23 9ebd 761b 0a3d f7c1 e7bd a8ed c939
000001f0: c23b 323e 0100 a33c 477d e7bd 38aa 79bc
00000200: 0a31 0abc 4883 aabc 357d 663d 80d1 3bbc
00000210: b8d9 c53d f2df fd3d 4c3b 4cbc e6ca b13d
00000220: 0464 3e3d 9301 35bc 12a5 74bd 5f6a ea3b
00000230: 7cc1 18bd 586f 173d 42aa 043d 0c32 a03d
00000240: 4e7a c8bc 3a8c 233e 637b eb3d 9e06 b93d
00000250: 9fac e83d fcf6 e83b 380b 713b 58e3 95bd
00000260: 9e55 053e 1246 c3bb 584f c2bd 73d2 e93d
00000270: 0499 f4bd 41f2 453d 08d9 993d db3a 06bd
00000280: 8b7f f53d d7b2 fc3d 28fd 4fbc 7b2a 0f3e
00000290: 42f9 cb3c 9b6a f43d d518 af3d 0985 cabc
000002a0: 3557 4a3d f926 563b 8076 4fbb db27 203c
000002b0: bf16 06bb 53b2 31bd d26b b53c 6c4e 96bc
000002c0: 1ef3 2f3d 5169 0e3d 08f6 08bd aee4 443c
000002d0: 171e 00be 63c8 d9bd 1eb1 fabd 1e1e b13d
000002e0: 145c 633d a3f3 633d 5133 b63d 1ec7 c5bb
000002f0: 4d9e ca3d 2840 d83c d931 173e 3e03 e53d
00000300: 6675 7bbd 81d7 813d dca4 233e 1741 963b
00000310: 92a4 573d f6d1 5cbd 0293 cabd c9b5 49be
00000320: e7d9 55be a6b0 9d3d 5946 e43c 14c0 dabd
00000330: af50 463e 3b84 c23c d722 9dbd af02 46bc
00000340: d4db 95bc 3820 4bbd 08f3 0f3d 55ac 97bd
00000350: f7bb a2bd 86c2 1c3d 6ed0 f43d ddc6 da3d
00000360: 1a4b 873d 6d6f 123e 34a2 3d3d 0d2e ec3c
00000370: 7148 32bc 0ae6 6e3d d30d c4bd 4ad4 a83c
00000380: 2884 dd3d 125f 5a3d 2cda 98bc 0ac2 9dbd
00000390: cd06 0cbe 1f9d 0f3c c36b fdbd 06d3 af3c
000003a0: 717a 87bd 3345 92bc d710 85ba 6ad4 53bd
000003b0: dd04 46bd faf2 513d 9db1 20be 9e5f 03be
000003c0: 0e47 b4bd 559e eb3b d13c 1ebe 6757 3e3d
000003d0: 2529 b03d 357d d93c 4df5 69bd 6ab3 a53d
000003e0: 9d32 1d3e 99f4 1cbe 949e 0dbd 3604 9c3c
000003f0: ec1f 413d 0be8 383c 44da 5fbd 2f69 c3bc

conv2.0.bias f4 [6]
0.109548785 0.079235904 0.05772761 -0.024117857 -0.08146676 0.08867361
00000000: 1d5b e03d 6f46 a23d c973 6c3d d092 c5bc
00000010: 0bd8 a6bd 829a b53d

conv2.1.weight f4 [6]
0.92798233 0.8738412 0.88310003 0.94294024 1.0220776 0.95044726
00000000: 4090 6d3f 0fb4 5f3f d812 623f 8864 713f
00000010: 70d3 823f 8350 733f

conv2.1.bias f4 [6]
0.05797584 0.0020699357 -0.011024292 0.14549868 0.040438637 -0.040722173
00000000: 1378 6d3d c2a7 073b 3b9f 34bc 9bfd 143e
00000010: fca2 253d 4bcc 26bd

conv2.1.running_mean f4 [6]
0.12693843 0.123300046 0.40871483 0.18404515 -0.24670216 -0.17288652
00000000: 26fc 013e bc84 fc3d 1243 d13e 5576 3c3e
00000010: 7e9f 7cbe 2a09 31be

conv2.1.running_var f4 [6]
0.4223723 0.33254436 0.42168826 0.45836315 0.44149148 0.4507034
00000000: 2f41 d83e 4143 aa3e 86e7 d73e 93ae ea3e
00000010: 2c0b e23e 99c2 e63e

conv3.0.weight f4 [6, 6, 3, 3]
0.023534507 0.048990943 -0.07363064 -0.17022188 -0.097149804 0.03289932 -0.036808785 -0.09800158
0.031979896 0.065538645 -0.08036624 0.084754266 -0.022681007 0.0072700894 -0.0076929294 0.113192335
-0.0021574667 0.047761463 0.07748287 0.086083256 0.08512372 0.100299686 -0.06681614 0.03879042
-0.07464019 -0.00740131 -0.13964058 -0.1306701 -0.03776325 -0.22235993 -0.009591077 0.07204291
-0.030850405 0.09576375 0.14552835 0.16486633 -0.00039168602 -0.039915845 0.07685337 0.0986076
-0.057089906 -0.062318135 -0.059534103 0.084055975 -0.051982686 -0.09284985 0.048748493 0.06546631
-0.14719635 -0.17746484 -0.16966295 -0.048090193 0.003737747 0.033784676 0.0768489 0.1155693
0.14560921 0.0054911356 -0.0046291593 0.16022868 -0.06322617 -0.029765736 0.06561868 0.042808544
-0.01034361 0.043768454 0.07687598 0.06558277 0.05614281 0.0032555044 0.05319511 0.04242036
0.06406412 0.113228515 0.076223 0.0217869 0.13403034 0.0017370171 -0.020962413 -0.10269583
-0.18761021 -0.031469762 0.03085322 0.010598159 -0.07870619 -0.05185571 0.000988755 -0.117867514
0.09566975 0.15620317 -0.02600889 0.005740818 0.03737047 -0.0632443 0.098341174 0.030791996
0.07357428 0.092236325 -0.0638569 -0.032883413 -0.07080443 -0.15395774 0.07029335 -0.1557873
-0.08522399 0.030910304 0.020021722 -0.020506473 0.0111904 -0.04311688 -0.092152886 0.116610944
0.050666463 -0.13613549 -0.096879765 0.035673846 -0.057888485 -0.00801355 0.08504763 -0.008283225
-0.06456678 0.052326474 -0.034793474 -0.13061835 0.026150767 0.02409907 0.09462844 0.15309076
-0.055946052 -0.023463972 0.096160576 -0.06849153 -0.025766816 -0.104901955 -0.029182363 -0.039451577
-0.13029078 -0.10640663 -0.019475684 -0.07422264 0.053418275 0.057931695 -0.029816572 -0.16773555
0.063694134 0.14824086 0.06861115 -0.032021776 -0.067214236 -0.113867424 -0.013497614 -0.076790154
-0.099168435 -0.00085517083 0.025424737 -0.0326167 -0.0049165078 -0.0136107765 -0.07867959 -0.06983773
-0.0062139975 -0.08749936 0.08487087 0.13306883 -0.121373065 -0.021847155 0.059851076 0.14181696
-0.098999314 0.043663204 0.14279646 -0.010617355 0.1660978 0.033389598 -0.06754988 -0.049738254
-0.053277027 0.03748758 -0.14859092 0.033246577 -0.108259745 0.13741212 0.0027854673 -0.109488465
-0.012970338 -0.09222468 -0.048693344 -0.029205488 0.10294195 -0.04052392 -0.06202453 -0.118833475
-0.040238295 -0.013407651 -0.008119809 -0.07978799 -0.058828723 0.07721022 0.056551356 0.18103777
0.1956763 -0.12061069 -0.096584566 -0.021032954 0.007993296 -0.040389113 0.016312506 0.029463338
0.10519636 0.0693172 0.1294729 -0.007486364 0.060972925 -0.004326924 0.08498634 -0.058544885
-0.09104981 -0.11004266 0.020594947 -0.08450678 -0.039340463 -0.082097515 0.055338252 -0.046474602
-0.006871178 -0.029532282 0.00051474187 -0.09753453 -0.007926646 0.033049114 0.1936593 0.051985726
0.07160614 0.06440926 -0.043609362 -0.027145034 0.09604582 0.04000377 -0.118303776 0.10589072
0.06846579 -0.06822228 -0.04427516 -0.11509782 -0.08307985 -0.11646169 -0.10764523 -0.07089705
-0.08144261 -0.03303021 0.038544226 0.049293008 -0.23628023 -0.19030245 -0.059201535 -0.10940373
00000000: 70cb c03c baaa 483d a9cb 96bd a54e 2ebe
00000010: 7af6 c6bd 70c1 063d cfc4 16bd 0db5 c8bd
00000020: 5afd 023d 2039 863d 0e97 a4bd a593 ad3d
00000030: 85cd b9bc ee39 ee3b f814 fcbb 62d1 e73d
00000040: 4964 0dbb 86a1 433d 57af 9e3d 6b4c b03d
00000050: 5855 ae3d ec69 cd3d e7d6 88bd b4e2 1e3d
00000060: f5dc 98bd b086 f2bb f1fd 0ebe 62ce 05be
00000070: a3ad 1abd 52b2 63be e523 1dbc 3c8b 933d
00000080: fdb9 fcbc c91f c43d 6205 153e b8d2 283e
00000090: 355b cdb9 cc7e 23bd 4d65 9d3d c8f2 c93d
000000a0: 1bd7 69bd 4d41 7fbd 08da 73bd 8a25 ac3d
000000b0: cceb 54bd 1028 bebd 80ac 473d 3313 863d
000000c0: a4ba 16be 58b9 35be 20bc 2dbe 39fa 44bd
000000d0: fdf4 743b cd61 0a3d f562 9d3d 99af ec3d
000000e0: 951a 153e fcee b33b 34b0 97bb fd12 243e
000000f0: b97c 81bd 46d7 f3bc 1663 863d 0358 2f3d
00000100: 3f78 29bc 8d46 333d 2771 9d3d 4250 863d
00000110: 01f6 653d 4d5a 553b 1ee3 593d f9c0 2d3d
00000120: 0d34 833d 5ae4 e73d ce1a 9c3d 717a b23c
00000130: 403f 093e 9fac e33a 5eb9 abbc 3152 d2bd
00000140: e41c 40be 70e6 00bd e4bf fc3c e7a3 2d3c
00000150: b630 a1bd a766 54bd 1d99 813a 8664 f1bd
00000160: 80ee c33d b9f3 1f3e 9810 d5bc 791d bc3b
00000170: c711 193d 3a86 81bd 1967 c93d 7f3f fc3c
00000180: 1dae 963d 66e6 bc3d 68c7 82bd c2b0 06bd
00000190: ea01 91bd 19a7 1dbe f6f5 8f3d b586 1fbe
000001a0: ea89 aebd 9b37 fd3c 9804 a43c 31fd a7bc
000001b0: f157 373c 539b 30bd a7ba bcbd b8d1 ee3d
000001c0: a387 4f3d 1a67 0bbe e668 c6bd bd1e 123d
000001d0: 7a1c 6dbd 444b 03bc 742d ae3d 5db6 07bc
000001e0: 973b 84bd 4954 563d 9a83 0ebd d1c0 05be
000001f0: 223a d63c 6a6b c53c 8ecc c13d d3c3 1c3e
00000200: b027 65bd 8437 c0bc d6ef c43d 4a45 8cbd
00000210: ee14 d3bc d6d6 d6bd da0f efbc fa97 21bd
00000220: f26a 05be b8eb d9bd 788b 9fbc 0a02 98bd
00000230: 1fcd 5a3d c949 6d3d e241 f4bc dec2 2bbe
00000240: 1272 823d 74cc 173e 0184 8c3d 4429 03bd
00000250: 9ea7 89bd 5333 e9bd 1925 5dbc 2844 9dbd
00000260: d218 cbbd 8b2d 60ba 8a47 d03c 1799 05bd
00000270: a81a a1bb bcff 5ebc c422 a1bd 1507 8fbd
00000280: ca9e cbbb dd32 b3bd c7d0 ad3d 3243 083e
00000290: 7192 f8bd cef8 b2bc 6726 753d 7738 113e
000002a0: 27c0 cabd 30d8 323d 3c39 123e 6af4 2dbc
000002b0: 8b15 2a3e 88c3 083d 9757 8abd 57ba 4bbd
000002c0: 0339 5abd 948c 193d 3828 18be 902d 083d
000002d0: 49b7 ddbd c3b5 0c3e 638c 363b 7d3b e0bd
000002e0: 8a81 54bc 4be0 bcbd ac72 47bd 5940 efbc
000002f0: 3bd3 d23d 69fc 25bd 6f0d 7ebd f75e f3bd
00000300: e9d0 24bd c4ab 5bbc f308 05bc e367 a3bd
00000310: 63f6 70bd 6420 9e3d 65a2 673d f761 393e
00000320: 5e5f 483e bd02 f7bd 21ce c5bd 4d4d acbc
00000330: 50f6 023c 0e6f 25bd cea1 853c 195d f13c
00000340: 3071 d73d 2df6 8d3d 8b94 043e 2c50 f5bb
00000350: bfbe 793d dfc8 8dbb 510d ae3d c3cc 6fbd
00000360: 5378 babd 0c5e e1bd bcb6 a83c e411 adbd
00000370: 7723 21bd be22 a8bd 5daa 623d 275c 3ebd
00000380: 9e27 e1bb afed f1bc beef 063a 2fc0 c7bd
00000390: c3de 01bc 825e 073d a04e 463e fcee 543d
000003a0: 3da6 923d 01e9 833d bb9f 32bd 435f debc
000003b0: acb3 c43d feda 233d 4049 f2bd 3cdd d83d
000003c0: cb37 8c3d 1fb8 8bbd df59 35bd 68b8 ebbd
000003d0: c525 aabd 7783 eebd 1a75 dcbd 7932 91bd
000003e0: 62cb a6bd af4a 07bd 8de0 1d3d 77e7 493d
000003f0: 72f3 71be a5de 42be 4f7d 72bd 100f e0bd

conv3.0.bias f4 [6]
0.09338659 0.04551693 -0.00017512079 0.11738707 -0.10722954 -0.044371337
00000000: 7841 bf3d f66f 3a3d a1a0 37b9 a268 f03d
00000010: 299b dbbd b8be 35bd

conv3.1.weight f4 [6]
0.9717361 0.8457676 0.98457557 0.92386335 0.9536391 0.93291247
00000000: b2c3 783f 3a84 583f 250d 7c3f 4f82 6c3f
00000010: b121 743f 5ad3 6e3f

conv3.1.bias f4 [6]
0.02909142 -0.007532344 0.0517596 0.013951227 -0.04128493 -0.038774688
00000000: 2151 ee3c e2d1 f6bb e001 543d b093 643c
00000010: 631a 29bd 35d2 1ebd

conv3.1.running_mean f4 [6]
-0.059153207 0.30644205 -0.3670962 0.2200983 -0.7016806 0.10125715
00000000: a24a 72bd f9e5 9c3e 08f4 bbbe 7361 613e
00000010: 57a1 33bf e95f cf3d

conv3.1.running_var f4 [6]
0.219599 0.20833609 0.15600404 0.15459618 0.1516687 0.2686123
00000000: 8fde 603e 0e56 553e 86bf 1f3e 764e 1e3e
00000010: 0a4f 1b3e 8d87 893e

conv4.0.weight f4 [16, 6, 5, 5]
-0.035079718 0.055618145 0.024662463 0.009886605 -0.053455 0.082086965 0.070476085 -0.0066748117
-0.09663335 -0.009244666 -0.027840326 0.0058508185 -0.0728032 -7.7713674e-05 0.037606366 -0.020418305
0.053373102 0.07324932 0.0455832 -0.04527129 -0.057189558 0.022621 -0.05749009 -0.0025509347
-0.047079537 0.005435235 0.008707224 -0.03526111 0.031064386 -0.02722005 0.061239816 0.023226831
-0.004802709 -0.05735765 -0.053453233 0.020240987 -0.03930897 0.0022784218 0.0051214513 0.042989697
-0.04664206 0.012807632 0.011670856 0.06324034 0.040934138 0.05076035 0.09769081 0.046002537
0.041263074 -0.044543948 0.018695187 0.05813038 0.01851991 0.054209787 -0.02719266 0.04979524
0.07388237 -0.0958844 -0.098136395 0.03950871 0.008491308 -0.033822488 0.047005326 0.06869696
0.004628584 0.046692323 0.065509215 -0.060304817 0.078135714 -0.010474314 -0.072909325 -0.036234614
0.05949263 -0.028723063 -0.014593759 -0.0764173 -0.0057245535 0.037104733 0.016449278 0.041086633
0.0318924 0.011728259 -0.020420477 -0.035396256 -0.03587891 0.07768533 -0.016519045 -0.027197788
0.013814769 -0.04925998 -0.029045975 -0.0077879904 -0.047599066 -0.050786134 -0.03437402 -0.028319133
0.0015064143 -0.024534909 0.041827563 -0.085182056 0.07005929 -0.003023523 -0.012469029 -0.0740826
-0.044447258 -0.062334836 -0.02883192 0.0070691914 0.02931318 0.020386776 -0.03744281 -0.0047594677
0.0038997557 0.0029255385 -0.1038159 -0.01877061 0.042056818 -0.0009989272 0.017780311 -0.056987304
0.020172942 0.06347927 0.05934366 -0.03680244 -0.049702425 -0.020285936 -0.052583635 0.05675704
0.096616976 0.06345533 -0.00491056 0.0022428979 0.04612301 0.0408701 0.0582619 0.022717731
0.064000145 0.09621611 -0.004362504 0.009785965 -0.019962475 -0.028759796 -0.1391953 -0.056133945
-0.03045901 -0.025412107 -0.0068826643 -0.027552428 -0.06246269 -0.005436069 -0.039103635 -0.08151301
0.020157922 0.080174476 0.017332219 -0.02125955 -0.0079985 0.023723193 0.04399695 0.014907607
0.06655142 0.06474877 0.083139524 0.024999594 -0.027232721 0.078976065 0.05344161 -0.06314089
-0.041914634 0.025598694 -0.026670657 0.052721035 0.029418591 -0.054310568 0.01628588 -0.012154559
0.013281955 0.0027365498 0.07960299 0.06731381 0.030927472 0.054553248 0.006895747 0.028830409
-0.05621404 0.013348841 0.09218872 -0.018047318 -0.01273898 -0.0070833317 -0.0010345659 0.020679398
-0.0022684357 0.030946309 -0.007747482 0.03038755 -0.018217428 -0.012565494 -0.011355901 -0.041839823
0.031212093 -0.016713453 -0.022839531 -0.0035789642 -0.0032109825 0.14226219 -0.038751304 -0.037855085
0.0297235 0.028154548 0.034988753 -0.000721374 0.018950384 0.07437377 0.1107593 -0.055818066
-0.02770629 -0.009494888 -0.0024255898 0.088406645 0.009089776 0.03347853 0.038810823 -0.055743475
0.04702503 0.007171123 0.02362169 0.07954822 -0.024922395 0.020651238 0.015159238 -0.053171262
0.071580775 0.1061952 -0.037163448 0.04100507 -0.042969417 -6.516798e-05 0.061647885 0.070209734
0.013870991 -0.016533997 -0.021975089 0.018081388 0.07998812 -0.04457693 0.07197414 0.033107486
-0.01236647 -0.02940319 -0.07492665 -0.02323457 0.023905775 -0.019691663 -0.019407827 -0.05002065
00000000: c0af 0fbd dacf 633d ef08 ca3c 6dfb 213c
00000010: a1f3 5abd 361d a83d c455 903d 61b8 dabb
00000020: b5e7 c5bd f176 17bc 6511 e4bc 39b8 bf3b
00000030: d819 95bd 36fa a2b8 2209 1a3d 4a44 a7bc
00000040: c19d 5a3d bd03 963d 73b5 3a3d 636e 39bd
00000050: 993f 6abd ad4f b93c bb7a 6bbd 952d 27bb
00000060: 79d6 40bd 0e1a b23b bfa8 0e3c f46d 10bd
00000070: bd7a fe3c 95fc debc 9ad6 7a3d 3246 be3c
00000080: 0b60 9dbb dbef 6abd c7f1 5abd 6dd0 a53c
00000090: 7102 21bd 9351 153b d9d1 a73b f715 303d
000000a0: bf0b 3fbd 1ad7 513c 1e37 3f3c 2784 813d
000000b0: 8eaa 273d 16ea 4f3d 1f12 c83d 286d 3c3d
000000c0: 7803 293d b773 36bd a626 993c 1f1a 6e3d
000000d0: 11b7 973c 150b 5e3d 24c3 debc 18f6 4b3d
000000e0: a44f 973d 0a5f c4bd bcfb c8bd e3d3 213d
000000f0: 211f 0b3c 7389 0abd a888 403d feb0 8c3d
00000100: 60ab 973b 7340 3f3d b229 863d 2f02 77bd
00000110: 9e05 a03d 759c 2bbc 7c51 95bd bf6a 14bd
00000120: 8bae 733d a14c ebbc a91a 6fbc ac80 9cbd
00000130: 0995 bbbb 22fb 173d a3c0 863c 754a 283d
00000140: 9ba1 023d e227 403c d848 a7bc aafb 10bd
00000150: c4f5 12bd 7c19 9f3d f352 87bc e5cd debc
00000160: 5757 623c d5c4 49bd d3f1 edbc 6632 ffbb
00000170: 3df7 42bd 1f05 50bd c6cb 0cbd 87fd e7bc
00000180: e072 c53a 6ffd c8bc 6153 2b3d ee73 aebd
00000190: 3f7b 8f3d 4c26 46bb e64a 4cbc 9eb8 97bd
000001a0: 540e 36bd d052 7fbd eb30 ecbc ada4 e73b
000001b0: 3222 f03c 2b02 a73c a25d 19bd 4ff5 9bbb
000001c0: 0b93 7f3b 64ba 3f3b 6e9d d4bd d3c4 99bc
000001d0: c543 2c3d 6fee 82ba 04a8 913c 856b 69bd
000001e0: ba41 a53c 6b01 823d 5612 733d 28be 16bd
000001f0: c594 4bbd b12e a6bc f061 57bd 127a 683d
00000200: 1fdf c53d def4 813d c3e8 a0bb 95fd 123b
00000210: 7beb 3c3d 6867 273d 08a4 6e3d 891a ba3c
00000220: 8212 833d f40c c53d 56f3 8ebb 5055 203c
00000230: 5888 a3bc aa99 ebbc 3689 0ebe b5ec 65bd
00000240: 2c85 f9bc 0d2d d0bc f987 e1bb a1b5 e1bc
00000250: e1d8 7fbd 0d21 b2bb 222b 20bd 4bf0 a6bd
00000260: 3a22 a53c 8432 a43d 4cfc 8d3c 8228 aebc
00000270: 240c 03bc 2457 c23c 2536 343d 093f 743c
00000280: 1c4c 883d 019b 843d 0e45 aa3d f3cb cc3c
00000290: 2817 dfbc 34be a13d 97e5 5a3d 0350 81bd
000002a0: aeae 2bbd 5ab4 d13c 6c7c dabc 03f2 573d
000002b0: 42ff f03c c274 5ebd f769 853c ea23 47bc
000002c0: 8f9c 593c b057 333b e406 a33d d3db 893d
000002d0: 9c5b fd3c 3a73 5f3d b8f5 e13b c02d ec3c
000002e0: b140 66bd 19b5 5a3c 71cd bc3d f8d7 93bc
000002f0: 28b7 50bc 4b1b e8bb 459a 87ba d767 a93c
00000300: 09aa 14bb 1d83 fd3c 97de fdbb 50ef f83c
00000310: b73c 95bc 80df 4dbc 1a0e 3abc 3c60 2bbd
00000320: 81b0 ff3c a7ea 88bc f819 bbbc 0e8d 6abb
00000330: 596f 52bb 2ead 113e b0b9 1ebd ef0d 1bbd
00000340: b37e f33c 5ea4 e63c 5e50 0f3d 971a 3dba
00000350: d63d 9b3c 4651 983d c6d5 e23d 7ca1 64bd
00000360: 4df8 e2bc 7290 1bbc a5f6 1ebb 8b0e b53d
00000370: 49ed 143c c820 093d 19f8 1e3d 4553 64bd
00000380: 519d 403d bdfb ea3b 4682 c13c 2dea a23d
00000390: 0d2a ccbc c92c a93c 745e 783c 1cca 59bd
000003a0: f198 923d de7c d93d b338 18bd eff4 273d
000003b0: b300 30bd cbaa 88b8 7e82 7c3d 1fca 8f3d
000003c0: 2743 633c 4e72 87bc 1a05 b4bc 6b1f 943c
000003d0: d0d0 a33d 4d96 36bd 2e67 933d b79b 073d
000003e0: bc9c 4abc f5de f0bc 2573 99bd 6d56 bebc
000003f0: 0bd6 c33c 6950 a1bc 2afd 9ebc 74e2 4cbd

conv4.0.bias f4 [16]
0.005265091 0.06433037 0.06075446 0.028533867 0.059359632 -0.04299669 0.028506452 0.06258251
-0.0675314 0.03818273 0.043614697 0.05894264 0.07240162 0.06813217 0.039044853 0.03152793
00000000: c986 ac3b a4bf 833d abd9 783d dbbf e93c
00000010: 1623 733d 4c1d 30bd 5d86 e93c 422b 803d
00000020: e74d 8abd 7f65 1c3d 53a5 323d d66d 713d
00000030: 4d47 943d e188 8b3d 7fed 1f3d 6e23 013d

conv4.1.weight f4 [16]
1.2463659 1.2386543 1.220477 1.2533442 1.212291 1.1630784 1.2620953 1.2481576
1.1890723 1.244309 1.2094141 1.2539078 1.2158618 1.1874 1.1947157 1.2285043
00000000: eb88 9f3f 398c 9e3f 9738 9c3f 956d a03f
00000010: 5a2c 9b3f c1df 943f 578c a13f a1c3 9f3f
00000020: 8533 983f 8445 9f3f 15ce 9a3f 0d80 a03f
00000030: 5ca1 9b3f b9fc 973f 72ec 983f a13f 9d3f

conv4.1.bias f4 [16]
0.093394056 0.05262563 0.08274124 0.09205586 0.116149314 0.06723316 0.06804832 0.08552262
0.05034981 0.11358717 0.10515801 0.06855369 0.08923038 0.113300666 0.08257763 0.07397842
00000000: 6245 bf3d f98d 573d 3d74 a93d c887 bc3d
00000010: b1df ed3d 8ab1 893d eb5c 8b3d 7c26 af3d
00000020: 9a3b 4e3d 64a0 e83d 155d d73d e165 8c3d
00000030: 6bbe b63d 2e0a e83d 761e a93d ff81 973d

conv4.1.running_mean f4 [16]
0.048899107 0.5907148 0.078821376 0.1366999 0.30751374 0.25217283 0.19087553 0.24927345
0.16464299 0.24286109 -0.37953612 0.0014237346 0.52032673 -0.30896762 0.002184959 -0.21122713
00000000: 6e4a 483d 1639 173f 1a6d a13d 0ffb 0b3e
00000010: 7172 9d3e cc1c 813e e074 433e 8a41 7f3e
00000020: 2c98 283e 94b0 783e 8f52 c2be 9b9c ba3a
00000030: 2234 053f 0131 9ebe 8731 0f3b ed4b 58be

conv4.1.running_var f4 [16]
0.13194157 0.10979996 0.12982607 0.20479515 0.22530583 0.16803475 0.12906891 0.13209337
0.12296212 0.18398821 0.0721083 0.14512849 0.07229311 0.10291435 0.15666197 0.08623724
00000000: b11b 073e cdde e03d 20f1 043e d2b5 513e
00000010: 92b6 663e 4d11 2c3e a42a 043e 7c43 073e
00000020: 90d3 fb3d 6867 3c3e 84ad 933d 909c 143e
00000030: 690e 943d c2c4 d23d ff6b 203e 269d b03d

fc1.0.weight f4 [120, 400]
0.042894077 -0.048414174 -0.042678487 0.003988671 0.0032387418 0.036169976 -0.0049337856 -0.019197013
-0.0067440234 -0.0005568194 -0.051399145 0.04070801 0.02112806 -0.012984351 -0.04664039 -0.014911115
-0.037423365 -0.027872056 0.032875735 -0.011756349 0.016058663 0.04239151 -0.04280003 -0.004802536
-0.0067666755 -0.04198848 -0.018376766 0.020048123 -0.027226927 -0.0018630384 -0.041374654 -0.013324676
0.021444371 -0.025597628 -0.034013078 -0.028425075 -0.018830592 -0.016317502 0.04020572 -0.016256072
-0.0064562303 -0.0016480383 -0.04800908 0.04252025 0.0070151514 -0.033675015 0.03502157 0.027105939
-0.012268812 0.032631718 -0.03341789 0.033146083 -0.013753709 0.0057335976 -0.041651852 0.04007707
0.018705346 -0.034584258 -0.023889147 0.028855946 -0.0040445067 0.036488593 0.016199144 0.04689453
-0.007950243 0.0013863661 -0.046778105 0.04789924 0.03653746 0.049250957 0.009568473 0.025101
0.023032054 0.03340595 -0.012630066 -0.019361906 0.04684579 -0.0015396127 0.03344065 0.0010773643
0.035912976 0.045224514 -0.021151625 -0.031425815 0.03546344 -0.004518485 -0.024055425 0.00019828953
0.03235102 -0.020078745 -0.0060394797 -0.0021407267 -0.04273138 -0.02271461 0.033299692 -0.0011762968
-0.018669752 -0.017732838 -0.010469965 -0.041817397 -0.009944285 0.021677451 -0.030704867 0.016980687
-0.045754883 0.006311242 -0.034291197 -0.03131744 0.012017402 0.04179992 0.03311547 -0.02407282
0.003591045 0.04264843 0.021230051 0.013866098 0.050567135 0.010622262 -0.03610379 -0.033221807
-0.009546859 0.030848496 -0.027958577 0.020990469 -0.045395568 -0.038396567 0.03292017 0.03526546
-0.03528311 -0.008629167 0.027987726 0.0059292093 0.033560812 -0.03403633 0.008077898 -0.022018528
-0.042404555 0.04172621 0.023548407 0.027522568 -0.0017043635 0.051895387 0.027301902 0.039158806
-0.03024775 -0.0043893796 -0.0003668547 -0.0032191705 0.023526128 0.03907497 0.037506018 -0.020088539
-0.02622877 0.039792534 0.008309294 0.039968718 -0.020342786 -0.008169608 0.026879687 -0.020238612
-0.039420154 -0.041614365 -0.011041513 0.009786861 -0.041421317 -0.014315461 -0.024612157 0.0030720143
0.0078017376 0.04854223 -0.028051024 -0.058714684 0.017872592 0.0074362424 -0.034241103 -0.039932095
0.036235306 -0.025822742 0.010806339 -0.011050292 0.030014282 -0.05557421 0.034895524 0.011311902
0.042601958 -0.0014678239 0.02086118 -0.0055004153 -0.021820154 -0.016413348 -0.043551326 -0.03364497
-0.034299735 0.01976039 -0.012983636 -0.031082433 0.04824526 0.03150523 0.038237654 0.031740762
-0.04069433 0.04107862 -0.03675869 0.017685058 0.008244589 0.010856924 0.011292443 0.018913308
0.0531027 -0.0046679405 0.036136247 0.021477887 0.03673182 -0.025492199 0.02563326 0.0074677477
0.032785237 0.016548118 0.0046846406 -0.0345621 -0.0072848136 0.010999142 -0.02185293 -0.015819078
0.014161449 0.01432375 0.0076188603 0.016081566 0.00868824 -0.029230794 0.026324293 0.02317341
-0.03238884 -0.010932572 -0.03466131 0.012208516 0.05499093 -0.018441731 -0.023401406 0.039364282
0.015422121 -0.0033772206 0.046537604 0.015165185 0.0018374708 0.019965498 0.015164257 7.407035e-05
-0.03600325 -0.029506572 -0.007283152 -0.024186179 0.021132933 0.0016832195 0.03731595 -0.0052186907
00000000: b3b1 2f3d f14d 46bd a3cf 2ebd 66b3 823b
00000010: 1241 543b f826 143d 98ab a1bb 0e43 9dbc
00000020: f8fc dcbb 84f7 11ba e987 52bd 71bd 263d
00000030: c114 ad3c 51bc 54bc fe09 3fbd c04d 74bc
00000040: 3e49 19bd f053 e4bc b5a8 063d b49d 40bc
00000050: 758d 833c b8a2 2d3d 164f 2fbd 985e 9dbb
00000060: fdba ddbb 1dfc 2bbd df8a 96bc f63b a43c
00000070: 010b dfbc 3231 f4ba 7878 29bd be4f 5abc
00000080: 1bac af3c 1eb2 d1bc 4c51 0bbd b4db e8bc
00000090: 9d42 9abc 48ac 85bc c1ae 243d 742b 85bc
000000a0: c98e d3bb fd02 d8ba 2ba5 44bd b729 2e3d
000000b0: 5bdf e53b d0ee 09bd c772 0f3d 460d de3c
000000c0: 2103 49bc d6a8 053d 33e1 08bd 30c4 073d
000000d0: 3d57 61bc e7e0 bb3b 229b 2abd db27 243d
000000e0: f43b 993c 39a8 0dbd 2cb3 c3bc 4e63 ec3c
000000f0: c887 84bb 1075 153d 11b4 843c 7b14 403d
00000100: bc41 02bc bab6 b53a 669a 3fbd fe31 443d
00000110: 4ea8 153d 5fbb 493d 16c5 1c3c 9da0 cd3c
00000120: b8ad bc3c add4 083d 56ee 4ebc dc9c 9ebc
00000130: 5fe1 3f3d d4cc c9ba 10f9 083d 5936 8d3a
00000140: 7c19 133d 573d 393d 2c46 adbc 5bb8 00bd
00000150: 1d42 113d cd0f 94bb e20f c5bc f1eb 4f39
00000160: 8182 043d 2e7c a4bc d4e6 c5bb 6f4b 0cbb
00000170: 1907 2fbd fd13 babc 4265 083d f92d 9aba
00000180: 4ff1 98bc 7544 91bc 378a 2bbc b848 2bbd
00000190: 5bed 22bc e994 b13c c688 fbbc 151b 8b3c
000001a0: 7969 3bbd 89ce ce3b ed74 0cbd b746 00bd
000001b0: a3e4 443c 6536 2b3d 16a4 073d 5d34 c5bc
000001c0: bd57 6b3b 1fb0 2e3d a5ea ad3c a12e 633c
000001d0: 7c1f 4f3d ff08 2e3c 91e1 13bd 9713 08bd
000001e0: 6e6a 1cbc fcb5 fc3c 6309 e5bc 34f4 ab3c
000001f0: b4f0 39bd b845 1dbd 4dd7 063d 8472 103d
00000200: 0685 10bd 5a61 0dbc 8446 e53c d049 c23b
00000210: 1077 093d ae69 0bbd 2959 043c 3360 b4bc
00000220: 66b0 2dbd 1ae9 2a3d 97e8 c03c 0277 e13c
00000230: f364 dfba 4290 543d 3da8 df3c fc64 203d
00000240: 21ca f7bc c9d4 8fbb 6856 c0b9 b8f8 52bb
00000250: deb9 c03c 130d 203d e99f 193d b890 a4bc
00000260: b8dd d6bc 7ffd 223d b423 083c 3db6 233d
00000270: eaa5 a6bc d2d9 05bc ca32 dc3c 72cb a5bc
00000280: 0777 21bd d373 2abd 76e7 34bc 1259 203c
00000290: 66a9 29bd 658b 6abc 6f9f c9bc d953 493b
000002a0: b8a5 ff3b 38d4 463d 43cb e5bc cf7e 70bd
000002b0: 8b69 923c b9ab f33b 6640 0cbd d68f 23bd
000002c0: 796b 143d 378a d3bc 120d 313c 490c 35bc
000002d0: 83e0 f53c c8a1 63bd 9cee 0e3d 8e55 393c
000002e0: 647f 2e3d ff63 c0ba 11e5 aa3c d43c b4bb
000002f0: 2ec0 b2bc 4975 86bc e062 32bd 4fcf 09bd
00000300: e17d 0cbd 8be0 a13c 51b9 54bc 96a0 febc
00000310: d29c 453d a10b 013d 169f 1c3d 9a02 023d
00000320: 19af 26bd 0e42 283d 4890 16bd 41e0 903c
00000330: 5014 073c 3de1 313c f003 393c 15f0 9a3c
00000340: 3782 593d 86f5 98bb 9a03 143d 65f2 af3c
00000350: 1b74 163d 04d5 d0bc d8fc d13c 02b4 f43b
00000360: d049 063d eb8f 873c 9d81 993b fd90 0dbd
00000370: 72b5 eebb bf35 343c ea04 b3bc 0397 81bc
00000380: 6c05 683c 29ae 6a3c a2a7 f93b 7dbd 833c
00000390: 1f59 0e3c 6b75 efbc 0ba6 d73c 2ad6 bd3c
000003a0: 29aa 04bd 881e 33bc 05f9 0dbd 3a06 483c
000003b0: 2b3e 613d 1d13 97bc 4eb4 bfbc 713c 213d
000003c0: 10ad 7c3c 5c54 5dbb 379e 3e3d 6577 783c
000003d0: 4ad7 f03a af8e a33c 8173 783c 3756 9b38
000003e0: 2578 13bd c4b7 f1bc 82a7 eebb 1822 c6bc
000003f0: f91e ad3c 799f dc3a 9cd8 183d 8d01 abbb

fc1.0.bias f4 [120]
-0.016632132 0.02508634 -0.020655647 0.027241489 -0.033221226 0.042441748 0.03692735 0.03569204
0.00016508513 0.008186342 -0.018751135 0.007891884 0.019187242 -0.031189604 0.0017045544 -0.006094987
-0.0023330082 0.026021719 0.008750594 0.02811254 0.0460755 0.023036355 0.020050481 -0.0021144322
0.04234801 -0.0047121807 -0.033014312 -0.025847284 -0.006731584 -0.014343478 0.030793061 0.009943557
0.052153096 -0.017407482 0.038783062 0.0040184148 0.022270726 0.017455423 0.034564584 0.033729002
-0.02580115 -0.030431213 -0.015503386 -0.018073386 0.036043175 0.003713722 0.0121337585 0.025431313
-0.02243237 0.021219105 -0.04164714 0.004716026 0.040708687 0.004269348 0.0049444656 -0.020901114
0.008440246 -0.023563303 0.020998372 0.04291871 0.009161763 -0.0032425467 0.007375217 -0.03199375
-0.01467397 0.016381085 -0.0022214947 -0.020413652 -0.037032824 0.06581601 0.011304695 0.01868146
-0.028503701 -0.015033932 0.017644826 0.03533809 -0.019434748 0.033273492 0.033631064 0.022433713
-0.019944413 0.024644222 0.0016381738 -0.0041487366 0.0414733 -0.041738037 3.210863e-05 0.0011709642
0.03309524 0.006075062 -0.018198961 0.0032352677 -0.00811621 0.027024746 -0.004521778 0.039741434
0.046490237 -0.00847642 -0.016878212 0.0015649273 -0.029333074 0.013836223 -0.009858608 -0.0053903544
0.053699624 0.06014919 0.04069028 0.02965573 -0.016554996 0.006811984 -0.004238157 0.032123983
-0.009911108 0.0035496303 -0.051667802 -0.0048096813 -0.024174638 0.023788527 -0.014403207 0.018297894
00000000: 1c40 88bc de81 cd3c 0836 a9bc 8b29 df3c
00000010: fb12 08bd 66d7 2d3d 2241 173d d131 123d
00000020: b41a 2d39 0220 063c fb9b 99bc f64c 013c
00000030: 902e 9d3c 5781 ffbc 5b6b df3a 75b8 c7bb
00000040: 62e5 18bb 802b d53c a75e 0f3c 454c e63c
00000050: aab9 3c3d bdb6 bc3c e840 a43c 4992 0abb
00000060: 1b75 2d3d a368 9abb 043a 07bd afbd d3bc
00000070: 9f94 dcbb e800 6bbc bb41 fc3c 4dea 223c
00000080: 7c9e 553d 239a 8ebc fdda 1e3d e8ac 833b
00000090: 1971 b63c adfe 8e3c 9893 0d3d 6c27 0a3d
000000a0: ef5c d3bc e14a f9bc ea01 7ebc a30e 94bc
000000b0: 02a2 133d eb61 733b accc 463c 5455 d03c
000000c0: 17c4 b7bc b0d3 ad3c 3196 2abd e588 9a3b
000000d0: 27be 263d e3e5 8b3b 2f05 a23b d038 abbc
000000e0: f548 0a3c d407 c1bc c704 ac3c 87cb 2f3d
000000f0: 381b 163c e880 54bb ceab f13b e10b 03bd
00000100: 176b 70bc a031 863c 7f96 11bb 883a a7bc
00000110: bbaf 17bd 8bca 863d 5437 393c dc09 993c
00000120: 9880 e9bc e250 76bc e28b 903c acbe 103d
00000130: 9f35 9fbc c949 083d bac0 093d e8c6 b73c
00000140: 7762 a3bc aee2 c93c feb7 d63a 20f2 87bb
00000150: e8df 293d 81f5 2abd 61ac 0638 0a7b 993a
00000160: e08e 073d 5011 c73b fd15 95bc c906 543b
00000170: daf9 04bc 0063 dd3c 6c2b 94bb eac7 223d
00000180: 8c6c 3e3d afe0 0abc 2d44 8abc 3f1e cd3a
00000190: ea4b f0bc 53b1 623c 0086 21bc 92a1 b0bb
000001a0: 23f4 5b3d ff5e 763d daaa 263d 93f0 f23c
000001b0: 589e 87bc 1037 df3b 3de0 8abb 7094 033d
000001c0: 3362 22bc eaa0 683b 9ea1 53bd 889a 9dbb
000001d0: e409 c6bc 28e0 c23c 6efb 6bbc 77e5 953c

fc2.0.weight f4 [84, 120]
0.0036642337 -0.035365436 0.063868456 0.040560406 0.058766525 -0.009400893 0.023084695 0.06688574
0.023195444 -0.054565303 0.03868589 0.06021267 -0.07008057 0.00032814647 -0.071582176 -0.07799346
-0.0755906 -0.00203566 0.075642 -0.07258663 -0.075322725 -0.077522896 0.008215822 0.045221135
-0.033072077 0.032968078 0.087349005 0.043379683 -0.00801433 -0.07127543 0.061539955 0.009156735
0.08293087 -0.04007834 0.053805377 -0.00021604 0.060362596 -0.043428026 -0.056773417 0.0876735
0.042585123 -0.07347654 -0.08095509 -0.053000767 0.007511118 0.014855019 -0.046312142 -0.0137640145
0.06438794 0.08359848 0.042642005 0.014173764 -0.046797607 0.02704746 0.015936973 0.06462606
-0.039052695 0.01849761 0.06098658 0.057393167 0.065578386 0.05218796 0.026231764 0.027288796
0.05161266 -0.05042807 0.020647507 0.08091214 0.043989856 -0.027350629 0.034423586 0.06622181
0.06132982 0.020641875 0.07705556 0.0031237267 0.03341273 -0.012856817 -0.07686106 0.013776867
-0.082590476 0.031097926 -0.034335386 -0.076300785 0.0743139 -0.015093563 -0.051837355 -0.07963043
-0.028221909 -0.035398398 0.046064503 0.062258586 0.057170283 0.06671472 0.033784967 -0.001201852
-0.04747105 0.046697646 -0.07311571 0.0526291 0.04914171 0.07635526 -0.006063687 -0.08506366
-0.035043202 0.03443295 -0.022509774 -0.045259476 -0.04562442 0.018056758 -0.066023 0.05744548
-0.041892424 -0.012926168 -0.052864693 0.052219577 0.01987837 -0.04202052 0.040323112 0.030921249
-0.051342323 0.078662515 0.010088467 0.00119398 -0.013578206 0.08075913 -0.017627798 -0.07150307
0.04403028 -0.032702625 -0.07315051 -0.01440526 0.079106644 0.037700094 -0.042385552 -0.066717185
-0.024212511 0.075982146 -0.028692666 -0.008818248 -0.0046104263 -0.014684701 0.121852115 -0.03583603
0.016254475 -0.0012426219 -0.027848125 0.07997153 0.03772035 0.017217638 0.057845555 0.013747911
0.08624788 -0.018110346 -0.0048595145 0.011858168 -0.07711559 0.04466072 0.09819199 -0.04985505
-0.06489932 0.08901286 0.0304995 -0.008004279 -0.008685101 0.052957788 -0.035612248 -0.01932209
0.10383486 -0.0867307 -0.07218409 -0.07016556 0.00027924214 0.08754112 -0.09246546 -0.027971257
0.057611138 -0.06931431 0.0047439886 -0.060125332 -0.09060199 -0.0355991 0.013109511 -0.020407174
-0.089458674 0.0004591096 0.07704614 -0.07947998 -0.069668755 0.060980283 0.045816142 0.06150807
-0.024208322 0.07425534 0.051862024 -0.026849482 0.08818294 -0.019382734 -0.05623188 -0.058920708
0.05394504 -0.0455383 0.025940455 -0.05411288 0.056630824 -0.049699455 0.103584506 -0.058552485
0.032248825 -0.028090468 0.00025580474 0.08780266 -0.005523869 0.0048650205 -0.020444978 0.021235293
0.036200095 -0.05987855 -0.082159854 -0.009370798 0.10441711 0.020160105 -0.051001016 -0.06279369
0.063573815 0.056584314 -0.07725282 0.12963602 0.13995646 0.001511797 0.017559111 0.07995367
-0.09558323 -0.044400174 -0.015450524 -0.04165491 -0.030822342 0.020261822 0.099482246 0.06510668
-0.022827763 0.06231155 -0.062304202 0.064337604 -0.08469723 -0.004611688 0.042298228 0.050354272
0.042882442 0.044270184 -0.050376527 0.0009423943 -0.062831976 -0.015091326 -0.07761618 0.020750113
00000000: a423 703b 59db 10bd 77cd 823d ab22 263d
00000010: 2bb5 703d 3406 1abc 1d1c bd3c 64fb 883d
00000020: 5f04 be3c de7f 5fbd 1975 1e3d 90a1 763d
00000030: 6786 8fbd 130b ac39 ad99 92bd 09bb 9fbd
00000040: 3fcf 9abd b568 05bb 31ea 9a3d 4da8 94bd
00000050: cd42 9abd 53c4 9ebd a89b 063c cc39 393d
00000060: 9676 07bd 8909 073d 09e4 b23d e5ae 313d
00000070: 894e 03bc daf8 91bd 5211 7c3d 2106 163c
00000080: a9d7 a93d 2f29 24bd 0763 5c3d cc88 62b9
00000090: c53e 773d 96e1 31bd 3e8b 68bd 2a8e b33d
000000a0: bd6d 2e3d de7a 96bd c8cb a5bd 5517 59bd
000000b0: d31f f63b 7762 733c cdb1 3dbd 7682 61bc
000000c0: d3dd 833d ae35 ab3d 62a9 2e3d 1339 683c
000000d0: d9ae 3fbd a392 dd3c 418e 823c ab5a 843d
000000e0: b8f5 1fbd 4d88 973c 10cd 793d 1915 6b3d
000000f0: f64d 863d 0bc3 553d ffe3 d63c c18c df3c
00000100: cc67 533d aa8d 4ebd f624 a93c 44b5 a53d
00000110: b52e 343d 6d0e e0bc bfff 0c3d 4d9f 873d
00000120: fa34 7b3d 2619 a93c 4ecf 9d3d 70b7 4c3b
00000130: c9db 083d 66a5 52bc 5569 9dbd 5eb8 613c
00000140: 3225 a9bd 14c1 fe3c 43a3 0cbd 9643 9cbd
00000150: e331 983d fe4a 77bc 6853 54bd 4715 a3bd
00000160: a231 e7bc e9fd 10bd 22ae 3c3d dc02 7f3d
00000170: 632b 6a3d baa1 883d 1b62 0a3d 7687 9dba
00000180: 0171 42bd 0846 3f3d b0bd 95bd 9c91 573d
00000190: d148 493d 2660 9c3d e5b1 c6bb db35 aebd
000001a0: 7689 0fbd 9109 0d3d 6b66 b8bc 0062 39bd
000001b0: ace0 3abd c4eb 933c 1137 87bd f44b 6b3d
000001c0: 6497 2bbd 47c8 53bc a688 58bd 32e4 553d
000001d0: f7d7 a23c b51d 2cbd d929 253d 8f4e fd3c
000001e0: 544c 52bd d019 a13d 194a 253c 527f 9c3a
000001f0: 2077 5ebc 0b65 a53d 2c68 90bc 3470 92bd
00000200: 1859 343d 30f3 05bd efcf 95bd 0a04 6cbc
00000210: aa02 a23d 6a6b 1a3d 799c 2dbd 05a3 88bd
00000220: 5159 c6bc 879c 9b3d e20c ebbc 6a7a 10bc
00000230: 0f13 97bb 1a98 70bc 9a8d f93d cdc8 12bd
00000240: 1b28 853c 79df a2ba c021 e4bc 1dc8 a33d
00000250: a780 1a3d 010c 8d3c 76ef 6c3d eb3e 613c
00000260: baa2 b03d 265c 94bc 903c 9fbb c348 423c
00000270: c7ee 9dbd 29ee 363d e218 c93d cf34 4cbd
00000280: efe9 84bd 604c b63d 16da f93c 6124 03bc
00000290: f44b 0ebc 44ea 583d 26de 11bd 5c49 9ebc
000002a0: 5fa7 d43d de9f b1bd 41d5 93bd f6b2 8fbd
000002b0: 3f67 9239 c248 b33d 885e bdbd fa23 e5bc
000002c0: a8f9 6b3d a9f4 8dbd 7673 9b3b fb45 76bd
000002d0: 898d b9bd 5dd0 11bd 46c9 563c f22c a7bc
000002e0: 1c36 b7bd a6b4 f039 5eca 9d3d 66c6 a2bd
000002f0: 7eae 8ebd 76c6 793d b5a9 3b3d e3ef 7b3d
00000300: 8850 c6bc 2f13 983d 466d 543d 72f3 dbbc
00000310: 4299 b43d 8ac8 9ebc 6653 66bd d756 71bd
00000320: 79f5 5c3d 5e86 3abd 1481 d43c 78a5 5dbd
00000330: b9f5 673d a891 4bbd 1d24 d43d bbd4 6fbd
00000340: 5817 043d fb1d e6bc 881d 8639 e2d1 b33d
00000350: 9201 b5bb c06a 9f3b 3a7c a7bc a3f5 ad3c
00000360: 8d46 143d 3643 75bd 6d43 a8bd fa87 19bc
00000370: a3d8 d53d ce26 a53c 71e6 50bd fa99 80bd
00000380: fd32 823d f4c4 673d ba36 9ebd 4ebf 043e
00000390: bf50 0f3e 7d27 c63a 20d8 8f3c c0be a33d
000003a0: 24c1 c3bd f5dc 35bd 3224 7dbc 579e 2abd
000003b0: 237f fcbc 1ffc a53c 59bd cb3d a756 853d
000003c0: 4a01 bbbc 653a 7f3d b132 7fbd 6fc3 833d
000003d0: be75 adbd a51d 97bb e840 2d3d 4840 4e3d
000003e0: 80a5 2f3d a754 353d 9e57 4ebd 030b 773a
000003f0: 0dae 80bd 9c41 77bc 3bf5 9ebd 24fc a93c

fc2.0.bias f4 [84]
-0.020095726 0.015213733 -0.0653544 0.024779653 0.007330901 0.06795129 -0.012405851 0.06836813
0.091881655 -0.08749126 -0.03498001 -0.029806834 0.004764925 -0.08348306 -0.07715223 -0.07147465
-0.046277173 0.039575856 0.06611559 0.083159715 -0.074087255 -0.07514117 0.006174589 -0.04668929
0.036699362 0.07822647 0.09828736 -0.03233624 -0.008156619 0.039954472 0.050455283 -0.023233276
0.027235243 0.055177316 0.07736914 -0.0030982676 0.020853898 0.010678427 0.040999338 -0.032316033
0.09493767 -0.029844858 -0.071403615 -0.04861915 0.00150039 0.061481737 -0.034816667 0.043436505
0.055098593 -0.003989544 0.06211078 0.037272397 -0.04034287 -0.009399125 -0.07242172 -0.043580797
0.068543404 -0.08481047 0.027370134 0.018504377 0.024924954 0.012612562 -0.04701058 0.07380592
-0.06504346 0.04848645 -0.037590787 0.08522927 -0.005091259 -0.029802546 0.025817866 -0.02669569
-0.08239249 -0.06463964 0.087008245 0.07509757 0.025864568 0.03675142 -0.028562605 0.03780369
0.027237698 0.07358541 0.012039074 -0.09540523
00000000: cb9f a4bc 0543 793c 87d8 85bd b3fe ca3c
00000010: 0e38 f03b 0c2a 8b3d e941 4bbc 9704 8c3d
00000020: 732c bc3d 9e2e b3bd 3347 0fbd 762d f4bc
00000030: 1723 9c3b 2bf9 aabd fd01 9ebd 4d61 92bd
00000040: 228d 3dbd 4b1a 223d 9c67 873d a44f aa3d
00000050: 0fbb 97bd 9de3 99bd 3554 ca3b 453d 3fbd
00000060: 1252 163d 3335 a03d e24a c93d 0173 04bd
00000070: 57a3 05bc 4da7 233d 33aa 4e3d b653 bebc
00000080: 721c df3c 9c01 623d b673 9e3d 4e0c 4bbb
00000090: cbd5 aa3c 92f4 2e3c ecee 273d d15d 04bd
000000a0: ae6e c23d 347d f4bc 0f3c 92bd e024 47bd
000000b0: bca8 c43a 46d4 7b3d ec9b 0ebd 7aea 313d
000000c0: 10af 613d b9ba 82bb e067 7e3d f1aa 183d
000000d0: 913e 25bd cafe 19bc d751 94bd c781 32bd
000000e0: 7c60 8c3d 1db1 adbd 5537 e03c 7e96 973c
000000f0: 6b2f cc3c eba4 4e3c 2a8e 40bd 8f27 973d
00000100: 8135 85bd ba99 463d ccf8 19bd af8c ae3d
00000110: 93d4 a6bb 7824 f4bc fd7f d33c ebb0 dabc
00000120: 65bd a8bd ca61 84bd 6131 b23d c1cc 993d
00000130: eee1 d33c a888 163d 20fc e9bc 0bd8 1a3d
00000140: 9821 df3c f3b3 963d 893f 453c d163 c3bd
