计算机视觉实践-练习2/checkpoint/lenet_b/Saturday_15_April_2023_10h_17m_50s/lenet_b-10-regular.pth (torch, 250379 bytes, 10 tensors)

conv1.0.weight f4 [6, 1, 5, 5]
0.24770792 0.2738006 0.16180372 0.14052373 0.23349425 0.38090935 0.35523817 0.39374295
0.30816114 0.10630615 0.10050227 0.2026765 0.21915431 0.24236865 0.21829253 0.2956097
0.24083497 0.057892848 0.23905052 -0.064102516 0.18366432 0.13197345 -0.09057196 -0.060115434
-0.008313382 -0.16795622 -0.034713246 -0.07320587 0.07449221 0.16063617 0.06130877 0.018106803
-0.1388733 -0.13071603 -0.09026866 -0.038123667 -0.033265755 0.091485545 -0.07223372 0.032298516
-0.16997686 0.16557357 0.051649723 -0.10895356 0.08376656 -0.07808181 0.05698991 0.11277956
-0.084955856 -0.12896426 0.1633706 -0.12464037 -0.18842939 -0.10004225 -0.038053025 -0.13141085
0.16936995 0.09208755 -0.17356692 -0.17504999 0.21982801 0.22732408 0.19657516 0.21259244
-0.058388848 0.2928433 0.00092392106 -0.006495796 -0.026475063 0.1768422 0.24379657 0.29538885
-0.03369155 0.052379843 0.21120489 0.13504444 -0.023699215 -0.16778672 -0.1946829 0.13590048
0.16880617 -0.07334508 -0.14942008 -0.1290074 -0.032703012 -0.112498246 -0.12915787 0.042902607
0.01919028 -0.045137424 0.1994837 0.085197 -0.070293464 0.11859546 -0.16376427 -0.18289392
-0.10967547 0.034034833 0.120232746 0.06969794 0.25624236 0.027183773 0.13035394 0.2916133
0.42884722 0.37227073 0.6210064 0.4439812 0.66820973 0.5455119 0.47598103 0.7351518
0.8703895 0.8094614 0.5392399 0.29359764 0.7108053 0.496606 0.6992937 0.60140705
0.21375172 0.43764076 0.47825298 0.48723558 0.3090038 0.11490995 0.053328294 0.15886773
0.2723551 -0.14264525 0.13660258 0.31050375 0.13727967 -0.0047864243 -0.04053959 0.21273944
0.10431307 0.17174008 -0.018441347 0.25897893 0.08161134 -0.012118413 -0.05260863 -0.15201987
0.21571392 -0.007626161 -0.080227435 0.004094952 0.1880129 -0.009331937
00000000: 25a7 7d3e 982f 8c3e e0af 253e 74e5 0f3e
00000010: 1e19 6f3e 8d06 c33e c7e1 b53e ad98 c93e
00000020: 4cc7 9d3e 0ab7 d93d 22d4 cd3d 6e8a 4f3e
00000030: fd69 603e 7d2f 783e 1488 5f3e 285a 973e
00000040: 719d 763e 0d21 6d3d a9c9 743e 2e48 83bd
00000050: 8012 3c3e 0c24 073e cb7d b9bd 9a3b 76bd
00000060: da34 08bc b7fc 2bbe 7a2f 0ebd f6ec 95bd
00000070: 5f8f 983d cf7d 243e e81e 7b3d b854 943c
00000080: cd34 0ebe 6cda 05be c6de b8bd 9027 1cbd
00000090: ac41 08bd c65c bb3d 46ef 93bd 734b 043d
000000a0: 6a0e 2ebe 1e8c 293e a98e 533d 0b23 dfbd
000000b0: cd8d ab3d 5be9 9fbd 406e 693d f8f8 e63d
000000c0: 56fd adbd 350f 04be 9f4a 273e 7343 ffbd
000000d0: a2f3 40be f3e2 ccbd 7ddd 1bbd 9190 06be
000000e0: 516f 2d3e 6698 bc3d 87bb 31be 4e40 33be
000000f0: 981a 613e a5c7 683e 004b 493e d5b1 593e
00000100: 2529 6fbd 8fef 953e 4b33 723a b0da d4bb
00000110: 3be2 d8bc 1f16 353e cfa5 793e 353d 973e
00000120: 2700 0abd 3f8c 563d 1846 583e 1749 0a3e
00000130: db24 c2bc 48d0 2bbe f45a 47be 7f29 0b3e
00000140: 86db 2c3e f235 96bd 9401 19be 841a 04be
00000150: 98f3 05bd 7b65 e6bd f641 04be a5ba 2f3d
00000160: ef34 9d3c 05e2 38bd 7445 4c3e c47b ae3d
00000170: 05f6 8fbd 2de2 f23d d2b1 27be 8b48 3bbe
00000180: 889d e0bd 1c68 0b3d 963c f63d cbbd 8e3d
00000190: 3332 833e 81b0 de3c 817b 053e 574e 953e
000001a0: dd91 db3e 459a be3e 47fa 1e3f 8151 e33e
000001b0: cb0f 2b3f aba6 0b3f c9b3 f33e e932 3c3f
000001c0: d9d1 5e3f dd38 4f3f a00b 0a3f 6e52 963e
000001d0: 56f7 353f 2443 fe3e e904 333f d0f5 193f
000001e0: bbe1 5a3e 7312 e03e 93dd f43e f176 f93e
000001f0: bf35 9e3e e855 eb3d c56e 5a3d 39ae 223e
00000200: 2172 8b3e 9911 12be 8ce1 0b3e 59fa 9e3e
00000210: 0b93 0c3e 70d7 9cbb d70c 26bd 5ed8 593e
00000220: 17a2 d53d a2dc 2f3e 4f12 97bc e398 843e
00000230: d923 a73d 4f8c 46bc 267c 57bd 19ab 1bbe
00000240: 1ce4 5c3e e0e4 f9bb 484e a4bd f22e 863b
00000250: 7486 403e fbe4 18bc

conv1.0.bias f4 [6]
0.103863515 0.077827975 0.18271595 -0.13618207 0.040035695 0.22874796
00000000: 65b6 d43d 4664 9f3d e419 3b3e 5073 0bbe
00000010: 78fc 233d e83c 6a3e

conv2.0.weight f4 [16, 6, 5, 5]
0.029088056 -0.007790886 -0.066719905 -0.049512185 0.06202944 -0.0029995977 0.03777782 -0.059522286
0.0601491 0.08718201 -0.043544695 -0.032328393 -0.10261036 0.05310591 0.11683562 -0.07225243
-0.043840617 0.0010835908 0.016470188 0.14040908 0.055095643 0.049302377 -0.0153726805 0.061851792
0.115859374 0.049121965 -0.012902739 -0.033794075 -0.027701536 -0.079644345 0.034588356 -0.051444393
-0.0017956636 -0.049901307 -0.06965478 0.06863225 0.049550008 0.00490736 -0.05361888 -0.072967246
0.02221583 -0.028352385 -0.051131383 0.044787496 -0.016336767 -0.006807501 0.044957835 0.06068173
-0.0067273397 -0.018867347 -0.04556811 -0.050099723 -0.039870802 0.047995627 0.08389138 -0.029175403
-0.050976712 0.028522072 -0.00010988064 0.075642675 0.018801339 -0.06673143 -0.10079934 -0.04609828
0.08313547 -0.0061108083 -0.067823865 0.035216544 -0.014565227 -0.050026212 0.08519837 -0.07036949
-0.06038358 -0.015114016 -0.021806307 -0.049182333 -0.009724569 -0.016940577 -0.05791438 -0.07078398
-0.04748132 -0.006407856 0.07804375 -0.026427856 0.014027883 0.055934764 -0.019479962 -0.012026759
-0.06855365 0.02925626 0.08002903 0.0004657859 0.06110491 0.03755032 -0.002418886 -0.043686267
-0.015531317 -0.03213592 0.0720002 0.051559202 -0.018290872 -0.0017369117 -0.024927968 0.016328033
0.14676048 -0.021556826 -0.1862847 -0.123778515 0.0015317479 0.15972216 -0.14815648 -0.2367086
-0.06278782 0.10906006 0.20145743 -0.03611947 -0.156967 0.036472097 0.11613216 0.08631153
0.020920591 0.054072388 0.22124533 0.0923016 0.081326 0.040859986 0.0753368 0.03690612
-0.054986402 0.0033516705 0.048828647 0.023039185 -0.007933277 0.021601425 0.09045802 -0.0820018
0.027633362 -0.08677459 0.059804372 0.061391126 -0.05331722 0.061532915 -0.07967162 0.02943387
0.030065745 0.0045078225 0.044304002 -0.043784276 0.07575475 -0.03969841 0.04634329 0.058550943
0.07842768 0.0767989 -0.0108629465 -0.00969355 0.020931978 0.058138665 0.058935225 -0.057198215
0.055903696 -0.0286638 -0.015864417 -0.031618323 -0.018587014 -0.06693156 0.048850052 -0.06801084
0.06017117 -0.07671347 -0.07359675 -0.029361777 0.055782426 -0.061219428 -0.0625512 0.032521587
0.052051533 -0.05824122 0.065237105 -0.061698686 0.0061619305 -0.02396786 0.063664235 0.037310872
-0.015552426 -0.029973898 -0.012079109 0.00036606772 0.07201718 -0.06660022 -0.06186372 0.07369858
0.056789707 0.020179464 0.03770246 0.038485788 0.03038638 0.05834401 -0.024680803 -0.025229452
-0.05044905 0.025898293 0.03792514 -0.050581943 -0.06387065 -0.069866486 -0.026916005 -0.08052402
0.029572729 -0.05639913 0.01058361 -0.037125155 0.07380452 0.021417694 0.070066765 0.06963299
0.047525313 0.055724096 0.06553599 -0.012141971 -0.056147255 -0.04837091 -0.038173005 0.025457237
0.062469922 -0.030773612 0.06175339 -0.00465544 0.055352096 0.06922784 0.024358261 0.03865252
0.02821435 -0.002016401 -0.014128035 -0.05700848 0.031467866 -0.025135964 -0.021842005 -0.020547545
-0.002559395 -0.008034342 0.017507251 -0.029246138 0.04474802 0.037085965 0.06844289 -0.011892688
0.031011531 0.04588674 0.02157484 -0.030304225 -0.04636198 -0.004486403 0.03460572 0.036215812
00000000: 134a ee3c b04a ffbb 72a4 88bd 4acd 4abd
00000010: 9512 7e3d e694 44bb eabc 1a3d a4cd 73bd
00000020: e75e 763d 7b8c b23d ec5b 32bd c76a 04bd
00000030: 6125 d2bd 9585 593d 8347 ef3d 15f9 93bd
00000040: 3892 33bd 4607 8e3a 7dec 863c 66c7 0f3e
00000050: f8ab 613d 4af1 493d b2dd 7bbc 4e58 7d3d
00000060: ae47 ed3d 1d34 493d 0366 53bc a86b 0abd
00000070: 55ee e2bc 931c a3bd 85ac 0d3d 5bb7 52bd
00000080: 795c ebba 5065 4cbd 2aa7 8ebd 118f 8c3d
00000090: f3f4 4a3d ebcd a03b 799f 5bbd da6f 95bd
000000a0: f9fd b53c 4343 e8bc 246f 51bd 1873 373d
000000b0: afd4 85bc 7511 dfbb b525 383d 688d 783d
000000c0: 0471 dcbb b28f 9abc a0a5 3abd 5e35 4dbd
000000d0: 914f 23bd 1097 443d 3ecf ab3d 4101 efbc
000000e0: f5cc 50bd 1fa7 e93c b86f e6b8 8cea 9a3d
000000f0: 4405 9a3c 7daa 88bd e26f cebd 8dd1 3cbd
00000100: ee42 aa3d 2d3d c8bb 3de7 8abd 393f 103d
00000110: fda2 6ebc 49e8 4cbd 7c7c ae3d e11d 90bd
00000120: c654 77bd c7a0 77bc 24a3 b2bc 6a73 49bd
00000130: cc53 1fbc f7c6 8abc a137 6dbd 31f7 90bd
00000140: c67b 42bd fef8 d1bb 67d5 9f3d 3b7f d8bc
00000150: 35d5 653c da1b 653d 7194 9fbc e20b 45bc
00000160: db65 8cbd d3aa ef3c 43e6 a33d ba34 f439
00000170: 2449 7a3d 5dce 193d 2c86 1ebb 5ff0 32bd
00000180: 1177 7ebc f4a0 03bd d774 933d be2f 533d
00000190: bdd6 95bc 16a9 e3ba bd35 ccbc 5ec2 853c
000001a0: 6148 163e f197 b0bc 6bc1 3ebe 977f fdbd
000001b0: eec4 c83a 358e 233e 55b6 17be bd63 72be
000001c0: e796 80bd e15a df3d db4a 4e3e 02f2 13bd
000001d0: f5bb 20be c463 153d b3d6 ed3d 19c4 b03d
000001e0: a961 ab3c 027b 5d3d 238e 623e 9f08 bd3d
000001f0: 3f8e a63d cd5c 273d 2e4a 9a3d df2a 173d
00000200: 6c39 61bd b3a7 5b3b 8c00 483d acbc bc3c
00000210: 93fa 01bc 79f5 b03c 0e42 b93d 8ff0 a7bd
00000220: 5c5f e23c e0b6 b1bd 6ef5 743d 4375 7b3d
00000230: 2863 5abd f009 7c3d e02a a3bd 4d1f f13c
00000240: 704c f63c 5bb6 933b 1d78 353d 2457 33bd
00000250: 4e25 9b3d cd9a 22bd 76d2 3d3d 1dd3 6f3d
00000260: b19e a03d be48 9d3d 80fa 31bc b2d1 1ebc
00000270: 8a79 ab3c cf22 6e3d 1066 713d ad48 6abd
00000280: 46fb 643d 58d0 eabc 18f6 81bc 3782 01bd
00000290: cb43 98bc 6a13 89bd fe16 483d 4449 8bbd
000002a0: 0b76 763d f41b 9dbd e5b9 96bd 1c88 f0bc
000002b0: 1d7c 643d 39c1 7abd d81a 80bd 5b35 053d
000002c0: fd33 553d 588e 6ebd 089b 853d c3b7 7cbd
000002d0: 05ea c93b 3f58 c4bc 6562 823d 49d3 183d
000002e0: 9acf 7ebc d28b f5bc 75e7 45bc c7ec bf39
000002f0: be7d 933d b265 88bd d064 7dbd 48ef 963d
00000300: 539c 683d 674f a53c e56d 1a3d 46a3 1d3d
00000310: dcec f83c 21fa 6e3d 652f cabc ffad cebc
00000320: aaa3 4ebd a828 d43c 6457 1b3d 032f 4fbd
00000330: 9ece 82bd 2916 8fbd f47e dcbc c7e9 a4bd
00000340: 8242 f23c c602 67bd e166 2d3c 8c10 18bd
00000350: d326 973d 2974 af3c 2a7f 8f3d be9b 8e3d
00000360: e7a9 423d f33e 643d bc37 863d 1eef 46bc
00000370: aafa 65bd 9320 46bd 4c5b 1cbd b28b d03c
00000380: 76e0 7f3d f118 fcbc 1ff1 7c3d a98c 98bb
00000390: e1b8 623d 53c7 8d3d fa8a c73c 1b52 1e3d
000003a0: c821 e73c 9825 04bb 4679 67bc b981 69bd
000003b0: 73e4 003d f0e9 cdbc 01ee b2bc 5353 a8bc
000003c0: 86bb 27bb 79a2 03bc 5e6b 8f3c 9995 efbc
000003d0: b349 373d 74e7 173d c92b 8c3d 8dd9 42bc
000003e0: e50b fe3c bcf3 3b3d b8bd b03c 9140 f8bc
000003f0: 0fe6 3dbd ad02 93bb babe 0d3d 0857 143d

conv2.0.bias f4 [16]
-0.008654444 -0.03225881 -0.04352415 0.024825698 0.0644576 0.0046460126 -0.06543321 0.033510666
-0.04203155 0.11523307 -0.09283903 -0.057979945 0.047292303 -0.090330265 0.11612618 -0.021555958
00000000: 5ecb 0dbc d021 04bd 6146 32bd 435f cb3c
00000010: 5902 843d 943d 983b d901 86bd 7b42 093d
00000020: 4629 2cbd 51ff eb3d 6422 bebd 617c 6dbd
00000030: 93b5 413d 13ff b8bd 90d3 ed3d 1f96 b0bc

fc1.0.weight f4 [120, 400]
0.003599598 0.0065636947 -0.026349578 -0.029630214 -0.040078487 0.034794673 0.005989653 -0.01939085
0.028599598 -0.034498736 -0.014553456 0.006794495 0.05016074 -0.0026772155 -0.0026732536 0.009406447
0.010965375 -0.0033745002 0.006082135 -0.042026993 -0.012381524 0.04777613 0.08216008 -0.023153512
0.036698353 -0.032519624 0.0015003018 -1.2567421e-05 0.0057048034 -0.00105093 -0.037102953 -0.00584029
0.0085478965 -0.00985299 0.0066305217 -0.03769227 -0.033270344 -0.034832213 0.024425618 0.0031429757
-0.043110896 0.014747945 0.026523056 0.028835146 -0.024511484 0.010855411 0.013497752 -0.016403718
-0.021963466 -0.03777639 -0.014135063 0.006955584 0.0061049317 0.03286527 0.05422173 -0.08838323
-0.0067732465 0.037985265 -0.0009983594 -0.037255563 0.04446717 0.003196699 -0.022358524 0.08687864
-0.028952328 0.0017138808 0.008734318 -3.9882758e-05 0.08456286 -0.07169427 -0.052830692 -0.055172134
-0.03119215 0.005762308 -0.0032356423 1.6910715e-05 0.040568 0.0022248295 -0.028420985 -0.02436212
-0.046900693 0.041596126 -0.02229113 -0.024506716 -0.023776477 -0.012257973 0.03420385 -0.030825043
-0.009067202 0.044546384 0.015247875 -0.032201 0.029899202 -0.03142598 -0.022606073 0.010641008
0.01928456 -0.040679667 0.0032592043 0.022732014 -0.0076640826 -0.0068876348 0.0100476835 0.0076277275
-0.0011998251 -0.053500507 0.0145110525 0.005498779 0.024380023 0.024891948 -0.03345953 0.014623012
0.013172805 -0.0345109 -0.035265196 -0.0063565136 -0.040561985 0.020007206 -0.012869844 -0.05060745
0.018390054 0.008656659 0.015399165 0.018341755 0.052311074 -0.008635501 -0.064076535 -0.031027786
0.043991417 0.037472185 -0.077539876 -0.052548252 -0.002223121 -0.061107 -0.07005659 0.021066
-0.024748508 0.0073676486 0.0021478487 -0.00643834 -0.011238182 -0.029929077 0.05855987 -0.032013368
-0.028299464 -0.05739278 -0.060218357 -0.020935005 -0.060741223 -0.090093486 -0.050090436 0.00663203
0.027454706 -0.030706907 0.03288039 -0.02062678 0.013749971 0.061652668 -0.0204683 -0.02355528
0.015708953 -0.02632313 -0.048518624 -0.03418153 0.043309323 -0.03770573 0.036589563 0.027783806
0.05675301 0.033543877 0.038645566 -0.028034437 0.04216533 0.008841812 -0.031225527 -0.028275127
0.023841048 0.020557255 -0.044894543 -0.0351579 0.039468717 0.026190078 -0.02326097 0.012541827
0.042331073 -0.011572922 0.009585494 -0.048220653 0.04549507 -0.023521822 0.047551464 -0.0063852086
0.006051308 -0.024798987 -0.010961278 -0.016411807 0.0039734324 0.027461113 -0.039914846 -0.019129058
-0.040149685 0.042729422 0.041241437 -0.00037874328 -0.009871989 0.033677254 0.036733918 0.039757982
-0.04763864 -0.014827478 -0.0124029275 -0.003448345 -0.046295892 -0.04066646 0.048713308 0.031100946
-0.018444981 -0.045652974 0.022464305 0.030674517 0.002250275 0.038938005 0.046417832 -0.013522841
0.02123762 0.010566938 -0.0050588027 0.03436085 -0.007828813 0.039359 0.017180856 -0.022876509
0.00093496544 0.040110912 0.024889285 -0.0368245 -0.030604335 0.041488953 0.0018153746 0.0032600155
-0.011331103 0.048364293 -0.0019343013 0.02840425 0.0095099 0.014008368 -0.0017977264 -0.0018811139
0.029550271 0.030106965 -0.010617771 -0.038977392 0.046414945 0.019060126 0.028718196 -0.05711896
00000000: 3ce7 6b3b 4314 d73b 12db d7bc 10bb f2bc
00000010: 5729 24bd dc84 0e3d da44 c43b 8fd9 9ebc
00000020: b449 ea3c 8c4e 0dbd 9e71 6ebc 5ba4 de3b
00000030: 5975 4d3d 3974 2fbb c131 2fbb 801d 1a3c
00000040: 1ea8 333c b826 5dbb a54c c73b 7f24 2cbd
00000050: e0db 4abc e7b0 433d 8b43 a83d 6fac bdbc
00000060: 0351 163d 4c33 05bd c6a5 c43a aad8 52b7
00000070: 5cef ba3b 5cbf 89ba 44f9 17bd e75f bfbb
00000080: 7a0c 0c3c 6f6e 21bc d944 d93b 3663 1abd
00000090: 7c46 08bd 39ac 0ebd 3c18 c83c 62fa 4d3b
000000a0: 0d95 30bd 5da1 713c e146 d93c af37 ec3c
000000b0: 4fcc c8bc e5da 313c ad25 5d3c 1761 86bc
000000c0: baec b3bc 6abb 1abd c096 67bc abeb e33b
000000d0: e10b c83b bc9d 063d 9b17 5e3d 4402 b5bd
000000e0: 1cf2 ddbb 7096 1b3d 62db 82ba 4a99 18bd
000000f0: 3523 363d b67f 513b 3929 b7bc 6eed b13d
00000100: 6f2d edbc 4ca4 e03a 631a 0f3c c947 27b8
00000110: 4b2f ad3d 72d4 92bd ff64 58bd 2dfc 61bd
00000120: ae86 ffbc bed1 bc3b 120d 54bb 7cdb 8d37
00000130: a22a 263d 72ce 113b 20d3 e8bc 1293 c7bc
00000140: f11a 40bd b360 2a3d e39b b6bc 4fc2 c8bc
00000150: e3c6 c2bc aad5 48bc 5619 0c3d cd84 fcbc
00000160: 9a8e 14bc 4576 363d 39d2 793c 32e5 03bd
00000170: 2cef f43c 87b8 00bd 5f30 b9bc 9f57 2e3c
00000180: a7fa 9d3c b99f 26bd 6098 553b 7d38 ba3c
00000190: fc22 fbbb abb1 e1bb 0a9f 243c 04f2 f93b
000001a0: 7343 9dba 5923 5bbd c4bf 6d3c 1a2f b43b
000001b0: 9db8 c73c 33ea cb3c dc0c 09bd 5c95 6f3c
000001c0: c0d2 573c 4d5b 0dbd 3d72 10bd 4d4a d0bb
000001d0: 5324 26bd 27e6 a33c 0adc 52bc c249 4fbd
000001e0: bda6 963c a9d4 0d3c c84c 7c3c 7341 963c
000001f0: 2344 563d eb7b 0dbc 8f3a 83bd fc2d febc
00000200: 5830 343d 6f7c 193d 3acd 9ebd d63c 57bd
00000210: c8b1 11bb 554b 7abd d479 8fbd 9b92 ac3c
00000220: 62bd cabc 516c f13b ecc2 0c3b b6f8 d2bb
00000230: 5a20 38bc d32d f5bc 79dc 6f3d 7320 03bd
00000240: 47d4 e7bc b114 6bbd 86a7 76bd e37f abbc
00000250: cacb 78bd ef82 b8bd a12b 4dbd 8051 d93b
00000260: b1e8 e03c 0d8d fbbc 96ad 063d 7ef9 a8bc
00000270: 8f47 613c 8287 7c3d 23ad a7bc 01f7 c0bc
00000280: 10b0 803c 9ba3 d7bc 77bb 46bd ef01 0cbd
00000290: 1e65 313d 5371 1abd f0de 153d dd9a e33c
000002a0: d875 683d 4e65 093d d04a 1e3d 7aa8 e5bc
000002b0: 8eb5 2c3d 3fdd 103c adcc ffbc 3da1 e7bc
000002c0: 4d4e c33c b067 a83c 57e3 37bd bb01 10bd
000002d0: f3a9 213d 938c d63c ca8d bebc 3c7c 4d3c
000002e0: 5963 2d3d 5a9c 3dbc 7a0c 1d3c 0583 45bd
000002f0: 0a59 3a3d d6b0 c0bc 53c5 423d 033b d1bb
00000300: 0d4a c63b 3f27 cbbc ef96 33bc 0e72 86bc
00000310: 9133 823b 21f6 e03c c07d 23bd 8bb4 9cbc
00000320: ff73 24bd 0c05 2f3d c8ec 283d 1092 c6b9
00000330: 1fbe 21bc 29f1 093d 4e76 163d 44d9 223d
00000340: bc20 43bd f3ee 72bc a635 4bbc a1fd 61bb
00000350: c3a0 3dbd e091 26bd 9b87 473d 69c7 fe3c
00000360: ee19 97bc 9dfe 3abd 1007 b83c 2049 fb3c
00000370: 5a79 133b 757d 1f3d a020 3e3d e88e 5dbc
00000380: 84fa ad3c f320 2d3c 50c4 a5bb f6bd 0c3d
00000390: 6c44 00bc e736 213d debe 8c3c 8467 bbbc
000003a0: 7818 753a 574b 243d 9de4 cb3c 49d5 16bd
000003b0: f1b5 fabc 52f0 293d ddf1 ed3a fca5 553b
000003c0: 17a6 39bc a319 463d 6288 fdba 08b0 e83c
000003d0: 69cf 1b3c 5b83 653c b0a1 ebba b58f f6ba
000003e0: 6913 f23c e2a2 f63c 29f6 2dbc c2a6 1fbd
000003f0: 991d 3e3d fb23 9c3c 6c42 eb3c 92f5 69bd

fc1.0.bias f4 [120]
0.0014040655 -0.020216187 0.027008612 0.00092945964 -0.013790887 -0.000178396 0.05513781 0.09160092
0.005243428 -0.012515233 0.011713545 0.005664185 0.06557339 0.039322816 0.03212818 -0.031129334
0.008200652 0.015548228 -0.0039082393 -0.020660838 -0.049910244 0.037599184 -0.050325487 -0.028664852
0.028228771 -0.036953814 0.03938147 0.0061468137 0.008114661 0.05259703 -0.05734186 0.016673757
0.01283677 -0.0051282216 -0.010602648 0.055792894 0.0043889447 0.004679019 0.005648628 0.05494251
0.05524059 -0.012391115 0.013476585 -0.030590544 -0.01870009 -0.012877068 -0.013021873 -0.012385839
-0.044821702 -0.04165859 0.035362624 -0.03967155 -0.048069414 -0.06754466 -0.01588814 -0.026816929
0.0100256 -0.019711526 0.033721566 0.025214206 -0.017172135 0.0055055604 0.015782785 -0.017854502
-0.0028118766 -0.0012081688 -0.0246267 -0.037782732 0.048660256 0.046526186 -0.0078070327 0.015514725
0.05842154 0.06214044 0.03796274 -0.02747294 -0.006866796 0.043312896 -0.0443893 0.03747923
-0.05891872 -0.043269247 0.036883138 0.016369686 -0.029272467 0.001946703 0.026002366 -0.04671973
0.009171665 -0.0004906352 -0.020335127 0.010469002 0.057580452 -0.04452925 0.029756723 -0.010187747
-0.0046658805 0.03374095 0.025259174 0.016712548 -0.024878552 -0.03293184 -0.009447868 0.04995469
-0.04979542 0.027322387 0.01539957 0.0016826902 0.04664128 -0.0120801395 -0.075825065 -0.027828157
-0.025923071 0.028766803 -0.020531897 0.041015662 -0.008304866 0.018913977 -0.019572264 0.02153268
00000000: 9f08 b83a 6b9c a5bc 2a41 dd3c fba6 733a
00000010: 2cf3 61bc d00f 3bb9 2fd8 613d 4399 bb3d
00000020: 10d1 ab3b b10c 4dbc 2bea 3f3c a19a b93b
00000030: 574b 863d f610 213d d798 033d f202 ffbc
00000040: 075c 063c ffbd 7e3c b010 80bb eb40 a9bc
00000050: af6e 4cbd 9a01 1a3d 1922 4ebd 8dd2 eabc
00000060: 0640 e73c e25c 17bd 774e 213d 366b c93b
00000070: 5bf3 043c fc6f 573d 4cdf 6abd 6797 883c
00000080: 5151 523c a40a a8bb bbb6 2dbc 1787 643d
00000090: 23d1 8f3b 7552 993b 2018 b93b 660b 613d
000000a0: f543 623d 1a04 4bbc e5cc 5c3c 0599 fabc
000000b0: ee30 99bc 56fa 52bc b259 55bc f9ed 4abc
000000c0: f696 37bd 33a2 2abd 66d8 103d a37e 22bd
000000d0: 6fe4 44bd db54 8abd d827 82bc 2daf dbbc
000000e0: 6a42 243c 117a a1bc a01f 0a3d 068e ce3c
000000f0: 94ac 8cbc fd67 b43b e64a 813c 9b43 92bc
00000100: 7647 38bb 6b5b 9eba efbd c9bc 11c2 1abd
00000110: fa4f 473d 3e92 3e3d 23d2 ffbb 7931 7e3c
00000120: 6d4b 6f3d f986 7e3d d17e 1b3d ee0e e1bc
00000130: dc02 e1bb dd68 313d 8ed1 35bd d283 193d
00000140: c154 71bd 183b 31bd c612 173d b819 863c
00000150: d0cc efbc 8328 ff3a ea02 d53c 305d 3fbd
00000160: c044 163c f99d 00ba da95 a6bc 2d86 2b3c
00000170: 7bd9 6b3d 4e64 36bd 5fc4 f33c 82ea 26bc
00000180: 3ee4 98bb f333 0a3d 54ec ce3c c1e8 883c
00000190: 1bce cbbc 89e3 06bd 3bcb 1abc 4a9d 4c3d
000001a0: 48f6 4bbd 33d3 df3c 7a4e 7c3c b78d dc3a
000001b0: ed0a 3f3d c7eb 45bc 2c4a 9bbd e0f7 e3bc
000001c0: 9f5c d4bc 5ca8 eb3c 8232 a8bc 0a00 283d
000001d0: 2211 08bc 7cf1 9a3c 0356 a0bc 4e65 b03c

fc2.0.weight f4 [84, 120]
0.021638554 0.10028903 -0.037100106 -0.06323478 -0.07180982 0.06441536 -0.026952788 0.08988984
-0.03004225 0.07160108 0.048583884 0.040919665 -0.023564871 -0.07823368 -0.06663196 0.04171142
-0.08213892 0.017512605 0.113029845 0.05840906 -0.038068574 -0.018495454 -0.038586985 0.046638604
-0.068263575 0.08543401 0.064315975 -0.007445324 0.06607463 0.04627823 0.113967 -0.011024516
0.01309053 -0.04012274 0.055575624 0.013874614 -0.07432509 0.16254061 0.03880558 -0.14271475
-0.057873942 0.094876416 -0.057372067 -0.016860778 0.06700986 0.044474714 0.097666316 -0.13765576
-0.13013853 -0.046438374 0.06395177 -0.12642978 0.010730036 0.0752177 0.06541763 0.016902331
-0.10307363 0.17807984 0.08251382 -0.049262244 0.04768405 0.087126724 0.012595181 -0.056158915
0.008668539 -0.07942216 0.01309941 -0.060811702 0.070116475 -0.042923033 0.0013016337 -0.02242197
-0.067743264 -0.03199873 -0.035936326 0.0022155838 -0.0066409674 -0.016780235 -0.0019837797 -0.04356046
-0.008816075 -0.02150787 0.03816854 0.04174777 -0.07263738 -0.05242835 -0.12356833 -0.052509643
0.0407595 0.08122394 -0.08082716 -0.06550251 -0.033250738 -0.09481719 0.15166935 0.042505313
0.08390987 0.04268765 0.12663586 0.0203732 0.016920906 0.07849672 0.007271411 0.046935394
0.063785225 0.093649074 0.043298755 -0.067068554 0.11717132 0.055404425 0.039491452 -0.055940133
-0.13295633 0.109111235 0.08481737 -0.09879082 0.09089676 0.09447795 0.037843935 0.0368971
-0.005670096 0.024449201 0.09503085 -0.013657468 -0.02922201 -0.057393186 0.0072882646 0.07816471
0.023160646 -0.020697169 0.03226056 -0.081841625 0.033257883 0.07403626 -0.053941112 0.024602635
0.07337507 0.031999152 -0.004953357 -0.07287197 0.05057877 -0.051319268 -0.084039345 0.059237737
0.0155717535 0.009031936 0.011912861 -0.0011506163 -0.004049362 0.08293127 0.09562726 0.029855125
0.09012756 -0.022471005 0.060349267 0.051782623 -0.07067463 0.012241797 -0.094928 -0.15054019
0.07476791 -0.041455045 0.0706024 0.08137198 0.08948419 -0.076477155 0.0038112102 -0.054404903
-0.012974279 0.067494996 -0.073552474 0.0060184514 0.048010323 0.06196551 -0.042881962 0.029272383
0.051388923 0.02761435 0.027477337 0.0057979394 -0.07799685 0.084713005 0.012888779 -0.029140305
0.06729298 -0.0421404 -0.09680574 -0.0759143 0.0820789 0.03524258 -0.0027742933 0.03710993
-0.035948087 0.011690657 -0.03144668 0.011696818 -0.040953018 0.09585516 -0.05281527 0.05880014
0.09093912 0.096387 -0.025226409 0.0036349234 -0.0005340624 0.04036992 -0.08755855 0.068614036
0.07628177 -0.07006336 -0.005225981 -0.016397178 0.086402245 -0.007884568 0.099591196 -0.08268273
0.054878887 0.067930914 0.030829454 0.07919249 -0.08924894 -0.056314334 0.074605465 -0.06369869
-0.021290863 -0.08789025 -0.06439051 0.061043277 0.020061638 -0.049825005 -0.07233315 0.06580203
-0.05413039 -0.0044238623 -0.05779447 -0.041262027 -0.0031133646 0.06898215 -0.07747253 -0.08838171
-0.063325904 0.056534115 -0.003936316 0.123422444 -0.053248532 0.02337507 0.028126718 -0.017668858
0.081349954 0.010012675 -0.03736136 0.09032358 0.032014385 0.017754648 0.026320025 -0.057052843
00000000: 5643 b13c 5664 cd3d 48f6 17bd 3d81 81bd
00000010: 0711 93bd 33ec 833d 18cc dcbc 2a18 b83d
00000020: 2a1b f6bc 96a3 923d e5ff 463d 619b 273d
00000030: 1e0b c1bc fb38 a0bd 5676 88bd 98d9 2a3d
00000040: 7338 a8bd 9876 8f3c 317c e73d 573e 6f3d
00000050: cbed 1bbd c783 97bc 630d 1ebd 1f08 3f3d
00000060: c6cd 8bbd 07f8 ae3d 18b8 833d e8f7 f3bb
00000070: 2352 873d 3e8e 3d3d 8867 e93d 2ca0 34bc
00000080: aa79 563c be57 24bd 44a3 633d 5952 633c
00000090: c137 98bd 0c71 263e 9af2 1e3d d123 12be
000000a0: 3a0d 6dbd 914e c23d f9fe 6abd 9d1f 8abc
000000b0: 773c 893d 1e2b 363d 4705 c83d a2f5 0cbe
000000c0: 0943 05be 2a36 3ebd 25f9 823d cf76 01be
000000d0: 08cd 2f3c bd0b 9a3d aef9 853d c276 8a3c
000000e0: 4418 d3bd 905a 363e 01fd a83d 35c7 49bd
000000f0: 5a50 433d 7f6f b23d 055c 4e3c e406 66bd
00000100: 7d06 0e3c 16a8 a2bd e89e 563c b115 79bd
00000110: 3a99 8f3d 10d0 2fbd 949b aa3a 47ae b7bc
00000120: fbbc 8abd 1a11 03bd f831 13bd 5433 113b
00000130: 799c d9bb b476 89bc 4d02 02bb 746c 32bd
00000140: 4c71 10bc 4631 b0bc 9d56 1c3d b6ff 2a3d
00000150: e8c2 94bd 1cbf 56bd 6511 fdbd 5a14 57bd
00000160: 6ff3 263d bd58 a63d b688 a5bd 2e26 86bd
00000170: ed31 08bd 842f c2bd 364f 1b3e 0d1a 2e3d
00000180: f0d8 ab3d 3fd9 2e3d d5ac 013e b2e5 a63c
00000190: b69d 8a3c e3c2 a03d 0445 ee3b 543f 403d
000001a0: d4a1 823d 16cb bf3d 095a 313d 3d5b 89bd
000001b0: 84f7 ef3d c0ef 623d cac1 213d 7b21 65bd
000001c0: b425 08be b675 df3d bbb4 ad3d d752 cabd
000001d0: 1528 ba3d a87d c13d 3e02 1b3d 6a21 173d
000001e0: 36cc b9bb b149 c83c 899f c23d 93c3 5fbc
000001f0: ff62 efbc 1e15 6bbd 65d2 ee3b d214 a03d
00000200: 65bb bd3c 1c8d a9bc a623 043d 959c a7bd
00000210: 6b39 083d 53a0 973d 5bf1 5cbd 778b c93c
00000220: ab45 963d 8b11 033d c54f a2bb e63d 95bd
00000230: af2b 4f3d 2734 52bd d21c acbd 45a3 723d
00000240: ab20 7f3c affa 133c 292e 433c 47d0 96ba
00000250: 83b0 84bb dfd7 a93d 3ad8 c33d bc92 f43c
00000260: cc94 b83d 1d15 b8bc cb30 773d 041a 543d
00000270: dcbd 90bd d191 483c 9c69 c2bd 3527 1abe
00000280: eb1f 993d c4cc 29bd fe97 903d 5aa6 a63d
00000290: 7d43 b73d 0ea0 9cbd 7fc5 793b add7 5ebd
000002a0: 1292 54bc d13a 8a3d aea2 96bd 6e36 c53b
000002b0: 79a6 443d 8ccf 7d3d ffa4 2fbd a3cc ef3c
000002c0: 317d 523d 7d37 e23c 2718 e13c a4fc bd3b
000002d0: d0bc 9fbd 037e ad3d 752b 533c a6b7 eebc
000002e0: e7d0 893d 699b 2cbd 1642 c6bd f578 9bbd
000002f0: fb18 a83d 865a 103d ebd0 35bb 9500 183d
00000300: 4d3e 13bd 2b8a 3f3c 3cce 00bd 03a4 3f3c
00000310: 5abe 27bd b64f c43d d354 58bd 6ad8 703d
00000320: 4a3e ba3d 8c66 c53d 9da7 cebc e537 6e3b
00000330: 5200 0cba ee5a 253d e651 b3bd 8485 8c3d
00000340: 9e39 9c3d 617d 8fbd b53e abbb 6053 86bc
00000350: a9f3 b03d 462e 01bc 78f6 cb3d 9055 a9bd
00000360: afc8 603d 5d1f 8b3d 0d8e fc3c ac2f a23d
00000370: 26c8 b6bd dca9 66bd c0ca 983d 7574 82bd
00000380: 2d6a aebc ceff b3bd 2cdf 83bd 8408 7a3d
00000390: 4e58 a43c 4e15 4cbd 6723 94bd 37c3 863d
000003a0: d4b7 5dbd 0cf6 90bb e5b9 6cbd 5f02 29bd
000003b0: 9709 4cbb 8346 8d3d eba9 9ebd 7801 b5bd
000003c0: 03b1 81bd 5190 673d 36fc 80bb e8c4 fc3d
000003d0: 221b 5abd 137d bf3c 016a e63c 48be 90bc
000003e0: ce9a a63d 340c 243c 3a08 19bd 92fb b83d
000003f0: 8421 033d 3272 913c 189d d73c 3eb0 69bd

fc2.0.bias f4 [84]
-0.022554334 -0.015227336 -0.10980956 0.0068612266 -0.049669407 0.0061483146 -0.0105836345 0.063894406
-0.019602545 -0.0611336 0.08105995 0.0078872945 -0.06238507 0.112124756 -0.06108651 0.05707343
0.07532268 0.06932607 0.0871498 0.0068472414 0.0056586787 0.05166103 0.028334286 0.025323426
0.012202886 -0.05263078 -0.026266221 -0.00928201 -0.0036070098 0.080567606 -0.08270379 0.025694165
0.08024767 -0.08403232 -0.09176602 -0.029900476 0.077644326 -0.080433 -0.02241733 -0.05507652
0.1762594 -0.086354524 -0.033548612 -0.043233134 -0.06653866 -0.065840974 -0.086165294 -0.017016236
0.03952471 0.041745655 0.0029655683 0.055438444 -0.034162693 -0.08786929 0.038546797 0.08919144
-0.01523119 -0.0043207402 -0.00074893795 -0.039084993 -0.029678589 0.037496537 0.10684237 -0.03535814
0.10311679 -0.04076832 0.03778707 0.004261899 0.017995313 -0.07013638 0.15148118 0.020434638
0.026357196 -0.040886257 0.013163626 0.118557595 0.029901423 -0.018610284 0.009955416 0.0129236635
-0.06896397 0.046403956 -0.0895631 -0.08882699
00000000: dec3 b8bc 147c 79bc d6e3 e0bd 24d4 e03b
00000010: 2672 4bbd cd77 c93b fb66 2dbc 12db 823d
00000020: 8495 a0bc 3a67 7abd c202 a63d b639 013c
00000030: 7d87 7fbd aaa1 e53d d935 7abd d4c5 693d
00000040: c742 9a3d d4fa 8d3d 987b b23d d35e e03b
00000050: 706c b93b 849a 533d 4e1d e83c 1373 cf3c
00000060: 9dee 473c 5f93 57bd 422c d7bc 9213 18bc
00000070: 9563 6cbb a100 a53d 9b60 a9bd 927c d23c
00000080: e458 a43d 2319 acbd d3ef bbbd d8f1 f4bc
00000090: fd03 9f3d 0fba a4bd 8ca4 b7bc eb97 61bd
000000a0: 587d 343e a4da b0bd 456a 09bd 3a15 31bd
000000b0: 6c45 88bd a2d7 86bd 6e77 b0bd a265 8bbc
000000c0: aae4 213d 7efd 2a3d fb59 423b 6c13 633d
000000d0: 2eee 0bbd d0f4 b3bd 3fe3 1d3d 00aa b63d
000000e0: 3e8c 79bc ff94 8dbb 6054 44ba 9617 20bd
000000f0: 8320 f3bc f895 193d 2cd0 da3d b2d3 10bd
00000100: e52e d33d affc 26bd 9dc6 1a3d 66a7 8b3b
00000110: e86a 933c aaa3 8fbd e21d 1b3e 8b66 a73c
00000120: 0ceb d73c 5978 27bd 40ac 573c 53ce f23d
00000130: d4f3 f43c 9874 98bc 0b1c 233c c6bd 533c
00000140: fb3c 8dbd 1312 3e3d dc6c b7bd edea b5bd

fc3.weight f4 [10, 84]
0.112442456 0.031931672 0.16808505 0.19409062 -0.12158519 -0.12866698 -0.028527085 -0.014954503
0.07747804 -0.08646009 -0.13842519 -0.077679716 -0.040574417 -0.16975702 0.07828738 -0.1105469
0.011672866 -0.15249014 -0.042324647 -0.057729226 -0.16039987 -0.13151938 -0.16189732 0.028288834
0.017438885 0.012308027 0.10700288 -0.120916195 -0.11919779 -0.10720515 -0.07349478 0.17115653
-0.022321729 -0.05909366 0.17233966 -0.18345852 -0.044001855 -0.022894185 0.039988004 -0.041668188
0.062323518 -0.10281892 -0.07321254 -3.8467693e-05 0.03316409 -0.121742964 -0.001140042 0.026643915
0.13595378 0.036797643 0.052109398 -0.094683096 0.08208766 -0.011118704 -0.073197946 -0.10629584
-0.07831877 -0.26041558 0.16524452 0.0820167 0.10337157 0.17277937 0.046009604 -0.21158753
0.037629705 0.1460702 0.23117284 0.10089457 -0.17644565 -0.022927154 -0.1550055 0.097316906
0.17515886 0.04734562 0.04910675 0.095855564 -0.13480142 -0.13376835 0.1062461 0.02978952
0.10434865 0.07792257 -0.12503119 -0.057363283 -0.3328758 0.02558179 -0.26291525 0.09285518
0.03237799 0.11463953 0.108343884 0.14831445 0.10284893 0.030733624 0.009848454 0.28207794
0.12068313 0.15037614 0.01205667 0.07315194 -0.09071629 -0.036936473 -0.090550385 -0.14672866
-0.0649273 -0.11628836 0.11889376 0.09230584 -0.21757047 -0.10259247 -0.043872878 0.1230628
-0.0779294 0.009374856 0.08193602 0.028188216 0.05529498 0.06598942 0.12678672 -0.11298427
-0.06941663 -0.12238439 0.11345747 0.1689634 0.17962877 -0.28002647 -0.07925607 0.0036991315
-0.083280124 -0.20875563 0.038479198 -0.066640705 -0.037122525 0.14345014 0.0168353 0.014992347
0.09938471 -0.2045246 0.05147887 0.17276731 -0.10288359 0.008777209 -0.082924865 0.020078855
0.13408826 0.07445325 0.22574043 0.20031804 -0.030032987 -0.091892086 -0.14970295 -0.11325651
-0.0010165784 -0.08736658 0.26804295 0.10910434 0.07792463 0.05310205 -0.14262709 0.2284575
0.13928384 0.05819022 -0.13824987 -0.0678603 -0.25411695 0.071801595 0.09151782 -0.049710505
-0.090771675 0.118127644 0.022897648 0.028450161 -0.055124573 -0.0011033525 0.0027737024 -0.102359734
0.15467851 -0.080862686 -0.16063407 -0.14122096 0.17909981 -0.24075438 0.10861534 -0.06327245
-0.011417909 -0.101778455 0.22464167 0.030054312 -0.049888358 -0.09601941 0.18482105 -0.1779834
-0.20476027 0.2110405 0.11255992 0.040805038 -0.09215435 0.16123125 -0.12358428 0.006089856
0.19020593 -0.019376947 -0.10342516 -0.035460513 -0.08389256 -0.060448043 -0.093203984 -0.07399433
0.17632622 0.10785168 0.2736938 -0.051180724 0.049780264 -0.22361425 0.048392408 -0.020508613
0.24752311 0.06474673 0.018710036 0.12195855 -0.033543892 -0.011233067 -0.3171665 0.12957524
0.025086625 0.22248457 0.086095676 0.058670387 0.11649754 -0.13678177 -0.17494603 -0.037715577
0.019540053 0.007847199 0.060350727 0.12559849 0.19888076 -0.025158938 -0.08840146 0.16544068
-0.15433528 0.16793974 -0.016206393 0.11530684 0.0034471252 -0.051863376 0.21949472 0.060353983
-0.23163056 -0.04071396 -0.08784776 -0.07831567 -0.03017262 -0.0031410772 0.14362071 0.14303784
00000000: 3b48 e63d c9ca 023d 7d1e 2c3e b1bf 463e
00000010: a801 f9bd 47c1 03be a2b1 e9bc bb03 75bc
00000020: ceac 9e3d fd11 b1bd 55bf 0dbe 8b16 9fbd
00000030: 5c31 26bd c9d4 2dbe 2255 a03d 6a66 e2bd
00000040: 8c3f 3f3c 6026 1cbe 9c5c 2dbd 7b75 6cbd
00000050: dd3f 24be 04ad 06be 69c8 25be fcbd e73c
00000060: fedb 8e3c 9ba7 493c 5324 db3d e9a2 f7bd
00000070: f91d f4bd 608e dbbd 6e84 96bd a843 2f3e
00000080: 0fdc b6bc 320c 72bd cf79 303e 8ddc 3bbe
00000090: 4a3b 34bd 968c bbbc 76ca 233d 43ac 2abd
000000a0: f246 7f3d ba92 d2bd 75f0 95bd 5f58 21b8
000000b0: 12d7 073d 6054 f9bd 766d 95ba 5744 da3c
000000c0: 7837 0b3e 20b9 163d aa70 553d 36e9 c1bd
000000d0: 931d a83d 3a2b 36bc cee8 95bd a2b1 d9bd
000000e0: 9765 a0bd 3155 85be dc35 293e 5ff8 a73d
000000f0: 79b4 d33d 13ed 303e 9174 3c3d 67aa 58be
00000100: 9b21 1a3d 6d93 153e 93b8 6c3e d0a1 ce3d
00000110: 2bae 34be bad1 bbbc c3b9 1ebe 164e c73d
00000120: d85c 333e 7bed 413d 2924 493d ec4f c43d
00000130: 6209 0abe 92fa 08be 8e97 d93d 2709 f43c
00000140: bfb4 d53d de95 9f3d 2d08 00be c3f5 6abd
00000150: b26e aabe e790 d13c d49c 86be db2a be3d
00000160: c99e 043d 21c8 ea3d 66e3 dd3d bedf 173e
00000170: 76a2 d23d 15c5 fb3c 695b 213c 856c 903e
00000180: b828 f73d 34fc 193e 5789 453c afd0 953d
00000190: 76c9 b9bd b34a 17bd 7b72 b9bd 0a40 16be
000001a0: 9bf8 84bd 9728 eebd 927e f33d d80a bd3d
000001b0: cbca 5ebe 001c d2bd 0cb4 33bd 5908 fc3d
000001c0: 7399 9fbd ff98 193c 12ce a73d f9ea e63c
000001d0: fd7c 623d 7625 873d 61d4 013e 4c64 e7bd
000001e0: 4e2a 8ebd aba4 fabd 645c e83d be04 2d3e
000001f0: 9bf0 373e a15f 8fbe 0251 a2bd 216d 723b
00000200: c58e aabd 09c4 55be 5d9c 1d3d ec7a 88bd
00000210: ca0d 18bd 98e4 123e 2fea 893c 76a2 753c
00000220: 368a cb3d e66e 51be 82db 523d eae9 303e
00000230: a2b4 d2bd 48ce 0f3c 83d4 a9bd 697c a43c
00000240: 6f4e 093e f27a 983d 8028 673e 2c20 4d3e
00000250: bd07 f6bc eb31 bcbd bb4b 19be 07f3 e7bd
00000260: b63e 85ba 40ed b2bd ed3c 893e 1972 df3d
00000270: f396 9f3d 8981 593d d60c 12be c3f0 693e
00000280: 6ca0 0e3e de58 6e3d 6091 0dbe 57fa 8abd
00000290: 9e1b 82be b70c 933d b26d bb3d 3e9d 4bbd
000002a0: 80e6 b9bd e8ec f13d d993 bb3c 5010 e93c
000002b0: 4eca 61bd 5e9e 90ba 01c7 353b fba1 d1bd
000002c0: 0b64 1e3e 569b a5bd 427d 24be 3a9c 10be
000002d0: f165 373e 5188 76be b871 de3d fc94 81bd
000002e0: 2e12 3bbc 3971 d0bd 7708 663e 7634 f63c
000002f0: bc57 4cbd d3a5 c4bd bb41 3d3e 4841 36be
00000300: adac 51be 001b 583e d185 e63d 2f23 273d
00000310: 6bbb bcbd ce19 253e c119 fdbd 6a8d c73b
00000320: 58c5 423e 67bc 9ebc 92d0 d3bd 0b3f 11bd
00000330: ddcf abbd 5e98 77bd bbe1 bebd 578a 97bd
00000340: dc8e 343e 57e1 dc3d 9821 8c3e e1a2 51bd
00000350: 64e6 4b3d 22fb 64be 1e37 463d ae01 a8bc
00000360: b376 7d3e ef99 843d ca45 993c 67c5 f93d
00000370: 5265 09bd e60a 38bc a663 a2be 5faf 043e
00000380: 7782 cd3c ffd2 633e ee52 b03d 5c50 703d
00000390: 4396 ee3d 8510 0cbe 0d25 33be a67b 1abd
000003a0: 7612 a03c 8a91 003c 5332 773d e49c 003e
000003b0: 66a7 4b3e 1e1a cebc d30b b5bd 4869 293e
000003c0: 110a 1ebe 65f8 2b3e 45c3 84bc fe25 ec3d
000003d0: 2ae9 613b b16e 54bd 39c3 603e bd35 773d
000003e0: 9030 6dbe aec3 26bd 87e9 b3bd f763 a0bd
000003f0: 922c f7bc 88da 4dbb 4f11 133e 8378 123e

fc3.bias f4 [10]
-0.10726873 0.1368242 -0.057346653 -0.094797 0.018883627 0.03486156 -0.092639886 0.18093255
-0.106684014 0.08301332
00000000: b5af dbbd a51b 0c3e 53e4 6abd ee24 c2bd
00000010: d6b1 9a3c ffca 0e3d fbb9 bdbd 6246 393e
00000020: 267d dabd e302 aa3d
