计算机视觉实践-练习2/checkpoint/lenet_b/Saturday_15_April_2023_10h_17m_50s/lenet_b-20-regular.pth (torch, 250379 bytes, 10 tensors)

conv1.0.weight f4 [6, 1, 5, 5]
0.2473361 0.29897833 0.19684523 0.16503173 0.2352446 0.41322178 0.4178134 0.46259284
0.35771203 0.12410591 0.14304261 0.2722739 0.28729892 0.28442356 0.22754245 0.31637636
0.27886158 0.08553951 0.23920874 -0.088613056 0.16888936 0.121327594 -0.11973297 -0.11294771
-0.0696848 -0.17086665 -0.03680571 -0.07392962 0.07232501 0.15474692 0.057453275 0.018196769
-0.13441837 -0.12610374 -0.09161535 -0.04145567 -0.031261176 0.09760709 -0.0676014 0.030175872
-0.172989 0.16650765 0.055384774 -0.1071347 0.081134945 -0.08129486 0.05916705 0.11634308
-0.08294633 -0.12914144 0.14696792 -0.13538621 -0.20371792 -0.12315535 -0.06871435 -0.12961347
0.17767562 0.09519561 -0.18213986 -0.19273318 0.24350175 0.25788254 0.22217722 0.22508547
-0.05763503 0.32463932 0.03998445 0.028370755 -0.0041066576 0.18738051 0.26478383 0.32206386
-0.0098236045 0.06722934 0.21878351 0.14424637 -0.018933455 -0.16706787 -0.19481169 0.13491377
0.1766503 -0.07121725 -0.14947027 -0.12960202 -0.034721594 -0.10775704 -0.12849449 0.04293826
0.018120222 -0.047582235 0.2022657 0.08595113 -0.06973378 0.11769924 -0.1658869 -0.18184364
-0.10960064 0.0336818 0.11893857 0.06792919 0.15648754 -0.027055502 0.124023 0.30627647
0.41959998 0.36032942 0.68428 0.5635704 0.7922622 0.6138964 0.53117234 0.877808
1.0620571 0.9837568 0.6338499 0.33834982 0.8329692 0.6487328 0.8174122 0.63744146
0.18870893 0.46542403 0.5147245 0.4850527 0.2444332 0.13320549 0.083786935 0.18074197
0.27320448 -0.15743047 0.1678046 0.34967464 0.16394845 0.0016475819 -0.046223816 0.2402872
0.13497455 0.18906324 -0.01712714 0.2540647 0.089583576 -0.005496707 -0.058190547 -0.16707648
0.20127845 -0.021076683 -0.0988637 -0.024064554 0.15636455 -0.034966238
00000000: ad45 7d3e b013 993e cc91 493e 14fe 283e
00000010: f6e3 703e ce91 d33e a3eb d53e f8d8 ec3e
00000020: 0826 b73e 3d2b fe3d c379 123e 7c67 8b3e
00000030: d818 933e f79f 913e e300 693e 15fc a13e
00000040: f2c6 8e3e 572f af3d 23f3 743e c37a b5bd
00000050: 55f1 2c3e 9a7a f83d 8f36 f5bd 2151 e7bd
00000060: e8b6 8ebd abf7 2ebe 96c1 16bd 6a68 97bd
00000070: 231f 943d fa75 1e3e 2054 6b3d 6411 953c
00000080: f8a4 09be 5721 01be d4a0 bbbd 6ccd 29bd
00000090: b80b 00bd 3ae6 c73d 9a72 8abd 6433 f73c
000000a0: 0724 31be fb80 2a3e 25db 623d 7069 dbbd
000000b0: 142a a63d eb7d a6bd 2659 723d 4845 ee3d
000000c0: c4df a9bd a73d 04be c27e 163e afa2 0abe
000000d0: 6e9b 50be df38 fcbd 1cba 8cbd 65b9 04be
000000e0: 99f0 353e eaf5 c23d df82 3abe d95b 45be
000000f0: 8658 793e 2e09 843e 6d82 633e ce7c 663e
00000100: b612 6cbd 2037 a63e bcc6 233d c969 e83c
00000110: 2491 86bb ade0 3f3e bf91 873e 8ee5 a43e
00000120: 2ff3 20bc 89af 893d c908 603e 52b5 133e
00000130: 551a 9bbc d713 2bbe b77c 47be d626 0a3e
00000140: d1e3 343e 59da 91bd bc0e 19be 64b6 04be
00000150: 3b38 0ebd b9af dcbd 0f94 03be 07e0 2f3d
00000160: dc70 943c 97e5 42bd bd1e 4f3e 2507 b03d
00000170: 96d0 8ebd 4d0c f13d 41de 29be 3835 3abe
00000180: 4d76 e0bd edf5 093d 1196 f33d 761e 8b3d
00000190: 453e 203e 80a3 ddbc c5ff fd3d 45d0 9c3e
000001a0: cfd5 d63e 197d b83e f92c 2f3f 2646 103f
000001b0: b2d1 4a3f 5128 1d3f e9fa 073f 06b8 603f
000001c0: 7df1 873f 7cd7 7b3f fd43 223f 303c ad3e
000001d0: 783d 553f 5a13 263f ed41 513f 5d2f 233f
000001e0: ea3c 413e 0f4c ee3e fcc4 033f d458 f83e
000001f0: b24c 7a3e 0567 083e 7c98 ab3d 6c14 393e
00000200: 75e1 8b3e 7435 21be f8d4 2b3e 8e08 b33e
00000210: 1ae2 273e adf3 d73a 2f55 3dbd d90d 763e
00000220: c536 0a3e cb99 413e 374e 8cbc c514 823e
00000230: 9877 b73d b81d b4bb 3659 6ebd 1916 2bbe
00000240: f01b 4e3e 02a9 acbc 0d79 cabd 0723 c5bc
00000250: 071e 203e c238 0fbd

conv1.0.bias f4 [6]
0.12365159 0.064711995 0.2083486 -0.12611602 0.1170733 0.23296683
00000000: 0b3d fd3d b987 843d 5659 553e 8f24 01be
00000010: 20c4 ef3d db8e 6e3e

conv2.0.weight f4 [16, 6, 5, 5]
0.035050035 -0.010400574 -0.08668188 -0.0559429 0.08506671 0.022652842 0.035880383 -0.097624935
0.053696487 0.12030336 -0.008319529 -0.0459582 -0.14695723 0.062335603 0.15006922 -0.057329893
-0.074600674 -0.024693413 0.048399054 0.16553125 0.043970447 0.02192205 -0.014410883 0.09932014
0.12635858 0.047934473 -0.012809059 -0.036092658 -0.028358186 -0.08029871 0.03348966 -0.052021008
-0.0050681573 -0.050177276 -0.071041755 0.06713923 0.046415173 0.0018473509 -0.05317784 -0.07415358
0.019989498 -0.031902798 -0.052451793 0.045239422 -0.017042823 -0.008982102 0.04285886 0.06021106
-0.0069061727 -0.019509923 -0.038915575 -0.04897893 -0.050270304 0.033196304 0.09423886 -0.01871517
-0.045356132 0.01022769 -0.018232074 0.08847382 0.026078938 -0.06260271 -0.122552946 -0.051424637
0.09755935 -0.0063948818 -0.07143873 0.018292882 -0.0092099225 -0.03881023 0.083373286 -0.07504155
-0.069233805 -0.009126298 -0.017405508 -0.049135484 -0.009829151 -0.017234128 -0.0583728 -0.07115441
-0.047416378 -0.0064585 0.077782996 -0.02709898 0.014004944 0.055747543 -0.019806134 -0.012532672
-0.06942182 0.029931433 0.07972587 0.0001481975 0.06043272 0.036895316 -0.0012323553 -0.043769702
-0.015510743 -0.032559626 0.07227083 0.05275913 0.015634999 -0.042778324 -0.08582089 0.049642142
0.20247188 0.049173813 -0.25236928 -0.20715643 0.048423402 0.21639173 -0.09313118 -0.3328499
-0.11216769 0.19133516 0.2415149 -0.051273663 -0.25247505 0.05389974 0.21474366 0.09937871
-0.028427916 0.011622856 0.28056592 0.16637294 0.06517333 0.039271872 0.06765789 0.031601086
-0.057562403 0.008923323 0.05334778 0.01853072 -0.018018212 0.0136207575 0.09955036 -0.073223814
0.028895332 -0.10451311 0.05431201 0.073410295 -0.04537287 0.056860626 -0.098547176 0.037362903
0.04102627 0.0029562968 0.030958645 -0.05155504 0.08971472 -0.034600347 0.048385225 0.05777417
0.0803904 0.08357184 -0.006167184 -0.0060172626 0.024965448 0.061611094 0.061632738 -0.055489976
0.05937079 -0.02657161 -0.01917712 -0.037697855 -0.020735366 -0.06711609 0.04820013 -0.07160661
0.055436637 -0.07741619 -0.07462659 -0.02891441 0.055789307 -0.06291635 -0.06456187 0.032114718
0.05174261 -0.058340315 0.06495923 -0.062126145 0.0057668947 -0.024210844 0.06356687 0.037066016
-0.015899846 -0.030104673 -0.0122615425 0.00027357816 0.07194974 -0.06670333 -0.061990935 0.07325758
0.05658311 0.020241505 0.03771297 0.038487453 0.030165229 0.058239482 -0.024630764 -0.025133077
-0.04862894 0.0271558 0.038597662 -0.048816588 -0.061785802 -0.06869403 -0.02610998 -0.082278
0.026052762 -0.057600193 0.009722721 -0.037607685 0.07197907 0.018607182 0.06862122 0.06817933
0.047419444 0.055879243 0.06433856 -0.014054527 -0.056292303 -0.04795509 -0.03744081 0.025528222
0.061133355 -0.030687543 0.061757267 -0.0047563957 0.055324566 0.069190554 0.024327772 0.038543276
0.028029062 -0.0021851156 -0.014249055 -0.057059504 0.031376902 -0.02521801 -0.02197499 -0.020645168
-0.0025794103 -0.00799963 0.017544076 -0.02923869 0.044758197 0.03707675 0.06844476 -0.011877571
0.031048626 0.045898184 0.027056485 -0.02777607 -0.03498051 0.013423072 0.044397317 0.047847684
00000000: a090 0f3d 2b67 2abc 4586 b1bd 6224 65bd
00000010: 7537 ae3d 7492 b93c 4ff7 123d 95ef c7bd
00000020: d9f0 5b3d 9c61 f63d a24e 08bc aa3e 3cbd
00000030: f57b 16be 9e53 7f3d bfab 193e c0d2 6abd
00000040: 3dc8 98bd d749 cabc 163e 463d 0681 293e
00000050: 5b1a 343d df95 b33c a01b 6cbc 5c68 cb3d
00000060: 2564 013e f056 443d 16dd 51bc e5d5 13bd
00000070: 6d4f e8bc a673 a4bd 742c 093d fb13 55bd
00000080: c912 a6bb b086 4dbd 577e 91bd 4b80 893d
00000090: d61d 3e3d cf22 f23a 02d1 59bd d5dd 97bd
000000a0: 04c1 a33c 82ac 02bd b1d7 56bd f94c 393d
000000b0: 649d 8bbc ab29 13bc c68c 2f3d df9f 763d
000000c0: 2d4d e2bb 46d3 9fbc f065 1fbd 219e 48bd
000000d0: 3ce8 4dbd d9f8 073d 4e00 c13d 8e50 99bc
000000e0: 5ac7 39bd 0b92 273c 6e5b 95bc c331 b53d
000000f0: 7fa3 d53c da35 80bd 0afd fabd a4a2 52bd
00000100: 32cd c73d 288c d1bb 784e 92bd f4da 953c
00000110: 37e5 16bc 7af7 1ebd 9dbf aa3d 62af 99bd
00000120: 74ca 8dbd 7886 15bc ff95 8ebc 4a42 49bd
00000130: 730a 21bc 962e 8dbc 5118 6fbd 67b9 91bd
00000140: ad37 42bd d3a1 d3bb b14c 9f3d aefe ddbc
00000150: fe74 653c 8957 643d 7940 a2bc d655 4dbc
00000160: 072d 8ebd c432 f53c 5147 a33d 7765 1b39
00000170: 4d88 773d 8b1f 173d fb86 a1ba dc47 33bd
00000180: c520 7ebc 3e5d 05bd bb02 943d f519 583d
00000190: f814 803c 5338 2fbd ddc2 afbd 8f55 4b3d
000001a0: ca54 4f3e 7b6a 493d 8c36 81be d120 54be
000001b0: 9e57 463d cb95 5d3e 8fbb bebd 4d6b aabe
000001c0: 2db8 e5bd 5ded 433e af4f 773e 5504 52bd
000001d0: 6944 81be f9c5 5c3d c3e5 5b3e 1187 cb3d
000001e0: a9e1 e8bc cb6d 3e3c 56a6 8f3e ab5d 2a3e
000001f0: 9879 853d 8bdb 203d 3890 8a3d 2470 013d
00000200: 8ec6 6bbd 2133 123c 3483 5a3d bdcd 973c
00000210: ee9a 93bc 9929 5f3c 0fe1 cb3d 5ef6 95bd
00000220: e7b5 ec3c f80a d6bd 4576 5e3d 2358 963d
00000230: e7d8 39bd b0e6 683d 1ad3 c9bd d809 193d
00000240: 290b 283d 6ebe 413b fc9c fd3c 612b 53bd
00000250: 5abc b73d 18b9 0dbd 962f 463d 9ca4 6c3d
00000260: b9a3 a43d b627 ab3d 1716 cabb 752c c5bb
00000270: 5784 cc3c ea5b 7c3d 9c72 7c3d 7549 63bd
00000280: c92e 733d b4ac d9bc 5619 9dbc 1169 1abd
00000290: 37dd a9bc 2974 89bd 806d 453d 7da6 92bd
000002a0: 8711 633d 618c 9ebd d3d5 98bd eadd ecbc
000002b0: 5483 643d 4ada 80bd 0439 84bd b98a 033d
000002c0: 0ff0 533d 41f6 6ebd 5809 853d fc77 7ebd
000002d0: 38f8 bc3b d255 c6bc 592f 823d 89d2 173d
000002e0: 6540 82bc 139e f6bc a3e4 48bc 0a6f 8f39
000002f0: 635a 933d c19b 88bd 35ea 7dbd 1208 963d
00000300: b1c3 673d 83d1 a53c ea78 1a3d 05a5 1d3d
00000310: 121d f73c 868c 6e3d 75c6 c9bc e2e3 cdbc
00000320: 242f 47bd d775 de3c 9518 1e3d e7f3 47bd
00000330: 1c13 7dbd 75af 8cbd 99e4 d5bc 5e81 a8bd
00000340: 9a6c d53c 2eee 6bbd 0c4c 1f3c 840a 1abd
00000350: c369 933d 176e 983c 4889 8c3d 9ba1 8b3d
00000360: e43a 423d a2e1 643d efc3 833d f544 66bc
00000370: c292 66bd 8e6c 44bd 895b 19bd 9020 d13c
00000380: f866 7a3d 7164 fbbc 30f5 7c3d 8adb 9bbb
00000390: 039c 623d c7b3 8d3d 094b c73c 8edf 1d3d
000003a0: 349d e53c 2834 0fbb de74 69bc 3ab7 69bd
000003b0: 1185 003d 0096 cebc e504 b4bc 0e20 a9bc
000003c0: 530b 29bb e110 03bc 98b8 8f3c fa85 efbc
000003d0: 5f54 373d cadd 173d c42c 8c3d 259a 42bc
000003e0: b059 fe3c bcff 3b3d 90a5 dd3c a48a e3bc
000003f0: b947 0fbd 72ec 5b3c f6d9 353d effb 433d

conv2.0.bias f4 [16]
-0.017841548 -0.034124978 -0.0027195744 0.027503766 0.0629429 -0.004094581 -0.06794484 0.033499267
-0.041985463 0.121662185 -0.082677715 -0.06446522 0.04582299 -0.073466465 0.11074543 -0.02249346
00000000: 7028 92bc a2c6 0bbd e33a 32bb 944f e13c
00000010: 35e8 803d d62b 86bb aa26 8bbd 8736 093d
00000020: f3f8 2bbd 062a f93d ef52 a9bd 5706 84bd
00000030: e3b0 3b3d 9675 96bd 80ce e23d 3444 b8bc

fc1.0.weight f4 [120, 400]
0.0053375186 0.018139154 -0.0396561 -0.03952816 -0.044661358 0.033513617 0.015106961 -0.01589172
0.020004077 -0.037260238 -0.00614162 0.008579315 0.05529987 -0.0012502683 -0.002267966 0.027014237
0.005649386 0.016720004 0.015406799 -0.04062508 -0.008253408 0.04886695 0.10903463 -0.016455213
0.038218606 -0.032597523 0.0015030252 -2.4942761e-05 0.005717114 -0.0010608621 -0.03727843 -0.0061315456
0.008461318 -0.009971818 0.0060336287 -0.03886937 -0.03491688 -0.035439484 0.025358578 0.002575889
-0.044812124 0.0129851345 0.027407788 0.030117031 -0.025062304 0.0105029335 0.014302839 -0.015552729
-0.021455824 -0.039403256 -0.019360505 0.02621607 0.03722982 0.0178394 0.044408396 -0.0978128
-0.0134065375 0.046819735 -0.010631234 -0.06337816 0.021713303 0.009528079 0.0033575732 0.10373392
-0.04906335 -0.009227773 0.023788696 0.0040567624 0.07382977 -0.08298213 -0.0356182 -0.04937072
-0.022949101 0.011138526 0.0037682042 -0.0020156305 0.039122395 0.0029651814 -0.027160017 -0.02371759
-0.051198624 0.039005503 -0.021899274 -0.024299566 -0.024079634 -0.01389476 0.03572597 -0.031143077
-0.009236753 0.044320032 0.015217468 -0.030566303 0.03027051 -0.03100538 -0.02209833 0.01062984
0.020243311 -0.040342662 0.0049029444 0.023246547 -0.012856042 -0.01819769 0.0070531727 0.012770268
-0.0038505108 -0.06374005 0.011685837 0.008117881 0.037794236 0.025778674 -0.046241067 0.022464313
0.012875669 -0.040315684 -0.041086122 -0.008717442 -0.034411035 0.020958208 -0.0067325644 -0.051028
0.021705009 0.015307677 0.013318608 0.013472571 0.052403927 -0.0122306505 -0.07189294 -0.039166633
0.04280038 0.03856516 -0.07699708 -0.04432338 -0.017696835 -0.06750076 -0.06415715 0.012712992
-0.04363918 0.024998548 0.0076347142 -0.015092516 -0.024393411 -0.04102268 0.05539336 -0.03633574
-0.03214031 -0.05994225 -0.047425415 0.007900781 -0.06056237 -0.096629016 -0.0512641 0.00848828
0.03157533 -0.032168753 0.033187237 -0.018954352 0.016962817 0.06364804 -0.024818983 -0.02800286
0.013862061 -0.02771366 -0.046977803 -0.035216074 0.04168847 -0.043932684 0.044166353 0.027968904
0.06192579 0.03489199 0.039153285 -0.029065449 0.04730334 0.016268006 -0.029726144 -0.028275127
0.023841048 0.020557255 -0.044894543 -0.0351579 0.039468717 0.026190078 -0.02326097 0.012541827
0.042331073 -0.011572922 0.009585494 -0.048220653 0.04549507 -0.023521822 0.047551464 -0.0063852095
0.006051308 -0.024798987 -0.010961289 -0.016411807 0.0039734324 0.027461113 -0.03991486 -0.019129036
-0.040160928 0.042730786 0.041241035 -0.00037891403 -0.009871992 0.034005586 0.036839105 0.039756767
-0.04763873 -0.014827478 -0.011363441 -0.0031971221 -0.046296153 -0.04066646 0.048713308 0.03213854
-0.018647034 -0.045646306 0.022464305 0.030674517 0.0036052577 0.039589077 0.046680056 -0.013384031
0.021245778 0.00961802 -0.007043904 0.037431706 -0.0028212592 0.038312268 0.018352866 -0.02171835
-0.0017237982 0.04790805 0.026310934 -0.035773844 -0.028664304 0.042949088 0.009081526 0.005129915
-0.010027672 0.049518824 -0.00024418227 0.034300465 0.009886261 0.013760644 -0.0029697143 0.0009774937
0.036797043 0.03165229 -0.010182948 -0.032463823 0.052441288 0.01653885 0.028175307 -0.05485745
00000000: 5ae6 ae3b 9098 943c 6f6e 22bd 48e8 21bd
00000010: d4ee 36bd 9345 093d 3083 773c 5a2f 82bc
00000020: 97df a33c 319e 18bd a53f c9bb 4190 0c3c
00000030: 1e82 623d 0be0 a3ba 28a2 14bb f64c dd3c
00000040: 7c1e b93b 64f8 883c cc6c 7c3c 7c66 26bd
00000050: 4d39 07bc b628 483d 8c4d df3d 15cd 86bc
00000060: 1d8b 1c3d fb84 05bd 2801 c53a 2c3c d1b7
00000070: a156 bb3b a00c 8bba 44b1 18bd 22eb c8bb
00000080: 57a1 0a3c d660 23bc bfb5 c53b 7d35 1fbd
00000090: 0105 0fbd fe28 11bd cbbc cf3c 3fd0 283b
000000a0: eb8c 37bd 9abf 543c 4c86 e03c feb7 f63c
000000b0: 764f cdbc 7f14 2c3c 7456 6a3c e0d0 7ebc
000000c0: 20c4 afbc 4f65 21bd ec99 9ebc 15c3 d63c
000000d0: 4c7e 183d ef23 923c 94e5 353d 1452 c8bd
000000e0: 18a7 5bbc 0dc6 3f3d a12e 2ebc 69cc 81bd
000000f0: 19e0 b13c a91b 1c3c bb0a 5c3b 7372 d43d
00000100: a7f6 48bd 1630 17bc 83e0 c23c 97ee 843b
00000110: 1034 973d 89f2 a9bd 64e4 11bd f438 4abd
00000120: c1ff bbbc 5d7e 363c faf3 763b ab18 04bb
00000130: ce3e 203d 7d53 423b af7e debc 644b c2bc
00000140: a6b5 51bd 3cc4 1f3d 1b66 b3bc e20f c7bc
00000150: a742 c5bc d9a6 63bc 6555 123d c41f ffbc
00000160: c055 17bc ec88 353d b052 793c 2f66 fabc
00000170: dcf9 f73c fffe fdbc 8f07 b5bc c828 2e3c
00000180: 4dd5 a53c 593e 25bd e1a8 a03b 8b6f be3c
00000190: 26a2 52bc 5213 95bc 4d1e e73b 633a 513c
000001a0: da58 7cbb 258a 82bd f475 3f3c dc00 053c
000001b0: 21ce 1a3d cc2d d33c 4667 3dbd 1407 b83c
000001c0: 78f4 523c 0f22 25bd ec49 28bd 9ad3 0ebc
000001d0: 96f2 0cbd 8cb0 ab3c d89c dcbb bc02 51bd
000001e0: b4ce b13c 0dcd 7a3c 4a36 5a3c 0fbc 5c3c
000001f0: 80a5 563d 1163 48bc 9b3c 93bd 316d 20bd
00000200: 744f 2f3d 80f6 1d3d a5b0 9dbd 6f8c 35bd
00000210: f4f8 90bc d73d 8abd d364 83bd 274a 503c
00000220: ffbe 32bd c1c9 cc3c a02c fa3b 9a46 77bc
00000230: b1d4 c7bc 6607 28bd 26e4 623d c9d4 14bd
00000240: 8fa5 03bd 0186 75bd 2741 42bd 4772 013c
00000250: 3f10 78bd 6fe5 c5bd 4efa 51bd 6d12 0b3c
00000260: 2255 013d 62c3 03bd 57ef 073d 2846 9bbc
00000270: 9bf5 8a3c e759 823d 2e51 cbbc 4166 e5bc
00000280: b31d 633c c207 e3bc cc6b 40bd bb3e 10bd
00000290: 87c1 2a3d c2f2 33bd c7e7 343d 0b1f e53c
000002a0: e6a5 7d3d e7ea 0e3d 325f 203d aa1a eebc
000002b0: 26c1 413d 7b44 853c 3e84 f3bc 3da1 e7bc
000002c0: 4d4e c33c b067 a83c 57e3 37bd bb01 10bd
000002d0: f3a9 213d 938c d63c ca8d bebc 3c7c 4d3c
000002e0: 5963 2d3d 5a9c 3dbc 7a0c 1d3c 0583 45bd
000002f0: 0a59 3a3d d6b0 c0bc 53c5 423d 053b d1bb
00000300: 0d4a c63b 3f27 cbbc fa96 33bc 0e72 86bc
00000310: 9133 823b 21f6 e03c c47d 23bd 7fb4 9cbc
00000320: c97f 24bd 7a06 2f3d 5cec 283d fba8 c6b9
00000330: 23be 21bc 7149 0b3d 9ae4 163d fed7 223d
00000340: d420 43bd f3ee 72bc ba2d 3abc cf86 51bb
00000350: 09a1 3dbd e091 26bd 9b87 473d b4a3 033d
00000360: aac1 98bc 9ff7 3abd 1007 b83c 2049 fb3c
00000370: 3046 6c3b 2828 223d 9633 3f3d b248 5bbc
00000380: a00b ae3c e694 1d3c 8dd0 e6bb fd51 193d
00000390: e0e4 38bb 53ed 1c3d c058 963c aeea b1bc
000003a0: 12f1 e1ba 3b3b 443d 078a d73c 9887 12bd
000003b0: 67d1 eabc 62eb 2f3d aeca 143c d918 a83b
000003c0: 1b4b 24bc 40d4 4a3d 9705 80b9 a57e 0c3d
000003d0: fcf9 213c 5374 613c 8a9f 42bb 3f1f 803a
000003e0: 7fb8 163d d5a5 013d 61d6 26bc c9f8 04bd
000003f0: adcc 563d 7b7c 873c e7cf e63c 35b2 60bd

fc1.0.bias f4 [120]
0.0049383165 -0.021366961 0.031212345 -0.0049291146 -0.014060089 -0.00472287 0.050916947 0.09507736
0.0022567243 -0.014363675 0.016598057 0.006868436 0.06796298 0.040511485 0.039750077 -0.031154538
0.008021711 0.015727835 -0.0014038503 -0.021076566 -0.047828548 0.039054155 -0.050501164 -0.028394774
0.028249992 -0.036925364 0.040315617 0.006122606 0.009794847 0.055079173 -0.05783295 0.021179967
0.012372916 -0.0045303092 -0.00705563 0.05803071 0.0029320386 0.006086435 0.0070094387 0.054993648
0.054850243 -0.008418632 0.008666492 -0.03271382 -0.018313885 -0.012985476 -0.010519888 -0.014552559
-0.045794122 -0.04172229 0.039092295 -0.046390794 -0.048105508 -0.06611704 -0.016202912 -0.026902389
0.010276001 -0.015682664 0.037633516 0.026617067 -0.013523503 0.008235441 0.017505193 -0.02415403
-0.00010525986 -0.0012489205 -0.023810176 -0.03779927 0.054233912 0.051746015 -0.008651873 0.016107839
0.057723265 0.06367071 0.038893256 -0.023612564 -0.010687483 0.04095227 -0.042814415 0.037429925
-0.060747795 -0.037408397 0.04046784 0.01969599 -0.030082298 0.001986068 0.02004095 -0.046012666
0.013144504 0.0030105421 -0.020335127 0.008942085 0.053891096 -0.041241355 0.03693713 -0.009172714
-0.005255365 0.03403916 0.032117162 0.019058788 -0.0247783 -0.034224425 -0.013803008 0.051825467
-0.049910855 0.027302682 0.01838452 0.0016706941 0.050320297 -0.016071616 -0.076674916 -0.027265668
-0.024608158 0.025357632 -0.02119894 0.03975596 -0.008449974 0.022707423 -0.019657327 0.023322308
00000000: 9ad1 a13b c409 afbc 08b1 ff3c 6984 a1bb
00000010: 4a5c 66bc 4ec2 9abb 4a8e 503d ebb7 c23d
00000020: 8de5 133b 9f55 6bbc a6f8 873c 9e10 e13b
00000030: 2d30 8b3d 5fef 253d fad0 223d cd37 ffbc
00000040: 7f6d 033c a9d7 803c 6601 b8ba c3a8 acbc
00000050: dee7 43bd 40f7 1f3d 4fda 4ebd 289c e8bc
00000060: 876c e73c 0d3f 17bd fd21 253d 24a0 c83b
00000070: 917a 203c b39a 613d 3ee2 6cbd 9c81 ad3c
00000080: c5b7 4a3c fd72 94bb ea32 e7bb 9cb1 6d3d
00000090: 7227 403b b870 c73b 6faf e53b 0541 613d
000000a0: a6aa 603d 4dee 09bc e7fd 0d3c edfe 05bd
000000b0: 0007 96bc 09c1 54bc 9c5b 2cbc db6d 6ebc
000000c0: 9e92 3bbd fee4 2abd 3e1f 203d 4604 3ebd
000000d0: 480a 45bd 5f68 87bd f8bb 84bc 6662 dcbc
000000e0: ac5c 283c ee78 80bc 9a25 1a3d 090c da3c
000000f0: af91 5dbc f1ed 063c 0d67 8f3c acde c5bc
00000100: f5be dcb8 d1b2 a3ba 8f0d c3bc 68d3 1abd
00000110: 6124 5e3d a1f3 533d 96c0 0dbc 96f4 833c
00000120: 3b6f 6c3d ca65 823d 894e 1f3d 236f c1bc
00000130: 8d1a 2fbc 91bd 273d 2b5e 2fbd 1f50 193d
00000140: aed2 78bd 8c39 19bd 9bc1 253d 7c59 a13c
00000150: 276f f6bc b128 023b eb2c a43c c777 3cbd
00000160: 0c5c 573c 844c 453b da95 a6bc d381 123c
00000170: e9bc 5c3d b2ec 28bd 634b 173d 2749 16bc
00000180: 3235 acbb a56c 0b3d 498d 033d 2d21 9c3c
00000190: ddfb cabc e92e 0cbd 0326 62bc f146 543d
000001a0: 536f 4cbd e0a9 df3c 229b 963c 31fb da3a
000001b0: a81c 4e3d 9fa8 83bc bd07 9dbd 405c dfbc
000001c0: 0c97 c9bc cfba cf3c 66a9 adbc 25d7 223d
000001d0: c271 0abc eb04 ba3c 6708 a1bc 6d0e bf3c

fc2.0.weight f4 [84, 120]
0.03535124 0.108436845 -0.03636668 -0.069113515 -0.07152224 0.06886757 -0.04538209 0.093589336
-0.04902424 0.0727232 0.06527582 0.033915654 -0.021127013 -0.072948076 -0.044775385 0.041497536
-0.082121246 0.017887888 0.11509749 0.078728124 -0.0012524243 -0.012738546 -0.03840824 0.029888542
-0.06892746 0.085289106 0.069342144 -0.006977655 0.073791586 0.06282597 0.11125282 -0.01950804
0.013339676 -0.040275745 0.046202186 0.015717398 -0.07108054 0.19110025 0.040642437 -0.14756714
-0.064656995 0.09213713 -0.04451161 -0.023399401 0.09884631 0.04457076 0.09390061 -0.16028678
-0.12379736 -0.047971528 0.049231205 -0.13360402 0.01070691 0.07068089 0.066684596 0.016791137
-0.11177409 0.19476914 0.08177207 -0.040155493 0.04939029 0.097158134 0.04253556 -0.055105
0.04243564 -0.07914425 0.008995621 -0.058279645 0.079402626 -0.038515627 -0.009907041 -0.02239858
-0.072730824 -0.02032259 -0.04957348 0.003426678 0.010270296 -0.05159431 -0.014740534 -0.043478634
0.0076803737 -0.0047942866 0.03516879 0.06336562 -0.062120344 -0.044737574 -0.13309191 -0.040353812
0.038635984 0.098912604 -0.08082716 -0.06703296 -0.02918127 -0.10371921 0.16080219 0.02336327
0.08652388 0.041467745 0.14339389 0.04170715 0.016996913 0.07241515 0.019992758 0.035401292
0.06385424 0.10451158 0.050085586 -0.06702788 0.100442275 0.05755487 0.030785855 -0.058920052
-0.14275302 0.11087482 0.11242548 -0.08695311 0.0946675 0.10104396 0.036919776 0.038992632
0.0037409991 0.028528295 0.09478466 -0.013587044 -0.028890887 -0.05573641 0.0031594397 0.06899095
0.022340402 -0.031666514 0.051578347 -0.07693644 0.040832162 0.07484416 -0.041173447 0.024557903
0.073656775 0.033175085 0.009244084 -0.079460755 0.045694906 -0.02932936 -0.083856024 0.061293304
0.01570409 0.009091153 0.01669098 -0.0006036227 0.0006175762 0.0913944 0.09002443 0.02766376
0.09411865 -0.022899417 0.061206486 0.05302956 -0.062030975 0.005163671 -0.10685134 -0.15907176
0.0854201 -0.03916059 0.075966984 0.06935832 0.0949888 -0.076515496 0.0034725391 -0.05324467
-0.022685045 0.06485837 -0.07638954 -0.00069137366 0.047978356 0.062944494 -0.045154534 0.029212134
0.04133743 0.03399804 0.038641233 0.0011696195 -0.07076781 0.09729914 0.016613998 -0.03352423
0.07908836 -0.041968644 -0.102474876 -0.066751026 0.09660423 0.03690183 0.0025022908 0.035795406
-0.02172552 0.015871648 -0.03864504 0.009498468 -0.03862421 0.07568777 -0.056319833 0.05883749
0.10698323 0.11141595 -0.031880084 0.025636343 0.0018724065 0.05849354 -0.100065894 0.07533097
0.0942394 -0.0702981 -0.005225981 -0.017503621 0.10176264 -0.00531669 0.116174445 -0.09333054
0.051020302 0.068032235 0.053263858 0.099590816 -0.089251034 -0.07546361 0.071604796 -0.066969186
-0.02132796 -0.07501065 -0.053500626 0.061082277 0.020540068 -0.04016983 -0.08177468 0.061874706
-0.05203567 -0.003467745 -0.04237519 -0.03871951 -0.0033764204 0.08939214 -0.07728937 -0.081000455
-0.052886605 0.056386694 -0.01502339 0.12530817 -0.05321285 0.029328655 0.027431436 -0.007345958
0.056916293 0.017904202 -0.025862694 0.104299456 0.023256125 0.023607234 0.015088076 -0.057007995
00000000: 76cc 103d 2314 de3d 3af5 14bd 638b 8dbd
00000010: 417a 92bd 710a 8d3d 92e2 39bd c4ab bf3d
00000020: a4cd 48bd e7ef 943d 54af 853d 24eb 0a3d
00000030: 8f12 adbc cd65 95bd 6566 37bd 52f9 293d
00000040: 2f2f a8bd 9f89 923c 3cb8 eb3d 363c a13d
00000050: 6328 a4ba 56b5 50bc f551 1dbd d1d8 f43c
00000060: d729 8dbd 0eac ae3d 4103 8e3d d0a4 e4bb
00000070: 0b20 973d e7aa 803d 85d8 e33d 53cf 9fbc
00000080: a88e 5a3c 2ef8 24bd 813e 3d3d c6c1 803c
00000090: ad92 91bd c9af 433e af78 263d d71b 17be
000000a0: e36a 84bd 64b2 bc3d ce51 36bd 1ab0 bfbc
000000b0: ef6f ca3d d48f 363d f74e c03d 3822 24be
000000c0: 7889 fdbd cb7d 44bd a9a6 493d 7ecf 08be
000000d0: 096c 2f3c 24c1 903d ef91 883d 918d 893c
000000e0: d0e9 e4bd 9071 473e 1d78 a73d 167a 24bd
000000f0: 794d 4a3d d8fa c63d c439 2e3d c8b5 61bd
00000100: fed0 2d3d 6116 a2bd 5f62 133c a3b6 6ebd
00000110: d89d a23d 90c2 1dbd 2451 22bc 3a7d b7bc
00000120: e6f3 94bd 8f7b a6bc 900d 4bbd 1e92 603b
00000130: be44 283c 8e54 53bd 4882 71bc a716 32bd
00000140: a5ab fb3b 6419 9dbb 260d 103d d6c5 813d
00000150: e771 7ebd bf3e 37bd 3f49 08be 0a4a 25bd
00000160: c440 1e3d b192 ca3d b688 a5bd 9448 89bd
00000170: 8f0d efbc bd6a d4bd 54a9 243e 5464 bf3c
00000180: 6f33 b13d 15da 293d d9d5 123e 1ed5 2a3d
00000190: 1c3d 8b3c 654e 943d dac7 a33c f200 113d
000001a0: 03c6 823d 2b0a d63d 8b26 4d3d ea45 89bd
000001b0: aeb4 cd3d a8be 6b3d 9e32 fc3c 2756 71bd
000001c0: d92d 12be 5612 e33d 543f e63d 7914 b2bd
000001d0: 09e1 c13d 23f0 ce3d 3139 173d bdb6 1f3d
000001e0: 8d2b 753b 2cb4 e93c 761e c23d 319c 5ebc
000001f0: 95ac ecbc dd4b 64bd 9a0e 4f3b 214b 8d3d
00000200: 3803 b73c bfb4 01bd d143 533d da90 9dbd
00000210: a03f 273d e547 993d 7da5 28bd a82d c93c
00000220: 5dd9 963d 99e2 073d 8074 173c 52bc a2bd
00000230: 952a 3b3d 2044 f0bc b5bc abbd b00e 7b3d
00000240: dda5 803c 0ff3 143c 86bb 883c 6f3c 1eba
00000250: d6e4 213a fd2c bb3d ba5e b83d 1c9f e23c
00000260: 47c1 c03d 8f97 bbbc a7b3 7a3d 8635 593d
00000270: 3114 7ebd 0334 a93b e0d4 dabd b5e3 22be
00000280: bcf0 ae3d db66 20bd 9494 9b3d bc0b 8e3d
00000290: 7d89 c23d 28b4 9cbd 8a93 633b 1517 5abd
000002a0: fdd5 b9bc 77d4 843d 1f72 9cbd 4d3d 35ba
000002b0: f484 443d 0be9 803d f6f3 38bd 494e ef3c
000002c0: 7051 293d 8741 0b3d 4546 1e3d eb4d 993a
000002d0: b7ee 90bd c644 c73d 141a 883c b450 09bd
000002e0: 14f9 a13d 50e7 2bbd 59de d1bd c3b4 88bd
000002f0: 70d8 c53d 6026 173d 79fd 233b 349e 123d
00000300: b8f9 b1bc 4205 823c 434a 1ebd 769f 1b3c
00000310: 6b34 1ebd 3102 9b3d a0af 66bd 94ff 703d
00000320: 061a db3d 0c2e e43d b194 02bd 4f03 d23c
00000330: 896b f53a ec96 6f3d 59ef ccbd 2047 9a3d
00000340: 9600 c13d 73f8 8fbd b53e abbb c163 8fbc
00000350: ee68 d03d a137 aebb deec ed3d 1524 bfbd
00000360: aafa 503d 7c54 8b3d 342b 5a3d 45f6 cb3d
00000370: 3fc9 b6bd aa8c 9abd 89a5 923d 2427 89bd
00000380: f9b7 aebc 2f9f 99bd 7923 5bbd 6931 7a3d
00000390: a543 a83c 1f89 24bd 7c79 a7bd 5570 7d3d
000003a0: 5b23 55bd 1b43 63bb 9b91 2dbd 5998 1ebd
000003b0: ef46 5dbb 3a13 b73d e449 9ebd 91e3 a5bd
000003c0: a09f 58bd bcf5 663d aa24 76bc c950 003e
000003d0: b8f5 59bd a642 f03c e4b7 e03c 5db6 f0bb
000003e0: 0f21 693d d5ab 923c 00de d3bc f49a d53d
000003f0: a183 be3c f563 c13c fa33 773c 3781 69bd

fc2.0.bias f4 [84]
-0.015094896 -0.009982532 -0.115933955 0.0030159173 -0.04934895 0.0076618525 -0.0149450395 0.06406886
-0.021806037 -0.06014611 0.08716222 0.009423957 -0.061924197 0.11964186 -0.060957126 0.06633671
0.07244173 0.07214901 0.09122588 0.0032782326 0.0023672543 0.051814556 0.027981866 0.027501168
0.014964936 -0.046922337 -0.02453254 -0.007725532 -0.0035685154 0.085806705 -0.08317778 0.02515063
0.08884812 -0.08433521 -0.09084239 -0.025960982 0.07758205 -0.076039225 -0.02355315 -0.056696344
0.17601812 -0.07800299 -0.024595462 -0.043188237 -0.06929399 -0.06083392 -0.08642077 -0.012206238
0.037583943 0.03261574 0.002602971 0.05626329 -0.03206592 -0.090304755 0.03651441 0.09270986
-0.01701546 -0.007250541 0.0033662508 -0.037480574 -0.035784 0.040367994 0.10546008 -0.03618613
0.09819365 -0.041321166 0.038360856 0.0039455136 0.019658988 -0.07020882 0.1553084 0.027787983
0.028350733 -0.033905268 0.017948436 0.12449398 0.029175993 -0.020542923 0.016510582 0.013563292
-0.06923761 0.046895184 -0.088882305 -0.09681469
00000000: 9550 77bc c68d 23bc c86e edbd b2a6 453b
00000010: 2022 4abd 4710 fb3b 0adc 74bc 8936 833d
00000020: 93a2 b2bc c45b 76bd 1b82 b23d f166 1a3c
00000030: 3aa4 7dbd cb06 f53d 2eae 79bd 8adb 873d
00000040: 545c 943d dcc2 933d a2d4 ba3d 9ed7 563b
00000050: f023 1b3b 803b 543d 3a3a e53c 214a e13c
00000060: 7e2f 753c a331 40bd 77f8 c8bc 7626 fdbb
00000070: c1dd 69bb 6dbb af3d 1d59 aabd b208 ce3c
00000080: 01f6 b53d f0b7 acbd 930b babd 20ac d4bc
00000090: 56e3 9e3d 74ba 9bbd 89f2 c0bc 6d3a 68bd
000000a0: 183e 343e 08c0 9fbd 6c7c c9bc 26e6 30bd
000000b0: 02ea 8dbd fd2c 79bd 5ffd b0bd acfc 47bc
000000c0: 9ff1 193d 1598 053d 9b96 2a3b 5674 663d
000000d0: 8e57 03bd b3f1 b8bd 2290 153d abde bd3d
000000e0: 0264 8bbc f295 edbb 519c 5c3b 3b85 19bd
000000f0: 3e92 12bd e958 253d 74fb d73d e837 14bd
00000100: c119 c93d 6240 29bd 4620 1d3d 5e49 813b
00000110: e30b a13c a4c9 8fbd 2a09 1f3e a0a3 e33c
00000120: cc3f e83c 40e0 0abd 9908 933c b3f6 fe3d
00000130: 7e02 ef3c a249 a8bc 3341 873c 9238 5e3c
00000140: 73cc 8dbd 2a15 403d ed07 b6bd c846 c6bd

fc3.weight f4 [10, 84]
0.103067964 0.052031394 0.19540095 0.18331791 -0.16938178 -0.1631664 -0.043441344 -0.06029993
0.07680376 -0.09196355 -0.15555358 -0.09186022 -0.051254705 -0.16177171 0.08348121 -0.11667937
-0.009994512 -0.16529489 -0.02989167 -0.0507848 -0.16492623 -0.17616892 -0.1998648 0.044223756
0.026699288 0.019990742 0.1353766 -0.1313993 -0.1417913 -0.14716431 -0.07689659 0.18575987
-0.034109764 -0.05646889 0.21676083 -0.21115898 -0.023618344 -0.021587942 0.047792792 -0.03998784
0.08710822 -0.12439884 -0.1379084 -0.013963973 0.017986748 -0.1718748 -5.2149615e-05 0.021107724
0.14387482 0.037588086 0.05150772 -0.082724236 0.09990302 -0.016739145 -0.08580401 -0.10922899
-0.08343028 -0.32313403 0.16769366 0.080955915 0.0882476 0.1986994 0.032372326 -0.24506119
0.03182077 0.14942676 0.27327827 0.108637206 -0.20052367 -0.02294466 -0.16797704 0.08852632
0.20440732 0.07093685 0.06379848 0.1188524 -0.16280723 -0.16593686 0.13746575 0.037727524
0.09354837 0.06427358 -0.11530097 -0.04639186 -0.35807133 0.025031555 -0.27241367 0.10573332
0.013665269 0.13302802 0.118150376 0.19538224 0.081678115 0.033768676 0.028240543 0.31133744
0.12988906 0.16396232 0.01775182 0.07179183 -0.07306063 -0.061526887 -0.0587523 -0.15277348
-0.06538197 -0.14534523 0.14378116 0.09817088 -0.20902827 -0.095073394 -0.0648507 0.14472106
-0.075802065 0.030157119 0.120065376 0.03602443 0.070236616 0.06523649 0.13907032 -0.1405973
-0.08828202 -0.14889714 0.13145773 0.18324286 0.21110976 -0.3091841 -0.05039613 -0.01389284
-0.12128242 -0.203044 0.03821624 -0.069143794 -0.044283647 0.168671 0.016426934 0.0061823945
0.08231139 -0.22194372 0.061059143 0.17580926 -0.107114896 0.004872102 -0.085297585 0.022785123
0.14969121 0.03487281 0.24289005 0.20697978 -0.014557311 -0.09105787 -0.13930492 -0.13524978
0.003498208 -0.08653489 0.26934934 0.13533762 0.11618834 0.060465466 -0.14859228 0.24220598
0.13569425 0.077862196 -0.123713225 -0.07612015 -0.288391 0.06958878 0.09015062 -0.05178247
-0.08770131 0.1144729 0.025685046 0.04108639 -0.07557316 -0.014359903 -0.014986277 -0.10338245
0.18180665 -0.080513455 -0.19933616 -0.13786805 0.24308136 -0.25606197 0.12658589 -0.07297037
-0.054261193 -0.096270785 0.19333646 0.016075343 -0.06293232 -0.113366544 0.2002191 -0.17689218
-0.23404199 0.21319045 0.07784777 0.062293068 -0.09057043 0.18286383 -0.12624498 0.013164811
0.21803778 -0.018653987 -0.14450265 -0.0096991565 -0.09498127 -0.030234896 -0.11021469 -0.08690999
0.19255662 0.110367425 0.29191753 -0.04881802 0.055413786 -0.24430837 0.048431627 -0.007699236
0.28667384 0.061594225 0.025757918 0.13442187 -0.0032434005 -0.026304975 -0.39747044 0.14890492
0.03804417 0.24364467 0.13826685 0.08463531 0.14465177 -0.115128644 -0.2042613 -0.094588235
0.017363755 0.028774714 0.06549011 0.1438669 0.21729942 -0.022943601 -0.09538536 0.17861277
-0.18922415 0.17191625 -0.020822013 0.13969858 -0.015980473 -0.06806475 0.23857245 0.04705408
-0.23755778 -0.051272534 -0.08876509 -0.09029345 -0.014057618 0.024154807 0.13614024 0.16087867
00000000: 4c15 d33d df1e 553d 3017 483e b1b7 3b3e
00000010: 6b72 2dbe 1815 27be 8def 31bd 0ffd 76bd
00000020: 4a4b 9d3d 6357 bcbd 7049 1fbe 3621 bcbd
00000030: 74f0 51bd 7ca7 25be 32f8 aa3d 98f5 eebd
00000040: 06c0 23bc 1043 29be 60df f4bc b903 50bd
00000050: 6ce2 28be a065 34be 5ca9 4cbe f823 353d
00000060: 77b8 da3c a0c3 a33c 2aa0 0a3e 8a8d 06be
00000070: bd31 11be 3eb2 16be f67b 9dbd d637 3e3e
00000080: aeb6 0bbd ec4b 67bd 8df6 5d3e 0f3a 58be
00000090: 427b c1bc 32d9 b0bc 60c2 433d 4aca 23bd
000000a0: cb65 b23d d2c4 febd dc37 0dbe 26c9 64bc
000000b0: f258 933c f3ff 2fbe 39bb 5ab8 1bea ac3c
000000c0: ec53 133e f7f5 193d c2f9 523d 536b a9bd
000000d0: f499 cc3d 8820 89bc 03ba afbd 73b3 dfbd
000000e0: 7fdd aabd d371 a5be e3b7 2b3e 37cc a53d
000000f0: 28bb b43d db77 4b3e d898 043d 52f1 7abe
00000100: 7f56 023d 5403 193e 21eb 8b3e 2f7d de3d
00000110: 1456 4dbe 71f6 bbbc 2c02 2cbe 4a4d b53d
00000120: 2750 513e 5747 913d c7a8 823d e368 f33d
00000130: f0b6 26be 5aeb 29be d2c3 0c3e 2d88 1a3d
00000140: 4a96 bf3d dea1 833d ea22 ecbd 6405 3ebd
00000150: 2055 b7be fa0e cd3c ce79 8bbe b68a d83d
00000160: 4be4 5f3c 7f38 083e d3f8 f13d 4812 483e
00000170: db46 a73d 0651 0a3d b658 e73c 9f67 9f3e
00000180: a301 053e bde5 273e 446c 913c 9807 933d
00000190: d0a0 95bd 9e03 7cbd 40a6 70bd a770 1cbe
000001a0: fbe6 85bd 61d5 14be 5e3b 133e d00d c93d
000001b0: 820b 56be d7b5 c2bd 72d0 84bd c231 143e
000001c0: 1d3e 9bbd 100c f73c d6e4 f53d 5a8e 133d
000001d0: 37d8 8f3d b59a 853d 7368 0e3e bdf8 0fbe
000001e0: 34cd b4bd 7e78 18be db9c 063e 04a4 3b3e
000001f0: 282d 583e 614d 9ebe 2c6c 4ebd cb9e 63bc
00000200: eb62 f8bd c4ea 4fbe a288 1c3d 439b 8dbd
00000210: c562 35bd 17b8 2c3e c791 863c af95 ca3b
00000220: e092 a83d 3745 63be 2719 7a3d 5807 343e
00000230: 0e5f dbbd 27a6 9f3b 80b0 aebd dea7 ba3c
00000240: a748 193e cbd6 0e3d 2bb8 783e 82f2 533e
00000250: ca81 6ebc 8c7c babd f3a5 0ebe eb7e 0abe
00000260: 3142 653b 3439 b1bd 28e8 893e f295 0a3e
00000270: 27f4 ed3d a3aa 773d 9328 18be d804 783e
00000280: 6ff3 0a3e 3776 9f3d 5c5d fdbd e2e4 9bbd
00000290: fca7 93be 9084 8e3d e3a0 b83d db19 54bd
000002a0: bf9c b3bd c570 ea3d 7269 d23c 344a 283d
000002b0: 1ac6 9abd cc45 6bbc 0089 75bc 2eba d3bd
000002c0: 862b 3a3e 3de4 a4bd c71e 4cbe 482d 0dbe
000002d0: 52ea 783e 8e1a 83be bb9f 013e 7d71 95bd
000002e0: fc40 5ebd 9e29 c5bd fef9 453e 70b0 833c
000002f0: a9e2 80bd b82c e8bd 3c06 4d3e 3923 35be
00000300: b4a8 6fbe 994e 5a3e a76e 9f3d 0427 7f3d
00000310: fd7c b9bd a840 3b3e 5d46 01be 38b1 573c
00000320: 4c45 5f3e 3fd0 98bc 81f8 13be 36e9 1ebc
00000330: 8a85 c2bd 2caf f7bc 3db8 e1bd ddfd b1bd
00000340: 902d 453e 5108 e23d 3776 953e 67f5 47bd
00000350: 91f9 623d f92b 7abe 3e60 463d df49 fcbb
00000360: eac6 923e 3a4a 7c3d 4502 d33c e3a5 093e
00000370: 3b8f 54bb 887d d7bc 3f81 cbbe 887a 183e
00000380: 34d4 1b3d fd7d 793e d395 0d3e 4755 ad3d
00000390: 981f 143e 91c8 ebbd e029 51be 7ab7 c1bd
000003a0: 6f3e 8e3c f3b8 eb3c ae1f 863d d851 133e
000003b0: bd83 5e3e 38f4 bbbc 6659 c3bd 44e6 363e
000003c0: fac3 41be d00a 303e ed92 aabc 250d 0f3e
000003d0: 7be9 82bc 8865 8bbd 564c 743e c7bb 403d
000003e0: 5942 73be 2603 52bd 79ca b5bd c6eb b8bd
000003f0: ec51 66bc 4de0 c53c 5968 0b3e 61bd 243e

fc3.bias f4 [10]
-0.11367115 0.13558167 -0.04646733 -0.11901521 0.02211799 0.051893175 -0.09550512 0.16493376
-0.094940655 0.090849996
00000000: 6bcc e8bd ecd5 0a3e 8754 3ebd 3fbe f3bd
00000010: c930 b53c f08d 543d 3098 c3bd 65e4 283e
00000020: 3f70 c2bd 900f ba3d
