计算机视觉实践-练习2/checkpoint/lenet_p/Saturday_15_April_2023_09h_37m_31s/lenet_p-20-regular.pth (torch, 260683 bytes, 30 tensors)

conv1.0.weight f4 [6, 1, 5, 5]
0	0xbe421dc7	-0.18956672
1	0xbe4af692	-0.19820622
2	0xbe73d383	-0.23811154
3	0xbe045c94	-0.12925941
4	0xbd8c2ec4	-0.06844857
5	0x3df4ed15	0.11959282
6	0x3cc2fd33	0.023802375
7	0xbd2fcf5f	-0.042922374
8	0x3c45b80a	0.012067804
9	0xbdbf49ce	-0.09340249
10	0xbcc46eff	-0.023978708
11	0x3cffb6d4	0.031215109
12	0x3c86ee8a	0.016471166
13	0x3cbd2440	0.023088574
14	0xba729dd1	-0.0009255084
15	0xbd22570b	-0.039633792
16	0xbdcb164b	-0.099163614
17	0xbcb512bf	-0.022103665
18	0x3b4ea621	0.0031532126
19	0xbcbe6b45	-0.02324451
20	0x3d90a68f	0.070630185
21	0xbd4f8ce7	-0.050671484
22	0x3e13b966	0.14426193
23	0x3e37eacb	0.1796066
24	0x3e813c4e	0.2524132
25	0xbb8c23d6	-0.004276733
26	0xbdc7fe9d	-0.097653605
27	0xbdb33bb7	-0.08751624
28	0xbdad7490	-0.08469498
29	0x3e079450	0.1324017
30	0x3e03ea2e	0.12882301
31	0x3e2d25f2	0.16909006
32	0x3e5ce2e5	0.21570928
33	0x3e57f91a	0.21091118
34	0x3d513dfe	0.05108451
35	0xbe02c634	-0.12770921
36	0x3cda03ca	0.026613135
37	0x3b7dcb55	0.0038725932
38	0xbdba906a	-0.09109576
39	0xbe007b65	-0.12547071
40	0xbe67becc	-0.22631377
41	0xbde9ef2e	-0.11422573
42	0xbdc6ffac	-0.09716734
43	0xbdfdd91b	-0.12394925
44	0x3d320908	0.043465644
45	0x3d50cc0d	0.050975848
46	0xbe381d1e	-0.17979857
47	0xbe0fda13	-0.14048032
48	0xbd2048f2	-0.039132066
49	0x3d6648d3	0.056221794
50	0xbdc95369	-0.09830362
51	0xbd4c2536	-0.049840175
52	0xbd6d4e62	-0.05793608
53	0xbde29895	-0.11064259
54	0xbe37271f	-0.17886017
55	0x3dd507e6	0.10401897
56	0xbe2c4fb2	-0.16827276
57	0x3d2ff08e	0.04295402
58	0xbca1385b	-0.019680193
59	0xbd1d823f	-0.03845429
60	0xbe1c3d53	-0.15257768
61	0xbcfd1e22	-0.030898158
62	0xbca54294	-0.020173348
63	0xbdae0e98	-0.08498877
64	0x3bb2934a	0.005449687
65	0xbdb6d05c	-0.0892646
66	0xbe0d7268	-0.13813174
67	0xbd321357	-0.043475475
68	0xbe0905e6	-0.13381156
69	0xbdf50c81	-0.119652756
70	0xbde79fa8	-0.11309749
71	0x3da689d6	0.08131759
72	0xbc87797d	-0.016537422
73	0xbd357b0b	-0.044306796
74	0xbe5f2a2d	-0.21793433
75	0x3e211096	0.15728983
76	0x3d48808d	0.04895072
77	0xbc7fa20a	-0.015602598
78	0xbc260bb5	-0.010134627
79	0xbc84253b	-0.016131034
80	0xbc3cb64c	-0.011518072
81	0x3e10276b	0.14077537
82	0x3e1db5e9	0.15401424
83	0x3e20d4f6	0.15706238
84	0xbe0119d2	-0.12607506
85	0x3e4d6931	0.20059659
86	0x3e5007c8	0.20315468
87	0x3c6728cd	0.014108849
88	0x3dd5a404	0.10431674
89	0xbdcc7243	-0.09982731
90	0x3e3acbcf	0.1824181
91	0xbdc3649e	-0.095406756
92	0xbcc67397	-0.02422504
93	0xbe12b803	-0.14328007
94	0xbe2e15dd	-0.17000528
95	0xbe06fadf	-0.13181637
96	0xbe05ce65	-0.13067015
97	0xbe60da38	-0.21958244
98	0xbdd48769	-0.1037739
99	0x3d8d2dc0	0.06893492
100	0x3e2c59f0	0.16831183
101	0xbdd35e7d	-0.103207566
102	0xbe42323a	-0.18964472
103	0xbe6f2259	-0.23352946
104	0x3cf66dd1	0.030081661
105	0xbca54e50	-0.020178944
106	0x3c305289	0.010761865
107	0xbe0e4aa1	-0.13895656
108	0x3d0fcca9	0.03510729
109	0x3e54786a	0.2074906
110	0x3dc2a992	0.09504999
111	0x3db9ef1f	0.09078812
112	0xbda3ce6c	-0.07998356
113	0x3e094eda	0.13408986
114	0x3ddb3133	0.107027434
115	0x3db2f092	0.087372914
116	0x3e4be49b	0.19911425
117	0x3dcd15eb	0.10013946
118	0xbdf59716	-0.11991708
119	0xbca300d1	-0.01989785
120	0x3d632e80	0.055464268
121	0xbddd3566	-0.108012006
122	0x3e17e095	0.14831765
123	0x3a806fd2	0.000979895
124	0x3dc98544	0.098398715
125	0x3d887bd8	0.06664246
126	0x3dea7618	0.11448306
127	0xbd4061f3	-0.04696841
128	0xbd69b663	-0.057058703
129	0xbe3143d7	-0.17311035
130	0xbdfdbc8d	-0.12389479
131	0xbc475197	-0.012165449
132	0x3d48b753	0.049002957
133	0x3dfe3c41	0.12413836
134	0xbd260d95	-0.040540297
135	0xbd4ea528	-0.050450474
136	0x3dd50baf	0.10402619
137	0x3e424a0b	0.18973558
138	0x3e95324a	0.2913993
139	0x3e23e4f8	0.16005313
140	0x3d8dc2ed	0.06921945
141	0xbdfda17c	-0.12384316
142	0xbe3b2c2c	-0.18278569
143	0x3d4f338e	0.050586276
144	0x3e09d213	0.13459043
145	0xbd37e5dd	-0.04489695
146	0xbddf741e	-0.109108195
147	0xbe3fe0bc	-0.18738073
148	0xbe6894f7	-0.22713076
149	0x3c80f689	0.015742557

conv1.0.bias f4 [6]
0	0xbce28d29	-0.027655201
1	0x3dec8a93	0.115498684
2	0xbdecb63c	-0.11558196
3	0xbdaca8b9	-0.08430619
4	0x3da19cdb	0.07891246
5	0xbcd86c20	-0.026418746

conv1.1.weight f4 [6]
0	0x3f71d85b	0.9447076
1	0x3f6ebc07	0.93255657
2	0x3f6f185b	0.9339654
3	0x3f65bfff	0.8974609
4	0x3f60df0a	0.8784033
5	0x3f5f99bd	0.8734396

conv1.1.bias f4 [6]
0	0xbd92a9c1	-0.07161284
1	0x3c6021cc	0.013679933
2	0x3d112923	0.03543962
3	0x3c4e2ef0	0.012584433
4	0x3adcc1aa	0.0016842384
5	0xbd4be477	-0.049778428

conv1.1.running_mean f4 [6]
0	0xbd9ab20c	-0.07553491
1	0x3d59723b	0.053087454
2	0xbeaf8f30	-0.3428893
3	0xbd8980cf	-0.067140214
4	0x3e1eac71	0.15495469
5	0xbccda545	-0.02510322

conv1.1.running_var f4 [6]
0	0x3d555313	0.05208118
1	0x3d28378f	0.04106861
2	0x3dfe0d0a	0.12404831
3	0x3d9535c0	0.072856426
4	0x3d169aed	0.036768842
5	0x3ceba8b5	0.02876697

conv2.0.weight f4 [6, 6, 3, 3]
0	0x3db5cd08	0.08876997
1	0xbd320543	-0.04346205
2	0xbd82d51f	-0.06388306
3	0x3d7e6959	0.062112186
4	0xbd259c1b	-0.040432077
5	0x3e0af16a	0.13568655
6	0x3d0de0c2	0.034638174
7	0xbdc5abab	-0.09651884
8	0xbd49fb44	-0.04931189
9	0xbaffa30e	-0.001950355
10	0xbe082e5b	-0.13298933
11	0x3de22062	0.11041333
12	0x3d22be7b	0.039732438
13	0x3ccf5ee6	0.025313806
14	0xbb9660ba	-0.0045891674
15	0xbd043c6f	-0.032284196
16	0xbc241c7a	-0.010016555
17	0xbcac971a	-0.021068145
18	0xbde9c6e3	-0.11414888
19	0x3db9220e	0.090396985
20	0x3de77b9f	0.11302876
21	0xbdcb3bfb	-0.0992355
22	0xbe0d695f	-0.13809727
23	0x3c1a2076	0.009407153
24	0xbda4aa08	-0.080402434
25	0x3dc644c0	0.09681082
26	0x3dad141f	0.084511034
27	0xbc8d3fc0	-0.017242312
28	0xbd5a356a	-0.053273596
29	0xbdf2af7f	-0.118498795
30	0x3bf9f933	0.007628584
31	0xbe2f6d56	-0.17131552
32	0xbe54e3b9	-0.20789994
33	0x3e02e627	0.12783109
34	0x3be087eb	0.00685214
35	0x3d713ed4	0.05889781
36	0x3e55bdf9	0.2087325
37	0xbe0480e5	-0.12939794
38	0xbc1b2bd4	-0.009470899
39	0xbbc3b45a	-0.0059724273
40	0x3dac4125	0.08410863
41	0x3de691fd	0.11258314
42	0x3d1d6d61	0.03843439
43	0xbd22eb2d	-0.039775062
44	0x3c80c05a	0.01571672
45	0xbdbc9d35	-0.09209672
46	0xbba00c1e	-0.004884257
47	0xbda4dd44	-0.080500156
48	0x3e132f63	0.14373545
49	0x3e2231ad	0.15839262
50	0x3d02c7f0	0.031928957
51	0xbd5f6071	-0.054535333
52	0x3d97e206	0.074161574
53	0xbdc38516	-0.095468685
54	0xbcf934ad	-0.030420626
55	0x3d3fc2bc	0.046816573
56	0x3c7172c9	0.01473684
57	0x3da31f20	0.07964921
58	0x3d907fc8	0.07055622
59	0xbde5e2b0	-0.11224878
60	0xbd763c53	-0.060116123
61	0x3e011d21	0.12608768
62	0xbe324a22	-0.17411092
63	0x3dae4c3f	0.085106365
64	0x3e036669	0.12832035
65	0x3a745d9a	0.0009321809
66	0x3dd8df4e	0.10589467
67	0x3e10ec85	0.14152725
68	0x3c3a67b5	0.011377265
69	0x3ca23636	0.01980124
70	0xbd7fa891	-0.062416617
71	0xbdd09351	-0.101843484
72	0xbde7d568	-0.11320001
73	0x3d028c56	0.031872116
74	0x3d9517a1	0.072798975
75	0x3c1426f2	0.009042488
76	0xbceaeb3f	-0.028676627
77	0x3db537a7	0.088485055
78	0x3c7cc4e0	0.015427798
79	0xbdd2300d	-0.10263071
80	0x3d9b5934	0.075853735
81	0x3c8b08d3	0.016971981
82	0x3e0481b8	0.12940109
83	0x3dda90a0	0.10672116
84	0x3df918b5	0.121629156
85	0x3deb5c04	0.1149216
86	0xbd9e87ca	-0.077407435
87	0xbe1283aa	-0.14308038
88	0x3d6ca9a0	0.057778955
89	0xbd29eb5f	-0.041484233
90	0x3d2cd9f3	0.04220004
91	0xbc36203d	-0.011116085
92	0xbe46e778	-0.19424236
93	0x3daea3fb	0.085273705
94	0xbd68c7df	-0.056831237
95	0xbd868dee	-0.0657004
96	0xbd44690a	-0.047951736
97	0xbc594a32	-0.013262318
98	0xbc16d96e	-0.009207113
99	0x3de93a1f	0.11388039
100	0xbcc6338e	-0.024194505
101	0xbcc745d2	-0.024325285
102	0x3e05043f	0.12989901
103	0xbcacebb3	-0.021108484
104	0xbd36f3ca	-0.04466609
105	0xbdd427c4	-0.10359147
106	0xbcd0e987	-0.02550198
107	0xbd96c7fc	-0.07362363
108	0x3d938bd1	0.07204402
109	0x3cba292c	0.02272471
110	0xbd33f3a8	-0.04393354
111	0x3d5920fb	0.05300997
112	0xbc61a669	-0.013772585
113	0x3ac7725e	0.0015216579
114	0x3d84ae01	0.06478501
115	0x3dd5a7ba	0.10432382
116	0x3e6a69a1	0.22891857
117	0x3c207717	0.009794018
118	0x3d8d601a	0.069030955
119	0xbce797f7	-0.028270705
120	0xbd8e8310	-0.06958592
121	0x3d6511ae	0.055925064
122	0xbd277f28	-0.04089275
123	0xbe05498f	-0.13016342
124	0xbd946a39	-0.07246823
125	0xbc5980ca	-0.013275335
126	0x3d98fc9b	0.07470056
127	0x3d61592d	0.055016685
128	0x3ca467dd	0.020069057
129	0xbccbce2f	-0.02487859
130	0x3d4fb218	0.050706953
131	0x3e07f103	0.13275532
132	0xbced90f8	-0.02899979
133	0x3d05ced5	0.032667954
134	0xbd1a5a6a	-0.03768388
135	0x3d91bb9c	0.07115862
136	0x3d8fd23e	0.070225224
137	0x3d5f7272	0.054552503
138	0x3d24785f	0.040153857
139	0x3da0e70a	0.07856567
140	0x3e43f3a8	0.19135916
141	0x3db5baed	0.08873544
142	0xbcf4a8a5	-0.029865572
143	0x3c4daeed	0.012553913
144	0xbc9e00f9	-0.019287573
145	0x3d45d153	0.04829533
146	0xbd0e6fe0	-0.03477466
147	0xbcf845a2	-0.030306641
148	0xbc57e309	-0.013176688
149	0xbdd0d547	-0.101969294
150	0x3dc27858	0.0949561
151	0xbd945d0d	-0.072443105
152	0xbd9e3c0d	-0.077262975
153	0xbe39c974	-0.18143255
154	0xbbc9e298	-0.0061610453
155	0xbdec5617	-0.11539858
156	0xbd600da0	-0.054700494
157	0x3bd3ef6c	0.0064677503
158	0x3d93c845	0.07215933
159	0xbe5079f1	-0.20359017
160	0xbdf82d8c	-0.121180624
161	0xbd98768f	-0.07444488
162	0xbe1dc6f7	-0.1540793
163	0x3d128c1e	0.035778157
164	0xb6837745	-3.917989e-06
165	0x3da6a711	0.08137334
166	0xbdce5023	-0.100738786
167	0xbcbcc442	-0.023042802
168	0x3dc9fd97	0.098628215
169	0xbd511190	-0.05104214
170	0xbe14a998	-0.1451782
171	0xbd24be34	-0.040220454
172	0x3d9eb070	0.077484965
173	0x3cb8642c	0.022508703
174	0x3cf4c4db	0.029879024
175	0x3d0cb6f3	0.03435416
176	0x3debfc28	0.11522704
177	0xbdcccc8f	-0.09999954
178	0xbd7e55e9	-0.06209365
179	0x3dfa3a59	0.1221816
180	0xbe248a52	-0.1606839
181	0x3c9b00f8	0.01892136
182	0x3d0d47c8	0.034492284
183	0x3d90b4ab	0.0706571
184	0x3c982eb7	0.018576963
185	0xbdf424d5	-0.11921088
186	0xbca2ee03	-0.019888883
187	0x3d126f8c	0.03575091
188	0xbce58db5	-0.028021673
189	0x3d6fb59b	0.0585228
190	0xbd616e23	-0.055036675
191	0xbd3eb0d8	-0.04655537
192	0xbe249dea	-0.16075864
193	0xbe0ce3c3	-0.13758759
194	0xbdb6196a	-0.08891566
195	0xbdda322e	-0.10654102
196	0xbb8d2b72	-0.0043081576
197	0x3cbb5818	0.022869155
198	0xbd8fb49f	-0.070168726
199	0x3d800436	0.06250803
200	0x3b1821db	0.0023213539
201	0x3c03d171	0.00804554
202	0x3dbec3ae	0.09314667
203	0x3ea4551f	0.32096192
204	0xbdb8f21a	-0.09030552
205	0xbda3a751	-0.079908974
206	0x3b303c79	0.0026891513
207	0xbdedfc56	-0.11620395
208	0xbd034774	-0.032050565
209	0xbd475118	-0.04866132
210	0x3be5a7fe	0.0070085516
211	0xbddae485	-0.10688118
212	0x3dd0e74e	0.10200368
213	0xbdaec0d4	-0.08532873
214	0xbcd33e77	-0.025786621
215	0x3e3878bd	0.18014808
216	0xbda1358f	-0.078715436
217	0xbdd8af28	-0.105802834
218	0xbcbbe2bf	-0.02293527
219	0x3d9e506d	0.07730184
220	0x3cc9c2ff	0.024629114
221	0x3d9870d4	0.07443395
222	0x3cd48625	0.025942871
223	0xbbded7d6	-0.006800632
224	0x3dbe8f60	0.0930469
225	0xbe396f0c	-0.18108767
226	0xbb7f19bf	-0.0038925258
227	0xbd0c5bd1	-0.03426725
228	0xbe10c4ae	-0.14137527
229	0xbde7c23c	-0.11316344
230	0xbde202ff	-0.11035728
231	0x3c9a3d35	0.018828014
232	0x3dc47444	0.095924884
233	0x3d90502b	0.07046541
234	0x3cb1d139	0.02170621
235	0xbda2e29f	-0.07953381
236	0x3d218906	0.039437316
237	0x3b8e8a48	0.0043499805
238	0xbd4b4195	-0.04962309
239	0xbdd03a2a	-0.10167344
240	0xbdd8a195	-0.10577694
241	0xbdbe0b89	-0.09279544
242	0x3a03addb	0.000502316
243	0x3dafc5b5	0.085826315
244	0x3dabeea5	0.08395127
245	0xbe1cf53b	-0.15327923
246	0x3cc2bd6f	0.02377197
247	0xbe219529	-0.15779556
248	0xbdb057bd	-0.08610485
249	0xbd7951ab	-0.0608689
250	0x3d1ef1b5	0.03880473
251	0x3d90b3e7	0.07065564
252	0x3de1d798	0.11027449
253	0x3d7bf247	0.06151035
254	0xbd841d60	-0.06450915
255	0xbd03715d	-0.032090534

conv2.0.bias f4 [6]
0	0x3c8278f1	0.01592681
1	0x3c3716a2	0.01117483
2	0x3df94eae	0.1217321
3	0xbd98e8d2	-0.07466282
4	0xbb84a048	-0.0040474273
5	0x3dd268d0	0.10273898

conv2.1.weight f4 [6]
0	0x3f64149b	0.8909394
1	0x3f6c2754	0.9224751
2	0x3f6cdfc9	0.9252897
3	0x3f6f5b0a	0.9349829
4	0x3f5e0b5f	0.867361
5	0x3f6a6cb5	0.91572124

conv2.1.bias f4 [6]
0	0x3d406f1c	0.046980962
1	0x3d73a043	0.05947901
2	0xbdaf17d6	-0.08549468
3	0x3b4583bf	0.0030138341
4	0x3da1f7f4	0.079086214
5	0x3c78403d	0.015152034

conv2.1.running_mean f4 [6]
0	0x3c5ab165	0.013347958
1	0x3dc9be9b	0.09850808
2	0x3e45095b	0.1924185
3	0xbe86b39f	-0.26308915
4	0xbe172645	-0.14760692
5	0x3ef8f861	0.48626998

conv2.1.running_var f4 [6]
0	0x3e48fb58	0.1962713
1	0x3ea28cec	0.3174814
2	0x3e80e2d9	0.2517307
3	0x3e94173c	0.28923976
4	0x3e39f241	0.18158819
5	0x3e8f1323	0.27944288

conv3.0.weight f4 [6, 6, 3, 3]
0	0x3d6eea82	0.058329113
1	0xbe0ef7c5	-0.13961704
2	0x3c652a16	0.013987085
3	0x3d0d4959	0.034493778
4	0x3dde281e	0.108474955
5	0x3db928b5	0.090409674
6	0xbe219e63	-0.15783076
7	0x3cbe68f0	0.023243397
8	0x3d359787	0.04433396
9	0x3b02e467	0.0019972564
10	0x3d3f867c	0.046759114
11	0x3e1599d3	0.1460946
12	0xbc222000	-0.009895325
13	0x3e1df025	0.15423639
14	0x3e19a367	0.1500374
15	0xbd04b19d	-0.032395948
16	0xbd1b793f	-0.037957426
17	0xbd0155f6	-0.03157612
18	0xbdd20ffe	-0.102569565
19	0xbd959aea	-0.07304938
20	0x3da4ec61	0.08052898
21	0xbe0d1888	-0.13778889
22	0xbe6012dc	-0.21882194
23	0xbd2d8be5	-0.042369742
24	0xbd8b8fc3	-0.0681453
25	0xbc8d6321	-0.017259182
26	0xbc255806	-0.010091787
27	0x3dcf8e6f	0.10134589
28	0x3e1f6962	0.15567544
29	0x3e413f60	0.18871832
30	0xbdd708f4	-0.104997545
31	0xbdff3187	-0.124606185
32	0xbdf37a5a	-0.11888571
33	0xbe03c84e	-0.12869379
34	0xbdaac6cc	-0.08338699
35	0xbcb28c36	-0.021795373
36	0xbb137d4e	-0.0022505107
37	0x3e0291de	0.12750956
38	0xbc87b823	-0.016567295
39	0x3e0face4	0.14030796
40	0xbd410534	-0.047124103
41	0xbdc82c85	-0.097741164
42	0xbd40146a	-0.04689447
43	0x3ce53452	0.02797905
44	0x3d82671b	0.06367322
45	0x3cff6ea4	0.031180687
46	0x3ddba515	0.10724846
47	0x3dff28e4	0.12458971
48	0x3d70fb71	0.058833543
49	0x3e074c1a	0.13212624
50	0x3dbbec87	0.091759734
51	0x3e1cf5db	0.15328161
52	0x3df14a89	0.117817946
53	0x3c9890ef	0.018623797
54	0xbdd5c3a9	-0.1043771
55	0x3c824fbf	0.015907167
56	0xbd8ab620	-0.06773019
57	0xbc5458ea	-0.012960652
58	0xbd1acdbb	-0.037793856
59	0xbdbf9589	-0.093546934
60	0xbdabc126	-0.083864495
61	0x3d85f319	0.06540508
62	0x3e2255aa	0.15852991
63	0x3df72a76	0.12068646
64	0x3d2d9f5f	0.042388316
65	0x3de10210	0.109867215
66	0x3dcb0e7f	0.09914874
67	0xbdfa9630	-0.12235677
68	0x3a3fed75	0.00073214556
69	0x3da3f051	0.08004821
70	0x3dca44b1	0.09876383
71	0xbdb5cf17	-0.0887739
72	0x3d9a59dd	0.07536671
73	0x3c802a56	0.015645187
74	0xbd725941	-0.05916715
75	0x3cba2857	0.022724314
76	0xbd1270f8	-0.035752267
77	0x3d5a63bd	0.053317774
78	0xbdacbdb2	-0.08434619
79	0xbcf412a9	-0.029794054
80	0xbcda35cc	-0.02663698
81	0xbd299010	-0.041397154
82	0xbd83a50e	-0.06427966
83	0x3db86b04	0.090047866
84	0xbdf5c86f	-0.1200112
85	0xbcd2a323	-0.025712555
86	0xbe1a1542	-0.15047172
87	0xbd4b11fb	-0.049577694
88	0xbd69ae60	-0.057051063
89	0x3d0cd359	0.034381244
90	0xbe3ad58f	-0.18245529
91	0xbcdd63b2	-0.027025077
92	0x3c241aa9	0.010016122
93	0x3d355c3e	0.044277422
94	0x3dd390db	0.10330363
95	0x3c1634e6	0.009167885
96	0xbd80a966	-0.0628231
97	0x3dd1f58b	0.10251912
98	0xbdc97a5b	-0.098377906
99	0x3c1014fb	0.008794065
100	0x3db162ec	0.08661446
101	0x3d2f8e86	0.04286053
102	0x3dda79e3	0.10667779
103	0xbcb61cfd	-0.02223062
104	0x3e56d1f2	0.20978525
105	0xbcaf6a32	-0.021412943
106	0xbce5b793	-0.028041637
107	0x3cb082e0	0.021546781
108	0x3cec991a	0.028881598
109	0xbe11ab1d	-0.14225431
110	0x3bd3101d	0.00644113
111	0x3cf8f6ec	0.030391179
112	0x3d327991	0.043572966
113	0xbde33fdc	-0.110961646
114	0x3c96291d	0.018330151
115	0x3d4febff	0.050762173
116	0x3decbc08	0.115593016
117	0xbc905bdd	-0.017621929
118	0xbd08ba6e	-0.03338092
119	0x3d9deba0	0.077109575
120	0xbd172cb1	-0.036907855
121	0xbe250829	-0.16116394
122	0xbd93d0f5	-0.0721759
123	0x3b982d21	0.0046440517
124	0xbd29ef82	-0.041488178
125	0xbd442027	-0.047882225
126	0xbe14761f	-0.14498185
127	0x3d8a22ad	0.06744895
128	0x3d26e5d4	0.040746525
129	0x3d1899a5	0.0372559
130	0x3e3a01f5	0.18164809
131	0x3c65ed91	0.014033691
132	0xbe2b306f	-0.16717695
133	0x3cd7c05d	0.026336843
134	0x3d2d53ca	0.042316236
135	0xbe11b9f2	-0.14231089
136	0x3bd0dd92	0.0063740695
137	0x3ddcc384	0.10779479
138	0x3c86ff97	0.016479297
139	0xbd1ed752	-0.038779564
140	0xbd90269a	-0.07038613
141	0x3d8761a1	0.06610418
142	0x3e075c26	0.13218746
143	0xbe02353f	-0.12715624
144	0xbd9e94ef	-0.077432506
145	0x3c9d27c5	0.019184003
146	0xbda54800	-0.080703735
147	0x3d4fe45c	0.05075489
148	0x3d438120	0.047730565
149	0xbc49086c	-0.012270074
150	0xbc8ab9a5	-0.016934225
151	0x3dab25db	0.0835683
152	0x3e3193eb	0.17341582
153	0xbdd3d8d9	-0.10344095
154	0xbda51672	-0.08060922
155	0xbb3afa5f	-0.002853058
156	0xbd0edb1b	-0.034876924
157	0xbbdd7fa1	-0.0067595993
158	0xbc87f179	-0.016594635
159	0xbde3a6f9	-0.11115832
160	0xbe27496f	-0.16336606
161	0x3d59ae06	0.053144477
162	0x3ccaa59a	0.024737168
163	0xbd14ba41	-0.036310438
164	0xbcf8c08d	-0.030365253
165	0xbdad69a0	-0.08467412
166	0xbdd18788	-0.10230929
167	0xbca09170	-0.0196006
168	0xbd9210f8	-0.07132143
169	0xbdb25bd7	-0.08708923
170	0x3dccacf7	0.09993928
171	0xbd23b91d	-0.03997146
172	0x3e0822f4	0.13294584
173	0xbe030e22	-0.1279836
174	0x3dbb8b1b	0.09157392
175	0xbdce3720	-0.10069108
176	0x3b37670a	0.0027985
177	0xbdca8a71	-0.09889687
178	0xbc9a86ce	-0.018863108
179	0xbde05d04	-0.10955241
180	0xbdbd3391	-0.09238351
181	0xbdb51ad2	-0.08843006
182	0xbd434502	-0.047673233
183	0x3c8721be	0.016495582
184	0xbdd23856	-0.102646515
185	0xbc5d4af6	-0.013506642
186	0x3d36f802	0.044670112
187	0x3cd8229c	0.02638369
188	0xbde79dea	-0.113094166
189	0xbdb4fc18	-0.088371456
190	0xbe06f42d	-0.13179083
191	0x3cf62666	0.030047607
192	0x3d11fcaa	0.03564135
193	0x3da1c031	0.07897986
194	0x3dc6a568	0.096995175
195	0x3cf402af	0.029786436
196	0x3d3ae615	0.04562958
197	0xbc6e5e24	-0.014548812
198	0x3dc00c0f	0.093773
199	0x3e2a2826	0.16616878
200	0xbc0542b7	-0.008133582
201	0x3ded43df	0.11585211
202	0xbe3d7633	-0.1850212
203	0xbe4793ac	-0.19489926
204	0xbdd9b2de	-0.10629819
205	0xbd9edafd	-0.077566124
206	0x3dfe133f	0.12406015
207	0xb89dfb07	-7.533101e-05
208	0x3c93a654	0.018023647
209	0xbe0ca34f	-0.13734172
210	0x3d8eab7f	0.06966304
211	0xbdfafca9	-0.12255222
212	0xbd8b6aa6	-0.06807451
213	0xbdc40350	-0.09570944
214	0xbc93b15b	-0.018028906
215	0xbc8862d8	-0.016648695
216	0xbde1bbaf	-0.11022126
217	0x3c4b62fb	0.0124137355
218	0xbd37ac31	-0.04484195
219	0xbd673617	-0.05644807
220	0xbd0575b7	-0.032582965
221	0x3ce6c247	0.02816881
222	0xbe15fd33	-0.14647369
223	0xbd72585d	-0.0591663
224	0x3d833ec7	0.06408458
225	0x3c74b626	0.014936006
226	0x3c9cc3e6	0.01913638
227	0xbe24bc10	-0.16087365
228	0x3d12ece3	0.035870444
229	0xbe03a365	-0.12855299
230	0xbd064e1b	-0.03278933
231	0x3da749a0	0.0816834
232	0xbe3cc9ed	-0.18436404
233	0xbd97d317	-0.07413309
234	0xbdf59703	-0.11991694
235	0x3d19c28a	0.037539043
236	0xbe0b575a	-0.1360754
237	0x3ca7a73b	0.020465484
238	0xbcf4b7ff	-0.029872892
239	0x3d80cb4d	0.062887765
240	0x3e0414cd	0.1289856
241	0x3d955203	0.07291033
242	0x3c691e66	0.014228439
243	0xbdc801bb	-0.09765955
244	0xbd4bc95a	-0.04975257
245	0xbd860f0e	-0.0654584
246	0xbd6650a3	-0.056229245
247	0xbde5d67a	-0.11222549
248	0x3c42d52a	0.011891643
249	0xbd12c0c1	-0.035828356
250	0x3d535d0a	0.0516024
251	0x3d0b4b12	0.03400714
252	0x3d23fe08	0.040037185
253	0x3d104f15	0.03523167
254	0xbd7f845b	-0.062382083
255	0xbdd9b1f0	-0.10629642

conv3.0.bias f4 [6]
0	0xbdbf3f30	-0.09338224
1	0xbd8055e3	-0.062663816
2	0x3dce7edd	0.10082791
3	0x3d89e72a	0.06733544
4	0x3bccbcbb	0.0062480844
5	0xbca30f4a	-0.019904751

conv3.1.weight f4 [6]
0	0x3f5f5845	0.87244064
1	0x3f5e54b6	0.8684801
2	0x3f5b753c	0.8572576
3	0x3f786322	0.97026265
4	0x3f71c537	0.9444155
5	0x3f700de4	0.93771195

conv3.1.bias f4 [6]
0	0x3dab6c80	0.08370304
1	0x3d50184e	0.05080443
2	0x3d8e554b	0.06949862
3	0x3acb0994	0.0015490525
4	0x3c74518b	0.0149120195
5	0x3d5c81e2	0.053834803

conv3.1.running_mean f4 [6]
0	0x3e319c38	0.17344749
1	0xbd38dedb	-0.045134407
2	0xbd8f776c	-0.070052
3	0xbe9e7288	-0.30946755
4	0xbedfd9e9	-0.4372094
5	0xbec03ce6	-0.37546462

conv3.1.running_var f4 [6]
0	0x3e20dc5b	0.15709059
1	0x3e1db861	0.15402366
2	0x3e35bf8b	0.17748849
3	0x3e0a2a7b	0.13492768
4	0x3def752e	0.11692272
5	0x3e225281	0.15851785

conv4.0.weight f4 [16, 6, 5, 5]
0	0xbc4fefdd	-0.012691465
1	0xbc41d8e0	-0.011831492
2	0xbcaf486f	-0.021396844
3	0xbd53066f	-0.051519807
4	0x3d7b137b	0.061297875
5	0x3d295503	0.04134084
6	0x3e0e1203	0.13874058
7	0x3dc93786	0.098250434
8	0x3d343c52	0.04400284
9	0xbcb1c060	-0.021698177
10	0x3d2954bb	0.04134057
11	0x3d4839db	0.0488833
12	0x3d60a1bd	0.054841746
13	0xbc2e5bb1	-0.010641978
14	0xbdb14751	-0.08656181
15	0xbd0c67f0	-0.03427881
16	0x3ca44e53	0.02005688
17	0x3c687792	0.014188664
18	0x3c2d52b5	0.010578801
19	0x3c832fa3	0.016013926
20	0x3d7d0b02	0.061778076
21	0xbcd3c4b5	-0.025850633
22	0xbc765c0d	-0.015036595
23	0x3d933144	0.07187131
24	0xbbc2d2fb	-0.005945561
25	0xbd50960e	-0.050924353
26	0x3db2208a	0.086976126
27	0x3c3c78de	0.011503426
28	0x3d4a1763	0.04933871
29	0xbc893f41	-0.016753795
30	0x3d19ead8	0.03757748
31	0x3c72987c	0.014806863
32	0x3d50ea39	0.051004622
33	0x3d3f9cb4	0.046780303
34	0xbcd34bea	-0.025793035
35	0x3cb4b02c	0.022056662
36	0xbdba550c	-0.09098253
37	0xbd059fb8	-0.032623023
38	0xbd98bcab	-0.074578606
39	0x3b11d946	0.002225475
40	0xbe00422c	-0.12525243
41	0xbd7c08e3	-0.061531913
42	0xbd56626e	-0.052339964
43	0x3c390de3	0.011294815
44	0xbcac5430	-0.021036237
45	0xbbf41b6c	-0.007449558
46	0x3caa406e	0.020782676
47	0xbd252d81	-0.0403266
48	0xbd5ee5c1	-0.05441833
49	0x3ce1f1f8	0.0275812
50	0xbc6e32b3	-0.014538455
51	0xbb9c773f	-0.0047749574
52	0x3cf25aa6	0.02958424
53	0x3ba8c1a6	0.005150038
54	0xbd195f4a	-0.03744439
55	0x3d53904c	0.051651284
56	0xbc6b3186	-0.014355069
57	0xbd07b7cf	-0.033134278
58	0xbc806140	-0.015671372
59	0xbd78be3a	-0.06072829
60	0x3d12d75c	0.035849914
61	0xba8cbb2e	-0.0010736936
62	0xbd6705df	-0.056402083
63	0xbb3b7718	-0.002860492
64	0x3c9a4c6e	0.018835273
65	0x3c8a02bc	0.016847007
66	0xbc8c0db7	-0.017096383
67	0xbd19773c	-0.037467226
68	0xba7218db	-0.0009235271
69	0xbbeeb4df	-0.007284745
70	0xbd224dc0	-0.03962493
71	0xbd059b7a	-0.032618977
72	0x3b894b6a	0.0041898983
73	0x3b85adf1	0.0040795733
74	0xbc6509aa	-0.013979355
75	0x3d4b1546	0.049580835
76	0x3dc6b5fc	0.097026795
77	0xbba6c5b7	-0.0050894874
78	0xbb8c55e3	-0.0042826994
79	0x3dad794e	0.08470403
80	0xbccea583	-0.025225407
81	0xbd83d5aa	-0.064372376
82	0xbcd909d9	-0.026493954
83	0xbd391750	-0.04518825
84	0xbd47fe3a	-0.048826434
85	0xbaff7828	-0.0019490765
86	0xbd07fa69	-0.033197794
87	0xbd3ace79	-0.045607064
88	0xbda0dc71	-0.07854546
89	0x3d1ee7c2	0.03879524
90	0xbd1d398b	-0.038384955
91	0x3daabb12	0.08336462
92	0x3d6b6c96	0.057476602
93	0x3d3883e2	0.04504765
94	0xbb2971f4	-0.0025855275
95	0xbcef0c81	-0.029180767
96	0xbce0def2	-0.027450059
97	0x3d23e2d6	0.04001125
98	0xbb85de62	-0.004085348
99	0x3d53d626	0.0517179
100	0xbd9f1308	-0.07767302
101	0xbd96a104	-0.0735493
102	0xbc96a0fe	-0.018387314
103	0x3d8a06da	0.06739588
104	0x3c8a8e46	0.016913544
105	0xbd764fec	-0.060134813
106	0xbce3d60e	-0.02781203
107	0xbcd6a9f9	-0.026204096
108	0xbd985aea	-0.074392155
109	0x3ba36899	0.0049868342
110	0x3d63ff3b	0.05566333
111	0x3cc96aef	0.024587123
112	0x3c7e4667	0.015519715
113	0x3cffd8d5	0.031231323
114	0x3bc474d5	0.005995373
115	0x3d34fafd	0.044184674
116	0xbc3037de	-0.010755507
117	0x3d6d3afd	0.057917584
118	0xba2cca14	-0.0006591391
119	0xbd435ed4	-0.047697857
120	0xbcb794a1	-0.022409739
121	0x3d905ed4	0.07049337
122	0x3c0bd835	0.0085354345
123	0x3d497fff	0.049194332
124	0xbb0a4fa8	-0.0021104608
125	0xbd215b90	-0.03939396
126	0xbb816b71	-0.0039495756
127	0xbdb713ad	-0.089393
128	0x3ce19bb1	0.02754006
129	0x3d614c0d	0.05500417
130	0xbdf96024	-0.121765405
131	0xbda975d4	-0.08274427
132	0x3c1ac6a3	0.009446773
133	0x3d556c84	0.05210544
134	0x3c1359a3	0.008993539
135	0x3d40d814	0.04708107
136	0x3ce3ffef	0.027832
137	0x3d05e13a	0.032685496
138	0xb99b93ba	-0.0002967397
139	0xbd1a874e	-0.037726693
140	0x3ccaf793	0.024776256
141	0xbd285ec3	-0.041105997
142	0xbc3a409f	-0.011367946
143	0xbd133e36	-0.035948
144	0x3d2ded23	0.04246248
145	0xbd00c5dc	-0.031438693
146	0xbd599057	-0.05311617
147	0xbd86544a	-0.065590456
148	0xbd0851bb	-0.03328107
149	0xbd48d0eb	-0.049027365
150	0xbc559f4b	-0.013038467
151	0xbd5cbffb	-0.053894024
152	0xbc89013e	-0.016724225
153	0x3c24d281	0.010059954
154	0x3d080e46	0.033216737
155	0xbc1f3068	-0.009716131
156	0x3cfa901c	0.030586295
157	0xbc93e915	-0.018055478
158	0x3bffcc2a	0.0078063207
159	0xbb61a343	-0.0034429587
160	0xbd08b1ff	-0.033372875
161	0xbd11c246	-0.035585664
162	0xbc8668d3	-0.016407406
163	0xbd896850	-0.06709349
164	0x3d06c432	0.03290195
165	0x3d48e437	0.049045768
166	0xbd8b1ab4	-0.067922026
167	0xbcd3ec32	-0.025869463
168	0x3c871b4e	0.016492512
169	0x3d096f60	0.03355348
170	0x3d9854ca	0.07438047
171	0xbd69797f	-0.057000633
172	0xbdb5e0c0	-0.08880758
173	0x3ccbc379	0.024873482
174	0xbd963e5f	-0.07336115
175	0x3d546665	0.051855464
176	0x3d9f244a	0.077705935
177	0x3da8b92d	0.082384445
178	0xbc8b29d7	-0.016987724
179	0x3c8e9b01	0.017407896
180	0xb88f0aba	-6.820769e-05
181	0x3d48fbab	0.049068134
182	0xbc4016ec	-0.011724215
183	0x3da33ecd	0.07970963
184	0x3d101069	0.0351719
185	0x3d8522e6	0.06500797
186	0x3c730e55	0.01483496
187	0xbcdce0ff	-0.026962755
188	0x3dc60c59	0.09670324
189	0x3bace68b	0.0052765063
190	0xbcef249f	-0.029192267
191	0x3c66c925	0.0140860425
192	0x3c5ebb01	0.01359439
193	0x3cef6802	0.0292244
194	0x3d2c49a0	0.0420624
195	0xbd95179e	-0.07279895
196	0xbd0ad89b	-0.033897977
197	0x3d030c72	0.03199429
198	0xbd48ca44	-0.04902102
199	0x3d188535	0.03723641
200	0xbb1374dc	-0.0022500074
201	0xbbcb173d	-0.0061978386
202	0x3d122f26	0.035689496
203	0xbd81e506	-0.06342511
204	0x3ccd4b90	0.025060445
205	0x3cdce2ef	0.02696368
206	0x3cf66ff3	0.030082678
207	0xbd976a56	-0.07393329
208	0x3d717a64	0.05895461
209	0x3cc20fee	0.023689236
210	0xbd048bd0	-0.032359898
211	0x3c80d608	0.015727058
212	0xbaefeb94	-0.0018304461
213	0x3d5b7b98	0.053584665
214	0x3c581bcc	0.013190221
215	0x3d93e248	0.07220894
216	0xbc37d6e9	-0.011220672
217	0x3c279ef4	0.0102307685
218	0xbd87b77f	-0.06626796
219	0x3c9b4000	0.018951416
220	0x3da47607	0.080303244
221	0xbbc60562	-0.006043122
222	0x3b53257e	0.0032218392
223	0xbcf01274	-0.029305674
224	0xbd26711b	-0.04063521
225	0xbc4ceff3	-0.01250838
226	0xbd79a928	-0.060952336
227	0xbcf9d239	-0.03049575
228	0xbbc00085	-0.005859437
229	0xbd477225	-0.04869284
230	0x3d46caf7	0.048533406
231	0x3d08a2de	0.033358447
232	0x3cafc443	0.02145589
233	0x3bbfea8c	0.0058568176
234	0xbcd1dd08	-0.025618091
235	0x3d1bf02f	0.038070854
236	0x3d1016ec	0.03517811
237	0x3d20d41a	0.039264776
238	0x3d51a05f	0.051178332
239	0x3c385f53	0.011253196
240	0x3c6cb29a	0.014446879
241	0xbc19d7b0	-0.009389803
242	0x3d096dea	0.033552088
243	0xbd2660e7	-0.040619757
244	0xbd0b02a1	-0.033938054
245	0x3bbf9613	0.0058467477
246	0xbd18810d	-0.037232447
247	0xbd0e6730	-0.034766376
248	0x3c23eff4	0.01000594
249	0x3c1cc822	0.0095692
250	0xbccbd7a6	-0.024883103
251	0xbd19e535	-0.037572104
252	0x3d3670f7	0.044541325
253	0x3d1b2f5e	0.03788697
254	0x3d7a8787	0.061164405
255	0x3d15a8d9	0.03653798

conv4.0.bias f4 [16]
0	0xbd92fc8f	-0.07177078
1	0xbbeb89e0	-0.007188067
2	0xbcb6d4c3	-0.02231825
3	0x3c3747f1	0.011186586
4	0x3c9df0aa	0.019279797
5	0xbd8cf2ce	-0.06882249
6	0xbd9746fd	-0.07386587
7	0xbd0f1639	-0.034933303
8	0xbd5d7706	-0.054068588
9	0x3cb59997	0.022167964
10	0x3c013434	0.007885981
11	0xbd12673e	-0.03574299
12	0x3d588449	0.052860532
13	0x3d926b73	0.071494006
14	0xbc9e7a9b	-0.019345572
15	0xbc83e29b	-0.016099265

conv4.1.weight f4 [16]
0	0x3f98ee2f	1.1947688
1	0x3f9b1753	1.2116493
2	0x3fa6ad1c	1.3021579
3	0x3f9f5ddc	1.2450519
4	0x3fa3656e	1.2765329
5	0x3f96e525	1.1788679
6	0x3f9d8c96	1.2308528
7	0x3fa753d6	1.307246
8	0x3fa29ca7	1.2704057
9	0x3f95fd00	1.1717834
10	0x3f9e17a0	1.235096
11	0x3fa0eb01	1.2571718
12	0x3f9bb409	1.2164317
13	0x3f948381	1.1602632
14	0x3f9395a5	1.1530043
15	0x3f955325	1.1665999

conv4.1.bias f4 [16]
0	0x3d816f26	0.06320028
1	0x3e007431	0.12544324
2	0x3d9e7285	0.077366866
3	0x3dae83c9	0.0852123
4	0x3dab3236	0.08359186
5	0x3d9df1ed	0.07712159
6	0x3dc67950	0.09691107
7	0x3df69361	0.12039829
8	0x3dbaf28b	0.09128293
9	0x3db77a0d	0.08958826
10	0x3dae59c2	0.08513214
11	0x3d92fbed	0.07176957
12	0x3daf84c3	0.08570244
13	0x3d7fb931	0.06243247
14	0x3db8cc6e	0.09023367
15	0x3d888cdd	0.066674925

conv4.1.running_mean f4 [16]
0	0xbe16eec2	-0.14739516
1	0x3e41fdf8	0.18944538
2	0x3b7d59a0	0.0038658157
3	0x3d2a4881	0.04157305
4	0xbe4e0fbf	-0.20123194
5	0x3eb4495e	0.35212225
6	0x3c79bea7	0.015243209
7	0xbedd0275	-0.43165937
8	0xbcde90b2	-0.027168605
9	0x3e687de9	0.22704281
10	0xbbdc4bb1	-0.0067228903
11	0x3e580f32	0.21099547
12	0x3d226e00	0.039655685
13	0x3ed34b47	0.4126837
14	0x3e4b8bf2	0.19877604
15	0xbca741ed	-0.020417178

conv4.1.running_var f4 [16]
0	0x3dc90f99	0.09817428
1	0x3d936340	0.07196665
2	0x3dca8432	0.098884955
3	0x3dacee10	0.08443844
4	0x3df9f620	0.12205148
5	0x3ddf69d1	0.10908855
6	0x3d98a5e8	0.07453519
7	0x3d9f7b14	0.07787147
8	0x3e0923d3	0.13392572
9	0x3e29bee0	0.1657672
10	0x3db983da	0.09058352
11	0x3db36876	0.08760159
12	0x3dbd9595	0.09257046
13	0x3dbf0e8f	0.09328949
14	0x3e7448b7	0.23855864
15	0x3d7e0051	0.06201202

fc1.0.weight f4 [120, 400]
0	0x3b84ba17	0.004050504
1	0x3c2b2cd4	0.0104477
2	0x3d18748d	0.037220526
3	0xbcb38938	-0.021916017
4	0x3baa39dc	0.0051948857
5	0x3c574506	0.013139015
6	0x3d173a11	0.03692061
7	0x3c0d186d	0.008611781
8	0x3d4d71f8	0.050157517
9	0xbcf8bc7d	-0.030363316
10	0x3d6919df	0.05690944
11	0x3c95613f	0.018234847
12	0xbcd8eb6e	-0.02647945
13	0x3d0dca33	0.03461666
14	0x3ae6c1bd	0.0017605346
15	0xbd2170c8	-0.039414197
16	0x3d1857b7	0.037193026
17	0x3d3918f3	0.04518981
18	0x3bf41a7f	0.0074494476
19	0x3cdd7d3c	0.027037255
20	0xbc23f873	-0.010007965
21	0x3c2be8f2	0.01049255
22	0xbcc52925	-0.02406747
23	0x3d287182	0.041123874
24	0x3cc28d7b	0.023749104
25	0xbcde3efe	-0.027129646
26	0xbd564b99	-0.05231819
27	0x3b3dc437	0.0028956064
28	0xbd042315	-0.03226002
29	0xbc74d4a1	-0.014943273
30	0x3d13f902	0.036126144
31	0xbcc4e51d	-0.024035031
32	0xbcc8dc84	-0.024519213
33	0xbbec9453	-0.00721983
34	0xb9b41260	-0.00034345966
35	0x3d3b0151	0.045655552
36	0x3bd586ac	0.0065162983
37	0x3c9299d9	0.017895626
38	0x3d174b4f	0.036937054
39	0xbcdb5c89	-0.026777523
40	0xbc90f20a	-0.017693538
41	0xbb152fa5	-0.0022763994
42	0x3c5c846d	0.013459307
43	0x3d0f73bc	0.035022482
44	0xbd342fa2	-0.04399074
45	0xbd108d46	-0.03529098
46	0xbad39f66	-0.0016145527
47	0xbc913c90	-0.017729074
48	0xbcc23f66	-0.023711871
49	0xbc70d37b	-0.014698858
50	0xbcf29d93	-0.029616153
51	0x3d107f83	0.035277855
52	0xbd37c1ee	-0.04486268
53	0x3bfb666d	0.007672122
54	0xbca29720	-0.019847453
55	0x3cf68646	0.030093323
56	0xbd623abd	-0.0552318
57	0xbb462ce8	-0.0030239169
58	0xbd531758	-0.051535934
59	0xbd4f7588	-0.050649196
60	0xbcde5fa7	-0.02714522
61	0xbd423e1c	-0.047422513
62	0x3cf80e3b	0.030280223
63	0xbd39e8f5	-0.04538818
64	0x3cc4f81b	0.024044087
65	0x3bb46d99	0.005506229
66	0xbb85a3c0	-0.0040783584
67	0x3ca04cd6	0.019567888
68	0xbba32581	-0.004978836
69	0x3d2d9941	0.042382482
70	0xbc8cdf62	-0.017196361
71	0x3ced0191	0.028931411
72	0x3d7e4074	0.062073186
73	0x3c4b3394	0.012402434
74	0x3c640d1f	0.013919144
75	0xbd0ee020	-0.03488171
76	0x3ca90c0f	0.020635633
77	0x3b348382	0.0027544205
78	0xbce67d09	-0.028135793
79	0xbcb82563	-0.022478765
80	0xbd39cdfc	-0.045362458
81	0xbd50e583	-0.05100013
82	0xbc98d152	-0.0186545
83	0x3cd82415	0.026384393
84	0x3d00964d	0.031393338
85	0x3d15fa61	0.036615733
86	0x3d27c1f1	0.04095644
87	0x3d032db4	0.032026008
88	0x3ccbef16	0.024894278
89	0xbd3bfd33	-0.045895766
90	0x3c941217	0.018075032
91	0x3ce81f4c	0.028335236
92	0xbd14ec47	-0.036358144
93	0xbce3637c	-0.027757399
94	0xbc08eae2	-0.008356782
95	0xbc1ffd70	-0.009765014
96	0xbc68740a	-0.014187822
97	0x3cf6b063	0.030113405
98	0x3c4e12d4	0.012577731
99	0xbd1afdc9	-0.037839685
100	0xbc17d46d	-0.009266955
101	0x3d6765d5	0.0564936
102	0xbc6e86c3	-0.014558497
103	0x3c5a5c32	0.013327645
104	0xbc8c350b	-0.017115137
105	0x3cfc95b4	0.030833103
106	0xbd2de621	-0.042455796
107	0xbc1604ee	-0.009156449
108	0x3c4f0ae9	0.0126368785
109	0x3b4b4db2	0.0031021652
110	0xbc9b6c42	-0.01897252
111	0x3cb9d4aa	0.022684414
112	0x3d509831	0.05092639
113	0x3d073541	0.03300977
114	0xbbddcea0	-0.0067690164
115	0xbc965f65	-0.018356035
116	0x3d148f0b	0.03626923
117	0x3d3c34e6	0.045948885
118	0xbca1ac66	-0.019735526
119	0x3c4be098	0.012443684
120	0x3c9facec	0.019491635
121	0x3d14130a	0.03615097
122	0x3b0cae27	0.0021466108
123	0x3cb8d9ed	0.022564853
124	0xbcac7e6d	-0.021056378
125	0x3caa6fb2	0.020805214
126	0xbbfc9577	-0.0077082473
127	0x3cb6ce81	0.022315266
128	0xbcdbf9da	-0.026852537
129	0xbd422664	-0.047399893
130	0x3b100740	0.0021976978
131	0x3cf9b437	0.030481441
132	0x3d383bed	0.044979025
133	0x3d1986ee	0.037482195
134	0x3bc68d76	0.006059344
135	0xbc7b60cf	-0.015342905
136	0x3b2c2317	0.0026266032
137	0xbcf28081	-0.029602291
138	0x3c5992c6	0.013279622
139	0xbd55feb6	-0.052244864
140	0x3d53c155	0.051698048
141	0xbce44ce0	-0.027868688
142	0x3c2adfc9	0.010429331
143	0x3ce06efe	0.027396675
144	0x3cd242fe	0.02566671
145	0x3a0507e3	0.00050747226
146	0x3cca22bf	0.024674771
147	0x3d4a24bd	0.049351443
148	0x3ba7472e	0.005104921
149	0x3d5445b4	0.051824287
150	0x3c483b47	0.012221164
151	0xbc085e35	-0.008323242
152	0x3d085d2f	0.03329199
153	0xb81463b3	-3.5378802e-05
154	0x3cdfca18	0.027318045
155	0xbcee5725	-0.029094288
156	0x3d33666b	0.043798845
157	0xbd173be1	-0.03692234
158	0xbb958886	-0.004563394
159	0xbd0569b6	-0.032571517
160	0x3c0482c9	0.008087822
161	0x3c0ee728	0.008722104
162	0x3d405e5b	0.046964984
163	0x3c4e7fe5	0.012603735
164	0xbce01ac7	-0.027356518
165	0xbd0c6b70	-0.034282148
166	0xbc0d4e61	-0.008624644
167	0x3d0f7d0d	0.035031367
168	0x3d0e5b5e	0.034755103
169	0xbcf40531	-0.029787632
170	0xbd1609a9	-0.036630306
171	0x3d4485d3	0.047979187
172	0x3c87442a	0.016511995
173	0x3cfdaa9c	0.030965142
174	0xbc97dac0	-0.018536925
175	0xbc10bbc0	-0.008833826
176	0xbca5490c	-0.020176433
177	0xbc0567da	-0.008142436
178	0xbcde1de9	-0.027113872
179	0x3cdbdd20	0.026838839
180	0xbae62b33	-0.0017560482
181	0x3cb435e0	0.021998346
182	0xbca238ea	-0.01980253
183	0xbd0859f8	-0.033288926
184	0xbc2f13bb	-0.010685856
185	0x3be3479a	0.006936026
186	0xbce13b39	-0.02749406
187	0x3c374c40	0.011187613
188	0x3caf62d3	0.021409428
189	0x3d6a4dce	0.057203107
190	0xbb8a465b	-0.004219813
191	0x3c7eca0f	0.015551104
192	0x3cca8092	0.02471951
193	0xbc5c4f0b	-0.01344658
194	0xbd0dae10	-0.034589827
195	0x3c7328c6	0.014841264
196	0xbcd1c010	-0.025604278
197	0xbd9ccd87	-0.07656389
198	0xbd01ab14	-0.031657293
199	0xbc96f4e5	-0.018427322
200	0x3c533b62	0.012892576
201	0x3d599a8a	0.053125896
202	0xbcc34ded	-0.023840869
203	0xbbf998e8	-0.007617105
204	0xbd0f65a8	-0.035009056
205	0xbb5cd1a4	-0.0033694291
206	0x3d25fc0c	0.040523574
207	0xbcc79148	-0.024361268
208	0xbcd1a0ff	-0.025589464
209	0x3a63407e	0.0008668973
210	0x3d196b90	0.037456095
211	0xbcac5e0e	-0.021040943
212	0xbccded88	-0.025137678
213	0xbcac5187	-0.021034969
214	0x3c867db2	0.016417358
215	0xbcd2f512	-0.025751624
216	0x3c1a8e43	0.009433332
217	0xbca8925d	-0.020577604
218	0x3d34b551	0.04411823
219	0x3d26d77b	0.040732842
220	0xbcc30bd4	-0.023809351
221	0x3cd88a9b	0.02643328
222	0x3d45ab1d	0.04825889
223	0x3b454fbe	0.0030107345
224	0xbcbc8ed2	-0.02301732
225	0x3b8a5e3a	0.0042226585
226	0x3b740643	0.0037235178
227	0xbc3cbd48	-0.011519738
228	0xbcd7f46d	-0.026361668
229	0x3d22ed68	0.03977719
230	0x3c013982	0.007887246
231	0xbd0ee300	-0.034884453
232	0xbb72f424	-0.0037071789
233	0x3c7c22e3	0.015389177
234	0x3c09a6df	0.008401602
235	0xbd13311d	-0.03593551
236	0xbb849309	-0.0040458483
237	0xbcbfd3c2	-0.023416404
238	0xbc22c105	-0.009933715
239	0x3cd66f3a	0.026176084
240	0x3b807d18	0.0039211623
241	0x3d640ba0	0.05567515
242	0x3d29e398	0.041476816
243	0x3b815e74	0.0039480273
244	0xbcd341cd	-0.025788212
245	0x3d578ae9	0.05262271
246	0x3d589b79	0.052882645
247	0x3d9c0590	0.076182485
248	0x3d840ec3	0.06448128
249	0xbca02a6c	-0.019551478
250	0x3cf5629f	0.029954253
251	0x3d07f90a	0.033196487
252	0x3ba13ea7	0.004920799
253	0xbcc92241	-0.024552466
254	0x3d1c8ce4	0.0382203
255	0x3c767c7a	0.015044326

fc1.0.bias f4 [120]
0	0x3b6e50e8	0.0036364142
1	0x3d184c7d	0.03718232
2	0xbd123ade	-0.03570067
3	0x3b86a7a5	0.0041093403
4	0x3d24fedc	0.040282115
5	0xbab83f25	-0.0014056904
6	0xbccd0bb5	-0.025029996
7	0x3c1e3564	0.009656284
8	0xbd29dd00	-0.041470528
9	0x3abc31fc	0.0014358158
10	0x3c861cfd	0.016371245
11	0x3d039b37	0.032130446
12	0x3ba1b2f7	0.0049346644
13	0x3cfa43d9	0.03054993
14	0xbc663ca0	-0.01405254
15	0x3ad4a671	0.001622392
16	0x3c6922ca	0.014229486
17	0x3d5c87f2	0.053840585
18	0x3d1b8ba1	0.037974957
19	0xbd405e32	-0.04696483
20	0x3d22c643	0.03973986
21	0xba946855	-0.0011322597
22	0xbc4d5f60	-0.012534946
23	0xbc7dbf0d	-0.015487445
24	0x3ca3cbe6	0.019994687
25	0xbc7d58ef	-0.015463098
26	0xbd1f6dc7	-0.03892305
27	0xbb60f81c	-0.0034327572
28	0x3d080be6	0.033214472
29	0x3c132e1c	0.008983161
30	0x3cb57257	0.022149248
31	0xbcdd62ac	-0.02702459
32	0x3c268c8a	0.010165343
33	0xbd0fde2b	-0.035123985
34	0x3d37472a	0.0447456
35	0xbd11e8c7	-0.035622384
36	0x3c134c13	0.0089903055
37	0xbc1a11d5	-0.009403666
38	0xbc8d3279	-0.017235981
39	0xbcc09435	-0.02350817
40	0x3c22a1da	0.009926284
41	0x3c260e0b	0.010135184
42	0x3c945bbd	0.01811015
43	0xbd22c25a	-0.03973613
44	0x3d1a8ac6	0.03773
45	0xbc367008	-0.011135109
46	0xbbb9cd67	-0.005670238
47	0x3d2b046f	0.041752275
48	0xbc890376	-0.016725283
49	0xbc6b33fa	-0.014355654
50	0xbce038f0	-0.0273709
51	0x3cd27f3b	0.025695434
52	0x3d28e401	0.041233066
53	0x3d0331d9	0.03202996
54	0xbd2a4c5c	-0.04157673
55	0x3ca75b8e	0.020429399
56	0xbcfa17e5	-0.030528972
57	0xbca14ee9	-0.019690948
58	0x3ca116dc	0.01966422
59	0xbcb90f3f	-0.022590278
60	0xbc7f231b	-0.015572335
61	0x3c9e327c	0.019311182
62	0x3cfa20cc	0.030533217
63	0xbb80a859	-0.0039263186
64	0x3d0544a0	0.03253615
65	0x3c590e43	0.013248029
66	0x3b0df15e	0.0021658759
67	0xbc34f06e	-0.011043651
68	0x3cfcfe33	0.03088293
69	0xbd0c8e4d	-0.034315396
70	0xbd2149d9	-0.039377067
71	0xbc95c1a5	-0.018280813
72	0x3d1272ae	0.0357539
73	0xbd02d15b	-0.03193794
74	0xbc0b0bad	-0.00848667
75	0x3d3d8f04	0.04627897
76	0x3d375fa2	0.044768937
77	0xbd0dbd63	-0.03460444
78	0xbd42bf1e	-0.047545545
79	0x3b1fec04	0.002440215
80	0xbcfea15b	-0.0310828
81	0xbbd35903	-0.00644982
82	0x3d18113e	0.03712582
83	0x3d188f1b	0.03724585
84	0xbc9aad7c	-0.018881552
85	0x3d2fc8a8	0.04291597
86	0x3d46ae51	0.048506085
87	0x3cbf2906	0.023334991
88	0x3d48f16c	0.049058363
89	0xbac35a8f	-0.0014904308
90	0x3c40df75	0.011772026
91	0x3c3d69e9	0.0115608955
92	0xbca25923	-0.019817894
93	0xbd150707	-0.036383655
94	0xbd1f7697	-0.038931455
95	0x3cd5ba99	0.026089953
96	0x3cf6aeb7	0.030112607
97	0xbd20c89e	-0.039253823
98	0x3c93dc6d	0.018049443
99	0xbca5029a	-0.020142842
100	0x3d09c858	0.03363833
101	0x3b0a60ac	0.002111475
102	0x3a9525ca	0.001137906
103	0x3c8ad26b	0.016946038
104	0x3c7a977d	0.015294907
105	0xbb12f20c	-0.0022422103
106	0xbd3281f8	-0.04358098
107	0x3cd6f652	0.026240502
108	0xbc9278d6	-0.017879885
109	0x3d55894e	0.052132897
110	0xbb5d1d15	-0.0033739258
111	0x3c5ebe0e	0.013595117
112	0x3bead500	0.007166505
113	0xbc18104f	-0.009281232
114	0xbcfdcbae	-0.030980911
115	0x3cd9c934	0.026585199
116	0xbb41505a	-0.0029497356
117	0x3ce24653	0.027621424
118	0x3d046413	0.032322
119	0x3d2e0635	0.04248639

fc2.0.weight f4 [84, 120]
0	0xbd8431a0	-0.06454778
1	0xbd0e2d86	-0.034711383
2	0xbbdca44e	-0.006733454
3	0x3d97c3b7	0.074103765
4	0xbba26078	-0.0049553476
5	0x3d9a284c	0.07527217
6	0xbd10d824	-0.035362378
7	0x3d30a5ec	0.043126985
8	0x3d7f7d9f	0.06237566
9	0x3d07cc28	0.033153683
10	0x3cd470a3	0.025932616
11	0x3d462c4d	0.048382092
12	0x3dd3d784	0.10343841
13	0x3d2586b7	0.040411677
14	0x3d4912f0	0.049090326
15	0xbd645be6	-0.055751704
16	0xbc491af8	-0.012274496
17	0x3cb495b2	0.022044037
18	0xbd1a0545	-0.03760268
19	0x3c60dd5e	0.013724653
20	0x3d2a28f9	0.04154298
21	0xbd0c3222	-0.034227498
22	0xbd1dc0a0	-0.03851378
23	0x3d819310	0.06326878
24	0xbd38eb6d	-0.045146395
25	0xbd886700	-0.06660271
26	0x3d529819	0.051414583
27	0xbd5e0b8a	-0.054210223
28	0xbd0eacaa	-0.034832634
29	0xbd99bb8a	-0.07506473
30	0x3c37a265	0.0112081515
31	0x3d895b3e	0.06706856
32	0x3d8758a8	0.06608707
33	0xbd343b06	-0.0440016
34	0x3d7fcf69	0.06245366
35	0xbcd49bdd	-0.025953228
36	0xbd8907dd	-0.06690953
37	0x3ddeb145	0.10873655
38	0x3cadd4e7	0.021219684
39	0xbd3d3204	-0.046190277
40	0xbc4cc932	-0.012499141
41	0xbd8feb4b	-0.070273004
42	0xbd0f42e4	-0.0349759
43	0xbda44597	-0.08021086
44	0xbd7f0fd5	-0.062270958
45	0xbc95d4e1	-0.018289985
46	0x3cfa69b3	0.03056798
47	0x3d0442cf	0.032290276
48	0xbd83b7c6	-0.064315364
49	0xbcde0d6b	-0.027106008
50	0x3da7d78c	0.08195409
51	0xbd3af568	-0.045644194
52	0xbd8cf1c0	-0.06882048
53	0x3c8911c0	0.016732097
54	0xbd1a0bc7	-0.037608888
55	0x3dc17b29	0.09447319
56	0xbdbefa12	-0.09325041
57	0x3daf6e7e	0.085659966
58	0x3d01d343	0.031695616
59	0x3da33141	0.07968379
60	0x3caa0dae	0.020758476
61	0xbcbc346f	-0.022974221
62	0x3d467378	0.048449963
63	0xbd41bdae	-0.047300033
64	0x3d7e12bd	0.06202959
65	0xbd8831bd	-0.06650112
66	0x3d10243d	0.03519081
67	0x3d13249e	0.035923593
68	0xbd9aff4e	-0.07568227
69	0x3c39a9c8	0.011331983
70	0x3d875ba2	0.066092744
71	0x3d82644a	0.06366785
72	0x3d52ace5	0.051434416
73	0x3d04ae5d	0.03239285
74	0xbc93e2e5	-0.018052528
75	0x3d163f80	0.036681652
76	0xbb6e11d6	-0.003632655
77	0xbd581971	-0.052758638
78	0x3d29b3dc	0.041431293
79	0xbda73ab3	-0.08165493
80	0xbd0c72ca	-0.03428916
81	0xbd5b0fbb	-0.0534818
82	0x3da30f27	0.079618745
83	0xbd20ab55	-0.039225895
84	0xbc8cc58f	-0.017184047
85	0x3d76030f	0.06006151
86	0xbce91d06	-0.028456222
87	0xbd960305	-0.07324795
88	0x3d13e535	0.03610726
89	0x3d275c5a	0.040859558
90	0xbd2cec28	-0.042217404
91	0x3bbcbbed	0.005759707
92	0x3d171036	0.036880694
93	0xbda2a6a3	-0.0794194
94	0xbd737882	-0.059441097
95	0x3d05a509	0.032628093
96	0x3dcf4914	0.101213604
97	0xbd09845c	-0.033573493
98	0xbd4c3208	-0.0498524
99	0xbd80f2c4	-0.06296304
100	0xbcb100b8	-0.021606788
101	0x3cdafbd8	0.026731417
102	0xbd971714	-0.07377449
103	0x3d907e92	0.07055391
104	0x3da2089d	0.07911799
105	0xbd26ac38	-0.040691584
106	0xbd57430e	-0.052554183
107	0x3d61b99e	0.05510866
108	0x3cbbf07e	0.022941824
109	0x3cbe5588	0.023234144
110	0xbcc8ef39	-0.024528133
111	0xbd602bf3	-0.054729413
112	0xbd8eed0c	-0.06978807
113	0xbd10f5e7	-0.03539076
114	0x3d3536d4	0.04424174
115	0x3bf7bd3d	0.0075604008
116	0x3d598797	0.053107824
117	0x3ce09eef	0.027419535
118	0x3cf89718	0.030345485
119	0xbcc0317c	-0.023461096
120	0xbd23bae1	-0.039973143
121	0xbdd6c7b7	-0.10487311
122	0xbcba1255	-0.02271382
123	0x3c287608	0.010282047
124	0xbda1e556	-0.079050705
125	0x3d6362a3	0.05551399
126	0x3cffc004	0.03121949
127	0x3d44143e	0.047870867
128	0xbd449392	-0.047992297
129	0xbcd93765	-0.026515672
130	0x3c97b104	0.018517025
131	0x3d46ab45	0.04850318
132	0x3daba6d4	0.08381429
133	0xbd8dcc98	-0.06923789
134	0x3d8babc7	0.06819873
135	0x3db10ed4	0.08645406
136	0x3d1d1b16	0.03835591
137	0xbd92ff60	-0.07177615
138	0xbd506d81	-0.05088568
139	0x3d4ee2c8	0.050509244
140	0x3d044c37	0.032299247
141	0x3d03d9bb	0.032190066
142	0xbd6cd3b0	-0.05781907
143	0x3ccb1fb5	0.024795393
144	0xbcd232e6	-0.025659036
145	0xbc2e3a97	-0.010634086
146	0x3d7051a2	0.0586716
147	0xbda30c55	-0.079613365
148	0xbda9f9d2	-0.082996026
149	0x3e0e05e5	0.13869436
150	0x3aed071d	0.0018083785
151	0xbda0e970	-0.07857025
152	0x3db14288	0.08655268
153	0x3d66ba15	0.056329805
154	0x3be36ea6	0.0069406806
155	0x3d27f8d4	0.041008785
156	0xbcccdb1a	-0.02500682
157	0xbd81114f	-0.063021295
158	0x3d442d28	0.047894627
159	0x3deb7956	0.11497752
160	0x3d6d9553	0.058003735
161	0x3d799fb9	0.06094334
162	0x3d8736cd	0.06602249
163	0xbd92607f	-0.071473114
164	0xbd7cb9e9	-0.061700735
165	0x3d8e3f09	0.06945617
166	0x3d84b47c	0.06479737
167	0xbc16184c	-0.009161066
168	0x3b665148	0.0035143662
169	0xbdb29c18	-0.08721179
170	0xbd814634	-0.06312218
171	0xbd0affa3	-0.0339352
172	0xbc886aed	-0.016652549
173	0xbe0c04e9	-0.13673748
174	0xbbaf1e24	-0.005344169
175	0x3d103f32	0.035216518
176	0x3dbda491	0.09259904
177	0x3dd1b3bf	0.10239362
178	0xbc12735c	-0.008938637
179	0x3dfaaf07	0.12240415
180	0xbd9e6efc	-0.07736012
181	0xba9ea420	-0.0012103356
182	0xbc219ea9	-0.009864488
183	0xbda34b78	-0.07973379
184	0xbd98d78d	-0.07462988
185	0x3d13f7f7	0.03612515
186	0xbd7b50ae	-0.06135624
187	0xbd390367	-0.04516926
188	0xbd40d3c5	-0.04707696
189	0x3d8e93ed	0.06961808
190	0x3cb5f1a7	0.022209955
191	0xbd893463	-0.06699445
192	0x3d056e40	0.032575846
193	0x3d53b857	0.051689472
194	0x3d63d6cc	0.05562477
195	0xbcbe618d	-0.023239875
196	0x3d1aaa8e	0.03776031
197	0x3d0ffab8	0.035151213
198	0x3d824b30	0.06361997
199	0xbcc66204	-0.02421666
200	0x3dbd48f4	0.0924243
201	0xbb899200	-0.0041983128
202	0x3ce7164d	0.028208876
203	0xbc80cbb3	-0.015722131
204	0xbdc6421f	-0.0968058
205	0x3d323df8	0.04351613
206	0x3e33e751	0.17568709
207	0x3d1242f0	0.035708368
208	0xbd56048e	-0.052250437
209	0x3d72943f	0.05922341
210	0xbda3cacb	-0.07997664
211	0xbc18b409	-0.0093202675
212	0xbbc0865e	-0.005875393
213	0xbd9d6818	-0.0768587
214	0xbda45361	-0.08023716
215	0x3d8d2b87	0.06893068
216	0xbd80884e	-0.06275998
217	0x3ca35544	0.019938119
218	0x3d03c0e7	0.032166388
219	0xbccce703	-0.025012499
220	0xbbf03a8b	-0.0073311976
221	0xbd1f6e82	-0.038923748
222	0xbba33884	-0.0049811024
223	0xbd241a79	-0.04006431
224	0x3d9fd885	0.0780497
225	0x3ba57e0a	0.0050504254
226	0xbd86bb1b	-0.06578656
227	0x3d4c399f	0.04985964
228	0x3d7fd4db	0.062458854
229	0xbd387b63	-0.045039546
230	0xbd31e0dc	-0.043427333
231	0x3d07fe83	0.033201706
232	0xbd4a53a4	-0.049396172
233	0xbdc228ad	-0.094804145
234	0x3dcb8454	0.09937349
235	0x3d22895d	0.03968178
236	0xbd41035b	-0.04712234
237	0x3d9b3db0	0.07580125
238	0xbda2e81a	-0.07954426
239	0xbce628cd	-0.028095627
240	0x3c9804f5	0.018557051
241	0xbd1d9356	-0.03847059
242	0x3dae8e2e	0.085232124
243	0x3c393fab	0.0113066835
244	0x3c5a23cd	0.0133142
245	0xbd39908d	-0.04530387
246	0xbc7d8f82	-0.015476109
247	0xbd312f99	-0.043258283
248	0x3d88d0b0	0.06680429
249	0xbd9365d4	-0.071971565
250	0xbd454c4c	-0.048168465
251	0xbc1cc786	-0.0095690545
252	0x3c9253a6	0.017862152
253	0x3be32ed5	0.006933073
254	0x3cce4e41	0.025183799
255	0x3e0c0eb1	0.1367748

fc2.0.bias f4 [84]
0	0xbd0d179f	-0.034446355
1	0x3d4af52f	0.04955023
2	0x3cf666e3	0.030078357
3	0x3da59e36	0.08086817
4	0x3c67ae5c	0.014140692
5	0x3d8533b6	0.06504004
6	0xbd7f7bba	-0.062373854
7	0xbcaa46aa	-0.020785648
8	0x3bc08985	0.0058757686
9	0x3bd5334b	0.0065063587
10	0xbda205ab	-0.07911237
11	0x3cfafdc6	0.030638587
12	0xbd7b9744	-0.061423555
13	0x3d96bdd4	0.073604256
14	0x3cc74d4e	0.024328854
15	0xbd1e8dbe	-0.038709395
16	0xbd903e2b	-0.070431076
17	0xbd8619da	-0.065478995
18	0xbd052a1a	-0.032510854
19	0x3cebac2b	0.02876862
20	0x3d2dc91e	0.04242813
21	0xbcf7b2f6	-0.030236702
22	0x3de0c4c4	0.1097503
23	0xbcd17d2a	-0.025572378
24	0x3b6289f5	0.0034567092
25	0x3d7fdaf9	0.062464688
26	0x3c3e00cb	0.011596869
27	0xbce9ecf5	-0.028555373
28	0x3d13a2be	0.036043875
29	0x3d645f5c	0.055755004
30	0x3d68a2dc	0.05679594
31	0xbcc1b324	-0.023644991
32	0x3cc21888	0.023693338
33	0xbc4cc7b1	-0.012498782
34	0xbbdf2368	-0.0068096407
35	0xbc9dd5f6	-0.019267064
36	0x3c97d327	0.018533302
37	0xbc153691	-0.009107248
38	0xbd3584fc	-0.044316277
39	0x3d42c312	0.047549315
40	0x3d810314	0.06299415
41	0xbc753aa2	-0.014967592
42	0x3da7628f	0.081730954
43	0x3d2c0535	0.041997153
44	0x3d895c01	0.067070015
45	0xbc76ea00	-0.015070438
46	0x3c8ff610	0.017573386
47	0xbc303c6e	-0.010756595
48	0x3d36247a	0.04446838
49	0x3ca93995	0.02065734
50	0xbc4f0722	-0.012635978
51	0x3d8a0959	0.06740064
52	0x3d17b98e	0.037042193
53	0x3ccc61af	0.024948923
54	0x3bf5b396	0.007498215
55	0x3d9c8048	0.07641655
56	0x3d7f16f4	0.06227775
57	0x3c8bd00a	0.017066974
58	0xbd1c8749	-0.038214955
59	0xbd1ee37b	-0.03879116
60	0x3ce3b308	0.02779533
61	0xbd6502fa	-0.05591104
62	0x3b8240d8	0.003975015
63	0x3dd22f67	0.102629475
64	0xbcb85184	-0.022499807
65	0x3d38c0d9	0.04510579
66	0xbcb6bd84	-0.022307165
67	0x3d0522c4	0.03250386
68	0x3d9e7d7e	0.077387795
69	0xbd2cf819	-0.042228792
70	0xbd8b6a08	-0.06807333
71	0xbcdd6d4e	-0.02702966
72	0xbc0da1d9	-0.0086445445
73	0x3b80dd1b	0.003932608
74	0xbd1b783e	-0.03795647
75	0xbd8a1151	-0.06741584
76	0x3ce5395f	0.027981458
77	0x3dc1927f	0.0945177
78	0xbd535df6	-0.05160328
79	0xbcd92b25	-0.02650983
80	0xbd75358e	-0.059865527
81	0x3d4d83b8	0.050174445
82	0x3c121b00	0.00891757
83	0xbd354430	-0.04425448
