计算机视觉实践-练习2/checkpoint/lenet_p/Saturday_15_April_2023_09h_37m_31s/lenet_p-10-regular.pth (torch, 260683 bytes, 30 tensors)

conv1.0.weight f4 [6, 1, 5, 5]
0	0xbe442117	-0.19153248
1	0xbe3b78f1	-0.18307854
2	0xbe76846c	-0.24073952
3	0xbddc0d20	-0.10744691
4	0xbdb7ccdd	-0.089746214
5	0x3dd134d6	0.10215156
6	0x3d2534ed	0.040333677
7	0xbd650fb0	-0.055923164
8	0x3c82ac47	0.015951289
9	0xbda0c642	-0.07850315
10	0xbd4ad1ca	-0.049516477
11	0x3d350a23	0.04419912
12	0x3c1e12c9	0.009648033
13	0x3cacf4ca	0.021112818
14	0x3c97e87a	0.01854347
15	0xbd0453a1	-0.032306317
16	0xbdbea3d9	-0.09308595
17	0xbd5695c9	-0.05238894
18	0x3c3376be	0.010953603
19	0xbca12b03	-0.01967383
20	0x3da5d66f	0.080975406
21	0xbdb208ad	-0.08693061
22	0x3e0b672c	0.13613576
23	0x3e266de4	0.16252857
24	0x3e8f77c4	0.2802106
25	0xbca142bf	-0.019685147
26	0xbd89a7a6	-0.067214295
27	0xbd994123	-0.07483127
28	0xbdcab010	-0.098968625
29	0x3e13a2d1	0.14417578
30	0x3e0e7672	0.13912371
31	0x3e336f0c	0.1752283
32	0x3e45b250	0.19306302
33	0x3e561ed4	0.20910197
34	0x3d78a647	0.06070545
35	0xbdd1d3a9	-0.10245449
36	0x3d120e42	0.03565813
37	0xbc4a7f7e	-0.012359498
38	0xbdcb6677	-0.09931653
39	0xbe0a6cff	-0.13518141
40	0xbe6b6de0	-0.22991133
41	0xbdab7d4e	-0.08373509
42	0xbd98e438	-0.07465404
43	0xbda2e07a	-0.07952972
44	0x3d3b1835	0.045677382
45	0x3c84d83e	0.016216394
46	0xbe461c23	-0.19346671
47	0xbe11e1f6	-0.14246354
48	0xbd83fc63	-0.06444623
49	0x3d46d720	0.048545003
50	0xbe023d20	-0.1271863
51	0xbd89bb25	-0.06725148
52	0xbd76ec5a	-0.060283996
53	0xbdf59fc5	-0.11993364
54	0xbe393046	-0.18084821
55	0x3dd17f77	0.1022939
56	0xbe385040	-0.17999363
57	0x3d5ad1a5	0.05342259
58	0xbc7630c5	-0.015026276
59	0xbd437497	-0.04771861
60	0xbe2a1517	-0.16609608
61	0xbccf005a	-0.025268722
62	0xbc0e9a16	-0.008703729
63	0xbdab2e8c	-0.083584875
64	0x3bf64dcb	0.007516598
65	0xbde001de	-0.10937856
66	0xbe0de009	-0.13854994
67	0xbce096db	-0.027415683
68	0xbe0d0b73	-0.13773899
69	0xbe0b2089	-0.1358663
70	0xbe0a34d1	-0.1349671
71	0x3dbe55ce	0.0929371
72	0xbb08291e	-0.002077646
73	0xbd3028c4	-0.043007627
74	0xbe456166	-0.19275436
75	0x3e248d6d	0.16069575
76	0x3d14e0c0	0.03634715
77	0xbc8ea95b	-0.01741474
78	0xbc854a0f	-0.016270665
79	0x3aaf0929	0.001335417
80	0xbc1c460a	-0.009538183
81	0x3e121008	0.14263928
82	0x3e2b94df	0.16756009
83	0x3e1b0656	0.15139136
84	0xbe00c02c	-0.12573308
85	0x3e3fc11e	0.18726012
86	0x3e482cd3	0.19548349
87	0xbc226681	-0.009912134
88	0x3ded048a	0.115731314
89	0xbdd4d877	-0.1039285
90	0x3e388a2e	0.18021461
91	0xbdec9ae0	-0.115529776
92	0xbc063e1d	-0.00819352
93	0xbe0fe757	-0.14053093
94	0xbe2f90f8	-0.17145145
95	0xbe21da00	-0.15805817
96	0xbdf75099	-0.1207592
97	0xbe643e01	-0.22289278
98	0xbde2bd51	-0.110712655
99	0x3dd3d2fe	0.10342978
100	0x3e29a2af	0.16565965
101	0xbdcae736	-0.09907381
102	0xbe257554	-0.16158038
103	0xbe52ac0a	-0.2057344
104	0x3ceb9b4b	0.028760573
105	0x3a2df93a	0.0006636564
106	0x3b27f85d	0.0025630214
107	0xbe1e29b7	-0.154456
108	0x3d85c5bb	0.06531855
109	0x3e411231	0.18854596
110	0x3dddaf69	0.108244725
111	0x3d93d09c	0.072175235
112	0xbdb2a559	-0.08722944
113	0x3e1ff73e	0.15621659
114	0x3dfe676a	0.124220684
115	0x3dd21972	0.102587596
116	0x3e39b191	0.18134142
117	0x3dd36b0a	0.103231505
118	0xbe156b60	-0.14591742
119	0xbca19378	-0.019723639
120	0x3d6d544b	0.057941716
121	0xbdbc12b2	-0.09183253
122	0x3e2ab539	0.16670693
123	0x3b87d78a	0.0041455673
124	0x3df357a7	0.11881953
125	0x3d8cffbf	0.06884717
126	0x3de69f73	0.11260881
127	0xbd9d809b	-0.07690545
128	0xbd6be7d2	-0.057594128
129	0xbe2cd617	-0.16878544
130	0xbde75738	-0.112959325
131	0xbc89118c	-0.016732
132	0x3d05b50b	0.03264336
133	0x3e001fcb	0.12512128
134	0xbd146efa	-0.036238648
135	0xbd3b750d	-0.045765925
136	0x3e029fcd	0.12756272
137	0x3e517871	0.20456101
138	0x3e843fa2	0.25829798
139	0x3e296fed	0.16546603
140	0x3d9163d0	0.07099116
141	0xbdb5ab24	-0.08870533
142	0xbe3b3720	-0.18282747
143	0x3d40a07c	0.04702805
144	0x3e0dd96b	0.1385247
145	0xbd20b464	-0.039234534
146	0xbdae10f1	-0.08499325
147	0xbe3e4d69	-0.18584217
148	0xbe4f4f0b	-0.20244996
149	0xbccc41a1	-0.024933638

conv1.0.bias f4 [6]
0	0xbced6e61	-0.028983297
1	0x3df7e720	0.121046305
2	0xbdf814b8	-0.12113327
3	0xbdb4f3a8	-0.08835536
4	0x3da95dfa	0.08269878
5	0xbce2cff1	-0.027687045

conv1.1.weight f4 [6]
0	0x3f7c9301	0.9866181
1	0x3f76d36c	0.96416354
2	0x3f7788f4	0.9669335
3	0x3f71004c	0.9414108
4	0x3f6fe8b8	0.93714476
5	0x3f6d31e2	0.9265424

conv1.1.bias f4 [6]
0	0xbd721599	-0.05910263
1	0x3cb52082	0.022110227
2	0x3cca38aa	0.024685223
3	0x3c9f6df4	0.01946161
4	0x3c16038b	0.009156118
5	0xbd3be02c	-0.045868084

conv1.1.running_mean f4 [6]
0	0xbd9884f8	-0.07447237
1	0x3d8f14bc	0.06986377
2	0xbeafe4dc	-0.34354293
3	0xbd97190b	-0.073778234
4	0x3e2d7d89	0.16942419
5	0xbcc328bc	-0.023823135

conv1.1.running_var f4 [6]
0	0x3d485336	0.04890748
1	0x3d18e327	0.037326004
2	0x3df9453e	0.1217141
3	0x3d8368e8	0.06416494
4	0x3d1d7f10	0.038451254
5	0x3ccdb28a	0.025109548

conv2.0.weight f4 [6, 6, 3, 3]
0	0x3ddb7b7d	0.10716913
1	0xbd450019	-0.048095796
2	0xbda54ae4	-0.08070925
3	0x3d590760	0.05298555
4	0xbc47e742	-0.012201132
5	0x3e05b77d	0.13058276
6	0x3c0d9946	0.0086425
7	0xbdd0e585	-0.102000274
8	0xbd6fae52	-0.058515854
9	0x3c42c23b	0.011887128
10	0xbdf391a0	-0.1189301
11	0x3dfdf6b6	0.12400572
12	0x3d13f117	0.036118593
13	0x3d00b02f	0.03141802
14	0xbbb73cd1	-0.0055919667
15	0xbd0730cf	-0.033005532
16	0xb9f390f3	-0.00046456567
17	0xbc5e9376	-0.013584962
18	0xbe0507f4	-0.12991315
19	0x3dcd5fe1	0.10028053
20	0x3de720af	0.11285531
21	0xbdbf61c1	-0.09344817
22	0xbe08af15	-0.13348038
23	0x3b113a62	0.0022160043
24	0xbdabd723	-0.083906434
25	0x3de7ad79	0.11312384
26	0x3db92e6b	0.09042057
27	0xbcb1234a	-0.021623272
28	0xbd7a2858	-0.06107363
29	0xbe223ace	-0.15842745
30	0x3c044062	0.008071991
31	0xbe1b2436	-0.15150532
32	0xbe475588	-0.19466221
33	0x3de8425f	0.11340784
34	0xbc3a35f2	-0.011365401
35	0x3d9fb9dd	0.077991225
36	0x3e51f4e6	0.20503578
37	0xbdb56ff7	-0.08859246
38	0x3c1d5b5c	0.009604301
39	0x38aac2f3	8.142544e-05
40	0x3d679fc5	0.056548852
41	0x3db84239	0.08997006
42	0x3d3f20b4	0.046662048
43	0xbd2f5681	-0.042807106
44	0x3ce2e914	0.027699031
45	0xbd972a63	-0.073811315
46	0xbbc0ded1	-0.005885937
47	0xbdda0eb7	-0.10647338
48	0x3e11636d	0.14198084
49	0x3e0c2369	0.13685383
50	0x3d40865e	0.047003143
51	0xbd82cd7b	-0.063868485
52	0x3d89493e	0.06703423
53	0xbd9fac81	-0.077965744
54	0xbcdd190a	-0.026989479
55	0x3d8870c6	0.06662135
56	0x3cbf137f	0.023324726
57	0x3da27888	0.07933146
58	0x3d842218	0.06451815
59	0xbded19c1	-0.11577178
60	0xbd8c2fcd	-0.06845055
61	0x3dd3770a	0.10325439
62	0xbe3b7d32	-0.18309477
63	0x3db287af	0.08717286
64	0x3e0f7a00	0.14011383
65	0x3cfd754a	0.030939717
66	0x3db492a1	0.0881703
67	0x3df69be8	0.120414555
68	0x3c10be63	0.008834454
69	0x3cc5b976	0.024136286
70	0xbd8939ad	-0.06700454
71	0xbda65c66	-0.08123092
72	0xbdd69bf3	-0.10478964
73	0x3d1bd4fe	0.038044922
74	0x3d820f22	0.063505426
75	0x3c35c60c	0.011094581
76	0xbcf09d53	-0.029371893
77	0x3dc557d8	0.096358955
78	0x3ce4247f	0.027849434
79	0xbdd22731	-0.102613814
80	0x3db5f310	0.08884251
81	0x3ce10ebc	0.027472846
82	0x3de2de23	0.110775255
83	0x3debe8ab	0.11518987
84	0x3de226bd	0.11042545
85	0x3db2b839	0.08726544
86	0xbd9c3923	-0.076280855
87	0xbe144be3	-0.14482073
88	0x3da1c6a0	0.07899213
89	0xbd1d44ee	-0.038395815
90	0x3ca31c89	0.019911068
91	0xbc38e0be	-0.011284051
92	0xbe329613	-0.17440061
93	0x3dc1c983	0.094622634
94	0xbd96d5ba	-0.07364984
95	0xbda3774a	-0.07981737
96	0xbd5cea9a	-0.05393467
97	0xbc0a2316	-0.008431217
98	0x3bdbb15e	0.0067044934
99	0x3e00bfd7	0.12573181
100	0xbce64567	-0.028109265
101	0xbd55488b	-0.052071135
102	0x3de78f1f	0.11306595
103	0xbbf970b5	-0.0076123127
104	0xbd40495e	-0.04694497
105	0xbdcf1264	-0.101109296
106	0xbcbb993c	-0.022900216
107	0xbd8ca29c	-0.06866953
108	0x3db41fad	0.08795104
109	0xbc43640c	-0.0119257085
110	0xbd11a489	-0.035557304
111	0x3d69d271	0.05708546
112	0xbc1bea6d	-0.009516341
113	0x3a82ce0e	0.0009979622
114	0x3d111ec6	0.03542974
115	0x3dc8fa06	0.09813313
116	0x3e5f3487	0.21797381
117	0x3c4b3906	0.012403732
118	0x3d8571a0	0.06515813
119	0xbd0a3c2c	-0.03374879
120	0xbd976066	-0.073914334
121	0x3d66ea50	0.0563758
122	0xbd1aaee6	-0.037764452
123	0xbe09504d	-0.13409539
124	0xbda1b352	-0.07895531
125	0xbd17ff81	-0.037108902
126	0x3d9c5ad1	0.07634509
127	0x3d8047de	0.062637076
128	0x3d167b58	0.036738724
129	0xbd14d566	-0.036336325
130	0x3d3127fe	0.04325103
131	0x3e09ab13	0.13444166
132	0xbce19524	-0.027536936
133	0x3ce5de55	0.028060118
134	0xbd2415eb	-0.040059965
135	0x3d916e68	0.071011364
136	0x3dece8e6	0.11567859
137	0x3c999cd3	0.018751537
138	0x3d3d0911	0.046151225
139	0x3d9db833	0.07701149
140	0x3e26a12e	0.16272423
141	0x3dd4d4cd	0.10392151
142	0xbcd8fd9f	-0.026488123
143	0xbc22de62	-0.0099407155
144	0xbb801a95	-0.003909419
145	0x3d500420	0.050785184
146	0xbcd8b684	-0.026454218
147	0xbcaee56f	-0.021349637
148	0xbbb2ac03	-0.0054526343
149	0xbda4dd89	-0.08050067
150	0x3da69dca	0.081355646
151	0xbd7cca72	-0.061716504
152	0xbdbd344e	-0.09238492
153	0xbe36f566	-0.1786705
154	0xbc3be323	-0.011467728
155	0xbde3e72f	-0.11128079
156	0xbd47a929	-0.048745308
157	0xbcfe9275	-0.031075696
158	0x3d62c8ac	0.055367157
159	0xbe468943	-0.19388299
160	0xbde51f32	-0.11187591
161	0xbd925487	-0.071450286
162	0xbe31456e	-0.17311642
163	0x3d7c98fa	0.061669327
164	0x3b8ddad2	0.004329064
165	0x3da205ec	0.07911286
166	0xbdae6301	-0.08514977
167	0xbc91ec04	-0.017812736
168	0x3d9018e2	0.07035996
169	0xbd5c381f	-0.05376446
170	0xbe0a0780	-0.13479424
171	0xbd8195a0	-0.06327367
172	0x3d64db92	0.05587346
173	0x3d152d16	0.03641995
174	0x3ca5a942	0.02022231
175	0x3cecaf99	0.028892325
176	0x3ddd2ad5	0.10799185
177	0xbdc4ceac	-0.09609732
178	0xbd629f72	-0.05532784
179	0x3e0e0dde	0.13872477
180	0xbe1a9003	-0.15093999
181	0x3d29487e	0.0413289
182	0x3d863154	0.06552377
183	0x3da1be64	0.07897642
184	0x3cf3bac3	0.02975214
185	0xbde7efa8	-0.11325008
186	0xbc589d80	-0.013221145
187	0x3d00ec97	0.03147563
188	0xbd4f3f6f	-0.050597604
189	0x3d9f8dc9	0.07790715
190	0xbd324d0f	-0.04353052
191	0xbd70a6cd	-0.058752824
192	0xbe23424b	-0.15943258
193	0xbe060c32	-0.1309059
194	0xbdc61fe7	-0.09674054
195	0xbdd9d6d2	-0.10636677
196	0xbcc51315	-0.02405695
197	0x3ca04f66	0.01956911
198	0xbd91972d	-0.071089126
199	0x3d49882c	0.04920213
200	0xbc3d1539	-0.011540704
201	0x3d174460	0.03693044
202	0x3dbfd822	0.09367396
203	0x3e9078be	0.2821712
204	0xbdcae162	-0.099062696
205	0xbd9df111	-0.077119954
206	0xbb95f9d2	-0.0045769
207	0xbdde31a9	-0.10849316
208	0xbc5845ae	-0.013200207
209	0xbd3e4227	-0.046449807
210	0x3cdb780a	0.026790638
211	0xbde631fe	-0.11240004
212	0x3deec60c	0.11658868
213	0xbda9247b	-0.08258911
214	0xbcea45ea	-0.02859779
215	0x3e349d1e	0.1763806
216	0xbd92aff7	-0.07162469
217	0xbdd4fbeb	-0.10399612
218	0xbd65bd4a	-0.056088723
219	0x3d70a553	0.058751415
220	0x3b2e5bc4	0.002660499
221	0x3d79caa0	0.060984254
222	0x3bb0f8af	0.005400739
223	0xbc816ac2	-0.015797976
224	0x3db2f690	0.08738434
225	0xbe1b31fd	-0.15155788
226	0x3c8dd83f	0.017315028
227	0xbd69c868	-0.057075888
228	0xbe0221da	-0.12708226
229	0xbdcb07e1	-0.09913612
230	0xbdca33d4	-0.09873167
231	0xbc0c3f3e	-0.00856
232	0x3dbf36ec	0.093366474
233	0x3d661a64	0.05617751
234	0x3d0a9296	0.0338312
235	0xbd987923	-0.0744498
236	0x3d827e4c	0.063717455
237	0x3b8a20b4	0.0042153243
238	0xbcf7fc5b	-0.0302717
239	0xbdbb9078	-0.091584146
240	0xbdc58eb7	-0.09646361
241	0xbda34578	-0.079722345
242	0x3c8926e1	0.016742172
243	0x3d864663	0.06556394
244	0x3d97a317	0.07404154
245	0xbe0a8c60	-0.13530111
246	0x3cfc2eab	0.030783972
247	0xbdfff050	-0.12497008
248	0xbda04528	-0.078256905
249	0xbd6421d5	-0.055696327
250	0x3c6fc8bd	0.014635262
251	0x3da7542f	0.081703536
252	0x3e04c2fc	0.12965006
253	0x3d46c2ed	0.04852574
254	0xbdc6585a	-0.096848205
255	0xbca841e6	-0.020539235

conv2.0.bias f4 [6]
0	0x3c88bcfc	0.016691677
1	0x3c3fe116	0.0117113795
2	0x3e02a380	0.12757683
3	0xbda03eb6	-0.07824461
4	0xbb8afe77	-0.0042417604
5	0x3ddc830b	0.10767182

conv2.1.weight f4 [6]
0	0x3f6efe39	0.93356663
1	0x3f777077	0.9665598
2	0x3f753a1e	0.95791805
3	0x3f786573	0.970298
4	0x3f707d4b	0.9394118
5	0x3f744001	0.9541016

conv2.1.bias f4 [6]
0	0x3cfab3f5	0.030603388
1	0x3d63d559	0.055623386
2	0xbd891775	-0.06693927
3	0x3a70e763	0.0009189753
4	0x3d759078	0.05995223
5	0x3c6aefeb	0.014339427

conv2.1.running_mean f4 [6]
0	0x3d11fca2	0.03564132
1	0x3dd977a6	0.10618524
2	0x3e2f349a	0.1710991
3	0xbe82a3b8	-0.25515532
4	0xbda32d60	-0.07967639
5	0x3ecc405f	0.3989286

conv2.1.running_var f4 [6]
0	0x3e65840a	0.2241365
1	0x3eb21132	0.34778744
2	0x3e911ede	0.28343862
3	0x3ea3106b	0.31848463
4	0x3e43c228	0.19117033
5	0x3e94256c	0.289348

conv3.0.weight f4 [6, 6, 3, 3]
0	0x3d67dbf0	0.056606233
1	0xbde1bb98	-0.11022109
2	0xbc0c5e96	-0.008567473
3	0x3c6ec1ae	0.014572544
4	0x3df5a0c8	0.11993557
5	0x3d934a5b	0.071919166
6	0xbe0de642	-0.13857368
7	0x3d261a72	0.040552564
8	0x3d894f44	0.06704572
9	0x3cd8bc4a	0.02645697
10	0x3d31d6c5	0.04341771
11	0x3e0ac2a9	0.1355082
12	0xbcbc87ad	-0.023013914
13	0x3e21f70f	0.15816902
14	0x3e1d2256	0.1534513
15	0xbac6a9d2	-0.0015156812
16	0xbd405f3e	-0.04696583
17	0xbd3e7129	-0.046494637
18	0xbddb6735	-0.107130446
19	0xbd8cd129	-0.06875832
20	0x3d434709	0.047675166
21	0xbe1d2644	-0.15346628
22	0xbe5baa73	-0.2145174
23	0xbbd219cb	-0.006411766
24	0xbd8b8297	-0.068120174
25	0xbc194e16	-0.009356996
26	0xb9004f03	-0.00012236465
27	0x3dc3c4eb	0.095590435
28	0x3e21d15e	0.15802523
29	0x3e268424	0.16261345
30	0xbda9fca4	-0.083001405
31	0xbdd8ecb5	-0.10592023
32	0xbded854c	-0.1159769
33	0xbdfe143b	-0.124062024
34	0xbda0ee33	-0.07857933
35	0xbce9f24b	-0.028557917
36	0x3c3ebfcf	0.01164241
37	0x3e09c798	0.13455045
38	0xbc2e5cf2	-0.010642277
39	0x3dfa56a8	0.122235596
40	0xbd369cf9	-0.044583295
41	0xbd9a4494	-0.075326115
42	0xbd4b14a9	-0.04958025
43	0x3d1aa186	0.037751697
44	0x3d938730	0.07203519
45	0x3cd7ba8e	0.026334073
46	0x3dd13194	0.102145344
47	0x3e0e011a	0.13867608
48	0x3d6a835a	0.057254173
49	0x3e00a092	0.12561253
50	0x3dddc33e	0.10828255
51	0x3e153998	0.14572752
52	0x3e010e9a	0.12603226
53	0x3d10b394	0.03532751
54	0xbdd5104f	-0.10403501
55	0xbbbc87f4	-0.0057535116
56	0xbd8e9d21	-0.06963564
57	0x3c5b0157	0.013367019
58	0xbd4cc4b0	-0.049992263
59	0xbd958c61	-0.07302166
60	0xbd92066a	-0.0713013
61	0x3d9503d6	0.07276122
62	0x3e201140	0.1563158
63	0x3e014944	0.12625605
64	0x3d390be8	0.04517737
65	0x3dd5d9fd	0.104419686
66	0x3dba2a1f	0.09090065
67	0xbdca725f	-0.09885096
68	0xbc3f2f64	-0.011669014
69	0x3d5fdd9f	0.054654714
70	0x3dccdbc0	0.100028515
71	0xbd8b7cc1	-0.06810904
72	0x3d60b070	0.054855764
73	0x3c97ff66	0.0185544
74	0xbd7689bf	-0.06018996
75	0x3d5db75f	0.054129954
76	0xbbcdb829	-0.006278057
77	0x3d46e673	0.048559617
78	0xbd87e368	-0.06635171
79	0xbd1b6a14	-0.03794296
80	0xbd72dc6d	-0.059292246
81	0xbd5cfb1c	-0.053950414
82	0xbd437cb5	-0.04772635
83	0x3d9816a6	0.07426195
84	0xbe0618ec	-0.13095444
85	0xbcc4ae9f	-0.024009047
86	0xbe142e4a	-0.14470783
87	0xbd02d280	-0.03193903
88	0xbdc6a226	-0.09698896
89	0x3d18e462	0.037327178
90	0xbe4c3b2c	-0.19944447
91	0xbd0f3b21	-0.0349685
92	0x3c8528f4	0.01625488
93	0x3cd3d56c	0.025858603
94	0x3dfae62f	0.12250935
95	0x3c1a6796	0.009424111
96	0xbd50757a	-0.050893284
97	0x3deb2011	0.114807256
98	0xbdd55f3d	-0.10418556
99	0x3c04fb1f	0.008116513
100	0x3dd128cf	0.10212862
101	0x3d19fe28	0.037595898
102	0x3dc29bbe	0.09502362
103	0xbd105db8	-0.035245627
104	0x3e4727a9	0.19448723
105	0xbc94071b	-0.018069794
106	0xbd1c5b1e	-0.038172834
107	0x3c182ce5	0.009288047
108	0x3d09e3a8	0.033664376
109	0xbdf263f9	-0.118354745
110	0xbcd0730e	-0.025445487
111	0x3b4225de	0.0029624621
112	0x3d495432	0.04915256
113	0xbdcdd179	-0.10049719
114	0x3b887f89	0.004165594
115	0x3d093c7f	0.03350496
116	0x3df71da6	0.12066202
117	0xbc283295	-0.010265966
118	0xbd576086	-0.052582286
119	0x3d8c35dc	0.0684621
120	0xbc00fdfe	-0.007873056
121	0xbe295412	-0.16535977
122	0xbd98ebdc	-0.074668616
123	0x3c92296a	0.017842013
124	0xbd820d9e	-0.063502535
125	0xbc9f6b2c	-0.019460283
126	0xbe1461d3	-0.14490442
127	0x3d3f2f70	0.0466761
128	0x3cb7600a	0.022384662
129	0x3c96a269	0.01838799
130	0x3e2187de	0.15774485
131	0x3c9c9ecd	0.01911869
132	0xbe289cbd	-0.16466041
133	0x3d060d9a	0.032727815
134	0x3d20eac3	0.039286386
135	0xbe206dfa	-0.15666953
136	0x3d05eb9e	0.032695405
137	0x3e034af8	0.12821567
138	0xbc449fbd	-0.012000975
139	0xbcef0166	-0.029175472
140	0xbd4865f4	-0.048925355
141	0x3d659073	0.05604596
142	0x3dd429fc	0.103595704
143	0xbdf0cfa4	-0.11758354
144	0xbdbb555c	-0.091471404
145	0x3ca092c1	0.019601228
146	0xbd93942e	-0.072059974
147	0x3d867b8b	0.06566533
148	0x3d84cf8d	0.064849
149	0xbc0c9e76	-0.008582702
150	0xbd137888	-0.03600362
151	0x3db06cb1	0.08614481
152	0x3e432110	0.19055581
153	0xbdd05fa7	-0.10174494
154	0xbdaa2f91	-0.08309854
155	0xbcaa67d6	-0.020801466
156	0xbc2c0ad8	-0.010500632
157	0x3c4dc291	0.012558595
158	0x3c083661	0.008313746
159	0xbe09bc6b	-0.13450782
160	0xbe1edefc	-0.1551475
161	0x3d6e708b	0.058212798
162	0x3c4af750	0.012388065
163	0xbd07143a	-0.032978274
164	0xbc819230	-0.015816778
165	0xbdcd2697	-0.10017126
166	0xbdb02a9d	-0.08601878
167	0xbc8fbce4	-0.017546125
168	0xbd54aa28	-0.051920086
169	0xbdb327d6	-0.087478325
170	0x3d7e9d5f	0.0621618
171	0xbcf3d85c	-0.029766254
172	0x3df74fa6	0.120757386
173	0xbe07cec8	-0.13262475
174	0x3deb0483	0.1147547
175	0xbdcf1aab	-0.101125084
176	0xbb93a981	-0.0045062904
177	0xbda8b9fa	-0.08238597
178	0xbd06ad0e	-0.03287988
179	0xbdb4c79a	-0.088271335
180	0xbd974a28	-0.07387191
181	0xbdacb874	-0.08433619
182	0xbd6897f8	-0.056785554
183	0x3c4a3008	0.012340553
184	0xbdd41e11	-0.10357297
185	0x3b735250	0.003712792
186	0x3d1c031e	0.03808891
187	0x3d1a3678	0.0376496
188	0xbdcf2816	-0.10115068
189	0xbd8fbba9	-0.07018215
190	0xbe098853	-0.1343091
191	0x3c9eb324	0.01937253
192	0x3d7539e9	0.05986968
193	0x3da30e44	0.07961705
194	0x3da82a84	0.08211234
195	0x3c8c158c	0.017100118
196	0x3d67c71d	0.056586374
197	0xbbdaf3e2	-0.006681905
198	0x3da6155c	0.08109543
199	0x3e15191b	0.14560358
200	0xbce54640	-0.0279876
201	0x3df6278e	0.12019263
202	0xbe285d38	-0.1644181
203	0xbe40b6a3	-0.1881967
204	0xbdd9b058	-0.10629338
205	0xbd962eb1	-0.073331244
206	0x3df951be	0.12173794
207	0x3c16356e	0.009168012
208	0x3c990f13	0.018683946
209	0xbe0712db	-0.13190787
210	0x3d8474ee	0.06467615
211	0xbdf6a172	-0.12042512
212	0xbd9f6ab1	-0.07784022
213	0xbdef1ac5	-0.11675028
214	0xbc2c34cb	-0.010510634
215	0xbca0e030	-0.01963815
216	0xbe0746cf	-0.13210605
217	0x3c36afce	0.011150314
218	0xbcd0dc56	-0.02549569
219	0xbd44f23a	-0.048082568
220	0xbd411c72	-0.04714627
221	0x3c717145	0.014736478
222	0xbe12b9df	-0.14328717
223	0xbd564dfd	-0.05232047
224	0x3d5c625a	0.053804733
225	0x3c9fa3c6	0.019487273
226	0x3d1a2cc3	0.037640344
227	0xbe2aed4e	-0.16692087
228	0x3d0257f0	0.031822145
229	0xbe00491b	-0.12527888
230	0xbc8c3b1b	-0.017118027
231	0x3d64ccb0	0.055859268
232	0xbe356087	-0.17712604
233	0xbd9f8456	-0.07788913
234	0xbdeaee9b	-0.11471292
235	0x3d3fea71	0.04685444
236	0xbe1008f7	-0.1406592
237	0x3cca36b1	0.024684282
238	0xbd224c29	-0.039623413
239	0x3d65e12e	0.05612295
240	0x3e025e26	0.12731227
241	0x3d5e79b4	0.054315284
242	0xbc932d14	-0.01796583
243	0xbdb9b923	-0.09068515
244	0xbd558197	-0.05212554
245	0xbd761635	-0.060079772
246	0xbd9bf8ea	-0.07615836
247	0xbdf6b88b	-0.120469175
248	0x3ce78726	0.028262686
249	0xbcebf7bf	-0.028804658
250	0x3d558171	0.052125398
251	0x3d020feb	0.03175346
252	0x3d64ee4d	0.055891324
253	0x3d7541e0	0.059877276
254	0xbcddb79d	-0.027065093
255	0xbdc9018a	-0.09814747

conv3.0.bias f4 [6]
0	0xbdc86e26	-0.09786634
1	0xbd867f6c	-0.065672725
2	0x3dd869d6	0.105670616
3	0x3d90859a	0.070567325
4	0x3bd69154	0.006548086
5	0xbcaae52f	-0.020861236

conv3.1.weight f4 [6]
0	0x3f710827	0.94153064
1	0x3f6bb827	0.9207787
2	0x3f69d82a	0.91345465
3	0x3f80c520	1.0060158
4	0x3f74e2e0	0.95658684
5	0x3f7a3199	0.9773193

conv3.1.bias f4 [6]
0	0x3da00642	0.078136936
1	0x3d515b62	0.05111254
2	0x3d707723	0.058707368
3	0xbba6de09	-0.0050923866
4	0x3c6bf243	0.014401021
5	0x3d6cf0c9	0.057846818

conv3.1.running_mean f4 [6]
0	0x3e5bafbc	0.21453756
1	0xbd72cb18	-0.059275717
2	0xbd8a8f1c	-0.06765577
3	0xbe9e3962	-0.30903155
4	0xbedb942e	-0.4288649
5	0xbedb3e97	-0.4282119

conv3.1.running_var f4 [6]
0	0x3e36c340	0.1784792
1	0x3e2f8f03	0.17144398
2	0x3e403012	0.18768337
3	0x3e07f0ce	0.13275453
4	0x3de9e5b0	0.114207625
5	0x3e3f469a	0.18679276

conv4.0.weight f4 [16, 6, 5, 5]
0	0xbc7967ee	-0.015222533
1	0x3c460f11	0.012088553
2	0xbca7cab6	-0.020482402
3	0xbd3ffb90	-0.046870768
4	0x3d56d1ec	0.05244629
5	0x3ca258fb	0.01981782
6	0x3e07934f	0.13239788
7	0x3ddbf22b	0.10739549
8	0x3d04de11	0.03243834
9	0xbd19f18a	-0.037583865
10	0x3d681726	0.0566627
11	0x3d833ff4	0.064086825
12	0x3d35b7cb	0.04436473
13	0xbc439165	-0.01193652
14	0xbdb58415	-0.08863083
15	0xbd070c07	-0.032970455
16	0x3ce16bcd	0.027517224
17	0x3c92afaf	0.017906038
18	0x3c3b1836	0.011419347
19	0x3c450f61	0.012027592
20	0x3d75c405	0.060001392
21	0xbd17ac24	-0.0370294
22	0xbcc40049	-0.023925917
23	0x3d93459c	0.07191011
24	0x3cbac0cb	0.022797009
25	0xbd52be4f	-0.051451024
26	0x3db23063	0.08700635
27	0x3c4f5597	0.012654684
28	0x3d416bb7	0.047221866
29	0xbd005a2c	-0.031335995
30	0x3cfc3ebb	0.030791631
31	0x3c409012	0.011753099
32	0x3d0c3ecc	0.034239575
33	0x3d452810	0.04813391
34	0xbccda9f4	-0.025105454
35	0x3c942cbd	0.01808774
36	0xbdb298b7	-0.08720534
37	0xbb19c934	-0.0023465874
38	0xbd8930ad	-0.06698737
39	0xbc256135	-0.010093977
40	0xbe0df3e1	-0.13862564
41	0xbd8ac89a	-0.06776543
42	0xbd7b443c	-0.06134437
43	0x3cc2fca4	0.023802109
44	0xbc908302	-0.017640594
45	0x3bf8ebf8	0.007596489
46	0x3cdaeefa	0.026725281
47	0xbd4f8b6e	-0.05067008
48	0xbd49be72	-0.04925389
49	0x3cd35e9e	0.025801953
50	0xbd06af54	-0.03288205
51	0xbc65a199	-0.014015579
52	0x3d2332a3	0.039843213
53	0x3c88a6ee	0.01668116
54	0xbd1ca387	-0.03824189
55	0x3d8001e5	0.06250361
56	0xbc45c7e3	-0.0120715825
57	0xbd174d71	-0.03693909
58	0xbb5e8640	-0.003395453
59	0xbd689715	-0.056784708
60	0x3d17dc69	0.037075434
61	0x3c82fcfd	0.015989775
62	0xbd580060	-0.052734733
63	0xbc295bdb	-0.010336841
64	0x3be9a25b	0.00712995
65	0xbae76df6	-0.0017656672
66	0xbcc747c5	-0.024326215
67	0xbd275481	-0.040852074
68	0xbbda88b4	-0.0066691283
69	0xbc78f96b	-0.015196185
70	0xbd430244	-0.047609583
71	0xbcb4df26	-0.022079062
72	0x3c46598d	0.0121063115
73	0xbc5ab06b	-0.013347725
74	0xbc48c6d0	-0.012254432
75	0x3d32b85b	0.043632846
76	0x3dd61282	0.10452749
77	0xbccd27ae	-0.025043335
78	0x3ca4feb6	0.020140987
79	0x3db5e597	0.088816814
80	0xbcdf394a	-0.027248997
81	0xbd8dfdd9	-0.06933183
82	0xbc0f87d2	-0.008760409
83	0xbd2fc785	-0.042914886
84	0xbd698d06	-0.057019256
85	0xbc8e0c67	-0.017339898
86	0xbcc568d6	-0.024097841
87	0xbd42509d	-0.04744016
88	0xbd92b738	-0.071638525
89	0x3d15d7f0	0.036582887
90	0xbc870880	-0.016483545
91	0x3dbffb4a	0.093741015
92	0x3d83659e	0.06415866
93	0x3d3f2836	0.046669208
94	0xbc5f5688	-0.0136314705
95	0xbd0b4496	-0.034000956
96	0xbd2443ee	-0.040103845
97	0x3d0125ed	0.03153031
98	0xbc0b1faa	-0.008491436
99	0x3d53407c	0.05157517
100	0xbd6f82ee	-0.058474474
101	0xbd357b2f	-0.04430693
102	0xbb01479d	-0.0019726523
103	0x3d7029ff	0.0586338
104	0x3bdec57b	0.006798444
105	0xbd9473ab	-0.072486244
106	0xbc38641d	-0.011254338
107	0xbd0121a7	-0.031526234
108	0xbd9e32e9	-0.07724554
109	0x3c33d1fa	0.010975355
110	0x3d883c03	0.06652071
111	0x3d0e30ea	0.034714617
112	0x3c1a8a8c	0.009432446
113	0x3cf95377	0.030435307
114	0x3cc92637	0.024554355
115	0x3cb8a935	0.022541622
116	0xbc948cfe	-0.018133637
117	0x3d5551fc	0.05208014
118	0x3be60224	0.007019298
119	0xbd281a7d	-0.041040886
120	0xbca8208f	-0.020523338
121	0x3d8c5839	0.06852765
122	0x3c8f884e	0.01752105
123	0x3d511e87	0.051054504
124	0x3c50d893	0.012746948
125	0xbd5343bd	-0.051578272
126	0x3c0cb00f	0.0085868975
127	0xbda693a5	-0.0813363
128	0x3cf665d3	0.03007785
129	0x3d4ad978	0.0495238
130	0xbde1b3b5	-0.110206045
131	0xbd961150	-0.07327521
132	0x3cd478f8	0.025936589
133	0x3d72bbb3	0.059261035
134	0x3c46337d	0.012097237
135	0x3d491b0c	0.04909806
136	0x3d1d7c8f	0.038448866
137	0x3cc908bf	0.024540303
138	0x3bafc7a1	0.005364374
139	0xbc8a1b4f	-0.016858725
140	0x3d1c2fb5	0.038131434
141	0xbd3a2254	-0.045442894
142	0xbc1c1fc2	-0.009529056
143	0xbca6d67f	-0.020365952
144	0x3d621184	0.055192485
145	0xbd714e6c	-0.05891268
146	0xbd771985	-0.06032707
147	0xbd8538f3	-0.06505003
148	0xbcf0fba7	-0.029416872
149	0xbd6598ba	-0.056053855
150	0xbd13d320	-0.036090016
151	0xbd5c8911	-0.053841654
152	0xbba9ef44	-0.0051859934
153	0xbb43ef5f	-0.0029897315
154	0x3ce0fa55	0.027463118
155	0xbc582797	-0.013193033
156	0x3cc33b27	0.023831917
157	0xbcb3e3a6	-0.021959137
158	0x3a0ea39a	0.00054412486
159	0x3b5023e3	0.0031759671
160	0xbcedd789	-0.02903344
161	0xbd51fbdf	-0.051265594
162	0xbcd5a22d	-0.026078308
163	0xbd761cd9	-0.060086105
164	0x3d433e52	0.047666855
165	0x3d3b9b2a	0.045802273
166	0xbd878617	-0.066173725
167	0xbd0bb3bc	-0.034106955
168	0x3c0f431f	0.00874403
169	0x3caa5230	0.020791143
170	0x3d28ccde	0.041211
171	0xbd8e7b92	-0.06957163
172	0xbdc5dfcc	-0.096618265
173	0x3d1caf9e	0.03825342
174	0xbda07da4	-0.07836464
175	0x3d815f70	0.063170314
176	0x3dbf1379	0.09329886
177	0x3db35905	0.087572135
178	0x3c2b9276	0.010471931
179	0x3cdf35f3	0.027247405
180	0xbc5ae859	-0.01336106
181	0x3d24353c	0.04008983
182	0xbc0c7931	-0.008573816
183	0x3daa3ce6	0.08312397
184	0x3d4f1a87	0.050562408
185	0x3dafb82e	0.08580051
186	0x3c8e5279	0.01737331
187	0xbceda873	-0.029010987
188	0x3db52dc0	0.08846617
189	0x3c2e35f8	0.010632984
190	0xbcc675bf	-0.024226068
191	0x3c07c9fc	0.008287903
192	0xbb83db2a	-0.004023929
193	0x3d31d7ee	0.043418817
194	0x3d6a6218	0.057222456
195	0xbd8fb9bd	-0.07017849
196	0xbc9db813	-0.019252812
197	0x3d11fe39	0.035642836
198	0xbd255b16	-0.04037007
199	0x3d584d32	0.052807994
200	0xbc375c88	-0.011191495
201	0x3a8f46bd	0.0010931116
202	0x3c8da90a	0.017292518
203	0xbd8690dc	-0.065705985
204	0x3d0f186a	0.034935392
205	0x3c9b86a1	0.018985095
206	0x3d0a097e	0.03370046
207	0xbd7e29c6	-0.062051557
208	0x3d8c0ad0	0.06838
209	0x3ce27fe1	0.027648868
210	0xbc357d35	-0.011077215
211	0x3cda3a3a	0.026639093
212	0xbc858e66	-0.016303252
213	0x3d8941d8	0.06702012
214	0xbbc3d5c3	-0.00597641
215	0x3db4299d	0.087969996
216	0xbcdfc487	-0.027315391
217	0x3c8b753e	0.017023679
218	0xbd5ec48c	-0.05438666
219	0x3cf086ad	0.029361093
220	0x3dc14677	0.09437268
221	0x3c2ac371	0.010422573
222	0x3a6c6258	0.000901734
223	0xbd4694c0	-0.048481703
224	0xbd5a9f1d	-0.0533744
225	0xbc4ab6c7	-0.012372679
226	0xbd745497	-0.059650984
227	0xbd228101	-0.03967381
228	0xbb2ae477	-0.0026076117
229	0xbd0c0ef9	-0.034193967
230	0x3cb70363	0.022340482
231	0x3ccf4f81	0.025306465
232	0x3cf1b6db	0.029506138
233	0xbbd86209	-0.0066034836
234	0xbc29750d	-0.0103428485
235	0x3cf1a032	0.029495332
236	0x3cb87223	0.022515362
237	0x3c6b85a6	0.014375126
238	0x3ca09cc8	0.01960601
239	0x3c929fe4	0.017898507
240	0x3ceb8d47	0.02875389
241	0xbca4b6d0	-0.020106703
242	0x3d0981b7	0.03357097
243	0xbd18abc9	-0.037273202
244	0xbd2e7eae	-0.04260128
245	0x3c24074e	0.010011507
246	0xbd4aabc3	-0.04948021
247	0xbd416d1c	-0.047223195
248	0x3a7c9a92	0.000963607
249	0x3c39660f	0.011315837
250	0xbd2cd7f7	-0.042198148
251	0xbd2a0489	-0.04150823
252	0x3cd73ba9	0.026273565
253	0x3d3daea6	0.046309136
254	0x3d4795b7	0.048726764
255	0x3d043159	0.032273624

conv4.0.bias f4 [16]
0	0xbd9a09d2	-0.07521404
1	0xbbf6d8f0	-0.007533185
2	0xbcbf9bee	-0.023389783
3	0x3c4014c6	0.011723703
4	0x3ca58629	0.020205574
5	0xbd93b655	-0.072125115
6	0xbd9e8c03	-0.07741549
7	0xbd15f4ef	-0.03661054
8	0xbd681a70	-0.056665838
9	0x3cbe52c6	0.023232829
10	0x3c076868	0.0082646385
11	0xbd196e40	-0.03745866
12	0x3d62e936	0.05539819
13	0x3d9972ae	0.074925765
14	0xbca6156b	-0.020273885
15	0xbc8a3778	-0.016872153

conv4.1.weight f4 [16]
0	0x3f987b14	1.191256
1	0x3f998c9e	1.1996038
2	0x3fa39f76	1.2783039
3	0x3f9dc272	1.2324965
4	0x3fa1b668	1.2633791
5	0x3f969d03	1.1766666
6	0x3f9b3307	1.2124947
7	0x3fa273e0	1.2691612
8	0x3fa086cc	1.2541137
9	0x3f96717d	1.1753384
10	0x3f9da0d8	1.2314711
11	0x3f9bd3a5	1.2173964
12	0x3f9a2ae1	1.2044336
13	0x3f9474b3	1.1598114
14	0x3f9548c7	1.1662835
15	0x3f93abb1	1.1536771

conv4.1.bias f4 [16]
0	0x3d930bb8	0.071799695
1	0x3deee93e	0.11665581
2	0x3dad6265	0.08466033
3	0x3db4e3ea	0.08832534
4	0x3db58c18	0.088646114
5	0x3d9e5599	0.0773117
6	0x3dc32210	0.09527981
7	0x3df30912	0.118669644
8	0x3dbf1f52	0.09332146
9	0x3daf07a0	0.08546376
10	0x3db234e3	0.087014936
11	0x3d8d029f	0.068852656
12	0x3dab4a8e	0.083638296
13	0x3d865386	0.065588996
14	0x3db8a0ff	0.090150826
15	0x3d8c761f	0.06858467

conv4.1.running_mean f4 [16]
0	0xbdce6131	-0.100771315
1	0x3e441fdd	0.1915278
2	0x3d154dae	0.036451034
3	0x3cfb0fcd	0.030647183
4	0xbe2577bb	-0.16158955
5	0x3ecf5343	0.4049321
6	0xbc9543fa	-0.01822089
7	0xbed58e50	-0.41710138
8	0xbbc7dbe8	-0.006099213
9	0x3e5a59a3	0.21323256
10	0x3d8d16a4	0.06889084
11	0x3e81ca59	0.25349692
12	0xbd7095e1	-0.058736686
13	0x3ef471b0	0.47742987
14	0x3e4f9a21	0.2027364
15	0xbdd34cc5	-0.10317377

conv4.1.running_var f4 [16]
0	0x3ddc95d4	0.10770765
1	0x3dc35100	0.09536934
2	0x3dd130b0	0.102143645
3	0x3df604d7	0.12012642
4	0x3e0f687d	0.14004703
5	0x3e1ebbd9	0.15501346
6	0x3da9fa52	0.08299698
7	0x3da13ba0	0.07872701
8	0x3e37cfc2	0.17950347
9	0x3e42a1f3	0.19007091
10	0x3dc2f5b6	0.09519522
11	0x3dcc2cf3	0.09969511
12	0x3e04696d	0.12930842
13	0x3de72ae2	0.11287476
14	0x3e8aee8b	0.2713512
15	0x3daabf9e	0.08337329

fc1.0.weight f4 [120, 400]
0	0x3b587637	0.0033029446
1	0x3c5c5fe2	0.013450595
2	0x3d2e4790	0.042548716
3	0xbcc0a227	-0.02351482
4	0x3bcbd2f0	0.006220214
5	0x3c55f61c	0.013059165
6	0x3d23bf50	0.03997737
7	0x3c119f61	0.008888097
8	0x3d52f1e8	0.05150023
9	0xbcfb3438	-0.030664548
10	0x3d6bd587	0.057576682
11	0x3ca36202	0.019944195
12	0xbd0491de	-0.032365672
13	0x3d1aac04	0.037761703
14	0x3ac84b4a	0.0015281227
15	0xbd20b180	-0.039231777
16	0x3d300b70	0.042979658
17	0x3d40c7f4	0.04706569
18	0x3b9ab1fb	0.004720924
19	0x3cd4ed6a	0.025992114
20	0xbb9e96d9	-0.00483976
21	0x3c73df20	0.01488474
22	0xbcdde31d	-0.027085835
23	0x3d2bc2e8	0.041933924
24	0x3ccc224f	0.024918703
25	0xbce67640	-0.028132558
26	0xbd61719f	-0.05504
27	0x3ba9ed1c	0.0051857363
28	0xbd085d55	-0.033292133
29	0xbc5d7e8e	-0.0135189425
30	0x3d1ea1b6	0.03872844
31	0xbcd01ae1	-0.025403442
32	0xbca483f4	-0.020082451
33	0xbb735066	-0.0037126779
34	0x3b65ea8e	0.0035082432
35	0x3d432a9a	0.04764805
36	0x3b93f03e	0.004514723
37	0x3c99bd51	0.01876703
38	0x3d18489e	0.03717863
39	0xbcd91785	-0.026500473
40	0xbc9f1c06	-0.019422542
41	0xbb675c21	-0.0035302716
42	0x3c740861	0.014894576
43	0x3d0b87d5	0.034065086
44	0xbd3d4fd2	-0.0462187
45	0xbd1c2629	-0.03812233
46	0x38d69176	0.000102314094
47	0xbcb7302e	-0.022361841
48	0xbce50fcd	-0.027961636
49	0xbc719a3e	-0.014746247
50	0xbcf72b56	-0.030172031
51	0x3d18bd4e	0.03728991
52	0xbd3339ca	-0.043756284
53	0x3c287b62	0.010283323
54	0xbc9d660a	-0.019213695
55	0x3d066251	0.032808606
56	0xbd5bc150	-0.053651154
57	0xbb36b005	-0.0027875912
58	0xbd52f26b	-0.05150072
59	0xbd59843d	-0.053104628
60	0xbcbd8ced	-0.023138488
61	0xbd2e9289	-0.042620216
62	0x3d18a367	0.037265208
63	0xbd44a25c	-0.0480064
64	0x3cc9c195	0.02462844
65	0x3bee1063	0.007265137
66	0xbbeb75eb	-0.007185688
67	0x3c9cbd50	0.01913324
68	0x3abcbba4	0.0014399183
69	0x3d3b63af	0.045749363
70	0xbc8a049a	-0.016847897
71	0x3cf47536	0.029841047
72	0x3d6c48eb	0.057686727
73	0x3bf4536a	0.007456233
74	0x3c842235	0.016129592
75	0xbd0d0282	-0.03442622
76	0x3c9c7e25	0.01910312
77	0x3a0393ad	0.0005019259
78	0xbd062592	-0.032750674
79	0xbcc5ae86	-0.02413107
80	0xbd2b5768	-0.041831404
81	0xbd630798	-0.055427164
82	0xbc9e20a8	-0.019302681
83	0x3cc41930	0.023937792
84	0x3d0ce124	0.0343944
85	0x3d22a8a6	0.039711617
86	0x3d31c3b4	0.043399528
87	0x3d0e67fb	0.034767132
88	0x3ce3ac3c	0.027792089
89	0xbd3eb480	-0.046558857
90	0x3c9872c1	0.018609406
91	0x3cec3034	0.028831579
92	0xbd1b630e	-0.037936263
93	0xbceaf939	-0.028683292
94	0xbc008ed4	-0.007846553
95	0xbc397f8f	-0.011321916
96	0xbc60b3c6	-0.013714736
97	0x3d0b22bc	0.033968672
98	0x3c5341bd	0.012894091
99	0xbd2b3078	-0.04179427
100	0xbc28e904	-0.0103094615
101	0x3d73f949	0.05956391
102	0xbc4d3f03	-0.01252723
103	0x3c77c5f7	0.015122882
104	0xbc864bd3	-0.016393578
105	0x3cf6e3f3	0.030137992
106	0xbd35f76d	-0.044425417
107	0xbc4097b8	-0.011754923
108	0x3c4c3799	0.012464427
109	0x3b7a47f3	0.0038189858
110	0xbc7dce8c	-0.015491139
111	0x3cd2ed0a	0.025747795
112	0x3d5c6cac	0.053814575
113	0x3d09bd54	0.033627823
114	0xbc0ae208	-0.008476742
115	0xbc6f84fa	-0.014619106
116	0x3d1d5f3d	0.038420904
117	0x3d3e2cf9	0.046429608
118	0xbcae632f	-0.021287529
119	0x3be132d2	0.0068725133
120	0x3cb7aa8c	0.02242019
121	0x3d137c99	0.036007497
122	0x3ba2106b	0.004945805
123	0x3cc05606	0.02347852
124	0xbcc46f6b	-0.02397891
125	0x3cb9c171	0.022675248
126	0xbbac3298	-0.0052550547
127	0x3cbfc24e	0.023408081
128	0xbcbf0588	-0.023318067
129	0xbd4549d2	-0.048166104
130	0x3b77429c	0.0037728911
131	0x3d084f88	0.033278972
132	0x3d3ef030	0.04661578
133	0x3d1a7155	0.037705738
134	0x3bed7e2c	0.007247707
135	0xbc7822c2	-0.015145006
136	0x3b95c9ca	0.0045711743
137	0xbd0c307d	-0.03422593
138	0x3c4f7be5	0.012663816
139	0xbd5587c9	-0.052131448
140	0x3d507afd	0.05089854
141	0xbcfc2d44	-0.030783303
142	0x3c2bffc8	0.010497995
143	0x3ceb55e2	0.028727476
144	0x3cce9017	0.025215192
145	0xb9e0c8bb	-0.00042874165
146	0x3cbb7266	0.022881698
147	0x3d4f5d5e	0.05062615
148	0x3bfc2608	0.0076949634
149	0x3d56b68f	0.052420195
150	0x3c6147eb	0.013750057
151	0xbbcce852	-0.0062532807
152	0x3d14bcc9	0.036312852
153	0x3a8cb322	0.0010734538
154	0x3d070289	0.032961402
155	0xbcdf22f9	-0.027238356
156	0x3d3bbc93	0.045834135
157	0xbd1a3d23	-0.03765596
158	0xbb5239b3	-0.0032077848
159	0xbd083397	-0.033252325
160	0x3be78465	0.007065343
161	0x3c0bf594	0.008542437
162	0x3d4018bd	0.046898592
163	0x3c190b8c	0.009341132
164	0xbd0d5b0e	-0.034510665
165	0xbd10111e	-0.035172574
166	0xbc5e1c93	-0.013556617
167	0x3d23da70	0.04000324
168	0x3d163338	0.03666994
169	0xbd0604ac	-0.0327193
170	0xbd147f89	-0.03625444
171	0x3d3d7c00	0.046260834
172	0x3c85c89e	0.016331013
173	0x3d047ab5	0.032343585
174	0xbcc3e41a	-0.023912478
175	0xbc3f17ef	-0.011663421
176	0xbcb0206a	-0.021499831
177	0xbbbf7356	-0.0058426065
178	0xbcdcf661	-0.026972951
179	0x3d061679	0.032736275
180	0xbb7741a0	-0.0037728325
181	0x3cc04a0a	0.023472805
182	0xbc93449e	-0.017977055
183	0xbd109d39	-0.03530619
184	0xbc249fb1	-0.010047839
185	0x3bad2fb2	0.0052852267
186	0xbcdbe2e4	-0.026841588
187	0x3c77fb73	0.015135634
188	0x3cbcb80d	0.023036981
189	0x3d64849f	0.05579054
190	0xbba07487	-0.0048967036
191	0x3c9deaea	0.019277055
192	0x3d0578cb	0.0325859
193	0xbc83d449	-0.016092436
194	0xbd17f3d9	-0.037097786
195	0x3c858a2d	0.016301239
196	0xbcbefa8d	-0.023312831
197	0xbd97cef8	-0.07412523
198	0xbcfefaa4	-0.031125374
199	0xbc9f3109	-0.019432561
200	0x3c821d18	0.015883014
201	0x3d5c6904	0.05381109
202	0xbcbe80ae	-0.023254719
203	0xbc029170	-0.007969245
204	0xbd1df344	-0.038562074
205	0xbb2593c9	-0.0025265089
206	0x3d3c33ce	0.045947842
207	0xbce06cb8	-0.027395591
208	0xbcd78c65	-0.026312063
209	0xbb4fe9c5	-0.003172503
210	0x3d23d2f7	0.039996114
211	0xbc9dce29	-0.019263344
212	0xbcd5a1cb	-0.026078125
213	0xbcb589d0	-0.02216044
214	0x3c5f6e9b	0.01363721
215	0xbcc687aa	-0.024234612
216	0x3c60c83b	0.013719614
217	0xbc903f5d	-0.017608339
218	0x3d3a9b84	0.045558468
219	0x3d2ae88a	0.041725673
220	0xbcd92aaa	-0.026509602
221	0x3ce1b15d	0.027550394
222	0x3d449bc4	0.048000112
223	0x3b1cb03d	0.0023908757
224	0xbcc41a1c	-0.023938231
225	0x3b9b3dfe	0.0047376147
226	0x3bbe38ec	0.0058051255
227	0xbc096312	-0.008385437
228	0xbcc692e9	-0.024239974
229	0x3d32e6f8	0.0436773
230	0x3c1f057a	0.009705896
231	0xbd092180	-0.033479214
232	0xbb6d4f37	-0.0036210546
233	0x3c94dc54	0.018171467
234	0x3c5191f8	0.012791149
235	0xbd16e5b6	-0.036840163
236	0xbb1c9d73	-0.0023897558
237	0xbcc56a83	-0.02409864
238	0xbc2692f0	-0.010166869
239	0x3ce461b4	0.02787862
240	0x3b1e3c19	0.0024144708
241	0x3d71c0c2	0.05902172
242	0x3d357dfb	0.044309597
243	0x3ba0ab07	0.0049032005
244	0xbce661c8	-0.028122798
245	0x3d615896	0.055016123
246	0x3d568581	0.052373413
247	0x3d982b6c	0.07430157
248	0x3d88ebe0	0.066856146
249	0xbc969dc9	-0.018385785
250	0x3cfcadc8	0.030844584
251	0x3d001eb6	0.03127929
252	0x3b7db034	0.0038709762
253	0xbcc4de3c	-0.02403175
254	0x3d2f7fc5	0.04284646
255	0x3c81e935	0.015858272

fc1.0.bias f4 [120]
0	0x3b7ac8e4	0.0038266713
1	0x3d181c05	0.037136097
2	0xbd166cb9	-0.03672478
3	0x3ba1fa91	0.0049432
4	0x3d2d149b	0.04225598
5	0xbac1ac07	-0.0014776
6	0xbcdfcdac	-0.027319752
7	0x3c2dc332	0.01060562
8	0xbd320b0b	-0.043467563
9	0x3ac8c7d5	0.0015318344
10	0x3c8997dc	0.016796045
11	0x3d0ca241	0.034334425
12	0x3bdd37a0	0.006751016
13	0x3d014f9e	0.03157007
14	0xbc759721	-0.014989645
15	0x3b0ada5e	0.0021187286
16	0x3c53e2ee	0.012932522
17	0x3d66ff15	0.05639561
18	0x3d238005	0.03991701
19	0xbd49104c	-0.049087808
20	0x3d32b0f0	0.043625772
21	0xba822e73	-0.0009932056
22	0xbc6209e0	-0.0137963
23	0xbc85ef35	-0.016349414
24	0x3ca779c6	0.020443808
25	0xbc85d739	-0.016337978
26	0xbd2612d0	-0.040545285
27	0xbb6869df	-0.0035463495
28	0x3d1026bb	0.035193186
29	0x3c150402	0.009095194
30	0x3cb82f77	0.02248357
31	0xbcec9eff	-0.028884409
32	0x3c2d0cba	0.010562116
33	0xbd16a982	-0.03678275
34	0x3d3f78f5	0.046746213
35	0xbd14050e	-0.036137633
36	0x3c1fb3b6	0.009747436
37	0xbbfa5eb5	-0.0076406845
38	0xbc9d9c96	-0.019239705
39	0xbcd828da	-0.026386667
40	0x3c451f83	0.012031439
41	0x3c230057	0.0099488115
42	0x3c99581c	0.018718772
43	0xbd2aad2a	-0.04166905
44	0x3d248ce1	0.040173415
45	0xbc3af949	-0.011411973
46	0xbbcd93e0	-0.0062737316
47	0x3d32234f	0.043490704
48	0xbc9294fb	-0.017893305
49	0xbc72a9f4	-0.014811028
50	0xbcee5d0c	-0.029097103
51	0x3cc76970	0.024342269
52	0x3d2e72f9	0.042590115
53	0x3d0899aa	0.03334967
54	0xbd35b70a	-0.044364013
55	0x3cba37f9	0.022731768
56	0xbd07e646	-0.03317859
57	0xbca970d8	-0.02068369
58	0x3ca39614	0.019969024
59	0xbcbd3a55	-0.023099104
60	0xbc862061	-0.016372861
61	0x3ca6ec2c	0.020376287
62	0x3d0f4efc	0.034987435
63	0xbb7d1708	-0.0038618464
64	0x3d080a6e	0.03321307
65	0x3c722f7b	0.014781828
66	0x3b5bf8d6	0.0033565066
67	0xbc390d7c	-0.011294719
68	0x3d0415db	0.032247405
69	0xbd13229b	-0.035921674
70	0xbd2894bc	-0.04115747
71	0xbc9cb23d	-0.01912796
72	0x3d11ba1e	0.035577886
73	0xbd09c8f6	-0.033638917
74	0xbc0d247c	-0.008614656
75	0x3d48b094	0.048996523
76	0x3d36562f	0.044515785
77	0xbd1af825	-0.037834305
78	0xbd4b804e	-0.049682908
79	0x3a2d096f	0.0006600832
80	0xbd0908cd	-0.03345566
81	0xbbdc658a	-0.0067259716
82	0x3d1e36aa	0.03862635
83	0x3d24775b	0.04015289
84	0xbca47769	-0.02007647
85	0x3d34d19c	0.04414521
86	0x3d51d35f	0.05122697
87	0x3cbb006c	0.02282735
88	0x3d4d8064	0.05017127
89	0xbb2abe65	-0.0026053425
90	0x3c3b890d	0.01144625
91	0x3c53e19b	0.0129322065
92	0xbca8646c	-0.020555697
93	0xbd1f5e8c	-0.038908526
94	0xbd2ba7fc	-0.04190825
95	0x3ce28baf	0.027654497
96	0x3d06c2e9	0.032900725
97	0xbd27c501	-0.040959362
98	0x3c9b2ac4	0.01894129
99	0xbcb3ef7a	-0.021964777
100	0x3d0e4e9c	0.034742936
101	0x3b45b4ac	0.0030167503
102	0x3a166995	0.0005737779
103	0x3c8b001e	0.01696783
104	0x3c74ffa7	0.01495353
105	0xbb18a0f5	-0.0023289297
106	0xbd3a40c9	-0.04547194
107	0x3cdeff62	0.027221385
108	0xbc94ad82	-0.018149141
109	0x3d5dfd47	0.054196622
110	0xbb1e3888	-0.0024142582
111	0x3c5f3ddb	0.013625587
112	0x3bf5c40b	0.007500177
113	0xbc32e1d4	-0.010918099
114	0xbd01ee21	-0.031721238
115	0x3cd828ef	0.026386706
116	0xbb572162	-0.0032826294
117	0x3cdfda25	0.0273257
118	0x3d0a4540	0.03375745
119	0x3d35f7c6	0.04442575

fc2.0.weight f4 [84, 120]
0	0xbd88ec23	-0.066856645
1	0xbd106802	-0.03525544
2	0xbc09c503	-0.008408788
3	0x3da5e3b5	0.08100072
4	0xbbb13ebd	-0.0054090903
5	0x3da198ce	0.07890473
6	0xbd1dcce4	-0.038525477
7	0x3d36e481	0.044651512
8	0x3d85ea34	0.06538811
9	0x3d0e544d	0.034748364
10	0x3ce2e139	0.027695285
11	0x3d487d59	0.048947666
12	0x3dcaff22	0.09911944
13	0x3d19dc6d	0.03756373
14	0x3d49253c	0.049107775
15	0xbd632967	-0.055459406
16	0xbbf7a3b1	-0.0075573553
17	0x3c89ecdf	0.016836582
18	0xbd1f43ff	-0.038883206
19	0x3c6c3c45	0.014418666
20	0x3d1fe57e	0.03903722
21	0xbd10ff04	-0.03539945
22	0xbd2038f6	-0.039116822
23	0x3d81efb6	0.06344549
24	0xbd425f7f	-0.047454353
25	0xbd90f47d	-0.070778824
26	0x3d48d9bd	0.049035776
27	0xbd6472d0	-0.055773556
28	0xbd1c1e35	-0.038114745
29	0xbd9c4666	-0.07630615
30	0x3c753862	0.014967056
31	0x3d924859	0.071427055
32	0x3d8675ab	0.06565412
33	0xbd3cd1d9	-0.046098564
34	0x3d8609bc	0.065448254
35	0xbce57697	-0.02801065
36	0xbd8e90e1	-0.06961227
37	0x3dd78658	0.10523671
38	0x3c952d3c	0.018210046
39	0xbd3edd1e	-0.046597593
40	0xbc712df4	-0.014720429
41	0xbd97faf8	-0.07420915
42	0xbd142aa5	-0.03617348
43	0xbdac1f4a	-0.084044054
44	0xbd8af14e	-0.067843065
45	0xbc827724	-0.015925951
46	0x3d148671	0.036261026
47	0x3d0e4875	0.03473707
48	0xbd860fa0	-0.06545949
49	0xbd06c6df	-0.032904502
50	0x3da88a6f	0.08229529
51	0xbd3bda7e	-0.045862667
52	0xbd9133d7	-0.07089966
53	0x3c9b9d37	0.018995864
54	0xbd20c5a0	-0.03925097
55	0x3db9100a	0.09036262
56	0xbdc01f90	-0.0938102
57	0x3db1371f	0.08653092
58	0x3d01b1db	0.031663757
59	0x3da0d0db	0.07852336
60	0x3cb4dac2	0.022076968
61	0xbcd2e397	-0.025743289
62	0x3d42f3a1	0.047595624
63	0xbd4f2800	-0.050575256
64	0x3d8a71c0	0.06759977
65	0xbd8ac1a9	-0.06775219
66	0x3d119ef7	0.03555199
67	0x3d15dc53	0.03658707
68	0xbd9e6424	-0.07733944
69	0x3c609a97	0.013708732
70	0x3d8f4875	0.06996242
71	0x3d878c7b	0.066185914
72	0x3d65ace2	0.056073077
73	0x3d17a46c	0.03702204
74	0xbc5ad304	-0.013355974
75	0x3d1031ae	0.03520363
76	0xba551c46	-0.0008129518
77	0xbd604d59	-0.054761264
78	0x3d32080f	0.043464717
79	0xbdafcf71	-0.08584488
80	0xbd0b3ec6	-0.033995412
81	0xbd65799f	-0.05602419
82	0x3d9f5bc3	0.07781174
83	0xbd32fd54	-0.043698624
84	0xbc92ae17	-0.017905278
85	0x3d7b986b	0.061424654
86	0xbd0b443d	-0.034000624
87	0xbd9add66	-0.0756176
88	0x3d297856	0.041374527
89	0x3d32b656	0.04363092
90	0xbd30690f	-0.04306894
91	0x3bd2ff1c	0.006439103
92	0x3d11cb83	0.035594475
93	0xbdaa0d76	-0.08303349
94	0xbd7e7dce	-0.062131695
95	0x3d05f38b	0.032702964
96	0x3dd19e2e	0.102352485
97	0xbd199d03	-0.037503254
98	0xbd5025a3	-0.050817143
99	0xbd7f9474	-0.062397435
100	0xbcad46b9	-0.021151887
101	0x3ce6e16f	0.028183667
102	0xbd9803e8	-0.0742262
103	0x3d95e656	0.07319324
104	0x3da50378	0.08057302
105	0xbd2ea47f	-0.042637344
106	0xbd69f879	-0.057121728
107	0x3d71ef80	0.059066296
108	0x3cb4c6f8	0.022067532
109	0x3ca16825	0.01970298
110	0xbcea0114	-0.028564967
111	0xbd6a1f15	-0.05715855
112	0xbd98cbd0	-0.07460749
113	0xbd188a32	-0.03724117
114	0x3d39ad1d	0.04533111
115	0x3bd10ed9	0.006379944
116	0x3d63eab4	0.055643752
117	0x3cf83f1f	0.030303536
118	0x3d01ae2f	0.031660255
119	0xbcd98099	-0.026550578
120	0xbd288f3b	-0.04115222
121	0xbdc825a2	-0.09772803
122	0xbcbe6459	-0.023241209
123	0x3c05eaa7	0.008173621
124	0xbdad7814	-0.08470169
125	0x3d6e91e1	0.05824459
126	0x3d12c0fe	0.035828583
127	0x3d4856d9	0.04891095
128	0xbd4e774b	-0.050406735
129	0xbce39c04	-0.027784355
130	0x3ca401c9	0.020020382
131	0x3d4208a8	0.047371536
132	0x3db20a40	0.08693361
133	0xbd8ec5e6	-0.0697134
134	0x3d7b0248	0.061281472
135	0x3da7763b	0.081768475
136	0x3d01e0b6	0.03170844
137	0xbd967585	-0.07346634
138	0xbd49bd59	-0.04925284
139	0x3d58c9b5	0.052926738
140	0x3cd73483	0.026270157
141	0x3d1730dc	0.03691183
142	0xbd5a33e6	-0.05327215
143	0x3ceba47e	0.02876496
144	0xbcb2bc6a	-0.021818358
145	0xbc73d519	-0.014882349
146	0x3d6a0d1e	0.057141416
147	0xbda0dc5e	-0.07854532
148	0xbda65f71	-0.08123673
149	0x3e08466d	0.13308115
150	0x3b26745e	0.002539895
151	0xbda1760b	-0.07883843
152	0x3db5d6eb	0.08878883
153	0x3d7181e4	0.058961764
154	0x3bef0955	0.0072948136
155	0x3d5383aa	0.051639237
156	0xbcb15d44	-0.021650918
157	0xbd90b8bf	-0.070664875
158	0x3d358e23	0.044325005
159	0x3de37556	0.111063644
160	0x3d621270	0.055193365
161	0x3d769775	0.060203034
162	0x3d8c29c4	0.06843904
163	0xbd99c888	-0.075089514
164	0xbd863e0f	-0.065548055
165	0x3d7900ca	0.060791768
166	0x3d7a9697	0.06117877
167	0xbc70c741	-0.014695943
168	0xb94e01c0	-0.00019646343
169	0xbdb5fa2f	-0.08885609
170	0xbd8cc1db	-0.068729125
171	0xbd0bacec	-0.034100458
172	0xbcc1f1b4	-0.023674823
173	0xbe08ee1d	-0.13372083
174	0xbb92b4b2	-0.004477107
175	0x3d1b3d67	0.037900355
176	0x3dc2a451	0.09503997
177	0x3dd3f46f	0.103493564
178	0xbc045355	-0.0080765085
179	0x3df6d2aa	0.120519
180	0xbda546ef	-0.0807017
181	0xba94f2e7	-0.0011363894
182	0xbca004e9	-0.019533591
183	0xbd9d5043	-0.07681324
184	0xbd98414f	-0.074343316
185	0x3d16522a	0.03669945
186	0xbd6ece0b	-0.058301967
187	0xbd4c8422	-0.0499307
188	0xbd5dc57b	-0.05414341
189	0x3d8a72cd	0.06760178
190	0x3cc70bf6	0.024297696
191	0xbd8cdb18	-0.06877726
192	0x3d040ca3	0.032238614
193	0x3d47e276	0.048799954
194	0x3d754d05	0.059887905
195	0xbd099b1d	-0.033595193
196	0x3d2cb857	0.042167988
197	0x3cdc5e86	0.026900541
198	0x3d88b47d	0.066750504
199	0xbc9d5026	-0.019203257
200	0x3dbdf19a	0.092745975
201	0xbb902908	-0.0043994226
202	0x3cd2ca47	0.025731219
203	0xbc6bc215	-0.0143895345
204	0xbdc81d63	-0.0977123
205	0x3d2f4f2c	0.042800114
206	0x3e27f983	0.16403775
207	0x3d023386	0.031787418
208	0xbd57f268	-0.05272141
209	0x3d593930	0.053033054
210	0xbda6d1e7	-0.081455044
211	0xbc4a0eb9	-0.012332612
212	0xbbc44867	-0.0059900763
213	0xbda50b79	-0.08058829
214	0xbda70e2a	-0.081569985
215	0x3d92245d	0.07135842
216	0xbd7e7911	-0.062127177
217	0x3cb8d6f3	0.022563433
218	0x3d0b0788	0.03394273
219	0xbc9ef2ba	-0.01940285
220	0xbb8ea23a	-0.004352835
221	0xbd14e06f	-0.03634685
222	0xbb718dba	-0.0036858157
223	0xbd269ea0	-0.04067862
224	0x3d9e764d	0.07737408
225	0x3bae1f52	0.0053137923
226	0xbd8f4f57	-0.06997555
227	0x3d5b4736	0.05353471
228	0x3d84efb8	0.06491035
229	0xbd2a3b6c	-0.041560575
230	0xbd44208b	-0.047882598
231	0x3d073c7c	0.033016667
232	0xbd4e9d06	-0.050442718
233	0xbdbf4bbe	-0.093406186
234	0x3dca6cff	0.098840706
235	0x3d1d5629	0.038412247
236	0xbd4a97ac	-0.04946105
237	0x3d930ba2	0.07179953
238	0xbdaa3fc0	-0.083129406
239	0xbcfaff30	-0.030639261
240	0x3c53e9d5	0.012934168
241	0xbd2274b8	-0.039662093
242	0x3dad58f4	0.08464232
243	0x3c762cd9	0.015025341
244	0x3c83b366	0.016076755
245	0xbd42d756	-0.04756864
246	0xbca5f875	-0.020260075
247	0xbd4bdc6e	-0.049770765
248	0x3d8fb2b5	0.070165075
249	0xbd9a7996	-0.07542722
250	0xbd50effc	-0.051010117
251	0xbc15f882	-0.009153487
252	0x3ca78182	0.020447496
253	0x3bd6ec4e	0.0065589314
254	0x3cf4173c	0.029796235
255	0x3e0b385e	0.13595721

fc2.0.bias f4 [84]
0	0xbd120b0a	-0.03565506
1	0x3d51e194	0.05124052
2	0x3cfc262d	0.030779922
3	0x3daddeae	0.084897384
4	0x3c7f0fd5	0.0155677395
5	0x3d853ac8	0.06505352
6	0xbd860fb5	-0.06545965
7	0xbcb2728d	-0.021783138
8	0x3c17bd7b	0.009261484
9	0x3bc9bf47	0.0061568352
10	0xbda9d4fc	-0.08292577
11	0x3d006d36	0.03135415
12	0xbd860b3c	-0.065451115
13	0x3d9baf21	0.076017626
14	0x3cd8647c	0.026415102
15	0xbd2be249	-0.04196385
16	0xbd98cbc3	-0.074607395
17	0xbd8c6a94	-0.06856266
18	0xbd10ac8a	-0.035320796
19	0x3ce7376a	0.028224666
20	0x3d381534	0.044942096
21	0xbd04de65	-0.032438654
22	0x3de55981	0.11198712
23	0xbcdb8f29	-0.026801663
24	0x3b43198b	0.0029769863
25	0x3d82fe42	0.06396152
26	0x3c47532a	0.012165824
27	0xbcf0a03d	-0.029373283
28	0x3d14e4e0	0.036351085
29	0x3d6d1955	0.057885487
30	0x3d73e062	0.05954016
31	0xbccd3b9e	-0.025052842
32	0x3cc12e92	0.023581777
33	0xbc63cea3	-0.0139042465
34	0xbbf10141	-0.007354886
35	0xbca20418	-0.019777343
36	0x3ca22d88	0.019797102
37	0xbc1468fd	-0.009058234
38	0xbd3dac8b	-0.046307128
39	0x3d4500f0	0.048096597
40	0x3d83c251	0.06433547
41	0xbc708f6e	-0.014682634
42	0x3daefe88	0.08544642
43	0x3d396afa	0.045268036
44	0x3d90817b	0.070559464
45	0xbc76b29f	-0.015057235
46	0x3c91f90c	0.01781895
47	0xbc3dde9f	-0.011588722
48	0x3d3c93cf	0.0460394
49	0x3cad36c9	0.021144288
50	0xbc6231d9	-0.01380583
51	0x3d8d2563	0.068918966
52	0x3d1f0b57	0.038829174
53	0x3cd2e189	0.02574231
54	0x3c10dd61	0.008841843
55	0x3da26dcf	0.079311006
56	0x3d848bef	0.06472003
57	0x3c9276f5	0.017878989
58	0xbd1f59d3	-0.038904022
59	0xbd268759	-0.04065642
60	0x3ced4e17	0.0289679
61	0xbd769721	-0.06020272
62	0x3b89b5fc	0.0042026024
63	0x3dd874f7	0.10569184
64	0xbcb39521	-0.021921696
65	0x3d443d63	0.047910105
66	0xbcb95281	-0.022622349
67	0x3d0bfdf4	0.034177735
68	0x3da75821	0.08171106
69	0xbd3321da	-0.043733455
70	0xbd94c0a3	-0.07263305
71	0xbcdd9d31	-0.027052494
72	0xbc14747e	-0.009060977
73	0x3b84af1b	0.0040491945
74	0xbd23d608	-0.039999038
75	0xbd90c768	-0.07069284
76	0x3cea8552	0.028628025
77	0x3dc9eddd	0.09859822
78	0xbd61b48b	-0.05510382
79	0xbcdcdc6b	-0.026960572
80	0xbd809d14	-0.0627996
81	0x3d4fa651	0.05069572
82	0x3bf1bd3e	0.0073772958
83	0xbd3f0075	-0.046631295
